checkpoint/DA/s_0_1_t3/cnn_features_1d_0925-223018/1-0.8026-best_model.pth (torch, 944127 bytes, 30 tensors)

0.model_cnn.layer1.0.weight f4 [16, 1, 15]
0.052796908 0.20723107 0.08928889 -0.11621134 0.08932774 0.03923191 -0.2501189 -0.044838324
0.040945895 0.0007447512 0.23315522 -0.24322298 -0.088794164 -0.05100339 0.024269443 -0.20519772
-0.027730295 -0.18789601 0.24609026 -0.07108978 0.09867798 0.06735407 0.08776093 -0.18849795
0.22087663 -0.07578976 0.13945758 -0.23481144 -0.19068164 -0.17425223 -0.27227667 0.09215501
-0.106402814 -0.0518687 -0.11933951 0.22426529 -0.054279618 -0.05628715 -0.21503113 -0.16678847
0.07970139 -0.10311884 0.210393 -0.02547356 -0.14097156 0.22137105 0.13329151 0.07851068
-0.19300245 -0.14095299 -0.0147000505 -0.08462493 0.06441167 0.17523088 0.22335164 -0.08998757
0.13370296 -0.23875728 -0.099793926 -0.04437568 -0.043255888 0.11095698 0.20623901 -0.23841281
0.021570375 0.040686112 0.02235863 0.09763369 0.11920038 -0.1386542 0.14663032 0.012650824
-0.2297896 -0.117288485 -0.14108735 -0.07609494 0.21813583 0.093252845 0.20044772 0.059961107
-0.13892467 -0.06554189 -0.098631226 0.23461245 -0.13270086 -0.056665 -0.0028887687 0.2275313
-0.1818547 -0.20768492 0.14898175 -0.116097614 0.1002392 -0.19280659 -0.21160553 0.15311879
0.19374947 -0.036881477 0.24270922 -0.03746579 -0.0064462693 0.13029325 -0.036665946 -0.1873193
-0.21019593 -0.2111658 -0.2578499 -0.089169376 0.17629506 -0.17593925 -0.0716481 0.11556387
-0.18366984 0.14728071 0.16644794 -0.10674731 0.17735167 0.029984051 0.040867947 0.22818458
0.08834668 -0.0013196005 0.082705386 -0.23273355 -0.028935384 -0.2360933 0.09591074 -0.011479714
-0.17474541 0.16896048 0.08746446 -0.0745784 -0.0040848292 -0.2085293 0.034122102 -0.223584
0.2267254 0.2553039 0.12126921 0.09424962 0.022377694 0.22980686 0.19238643 -0.118996225
0.21845523 -0.096109875 0.17842229 -0.16394262 -0.014130267 0.05578815 0.043933794 -0.1092977
0.20692228 0.024529114 0.19050671 -0.18899092 0.010915691 0.22367486 -0.046835568 0.09063304
-0.1678705 0.22231846 0.1303868 -0.16285405 -0.13908122 -0.10003289 0.21411778 -0.12703826
-0.12241617 -0.09021172 0.01214489 -0.13162054 0.07702059 0.2058589 0.14987002 0.03828626
0.21472858 -0.11598841 -0.03748361 0.18767811 0.083208434 0.14163974 0.14905019 0.05682506
0.083685234 0.22073446 0.16552871 -0.22839719 0.22717394 0.23734474 -0.07347197 0.03164806
-0.15939495 -0.1733053 -0.18733001 0.19136332 0.22853948 -0.19264509 0.21482456 -0.079303876
-0.05366112 -0.16500123 0.0796944 -0.20685102 -0.14377378 0.18279006 -0.2222482 0.22377713
0.042949446 0.20746982 -0.062169053 -0.08419724 0.053839248 -0.15488313 -0.20092803 0.02524436
0.0432831 0.077514626 0.24334592 0.080171905 -0.06726704 0.027493026 0.14403862 -0.17411777
0.08696341 0.16290806 0.07582948 0.2385266 -0.16990142 0.20642939 -0.15701193 -0.017900614
0.22780268 0.102219634 0.13002452 0.068613976 -0.13979402 0.1997602 -0.056969114 -0.19097519
00000000: 9241 583d 6234 543e 18dd b63d 3600 eebd
00000010: 76f1 b63d a4b1 203d 960f 80be 64a8 37bd
00000020: e2b6 273d 683b 433a 3ec0 6e3e 720f 79be
00000030: b7d9 b5bd eee8 50bd b6d0 c63c 5a1f 52be
00000040: a52a e3bc d067 40be 16ff 7b3e 8597 91bd
00000050: ae17 ca3d eef0 893d 01bc b33d 9b05 41be
00000060: 7c2d 623e a937 9bbd f8cd 0e3e 6972 70be
00000070: 0c42 43be 2d6f 32be d967 8bbe c4bb bc3d
00000080: b8e9 d9bd 4674 54bd 4668 f4bd cda5 653e
00000090: 4e54 5ebd 5b8d 66bd 1f31 5cbe 99ca 2abe
000000a0: 7b3a a33d f82f d3bd 4371 573e edad d0bc
000000b0: d95a 10be 18af 623e 927d 083e 35ca a03d
000000c0: 6fa2 45be fb55 10be 7bd8 70bc d64f adbd
000000d0: 44ea 833d b96f 333e 4bb6 643e 674b b8bd
000000e0: 6ee9 083e ca7c 74be c260 ccbd 46c3 35bd
000000f0: 162d 31bd 6a3d e33d 5230 533e 7d22 74be
00000100: 5bb4 b03c 7ba6 263d 7229 b73c 2cf4 c73d
00000110: 541f f43d 5efb 0dbe 4226 163e 6745 4f3c
00000120: f74d 6bbe f234 f0bd 3479 10be aad7 9bbd
00000130: 005f 5f3e 59fb be3d 2b42 4d3e c799 753d
00000140: 4542 0ebe d43a 86bd 2bff c9bd 3f3e 703e
00000150: bce2 07be 8f19 68bd 7f51 3dbb f7fd 683e
00000160: 1e38 3abe 5bab 54be ac8e 183e 96c4 edbd
00000170: 364a cd3d 176f 45be 1faf 58be 2ccb 1c3e
00000180: 4366 463e 0811 17bd c488 783e ba75 19bd
00000190: 3a3b d3bb 986b 053e 082f 16bd a1d0 3fbe
000001a0: 9a3d 57be d93b 58be e704 84be 6f9e b6bd
000001b0: b186 343e 6b29 34be 3dbc 92bd c0ac ec3d
000001c0: f213 3cbe c1d0 163e 5471 2a3e 559e dabd
000001d0: ad9b 353e 1da1 f53c 2665 273d 38a9 693e
000001e0: 1bef b43d 72f6 acba 7161 a93d b451 6ebe
000001f0: e609 edbc 71c2 71be da6c c43d 6915 3cbc
00000200: 76f0 32be fa03 2d3e 9120 b33d 8fbc 98bd
00000210: 08da 85bb b488 55be 9ec3 0b3d 34f3 64be
00000220: b42a 683e 31b7 823e fe5b f83d f205 c13d
00000230: 6d51 b73c 7d52 6b3e f300 453e 4bb4 f3bd
00000240: bab2 5f3e 41d5 c4bd 55b4 363e 93e0 27be
00000250: a382 67bc 1d82 643d ecf3 333d 79d7 dfbd
00000260: 6fe3 533e 48f1 c83c 3114 433e d686 41be
00000270: bad7 323c 060b 653e a7d6 3fbd d19d b93d
00000280: 3fe6 2bbe 73a7 633e 1e84 053e 36c3 26be
00000290: 4f6b 0ebe 0bde ccbd b141 5b3e 5116 02be
000002a0: 54b5 fabd ecc0 b8bd 5cfb 463c 89c7 06be
000002b0: f9bc 9d3d adcc 523e 8777 193e 0ed2 1c3d
000002c0: cfe1 5b3e 558b edbd 6a88 19bd b12e 403e
000002d0: 2f69 aa3d 020a 113e 9da0 183e 65c1 683d
000002e0: 2a63 ab3d 3708 623e 5c80 293e f4e0 69be
000002f0: 49a0 683e 800a 733e 7978 96bd 65a1 013d
00000300: 6e38 23be f276 31be 70d3 3fbe bff4 433e
00000310: 4106 6a3e c144 45be f8fa 5b3e 126a a2bd
00000320: c3cb 5bbd 15f6 28be d136 a33d c1d0 53be
00000330: 6f39 13be 512d 3b3e 0895 63be d525 653e
00000340: c2eb 2f3d f872 543e faa4 7ebd 9a6f acbd
00000350: 8b86 5c3d af99 1ebe 14c0 4dbe 43cd ce3c
00000360: 9f49 313d fdbf 9e3d ac2f 793e 2b31 a43d
00000370: 4dc3 89bd 0e39 e13c dc7e 133e ee4b 32be
00000380: df19 b23d 5fd1 263e 7d4c 9b3d 5140 743e
00000390: a3fa 2dbe 3a62 533e bcc7 20be 4fa4 92bc
000003a0: 1b45 693e 8758 d13d 2625 053e 7c85 8c3d
000003b0: 2a26 0fbe f08d 4c3e 7258 69bd 008f 43be

0.model_cnn.layer1.0.bias f4 [16]
0.104715355 0.117231265 0.16843553 -0.03182129 -0.08829717 -0.08373826 0.021888645 0.10646571
-0.10923865 -0.019018468 -0.09388945 0.17594333 -0.057260852 0.18399927 0.0044276696 -0.015395734
00000000: 0175 d63d f216 f03d 5d7a 2c3e 0a57 02bd
00000010: 26d5 b4bd f77e abbd d14f b33c b20a da3d
00000020: 83b8 dfbd 9ecc 9bbc 1d49 c0bd 7d2a 343e
00000030: 5b8a 6abd 4e6a 3c3e fc15 913b 643e 7cbc

0.model_cnn.layer1.1.weight f4 [16]
0.9861644 1.005073 0.9922699 1.0084085 0.9895701 0.9993447 1.0109352 1.0010244
1.0007447 0.9938927 0.9940248 0.9915327 0.9920704 1.0129194 1.0012207 1.0090253
00000000: 4575 7c3f 3ba6 803f 6605 7e3f 8813 813f
00000010: 7754 7d3f 0ed5 7f3f 5366 813f 9121 803f
00000020: 6718 803f c16f 7e3f 6978 7e3f 16d5 7d3f
00000030: 53f8 7d3f 58a7 813f 0028 803f be27 813f

0.model_cnn.layer1.1.bias f4 [16]
-0.02258456 -0.005036753 -0.008786983 0.003218076 -0.030597035 -0.0034025148 -0.016560573 0.0058200555
0.0011157936 0.003332461 -0.011985366 -0.015486679 -0.013979922 -0.00016372677 -0.0060383533 0.0051048454
00000000: 4103 b9bc 590b a5bb 47f7 0fbc 5be6 523b
00000010: a2a6 fabc bafc 5ebb 0aaa 87bc 2ab6 be3b
00000020: d23f 923a 6b65 5a3b 455e 44bc d7bb 7dbc
00000030: 0b0c 65bc 12ae 2bb9 61dd c5bb 8c46 a73b

0.model_cnn.layer1.1.running_mean f4 [16]
0.11292707 0.12529074 0.17712033 -0.038328156 -0.096335895 -0.091770075 0.022828387 0.1148649
-0.11747688 -0.024105709 -0.10213057 0.18476261 -0.06462227 0.19289802 0.0031395208 -0.020617489
00000000: 4f46 e73d 374c 003e 085f 353e fcfd 1cbd
00000010: c14b c5bd f3f1 bbbd 9902 bb3c 4a3e eb3d
00000020: b897 f0bd 5679 c5bc d529 d1bd 6932 3d3e
00000030: ae58 84bd 0f87 453e 6bc0 4d3b 02e6 a8bc

0.model_cnn.layer1.1.running_var f4 [16]
0.20545699 0.2261748 0.27593502 0.2544208 0.20437081 0.42900077 0.30699798 0.24714291
0.16514054 0.38743043 0.3211108 0.315938 0.49276385 0.3633528 0.22913474 0.23667026
00000000: 5163 523e 5e9a 673e 5b47 8d3e 7143 823e
00000010: 9546 513e fda5 db3e d72e 9d3e 0813 7d3e
00000020: 9a1a 293e 485d c63e a368 a43e a0c2 a13e
00000030: 8b4b fc3e 6109 ba3e 4ca2 6a3e b059 723e

0.model_cnn.layer2.0.weight f4 [32, 16, 3]
0.1201048 0.054371346 0.1028986 0.057641547 0.14573853 0.0748998 0.014772123 -0.056932595
-0.017248102 -0.12242758 0.036272477 0.01485026 -0.031753708 -0.08940289 0.1245391 0.12713157
-0.04543133 0.024520269 -0.06332726 -0.07075243 -0.12019149 0.06465688 0.1273098 -0.08216654
0.090519294 -0.095586404 0.10723686 -0.021091273 0.09829211 -0.101193726 -0.1098532 -0.0002048071
0.03700345 -0.09726567 0.004113907 -0.12199601 -0.00792448 -0.08707078 0.011862449 -0.12808622
0.122290574 0.06761286 -0.06411041 0.14490817 0.018682156 0.022239476 0.07380318 0.12493772
0.08242486 -0.052890267 0.1344415 0.016579019 0.13452858 -0.09982672 -0.09356329 0.053682156
0.017458335 -0.08921427 0.10229435 -0.08523613 -0.041252118 0.04401256 -0.021286407 0.04680174
-0.11100611 -0.021903636 -0.10270611 0.069172084 -0.017135581 0.04983011 -0.053855404 0.11842386
0.03921525 0.12155862 0.13994494 0.09539386 -0.06602889 -0.14491962 0.0031135126 -0.1306461
-0.13178495 0.09470379 -0.012582962 0.05823664 0.11398617 -0.072024435 -0.06805651 -0.12415872
-0.1079792 0.05145776 0.06916953 0.08466485 -0.08416097 0.019835822 -0.14345543 0.034413002
0.15399238 0.115623295 0.09907293 -0.09157623 -0.09411384 0.017037967 -0.076717496 -0.020846259
0.08639779 0.06420823 -0.10689456 0.1522522 0.036728382 0.13059315 0.09345471 -0.09051395
0.12492335 -0.0044604726 -0.102912046 -0.029605605 0.14269437 -0.049438536 -0.0018616865 0.05723452
-0.029313743 -0.027835274 0.07551731 -0.034618367 0.0586939 -0.015122072 0.02346726 -0.0905155
-0.09588868 -0.045438927 0.13746913 -0.13591428 -0.121910654 0.08880269 0.10343612 -0.14123577
0.13594641 0.059678793 -0.10461158 -0.04017882 -0.064700656 -0.0033170767 0.120630085 -0.09231029
-0.032670368 0.13889028 0.08849745 0.102681816 0.052559577 -0.008723114 -0.09489257 0.053579796
-0.12938708 0.025070753 -0.120703645 0.13532054 -0.08102648 -0.15543939 -0.08276212 -0.07822848
0.055075254 -0.10600993 -0.036028806 0.0570691 0.15723136 -0.009297339 0.114423715 0.03995978
-0.049894944 0.0679926 -0.107698 0.12244953 -0.14385356 -0.043106295 -0.038155407 -0.03589981
-0.033815168 -0.13692068 -0.075308315 0.01070102 -0.010065581 -0.03674587 0.008702439 -0.10324607
0.0947702 -0.12971063 0.03472367 -0.03942303 0.06492676 0.15354829 0.06975038 0.11927805
-0.0076675895 -0.04605361 0.102743454 0.048790053 0.09585771 -0.022529293 -0.14489019 -0.08665566
0.006350137 0.036097255 -0.023621501 -0.089792974 -0.07431936 0.037924405 0.025037112 0.052507173
-0.10559055 0.07224704 -0.017350288 -0.12834363 0.05936151 -0.058359176 0.11413318 -0.07350732
-0.057798512 0.071999766 -0.034331374 0.053114794 0.0030248058 0.05782602 -0.1264451 -0.11666734
-0.018427258 -0.025348494 -0.04049362 -0.14231999 -0.119115576 -0.14523983 -0.11145858 0.027387792
0.053943664 -0.116695315 0.116891645 0.102434695 -0.06726018 0.07987917 -0.034759875 0.104921624
0.0064874804 0.037979256 -0.059968315 -0.06479014 0.015213785 -0.13160849 0.043859582 0.17812555
-0.011983379 0.03961863 0.046757694 -0.117116466 -0.031480327 0.011042417 -0.108199775 -0.022648253
00000000: 81f9 f53d 7db4 5e3d 80bc d23d 8b19 6c3d
00000010: 7b3c 153e 1165 993d c606 723c 2732 69bd
00000020: e44b 8dbc 50bb fabd 7392 143d 814e 733c
00000030: 2d10 02bd dd18 b7bd 5b0e ff3d c72e 023e
00000040: 3416 3abd bbde c83c b9b1 81bd a6e6 90bd
00000050: f526 f6bd d46a 843d 805d 023e ee46 a8bd
00000060: 2e62 b93d cec2 c3bd 009f db3d 9bc7 acbc
00000070: 604d c93d a83e cfbd b7fa e0bd 7dc1 56b9
00000080: ee90 173d 3933 c7bd f4cd 863b 0bd9 f9bd
00000090: aed5 01bc 2a52 b2bd b85a 423c 0929 03be
000000a0: 7b73 fa3d 9c78 8a3d 524c 83bd cf62 143e
000000b0: 520b 993c 902f b63c 1f26 973d 59df ff3d
000000c0: 5dce a83d 77a3 58bd 08ab 093e b9d0 873c
000000d0: dcc1 093e f471 ccbd 1c9e bfbd d2e1 5b3d
000000e0: c804 8f3c f9b5 b6bd b37f d13d 4890 aebd
000000f0: fbf7 28bd 8446 343d d560 aebc 2eb3 3f3d
00000100: 2c57 e3bd 416f b3bc 9557 d2bd 18aa 8d3d
00000110: eb5f 8cbc a81a 4c3d 7c97 5cbd 3588 f23d
00000120: 2ca0 203d baf3 f83d ba4d 0f3e db5d c33d
00000130: 283a 87bd cf65 14be 130c 4c3b 17c8 05be
00000140: a2f2 06be 10f4 c13d c528 4ebc 8b89 6e3d
00000150: 9571 e93d 8c81 93bd 3661 8bbd ed46 febd
00000160: 3324 ddbd 5fc5 523d c1a8 8d3d c464 ad3d
00000170: 965c acbd bc7e a23c fbe5 12be a6f4 0c3d
00000180: 2eb0 1d3e e8cb ec3d c0e6 ca3d 528c bbbd
00000190: c2be c0bd 3593 8b3c 101e 9dbd c6c5 aabc
000001a0: 53f1 b03d 9b7f 833d 89eb dabd 00e8 1b3e
000001b0: 8070 163d 36ba 053e 2f65 bf3d 615f b9bd
000001c0: d0d7 ff3d 2829 92bb 8dc3 d2bd 7487 f2bc
000001d0: 791e 123e 1080 4abd d503 f4ba be6e 6a3d
000001e0: 6023 f0bc cd06 e4bc d2a8 9a3d fdcb 0dbd
000001f0: 0469 703d 91c2 77bc 693e c03c 3160 b9bd
00000200: 4961 c4bd 2b1e 3abd b5c4 0c3e 1d2d 0bbe
00000210: 4bac f9bd 2fde b53d 51d6 d33d 1ca0 10be
00000220: 8935 0b3e c071 743d 993e d6bd 8c92 24bd
00000230: c781 84bd 5063 59bb e80c f73d 2d0d bdbd
00000240: 5dd1 05bd 4139 0e3e 273e b53d d84a d23d
00000250: b648 573d 64eb 0ebc 0957 c2bd 7d76 5b3d
00000260: 0c7e 04be 2e61 cd3c 7933 f7bd 7891 0a3e
00000270: 36f1 a5bd 812b 1fbe 307f a9bd 4136 a0bd
00000280: 9796 613d bc1b d9bd f192 13bd 4ac1 693d
00000290: 4201 213e de53 18bc fb56 ea3d deac 233d
000002a0: a45e 4cbd b43f 8b3d c590 dcbd d2c6 fa3d
000002b0: 594e 13be 3a90 30bd d848 1cbd ae0b 13bd
000002c0: c681 0abd ef34 0cbe 3f3b 9abd 5553 2f3c
000002d0: 1bea 24bc d682 16bd ad94 0e3c ad72 d3bd
000002e0: e116 c23d ddd2 04be 683a 0e3d 0b7a 21bd
000002f0: 52f8 843d c33b 1d3e 4ad9 8e3d 0d48 f43d
00000300: 6740 fbbb b6a2 3cbd 296b d23d 14d8 473d
00000310: 0c51 c43d 5a8f b8bc 185e 14be 8678 b1bd
00000320: cf14 d03b b7da 133d e181 c1bc 61e5 b7bd
00000330: c034 98bd 9f56 1b3d a11a cd3c c311 573d
00000340: dc3f d8bd 42f6 933d 3122 8ebc 836c 03be
00000350: 0e25 733d 080a 6fbd a8be e93d 018b 96bd
00000360: 22be 6cbd 9d74 933d 0e9f 0cbd e68e 593d
00000370: d23b 463b fada 6c3d d37a 01be 49ef eebd
00000380: c3f4 96bc a5a7 cfbc a3dc 25bd 55bc 11be
00000390: def2 f3bd c0b9 14be 6544 e4bd 5d5c e03c
000003a0: 08f4 5c3d f4fd eebd e364 ef3d 48c9 d13d
000003b0: b5bf 89bd b197 a33d 5f60 0ebd 26e1 d63d
000003c0: ee94 d43b 2390 1b3d 56a1 75bd b1b0 84bd
000003d0: 3d43 793c 60c4 06be 1ba6 333d 8b66 363e
000003e0: ef55 44bc 2547 223d ff84 3f3d c2da efbd
000003f0: 84f1 00bd 41eb 343c d897 ddbd d488 b9bc

0.model_cnn.layer2.0.bias f4 [32]
0.06806056 0.05705978 -0.069597974 0.0063729677 -0.02267814 -0.02739769 0.07448333 -0.072790064
-0.025521344 -0.009578458 -0.030194338 -0.00359566 -0.0029371725 0.023380576 -0.022128448 -0.007596623
-0.027748587 -0.0057364726 -0.029515894 0.0016560472 -0.071831286 -0.030475069 0.049179725 -0.00087325677
-0.0051251617 0.00050875766 -0.045428954 -0.03491588 0.010641147 0.004398091 -0.025789289 -0.00075196585
00000000: 5663 8b3d 84b7 693d 6289 8ebd 54d4 d03b
00000010: 82c7 b9bc 1f71 e0bc b78a 983d f512 95bd
00000020: 2312 d1bc f7ee 1cbc 1e5a f7bc 2aa5 6bbb
00000030: 947d 40bb 9f88 bf3c b846 b5bc 18ed f8bb
00000040: 0151 e3bc 05f9 bbbb 51cb f1bc b90f d93a
00000050: 481c 93bd daa6 f9bc ae70 493d 45eb 64ba
00000060: f9f0 a7bb 265e 053a b613 3abd f403 0fbd
00000070: 3558 2e3c dd1d 903b 0f44 d3bc 931f 45ba

0.model_cnn.layer2.1.weight f4 [32]
1.0141932 0.99437785 0.9863421 0.99370795 0.99893934 0.9938517 1.0059441 1.0014178
0.9917627 1.009889 0.9864546 0.9979524 1.0170974 1.0221108 1.0028305 0.97997326
0.9896109 0.9984439 0.9825981 1.0084138 0.9843383 1.0102936 0.993478 0.999724
0.9933306 1.0091157 0.99618846 0.98295313 1.0040497 0.9970422 0.99275446 0.99902475
00000000: 15d1 813f 8c8f 7e3f ea80 7c3f a563 7e3f
00000010: 7dba 7f3f 116d 7e3f c7c2 803f 752e 803f
00000020: 29e4 7d3f 0b44 813f 4a88 7c3f cf79 7f3f
00000030: 3f30 823f 87d4 823f c05c 803f 87df 7a3f
00000040: 2457 7d3f 059a 7f3f 8d8b 7b3f b413 813f
00000050: 98fd 7b3f 4d51 813f 9354 7e3f e9ed 7f3f
00000060: ea4a 7e3f b42a 813f 3506 7f3f d1a2 7b3f
00000070: b384 803f 283e 7f3f 2825 7e3f 16c0 7f3f

0.model_cnn.layer2.1.bias f4 [32]
-0.022815172 -0.005868192 -0.027566945 -0.0069200615 0.02052193 -0.0106594 -0.015369997 -0.009074553
-0.014521096 -0.0053143585 -0.017215434 -0.0036693122 0.015185279 -0.010507714 -0.013383555 -0.008765401
-0.005699202 -0.019824492 -0.020350106 -0.0052431086 -0.020704627 -0.01582653 -0.019929025 -0.03410947
-0.015259906 -0.039609876 -0.009612359 -0.003035823 -0.016925639 -0.00031943846 -0.008147515 -0.0058182497
00000000: e2e6 babc f649 c0bb 13d4 e1bc afc1 e2bb
00000010: 9b1d a83c c4a4 2ebc 71d2 7bbc 6fad 14bc
00000020: e4e9 6dbc 1224 aebb 6207 8dbc d878 70bb
00000030: adcb 783c 8c28 2cbc b346 5bbc c29c 0fbc
00000040: 5fc0 babb f966 a2bc 44b5 a6bc 62ce abbb
00000050: c09c a9bc a4a6 81bc 3242 a3bc 5fb6 0bbd
00000060: af04 7abc f73d 22bd 287d 1dbc a9f4 46bb
00000070: a3a7 8abc 4e7a a7b9 287d 05bc 04a7 bebb

0.model_cnn.layer2.1.running_mean f4 [32]
0.2473477 0.06628375 0.045632422 -0.02367866 -0.2714026 -0.15735936 0.043208618 -0.00045234527
-0.09224321 0.11297807 0.032521382 0.047975134 0.08841303 0.030368172 -0.00986274 -0.13199021
-0.1026902 0.10855657 0.3364741 -0.026027864 0.0037548915 -0.03330207 0.26218992 -0.025614632
0.005878388 0.5167117 0.200966 -0.45133567 0.23203798 -0.41570523 0.37576678 -0.26247323
00000000: b748 7d3e c6bf 873d 10e9 3a3d c0f9 c1bc
00000010: 48f5 8abe d022 21be 85fb 303d c128 edb9
00000020: 02ea bcbd 0c61 e73d 2435 053d 9381 443d
00000030: e411 b53d acc6 f83c 5497 21bc 7128 07be
00000040: 3d4f d2bd e852 de3d 5546 ac3e 6338 d5bc
00000050: a014 763b c067 08bd c23d 863e c7d5 d1bc
00000060: 7e9f c03b 3847 043f 08ca 4d3e 7815 e7be
00000070: 5d9b 6d3e 51d7 d4be 8164 c03e e462 86be

0.model_cnn.layer2.1.running_var f4 [32]
0.064012654 0.136151 0.093835086 0.09553688 0.13226968 0.19490042 0.124429956 0.052996185
0.0755186 0.11225427 0.13836983 0.12328177 0.10286608 0.13916086 0.105867356 0.16869436
0.1554848 0.14049166 0.20119375 0.22410442 0.1046603 0.07291531 0.124082 0.10518395
0.053313237 0.21249786 0.103341036 0.30059186 0.08653505 0.15735193 0.12766276 0.17126334
00000000: 1119 833d 2b6b 0b3e 9c2c c03d d7a8 c33d
00000010: b471 073e fa93 473e 22d5 fe3d 8712 593d
00000020: 7fa9 9a3d 91e5 e53d d2b0 0d3e 277b fc3d
00000030: 74ab d23d 2f80 0e3e fcd0 d83d 37be 2c3e
00000040: 6837 1f3e 0cdd 0f3e bc05 4e3e a17b 653e
00000050: 2458 d63d 9f54 953d b41e fe3d af6a d73d
00000060: fb5e 5a3d 0a99 593e 77a4 d33d 2de7 993e
00000070: 4a39 b13d dd20 213e 07ba 023e a85f 2f3e

0.model_cnn.layer3.0.weight f4 [64, 32, 3]
-0.07833856 -0.09055383 -0.04856688 0.00079687487 0.014105456 0.09829653 -0.0040702596 0.056258038
0.015051054 -0.00068481266 -0.021128675 -0.04140359 0.01985373 -0.05986501 -0.04453761 -0.015993822
0.02520718 0.04657316 0.00833904 -0.06446587 -0.01368071 -0.023595866 0.009703876 -0.01741875
-0.028617892 0.045475192 0.062031776 -0.08095421 0.004746148 0.03394455 0.04102121 -0.015798079
0.09022986 0.057611417 0.06472815 0.047503397 0.047093306 0.1098049 -0.08442519 0.11020408
0.076003335 0.03840337 -0.029207435 0.09017998 0.025057934 0.06273931 0.025513118 -0.085583106
-0.08253276 -0.038873482 -0.036088984 0.019801488 0.10606992 -0.012926636 0.005244494 -0.09835086
0.035158325 0.016701749 0.04196132 -0.05928793 -0.02967785 -0.059949994 0.01911179 0.113782376
0.08927346 0.10204034 0.040317357 -0.066364326 -0.090835474 0.054721434 -0.047211584 -0.0106401695
0.05144653 -0.04949274 -0.050219376 0.046192437 -0.08850462 -0.061210014 0.035829116 0.07085631
-0.018062655 -0.08083631 -0.048140667 0.06669814 -0.021461887 0.014072851 0.079229884 -0.052177794
-0.028491326 -0.09009358 -0.06578266 0.07728718 -0.06913649 0.00021075286 0.05736115 0.017736193
0.018397208 -0.096779786 0.049893435 -0.039790884 0.056921575 -0.07086774 0.009459166 0.03691333
-0.10524362 0.04644705 0.0022420983 -0.051555406 -0.063791424 -0.10406584 0.09599073 0.06474441
0.038190372 0.06653674 -0.028510956 0.007439789 -0.0004716318 0.005021767 -0.103992335 -0.06585017
0.04541324 -0.11064253 -0.023286281 0.024392521 -0.073067345 0.09744941 0.06413323 -0.06286157
0.013341582 0.08694034 0.024288153 0.065622024 0.04565237 -0.02959257 0.090455204 0.05355997
0.0076581035 -0.06857821 -0.0027663256 0.0010827463 -0.012637116 -0.08877954 0.086868934 -0.09230139
0.00397856 0.052632358 -0.024406357 -0.11509394 -0.06730523 0.04036704 -0.0816004 -0.09356645
-0.034741726 -0.014727284 0.09300348 0.020408936 -0.050445236 0.030905506 -0.048101604 0.09600066
-0.008037373 -0.034205917 -0.04015944 -0.052721545 -0.06931742 -0.06548724 0.02763726 -0.014386935
-0.078209735 0.035734948 0.050933663 0.053092882 -0.008184879 0.034547474 0.016355693 -0.010274378
-0.07575846 0.080972865 0.08783133 0.026717247 -0.08420581 -0.07730406 -0.069264084 -0.017396549
0.08033575 -0.043202378 -0.11282729 -0.022882098 -0.053362403 -0.071946226 -0.09180072 0.060657684
0.050203323 -0.06669364 -0.05191628 0.05510528 0.008579299 -0.034767307 -0.08357883 0.104271725
-0.035321742 -0.007841854 0.026773334 -0.024651159 -0.102093935 -0.044602145 0.048425976 -0.05038561
-0.04987968 -0.05141399 0.0040132506 0.039233875 0.07878572 -0.0014287512 -0.030825896 0.018928356
0.07069739 -0.013937436 0.028678419 -0.09007804 0.006596913 0.089839555 0.071471594 0.08988541
-0.0004436231 -0.08754512 -0.061476693 -0.02812853 -0.046723727 0.08801898 0.08932931 0.026649924
0.107390486 -0.077566065 -0.00021244858 0.08180119 0.060420178 -0.08820646 0.07607907 0.093974054
-0.00010424725 0.04033747 0.041810475 -0.023565102 0.0074338997 -0.032723207 -0.023388311 0.11285533
0.027906535 -0.03301816 0.09469066 0.0728814 -0.0071972343 0.021136986 -0.013933357 0.011796186
00000000: f86f a0bd 4974 b9bd 11ee 46bd 5ee5 503a
00000010: 921a 673c b14f c93d d05f 85bb d46e 663d
00000020: b298 763c 0085 33ba 0b16 adbc d096 29bd
00000030: 4aa4 a23c 0335 75bd 126d 36bd 7a05 83bc
00000040: 4a7f ce3c 7fc3 3e3d 78a0 083c af06 84bd
00000050: 0f25 60bc 1e4c c1bc 02fd 1e3c c4b1 8ebc
00000060: 1270 eabc 3244 3a3d 0815 7e3d 52cb a5bd
00000070: 9385 9b3b 7109 0b3d db05 283d f96a 81bc
00000080: 6fca b83d f3f9 6b3d 3190 843d ec92 423d
00000090: e9e4 403d 64e1 e03d 1de7 acbd adb2 e13d
000000a0: a3a7 9b3d da4c 1d3d 6e44 efbc 48b0 b83d
000000b0: 4c46 cd3c 787d 803d e300 d13c 3246 afbd
000000c0: f006 a9bd cd39 1fbd 0bd2 13bd bb36 a23c
000000d0: 303b d93d 3eca 53bc 01da ab3b 2d6c c9bd
000000e0: 2d02 103d 1bd2 883c a2df 2b3d e7d7 72bd
000000f0: f61e f3bc 208e 75bd 5490 9c3c bc06 e93d
00000100: 01d5 b63d 87fa d03d d023 253d 05ea 87bd
00000110: f307 babd 9523 603d ef60 41bd 1b54 2ebc
00000120: 99b9 523d e6b8 4abd d5b2 4dbd 4834 3d3d
00000130: e941 b5bd 5ab7 7abd 8dc1 123d 1d1d 913d
00000140: 22f8 93bc 828d a5bd 262f 45bd 0999 883d
00000150: d7d0 afbc d191 663c 4743 a23d 62b8 55bd
00000160: a466 e9bc fc82 b8bd 0fb9 86bd be48 9e3d
00000170: 6f97 8dbd 8afd 5c39 86f3 6a3d 7e4b 913c
00000180: beb5 963c 7b34 c6bd 0f5d 4c3d c4fb 22bd
00000190: 9926 693d 1b23 91bd 9efa 1a3c 6f32 173d
000001a0: f889 d7bd 433f 3e3d 2bf0 123b c32b 53bd
000001b0: 14a5 82bd 7920 d5bd ca96 c43d b898 843d
000001c0: 826d 1c3d 6a44 883d cf8f e9bc 79c9 f33b
000001d0: 5945 f7b9 a38d a43b eff9 d4bd 74dc 86bd
000001e0: 3c03 3a3d 8d98 e2bd dfc2 bebc d3d2 c73c
000001f0: 55a4 95bd 8e93 c73d 4858 833d 91bd 80bd
00000200: a796 5a3c c70d b23d f3f7 c63c d764 863d
00000210: fbfd 3a3d 1e6c f2bc 9440 b93d b361 5b3d
00000220: d4f0 fa3b bc72 8cbd 3e4b 35bb f0ea 8d3a
00000230: e80b 4fbc 0cd2 b5bd 57e8 b13d 8308 bdbd
00000240: 955e 823b 0795 573d d7ef c7bc 5fb6 ebbd
00000250: 53d7 89bd e957 253d 1c1e a7bd c49f bfbd
00000260: 574d 0ebd b54a 71bc 9c78 be3d a430 a73c
00000270: aa9f 4ebd 8b2d fd3c 3006 45bd fe9b c43d
00000280: 30af 03bc 811b 0cbd 3a7e 24bd 8cf2 57bd
00000290: 4bf6 8dbd 2d1e 86bd 8967 e23c 2eb7 6bbc
000002a0: 6d2c a0bd cf5e 123d d19f 503d ec77 593d
000002b0: df19 06bc a781 0d3d 60fc 853c dd55 28bc
000002c0: 4027 9bbd 1ad5 a53d eae0 b33d 21de da3c
000002d0: 1974 acbd 9751 9ebd 54da 8dbd 3583 8ebc
000002e0: 1287 a43d faf4 30bd ff11 e7bd 3d73 bbbc
000002f0: 8992 5abd 8b58 93bd 0402 bcbd 3174 783d
00000300: 00a2 4d3d ad96 88bd 2aa6 54bd 13b6 613d
00000310: 3090 0c3c 2a68 0ebd 612b abbd 6a8c d53d
00000320: 88ad 10bd 1f7b 00bc c053 db3c 3af1 c9bc
00000330: a016 d1bd bdb0 36bd 515a 463d 2461 4ebd
00000340: a34e 4cbd 7a97 52bd 9681 833b b3b3 203d
00000350: 685a a13d ef44 bbba 9786 fcbc a40f 9b3c
00000360: cbc9 903d d859 64bc 01ef ea3c d67a b8bd
00000370: eb2a d83b cdfd b73d b35f 923d d815 b83d
00000380: 1696 e8b9 db4a b3bd fcce 7bbd ce6d e6bc
00000390: 6161 3fbd 4c43 b43d 49f2 b63d f150 da3c
000003a0: 8bef db3d f5da 9ebd bbc4 5eb9 6287 a73d
000003b0: 267b 773d 97a5 b4bd 58cf 9b3d 7875 c03d
000003c0: 519f dab8 e738 253d 7641 2b3d 9a0b c1bc
000003d0: 1298 f33b c508 06bd d898 bfbc b220 e73d
000003e0: 3f9c e43c 0d3e 07bd 2ded c13d d842 953d
000003f0: c7d6 ebbb 7927 ad3c bc48 64bc ca44 413c

0.model_cnn.layer3.0.bias f4 [64]
-0.032808244 0.00030497165 -0.005141819 -0.016770994 -0.024841746 -0.0005498457 0.00045476595 0.009602355
0.0005535281 0.0133013595 0.010648926 -0.00053207093 -0.010118593 0.004807721 0.036999803 0.020526003
-0.020499371 -0.000686585 -0.0008998243 0.021613697 -0.0010801583 6.3606974e-05 -0.030533377 0.00095215556
0.00014882011 0.0031157401 -4.9523485e-05 -0.020678332 0.0150444005 -9.78747e-05 0.0017409619 0.016685035
-0.00030080575 0.00045540027 -0.00041107068 0.0064854003 -0.0020655976 0.00031270023 -0.029567465 -0.027815891
-0.00014260718 0.0012619606 -0.0001259333 -0.00010081261 0.00908101 -0.022483382 -0.0030908065 0.03379679
0.0009909259 -0.024072126 -0.0007520773 -0.032973018 -0.00013289563 1.0694734e-05 -1.25754195e-05 0.0044693826
-0.0065809833 -0.00032524945 0.00024513304 0.005540617 -0.01801874 0.00081581785 -0.0001551649 0.0012999133
00000000: f061 06bd 9ae4 9f39 b47c a8bb 5363 89bc
00000010: eb80 cbbc 8523 10ba a76d ee39 3253 1d3c
00000020: a41a 113a f2ed 593c d578 2e3c ad7a 0bba
00000030: 75c8 25bc 168a 9d3b 1b8d 173d 2626 a83c
00000040: 4cee a7bc f0fb 33ba 30e2 6bba 350f b13c
00000050: 1994 8dba bc64 8538 2221 fabc 149a 793a
00000060: 980c 1c39 7231 4c3b 70b7 4fb8 9b65 a9bc
00000070: ca7c 763c 1442 cdb8 fd30 e43a 0eaf 883c
00000080: 77b5 9db9 cac2 ee39 f984 d7b9 7b83 d43b
00000090: fa5e 07bb eaf1 a339 7837 f2bc 27de e3bc
000000a0: d388 15b9 5f68 a53a f60c 04b9 5c6b d3b8
000000b0: 84c8 143c 122f b8bc 218f 4abb 816e 0a3d
000000c0: f5e1 813a e832 c5bc 0e27 45ba b70e 07bd
000000d0: e659 0bb9 886d 3337 04fb 52b7 e673 923b
000000e0: 4aa5 d7bb 3e86 aab9 3385 8039 108e b53b
000000f0: 099c 93bc 9cdc 553a c3b3 22b9 da61 aa3a

0.model_cnn.layer3.1.weight f4 [64]
1.0047582 0.97865885 0.977566 1.0155523 0.9805689 0.98784757 1.0123204 0.98829377
1.0169085 1.009945 1.0069642 1.0126327 1.0101677 0.9862167 1.0076615 1.0068059
0.9811041 0.99502385 1.0120254 0.9880606 0.9718747 1.0047207 1.0033634 1.0026573
1.0049027 0.99075437 1.0013449 0.9806886 0.99769604 0.975132 1.000926 1.0152433
1.0028733 1.0017747 1.0068336 1.0062778 0.99695706 1.0146956 0.9676214 1.0171863
1.0023735 1.0074636 0.9811621 0.98845243 0.9974138 0.97784567 0.9864546 0.9886183
0.9869574 1.007187 0.984541 0.99332917 0.9983782 0.9824767 1.0191714 0.99226326
1.0099311 1.0189362 0.9928206 0.9719143 0.9989461 0.97987604 1.0136166 1.0105877
00000000: eb9b 803f 6389 7a3f c441 7a3f 9efd 813f
00000010: 9006 7b3f 94e3 7c3f b793 813f d200 7d3f
00000020: 0f2a 823f e145 813f 34e4 803f f39d 813f
00000030: 2d4d 813f b378 7c3f 0dfb 803f 04df 803f
00000040: a329 7b3f e2b9 7e3f 0c8a 813f 8af1 7c3f
00000050: c8cc 783f b09a 803f 366e 803f 1357 803f
00000060: a7a0 803f 14a2 7d3f 122c 803f 680e 7b3f
00000070: 0269 7f3f 40a2 793f 581e 803f 7ef3 813f
00000080: 275e 803f 273a 803f ecdf 803f b6cd 803f
00000090: 9438 7f3f 8ce1 813f 09b6 773f 2933 823f
000000a0: c64d 803f 91f4 803f 702d 7b3f 380b 7d3f
000000b0: 8356 7f3f 1854 7a3f 4a88 7c3f 1716 7d3f
000000c0: 3da9 7c3f 81eb 803f e10a 7c3f d24a 7e3f
000000d0: b795 7f3f 9883 7b3f 3574 823f f704 7e3f
000000e0: 6c45 813f 806c 823f 7e29 7e3f 60cf 783f
000000f0: eeba 7f3f 28d9 7a3f 30be 813f f05a 813f

0.model_cnn.layer3.1.bias f4 [64]
-0.008741859 -0.00513764 -0.02126091 0.0017658728 -0.008944877 -0.024437642 -0.025093662 -0.016991744
0.026858788 -0.014750973 0.011523653 -0.0035591628 -0.0048083393 -0.010313012 -0.023008391 0.0032039138
-0.005383427 -0.02857724 -0.028997017 -0.0067369244 -0.012649869 -0.0126635 0.02591507 -0.015816815
-0.0131351845 -0.022416553 0.0002895966 -0.017925315 -0.005942303 -0.023922682 0.009074052 0.030548133
0.023370963 -0.0008439888 -0.005909307 -0.027957534 -0.029157259 -0.011446448 -0.031128766 0.018031439
0.00067908317 -0.026133358 0.0011030632 -0.017037492 -0.023023432 -0.016126575 -0.008257908 -0.029074928
-7.357146e-05 0.011575649 -0.0013133483 0.0070472355 -0.008699565 -0.031697307 -0.005451555 -0.008148386
-0.02084349 0.004906196 -0.027885173 -0.020231828 -0.027827745 -0.025235035 0.01489278 -0.020020982
00000000: 043a 0fbc a659 a8bb 5c2b aebc dc74 e73a
00000010: 898d 12bc 7331 c8bc 3991 cdbc 4532 8bbc
00000020: f606 dc3c 11ae 71bc b4cd 3c3c d840 69bb
00000030: 468f 9dbb e8f7 28bc 187c bcbc c1f8 513b
00000040: 7567 b0bb d11a eabc 278b edbc 6bc1 dcbb
00000050: 6541 4fbc 927a 4fbc d74b d43c 4492 81bc
00000060: f534 57bc eba2 b7bc ffd4 9739 1cd8 92bc
00000070: a7b7 c2bb 80f9 c3bc 55ab 143c 1440 fa3c
00000080: 7674 bf3c 213f 5dba dca2 c1bb 3307 e5bc
00000090: 34db eebc e289 3bbc c101 ffbc abb6 933c
000000a0: 8004 323a a015 d6bc a994 903a 3692 8bbc
000000b0: a39b bcbc e11b 84bc 2d4c 07bc 8b2e eebc
000000c0: 604a 9ab8 caa7 3d3c a824 acba 7fec e63b
000000d0: 9f88 0ebc 09d5 01bd f5a2 b2bb cf80 05bc
000000e0: f7bf aabc 28c4 a03b 726f e4bc 38bd a5bc
000000f0: 03f7 e3bc b4b9 cebc d900 743c 0b03 a4bc

0.model_cnn.layer3.1.running_mean f4 [64]
0.10887816 -0.39347953 0.12377415 -0.26147932 -0.6368047 -0.116287135 0.63623303 0.46503985
-0.24169226 -0.023807127 -0.3190466 0.08014112 -0.036559835 -0.21306513 0.4936966 -0.23217158
-0.20528427 0.45445538 0.43527204 -0.45716813 -0.039451376 -0.08125281 -0.8752154 0.23418611
0.48675665 0.15050139 -0.32338256 0.11228693 0.2942023 -0.10563926 -0.80385315 -0.27498263
-0.5521332 -0.2793948 0.54748446 0.3270567 -0.018203318 -0.3146066 -0.81456196 -0.0822251
-0.3569329 0.05205382 -0.027707696 -0.16012232 0.20112687 -0.4053368 -0.13055661 0.4726961
-0.60140264 0.3492022 -0.8768748 -0.31249452 0.07739035 0.39901236 0.41517767 0.17285618
0.11100237 0.05590287 0.60765195 -0.20137179 0.64747626 0.20457208 -0.3159573 0.11750926
00000000: 83fb de3d 2676 c9be 4d7d fd3d 9ee0 85be
00000010: a205 23bf f327 eebd 2be0 223f b419 ee3e
00000020: 2d7e 77be 2a07 c3bc 135a a3be 0721 a43d
00000030: c4bf 15bd bf2d 5abe cdc5 fc3e 63be 6dbe
00000040: 0a36 52be 60ae e83e fadb de3e f111 eabe
00000050: c497 21bd e067 a6bd 1e0e 60bf 7cce 6f3e
00000060: 2b38 f93e 091d 1a3e 6692 a5be b1f6 e53d
00000070: afa1 963e 6559 d8bd 52c9 4dbf 86ca 8cbe
00000080: 9a58 0dbf d60c 8fbe f127 0c3f fa73 a73e
00000090: 201f 95bc 1e14 a1be 2287 50bf a265 a8bd
000000a0: e9bf b6be 6336 553d 40fb e2bc 1bf7 23be
000000b0: 34f4 4d3e 4e88 cfbe a2b0 05be 3905 f23e
000000c0: 86f5 19bf a1ca b23e de7a 60bf 48ff 9fbe
000000d0: d57e 9e3d 594b cc3e 2b92 d43e 3601 313e
000000e0: 3655 e33d 68fa 643d 148f 1b3f 6834 4ebe
000000f0: 01c1 253f 587b 513e 28c5 a1be b2a8 f03d

0.model_cnn.layer3.1.running_var f4 [64]
0.15038653 0.30618036 0.23136087 0.19880715 0.3577645 0.23454541 0.4147963 0.31451818
0.20771578 0.16676879 0.17528406 0.18430571 0.19089846 0.12635286 0.2667092 0.26052073
0.3230726 0.2915111 0.38092062 0.21605465 0.12739687 0.27553514 0.63059086 0.23155086
0.31087568 0.14186972 0.27498588 0.18232203 0.27440324 0.14547187 0.4659548 0.21794371
0.37259436 0.17967801 0.19595483 0.2860823 0.109317765 0.22258596 0.30911192 0.27196875
0.19528094 0.18815266 0.22249012 0.17465395 0.14204802 0.15200232 0.40521452 0.26191977
0.4327172 0.18138418 0.5331126 0.17426187 0.28107628 0.3646299 0.16654177 0.19056109
0.12987135 0.23231412 0.6221985 0.20570447 0.43534538 0.29514337 0.20840038 0.22954029
00000000: edfe 193e acc3 9c3e dde9 6c3e 1a94 4b3e
00000010: e92c b73e ac2c 703e 2e60 d43e 8708 a13e
00000020: 72b3 543e 70c5 2a3e aa7d 333e a3ba 3c3e
00000030: e37a 433e a562 013e 1c8e 883e f962 853e
00000040: c669 a53e f140 953e 0708 c33e 6e3d 5d3e
00000050: 5374 023e f112 8d3e 676e 213f ab1b 6d3e
00000060: 192b 9f3e 4c46 113e f3ca 8c3e a0b2 3a3e
00000070: 957e 8c3e 94f6 143e a191 ee3e a32c 5f3e
00000080: b0c4 be3e 83fd 373e 62a8 483e 6179 923e
00000090: fee1 df3d 93ed 633e eb43 9e3e 7d3f 8b3e
000000a0: baf7 473e 17ab 403e 73d4 633e 7cd8 323e
000000b0: 0975 113e 7fa6 1b3e 4778 cf3e 591a 863e
000000c0: 1c8d dd3e c6bc 393e 117a 083f b471 323e
000000d0: 3be9 8f3e c5b0 ba3e ed89 2a3e 7222 433e
000000e0: fffc 043e c1e3 6d3e 6748 1f3f 31a4 523e
000000f0: 97e5 de3e 081d 973e e966 553e 9c0c 6b3e

0.model_cnn.layer4.0.weight f4 [128, 64, 3]
-0.055291828 0.018976912 -0.009294872 -0.055232443 -0.00047929861 -0.009263366 0.053966805 -0.030742448
-0.015302238 0.054009113 -0.009879908 0.05633483 0.028175157 -0.051847193 0.07112096 -0.06623728
-0.042097107 0.07063766 0.012897492 0.014945653 0.0043339273 0.03394199 0.050306052 -0.059587404
0.05531694 -0.00023065784 0.0635065 0.030668346 0.021043856 0.0705509 -0.0039577135 0.0051745474
-0.016466951 0.06541871 -0.06220438 0.04239478 -0.0511118 -0.0056253523 -0.0012679171 0.01587161
-0.0010918815 -0.0071320436 -0.021719193 -0.062317092 -0.07137899 -0.031861305 0.09569792 0.0905142
0.0018511744 -0.0031893987 0.013484908 0.06064829 0.010053893 -0.05751981 0.04909287 -0.05852728
0.028454702 -0.0069391024 0.0020649491 0.0073170466 0.0053404807 0.017780354 -0.04131432 0.028902221
0.0412282 0.047134027 0.03920097 -0.026688823 0.07038274 -0.042441797 0.05779189 0.051260393
-0.00044821715 0.053133637 0.06372399 -0.0045742346 -0.01960643 -0.05179216 0.0336297 0.028868267
0.010075777 0.04471849 0.034714468 0.051849753 0.03220643 0.01100677 0.017644873 -0.048740823
-0.0017227081 0.028630426 0.013836299 0.013162905 -0.014726111 0.07103045 0.04185389 0.010058791
0.024255825 0.05841227 0.012566005 0.035116345 0.049948223 0.014990588 0.077237755 -0.033655535
0.043409828 -0.032482054 -0.003988859 -0.0057514487 0.012159675 -0.033553395 0.020551791 0.056559205
-0.019671356 -0.077803865 -0.027016073 -0.04687973 -0.010045063 0.0075776274 0.0051267995 -0.041690823
-0.048085477 0.014862352 -0.017438894 -0.022941992 -0.043274656 -0.014804882 0.007981068 -0.072723344
0.027004207 0.0075034196 -0.01985265 -0.05741373 -0.02077705 0.008157646 0.030504119 0.015297159
0.04883893 -0.0024353222 0.052541543 -0.054214716 0.011819668 0.027452925 0.018693686 -0.064343706
0.04052601 -0.012403527 0.013079218 -0.024782082 -0.0019615255 0.040321436 -0.03643927 -0.030595541
0.012666559 0.039732635 -0.016495898 -0.047397263 0.06652918 0.090111494 -0.04382795 -0.045003947
-0.0053675817 -0.059123673 0.064064935 0.05490749 -0.05733584 -0.027189007 0.047299918 0.003887567
-0.044062834 0.002259708 0.048810504 -0.021600159 0.07908768 0.012906454 -0.021707604 -0.06338388
-0.032886595 -0.05094807 0.006250728 -0.043700773 0.043006785 0.010912904 -0.002201022 -0.0048023085
0.019792704 -0.03623573 0.06717025 0.01764889 0.06728179 -0.030796276 -0.06418495 -0.018903326
0.0034235888 -0.022536866 -0.05382644 -0.051345687 0.040938478 0.0715715 0.015339363 -0.04888893
0.0033490974 -0.036888726 0.017294623 -0.03737944 0.07569049 0.040133834 -0.025522385 -0.005950606
0.059009325 0.01209724 0.0677806 -0.06359863 0.027863087 -0.046643157 -0.01741186 -0.015378121
-0.02369369 -0.03200645 -0.02432207 -0.02907226 -0.017324954 -0.0048620454 -0.042152457 -0.049020678
-0.03108942 -0.025802726 0.012134047 0.07012058 -0.054878645 0.019037507 -0.00959121 0.028970666
0.06870018 -0.013706957 -0.014260471 0.08949458 -0.030011138 -0.033865727 -0.041158397 0.01788919
0.08969056 0.065233774 -0.009702809 0.059683375 0.05878442 0.029799838 0.011480689 0.093907826
0.073638834 -0.01556572 -0.02071615 -0.039056785 -0.049837604 -0.05942669 -0.022958614 0.0059292517
00000000: af79 62bd 7875 9b3c 8549 18bc 6a3b 62bd
00000010: 5f4a fbb9 60c5 17bc 4c0c 5d3d 96d7 fbbc
00000020: 3db6 7abc a938 5d3d 56df 21bc 5abf 663d
00000030: 96cf e63c b95d 54bd dea7 913d 69a7 87bd
00000040: 046e 2cbd 7aaa 903d 0150 533c 9dde 743c
00000050: 9e03 8e3b c206 0b3d b80d 4e3d ec11 74bd
00000060: 0494 623d bedc 71b9 b20f 823d 2f3c fb3c
00000070: 2a64 ac3c fe7c 903d b5af 81bb 408f a93b
00000080: b3e5 86bc 3ffa 853d 05ca 7ebd 26a6 2d3d
00000090: 9b5a 51bd e054 b8bb 3d30 a6ba 2e05 823c
000000a0: 771d 8fba ebb3 e9bb 73ec b1bc 3540 7fbd
000000b0: 262f 92bd 0081 02bd 45fd c33d 825f b93d
000000c0: 1ba3 f23a 3b05 51bb ceef 5c3c 576a 783d
000000d0: 15b9 243c e499 6bbd 9b15 493d 4dba 6fbd
000000e0: d619 e93c 6961 e3bb 1954 073b d6c3 ef3b
000000f0: 33ff ae3b 1ba8 913c 3439 29bd 5ac4 ec3c
00000100: e7de 283d 9c0f 413d 3291 203d 85a2 dabc
00000110: d324 903d 73d7 2dbd 30b7 6c3d 6bf6 513d
00000120: b0fe eab9 a8a2 593d b981 823d 76e3 95bb
00000130: aa9d a0bc 0424 54bd 4cbf 093d 257d ec3c
00000140: df14 253c bc2a 373d c230 0e3d 6860 543d
00000150: e4ea 033d bd55 343c fb8b 903c 75a4 47bd
00000160: 7ecc e1ba 5b8a ea3c a5b1 623c 3aa9 573c
00000170: c945 71bc 6a78 913d fc6e 2b3d a1cd 243c
00000180: 27b4 c63c b441 6f3d a5e1 4d3c 28d6 0f3d
00000190: 8296 4c3d 159b 753c d42e 9e3d 63da 09bd
000001a0: 81ce 313d e70b 05bd f9b4 82bb a676 bcbb
000001b0: 6039 473c 496f 09bd 3b5c a83c a0aa 673d
000001c0: d325 a1bc a257 9fbd d050 ddbc f604 40bd
000001d0: 0c94 24bc bf4d f83b b6fe a73b ffc3 2abd
000001e0: 47f5 44bd 3981 733c 03dc 8ebc d8f0 bbbc
000001f0: c440 31bd 2d90 72bc 07c3 023c faef 94bd
00000200: ed37 dd3c 3fdf f53b 06a2 a2bc a92a 6bbd
00000210: a234 aabc a6a7 053c c6e3 f93c efa0 7a3c
00000220: 540b 483d ed99 1fbb cd35 573d 4010 5ebd
00000230: 48a7 413c f5e4 e03c 8023 993c a2c6 83bd
00000240: 9afe 253d 2a38 4bbc 374a 563c cb03 cbbc
00000250: f08c 00bb 1728 253d 5841 15bd 80a3 fabc
00000260: 6687 4f3c b0be 223d 6822 87bc a223 42bd
00000270: 7340 883d 608c b83d f084 33bd 0f56 38bd
00000280: 8ae2 afbb aa2b 72bd 7a34 833d ade6 603d
00000290: fcd8 6abd 7bbb debc 8fbd 413d 8dc6 7e3b
000002a0: 3b7b 34bd 9c17 143b 86ed 473d d1f2 b0bc
000002b0: b9f8 a13d 9775 533c 25d4 b1bc 68cf 81bd
000002c0: 18b4 06bd ecae 50bd e8d2 cc3b 95ff 32bd
000002d0: e227 303d 09cc 323c 063f 10bb af5c 9dbb
000002e0: 4f24 a23c eb6b 14bd 8e90 893d 6894 903c
000002f0: 09cb 893d 7948 fcbc 6673 83bd 26db 9abc
00000300: 4a5e 603b 3c9f b8bc 1d79 5cbd db4f 52bd
00000310: 1baf 273d 1494 923d f451 7b3c c23f 48bd
00000320: 887c 5b3b a218 17bd 74ad 8d3c 2f1b 19bd
00000330: 9e03 9b3d 6063 243d 5214 d1bc 4dfd c2bb
00000340: c3b3 713d 8133 463c 8ed0 8a3d 0040 82bd
00000350: 2141 e43c e50c 3fbd 51a3 8ebc 84f4 7bbc
00000360: 4519 c2bc 3219 03bd 143f c7bc f328 eebc
00000370: 10ed 8dbc cb51 9fbb 0ea8 2cbd e8c9 48bd
00000380: 3daf febc 3d60 d3bc e2cd 463c 619b 8f3d
00000390: 6ec8 60bd 8cf4 9b3c 7324 1dbc e453 ed3c
000003a0: aeb2 8c3d 2593 60bc c0a4 69bc ef48 b73d
000003b0: ebd9 f5bc cab6 0abd b595 28bd 5a8c 923c
000003c0: afaf b73d 4999 853d 88f8 1ebc 8e76 743d
000003d0: efc7 703d ca1e f43c 8019 3c3c bf52 c03d
000003e0: f5cf 963d 5d07 7fbc eab4 a9bc 02fa 1fbd
000003f0: 8422 4cbd 6769 73bd b413 bcbc 2b4a c23b

0.model_cnn.layer4.0.bias f4 [128]
0.0001291505 2.9444003e-05 0.0003563887 0.0023626604 -8.733122e-05 0.003676094 0.0006626116 0.00080727
0.0006381279 0.00094605255 -0.0015413325 0.00022594212 -0.0009226592 -0.0061555267 0.013263938 0.0009870878
0.014742098 -0.0004254841 2.4662007e-05 -0.00045620828 -0.00060508127 0.00059899833 -0.001353246 0.00018196428
-0.010951948 0.0011243706 -0.0012525172 -0.008881436 -0.0054788683 0.00020299763 -0.008726728 0.0020138617
0.00019825218 0.00031086802 -0.005281332 0.013695931 -0.00021489048 -0.00081371947 3.8632592e-05 0.0013677862
8.6518834e-05 -0.0006227119 -0.004905329 0.00366173 0.0060997778 0.0011719645 0.000105600695 -0.0005427979
-0.005647522 0.009681571 -0.0010170673 -1.96478e-05 0.012115643 0.014657529 0.0005887716 -0.00070168334
1.5763071e-06 -0.00021786056 0.0008101548 3.305304e-05 0.0001750714 0.00030417077 -0.013910955 0.0040073805
-0.004178777 -0.00045069258 -0.0030200153 -0.0010246088 0.012880895 -0.006351695 0.0009942562 -0.00036726784
-0.006117456 0.0002818869 -0.008337318 -3.658638e-05 -0.011474242 0.0006853864 7.6337405e-05 -0.00012084759
0.00020893704 -9.270765e-05 0.0034232717 0.0009133677 0.00040411096 0.0004241813 -0.00034279365 -0.00042662545
-0.0003072699 -0.0037497361 -0.00012928774 0.0004496166 -0.0047470094 -0.0003746432 -0.015014144 3.6911173e-05
-0.0005708747 0.014339923 0.00033587642 -0.0077573615 -0.008464014 -0.00016232165 -0.0008391157 -0.00023701103
-5.6303717e-05 -0.00012849999 -0.0002195941 -0.012470941 -0.013901741 -0.0005961641 0.005910938 0.0005383393
0.00019695744 0.000186594 -0.00042128513 -0.005982236 -0.00015556044 0.00011542638 -0.00031880254 -0.000270509
-0.00046196283 0.0010994312 -0.0093013 -0.00039996297 0.0004960114 -0.0066674845 0.00090776506 0.00086315064
00000000: 936c 0739 84fe f637 aed9 ba39 ddd6 1a3b
00000010: 9725 b7b8 a0ea 703b 1db3 2d3a f99e 533a
00000020: 0a48 273a 8300 783a 8906 caba e0ea 6c39
00000030: 9cde 71ba 4db4 c9bb fd50 593c 2c61 813a
00000040: d788 713c 8213 dfb9 42e1 ce37 3d2f efb9
00000050: 519e 1eba 1906 1d3a 675f b1ba aacd 3e39
00000060: cd6f 33bc 9e5f 933a 812b a4ba 7183 11bc
00000070: 1488 b3bb c3db 5439 8dfa 0ebc fefa 033b
00000080: eae1 4f39 00fc a239 060f adbb e664 603c
00000090: 3954 61b9 ca4f 55ba 6e09 2238 4a47 b33a
000000a0: 7271 b538 7d3d 23ba e2bc a0bb a3f9 6f3b
000000b0: a5e0 c73b 9a9c 993a f175 dd38 8d4a 0eba
000000c0: d90e b9bb 749f 1e3c 1e4f 85ba 54d1 a4b7
000000d0: b180 463c 2226 703c cb57 1a3a 2cf1 37ba
000000e0: 8091 d335 8071 64b9 9160 543a 6ea2 0a38
000000f0: 5f93 3739 1c79 9f39 c6ea 63bc 5850 833b
00000100: 1fee 88bb ef4a ecb9 73eb 45bb 2b4c 86ba
00000110: 640a 533c e121 d0bb b451 823a db8d c0b9
00000120: f174 c8bb 38ca 9339 3f99 08bc 5474 19b8
00000130: 76fe 3bbc 81ab 333a 5517 a038 8e6f fdb8
00000140: 1c16 5b39 0a6c c2b8 f858 603b 126f 6f3a
00000150: dbde d339 a664 de39 fcb8 b3b9 b3ac dfb9
00000160: 1119 a1b9 22be 75bb 6a91 07b9 85ba eb39
00000170: cd8c 9bbb c26b c4b9 e2fd 75bc 12d1 1a38
00000180: c1a6 15ba fff1 6a3c 9218 b039 7731 febb
00000190: a6ac 0abc e334 2ab9 1af8 5bba 2a86 78b9
000001a0: a827 6cb8 f4bd 06b9 d842 66b9 eb52 4cbc
000001b0: 21c4 63bc e547 1cba 8bb0 c13b 571f 0d3a
000001c0: 5c86 4e39 72a8 4339 efdf dcb9 a206 c4bb
000001d0: f01d 23b9 1111 f238 f424 a7b9 1ad3 8db9
000001e0: 9a33 f2b9 ca1a 903a 7b64 18bc 1fb2 d1b9
000001f0: c306 023a ea7a dabb 15f7 6d3a 0f45 623a

0.model_cnn.layer4.1.weight f4 [128]
1.0042862 1.0025678 1.0154219 1.0178797 1.0065012 0.9950028 1.0040768 0.9993242
1.0124587 0.9944269 1.0230759 0.9952589 1.0239676 1.0049263 0.98927355 1.0089494
1.0003185 1.0203426 1.0032774 1.0178428 1.0184705 1.0208334 1.0238066 1.0085468
0.99503875 1.0124223 1.0018547 0.99662834 1.0034276 0.9993352 1.0038669 0.99150366
1.0129664 0.994382 1.0084685 1.0082898 1.0031339 1.0168266 0.996289 1.0015832
0.98817474 1.0009468 1.0162249 1.0037811 1.0136651 1.0215998 0.9947472 1.0009353
0.99229187 1.0090413 0.9963769 1.0189081 0.9897369 1.0067351 1.0040256 0.99704975
0.99995524 1.0046917 1.0181069 0.98611236 1.0042897 1.00473 1.0076867 1.0203766
0.99862564 1.0200075 0.997101 1.0150738 1.0152909 1.0233293 0.99452335 0.9926118
1.0263759 0.99218255 0.9945556 0.9864289 1.0203078 1.0225754 0.9827814 0.99535227
0.9914501 1.0078825 1.0063715 1.0042871 1.0124799 1.0063996 0.9950416 0.99759656
0.98826355 1.0253022 0.9958995 0.9851914 0.9991319 1.0057234 1.0117916 0.99371845
0.9949025 1.0161713 1.0152582 1.016236 1.0013108 0.99780065 1.0025688 0.9992806
0.9968883 0.98182094 0.9909142 1.0238674 0.994732 1.012294 0.9966329 1.0157954
1.022391 1.0061357 1.007063 1.0117383 1.0136287 1.005367 0.9988758 1.0046649
1.0056688 0.9980162 0.992316 0.9945667 1.0122321 1.0102159 1.0095339 0.9896033
00000000: 738c 803f 2454 803f 58f9 813f e249 823f
00000010: 08d5 803f 81b8 7e3f 9785 803f b6d3 7f3f
00000020: 3f98 813f c392 7e3f 27f4 823f 4ac9 7e3f
00000030: 5f11 833f 6da1 803f 0841 7d3f 4125 813f
00000040: 700a 803f 969a 823f 656b 803f ac48 823f
00000050: 3e5d 823f abaa 823f 180c 833f 1018 813f
00000060: dcba 7e3f 0e97 813f c63c 803f 0923 7f3f
00000070: 5170 803f 6fd4 7f3f b67e 803f 2fd3 7d3f
00000080: e2a8 813f d28f 7e3f 7f15 813f a40f 813f
00000090: b166 803f 6027 823f cc0c 7f3f e133 803f
000000a0: 05f9 7c3f 061f 803f a813 823f e67b 803f
000000b0: c7bf 813f c8c3 823f c1a7 7e3f a61e 803f
000000c0: d706 7e3f 4428 813f 8e12 7f3f 956b 823f
000000d0: 665f 7d3f b2dc 803f e983 803f a73e 7f3f
000000e0: 11fd 7f3f bd99 803f 5451 823f dc71 7c3f
000000f0: 918c 803f fe9a 803f e1fb 803f b39b 823f
00000100: eea5 7f3f 9b8f 823f 0342 7f3f f0ed 813f
00000110: 0df5 813f 74fc 823f 1599 7e3f cf1b 7e3f
00000120: 4960 833f adff 7d3f 329b 7e3f 9b86 7c3f
00000130: 7299 823f c0e3 823f 9097 7b3f 68cf 7e3f
00000140: accf 7d3f 4b02 813f c8d0 803f 7b8c 803f
00000150: f198 813f b4d1 803f 0cbb 7e3f 7d62 7f3f
00000160: d7fe 7c3f 1a3d 833f 45f3 7e3f 8135 7c3f
00000170: 1cc7 7f3f 8bbb 803f 6382 813f 5564 7e3f
00000180: eeb1 7e3f e711 823f fbf3 813f 0514 823f
00000190: f42a 803f dd6f 7f3f 2d54 803f dad0 7f3f
000001a0: 1234 7f3f 9e58 7b3f 8eac 7d3f 160e 833f
000001b0: c2a6 7e3f da92 813f 5523 7f3f 9505 823f
000001c0: b5dd 823f 0ec9 803f 71e7 803f a480 813f
000001d0: 96be 813f deaf 803f 53b6 7f3f dc98 803f
000001e0: c1b9 803f fd7d 7f3f 6c08 7e3f ec9b 7e3f
000001f0: d290 813f c14e 813f 6838 813f a456 7d3f

0.model_cnn.layer4.1.bias f4 [128]
-0.013901004 -0.019125475 -0.003094913 0.006996798 -0.031335242 -0.03049562 -0.036514997 -0.0012211829
-0.014010871 -0.008261329 0.0028190562 -0.012212869 -0.033757675 -0.004612684 -0.03154166 -0.03182931
-0.005900607 -0.026173403 0.0018607993 -0.009905721 -0.029865174 -0.035334554 -0.028949838 0.003049101
-0.00627643 0.0006534849 -0.007206619 -0.005091443 -0.017231269 -0.004598312 -0.0020713352 -0.0012905113
-0.00070333586 -0.002447508 0.0025875731 -0.027455023 -0.014737451 -0.0017347528 -0.00784151 -0.011934836
-0.022022378 0.002254943 -0.027917698 -0.00375747 0.0032056887 -0.004237036 -0.0057537616 -0.013511389
-0.016112577 -0.012634425 -0.0133007 -0.0037700855 -0.03022141 -0.021674406 -0.011795209 -0.0069981143
-0.0048917974 -0.0046036514 -0.0017840129 -0.016580991 -0.0034143028 -0.008991614 -0.015804484 -0.005561721
-0.029958649 -0.0032828483 -0.026538294 -0.006730101 -0.014849241 -0.019646622 -0.024557287 -0.0091047585
-0.0023752553 -0.017796965 -0.0005213666 -0.014655932 -0.0015124029 0.004850434 -0.017775485 -0.017823005
-0.008331844 -0.00985051 -0.020381577 -0.004382215 -0.015089135 -0.014946497 -0.014259071 -0.020298218
-0.016755922 -0.0041851983 -0.00066212256 -0.021540355 -0.0068483567 -0.027979365 -0.004921424 -0.010322854
-0.006213494 0.009529333 -0.00014559046 -0.009961364 -0.004990927 -0.005700884 -0.022755787 -0.025134219
-0.009207491 -0.017667627 -0.0029447018 -0.012347126 -0.0046193977 -0.021019537 -0.028992908 -0.015288452
-0.010185446 0.0029469477 -0.015603846 0.0009219508 -0.011580144 -0.028872605 -0.0053027617 0.0013213919
-0.008946589 -0.0003950545 -0.026526498 -0.013473845 -0.01993872 -0.015364845 -0.009277285 -0.02456096
00000000: 09c1 63bc 07ad 9cbc 06d4 4abb 6545 e53b
00000010: 6259 00bd f3d1 f9bc c090 15bd 1910 a0ba
00000020: da8d 65bc 865a 07bc eabf 383b 7c18 48bc
00000030: 7d45 0abd ff25 97bb d431 01bd 735f 02bd
00000040: e159 c1bb 9b69 d6bc 10e6 f33a 9b4b 22bc
00000050: cfa7 f4bc f7ba 10bd 3628 edbc 6dd3 473b
00000060: 83aa cdbb a14e 2b3a 8025 ecbb 1fd6 a6bb
00000070: 9728 8dbc 70ad 96bb 3dbf 07bb 6026 a9ba
00000080: 1260 38ba 5f66 20bb 4694 293b 5be9 e0bc
00000090: 5a75 71bc a560 e3ba ad79 00bc 558a 43bc
000000a0: 4668 b4bc aac7 133b a8b3 e4bc e33f 76bb
000000b0: 8816 523b d6d6 8abb 0d8a bcbb df5e 5dbc
000000c0: 86fe 83bc 9f00 4fbc 2eeb 59bc 8a13 77bb
000000d0: e492 f7bc 868e b1bc b140 41bc 7050 e5bb
000000e0: 5f4b a0bb 3ada 96bb 8ad5 e9ba dcd4 87bc
000000f0: 7fc2 5fbb 9051 13bc 6878 81bc 193f b6bb
00000100: d76b f5bc 0e25 57bb d666 d9bc 2e88 dcbb
00000110: 3b4a 73bc f4f1 a0bc 5d2c c9bc 202c 15bc
00000120: 2caa 1bbb f1ca 91bc 52ac 08ba 6f1f 70bc
00000130: d23b c6ba 64f0 9e3b e59d 91bc 8d01 92bc
00000140: 4982 08bc 0964 21bc 44f7 a6bc af98 8fbb
00000150: 6b38 77bc 27e2 74bc e19e 69bc 7348 a6bc
00000160: b743 89bc fd23 89bb 4b92 2dba 6675 b0bc
00000170: 2e68 e0bb fb34 e5bc e643 a1bb 3021 29bc
00000180: 919a cbbb eb20 1c3c a4a9 18b9 fd34 23bc
00000190: ee8a a3bb 7bce babb 586a babc 47e6 cdbc
000001a0: 04db 16bc b3bb 90bc e6fb 40bb 9a4b 4abc
000001b0: 515e 97bb 2a31 acbc 8982 edbc 6a7c 7abc
000001c0: dbe0 26bc 9421 413b 46a7 7fbc 12af 713a
000001d0: a5ba 3dbc 3e86 ecbc cac2 adbb 8e32 ad3a
000001e0: b794 12bc 511f cfb9 194e d9bc 67c1 5cbc
000001f0: 8756 a3bc d5bc 7bbc c1ff 17bc 1134 c9bc
