checkpoint/DA/s_0_1_t3/cnn_features_1d_0925-180509/108-1.0000-best_model.pth (torch, 944127 bytes, 30 tensors)

0.model_cnn.layer1.0.weight f4 [16, 1, 15]
00000000: ed5f 683e a690 0c3e c9fa da3c 478f 63be
00000010: d482 2cbd ab21 19bd eecb 73be e100 10be
00000020: a23d c73c 6faf d7bd 251d 503d ebe5 5d3e
00000030: ac9d 2bbd 9c33 87be 415c c73d 3f6d 313e
00000040: 740a 403e 249e 2cbe 086e dabb 1ae0 13be
00000050: d2dc 7ebe 4182 da3d ecf3 5d3e af23 8abe
00000060: 87f5 a23d a1ee 9cbe 51a3 29be 0dfe a9bc
00000070: d3c3 8ebe d6f5 b53d abac ad3e ad59 303e
00000080: 9a4b f93d d9f0 1d3e 204c 8cbd e8fa 39bb
00000090: 6457 e23d bb4d 87bd 9b3e 84bd 013a 4fbe
000000a0: fa7a 4a3e 5559 8dbe cb2d 2f3e 74f8 8c3d
000000b0: a48e 77be 714c 88be e767 5fbe 5af3 4ebd
000000c0: afc7 0ebe 1854 67be 6f7a 2dbc 6782 363e
000000d0: 4c7c 76be 6280 b9bd b9a0 f4bc b0f8 11be
000000e0: 1483 213d 8b35 babd 9bb5 debd b6aa 923e
000000f0: c251 83bd f4f6 013e 2f0a 823e 6782 35be
00000100: dacb 49bd b106 9b3d b211 423e c5f1 a33e
00000110: d874 3cbe 875f 4bbd 4d35 d63d 285f 9cbd
00000120: 9c6e 1a3e 7857 9fbd 621f 9abc 6135 883e
00000130: 6e2b 213e e5b5 49bc 9c14 723e 1d79 0a3e
00000140: a58e 6a3e 32ba 4f3c 1318 3c3e ea86 11bd
00000150: 5131 f5bd 6e61 b0bd 2e51 3dbe 0622 5f3e
00000160: 3168 34be 4454 a6be 289f fabd 9f79 44be
00000170: eb66 303b 976b 543e bad8 dd3d a0e0 813d
00000180: 9aaa 793e 739a 1abe 8c8e 3b3e 8694 52be
00000190: 81b8 41be c407 11be 13d8 95be de2e 0a3e
000001a0: 8afa 45bd b724 19be dda3 063e b65b 84be
000001b0: f0fc 463c 4575 70be 649e 103d d067 143d
000001c0: 12b2 193e 77f4 50bd 3cc1 8a3c ec73 6b3e
000001d0: 0577 79be 55d0 493d 12b9 ad3d 055c 05be
000001e0: 0a85 63be 77bb 34be 385b 393d 0a1e 22be
000001f0: 0bd0 423e a56e 8dbc bfee 16be 8832 85bc
00000200: cf1b 1fbe a0c1 493e 4dab 433e ab4f 6cbc
00000210: dfe1 f7bd 9c3a 04be a253 69be 6188 473c
00000220: f1b1 073e 2d6f e8bd cbfd 83bb bd99 18be
00000230: cd3e cbbd 0a2c 613e 10cb 70bd db6c 1e3e
00000240: 85b5 06be 0e72 5bbd ec11 053e e33e 73be
00000250: 9ad8 dc3d 1144 94be dfac 3abe aa59 783e
00000260: 37f9 0bbe dad4 2b3e 8bca c63d 90ca af3d
00000270: a78d ddbd 5501 783e e291 aa3d ab0b 143d
00000280: 260d 8d3e a362 38bd 7446 ddbb 5f59 823e
00000290: 98f1 63be 63d3 153d a119 7a3e b98a 91be
000002a0: 3c6a 16be 02b5 60bd 441e 1dbd 5694 f2bd
000002b0: 36c8 0abe 2fea 7abe a30d 2a3d c63d 8f3e
000002c0: bbfd 62bd f399 d73d f225 1f3d 1b7a 80bc
000002d0: a896 06bd 3340 0dbe 9d31 4b3e 38a9 6a3e
000002e0: 8149 01be fa7c ecbb 8e79 69be a9e1 3fbe
000002f0: 7b65 e03d d028 543e 456e 363e 118b ef3d
00000300: 55a8 02be ecf0 9ebe f21e 40bd 725c dbbc
00000310: 4097 aa3d cefe 9b3d 2ed9 863c 22d3 2b3e
00000320: 2b2a 263e 33be 85be 0b3f 863e 48ef 413c
00000330: 9fab 7d3e 831d 7c3d f00b 24be d0be 44be
00000340: 4657 f1bd 7d76 ca3c e59e 54be 71b1 a43d
00000350: 12f2 e5bc 05ae a23d c8a1 843d 6ac8 083d
00000360: cf66 a7bd ba86 15bd 3c27 2e3d 0ac5 15be
00000370: 3e72 74be 2b19 9b3d 8453 24be 09dc 9bbe
00000380: 3762 293e 6d4f efbd 92ba 183e 2d76 69bd
00000390: 1816 22be 61bc 753e ecbe 21bd 1c90 cd3c
000003a0: 0003 1c3e 2c13 33be 7495 b43d 0aa4 e93d
000003b0: 62b4 cdbc 36e8 873e c456 0bbe c487 fc3d
0.22692843 0.13727054 0.026730912 -0.22222625 -0.042116955 -0.037385624 -0.23808262 -0.14062835
0.024321381 -0.10531508 0.050809044 0.21669738 -0.041898414 -0.26406562 0.09734393 0.1732683
0.18753988 -0.16857201 -0.006665949 -0.14440957 -0.24888924 0.10669375 0.2167508 -0.2698035
0.07956987 -0.3065081 -0.16566207 -0.020751024 -0.27883777 0.0888478 0.33920798 0.17221709
0.12172623 0.15423907 -0.06850457 -0.0028378312 0.11051825 -0.06606623 -0.064572535 -0.2023697
0.19773474 -0.27607217 0.17107312 0.06883326 -0.24175507 -0.2662082 -0.2181698 -0.050525047
-0.13943361 -0.22590673 -0.0105882725 0.17823182 -0.24070853 -0.0905769 -0.029861795 -0.14255023
0.039431646 -0.09092244 -0.10874482 0.28645867 -0.064120784 0.12691861 0.25398394 -0.17725526
-0.049266674 0.07569636 0.18952063 0.32020393 -0.18403947 -0.04965165 0.10459385 -0.07635337
0.15081257 -0.07780355 -0.018813793 0.26603225 0.15739223 -0.012311433 0.23640674 0.13522764
0.22905977 0.01267867 0.18368559 -0.035529055 -0.11972297 -0.08612333 -0.18487999 0.21790323
-0.17617871 -0.32486165 -0.12237388 -0.1918702 0.0026916813 0.20744167 0.10832353 0.06341672
0.24381486 -0.1509798 0.18316096 -0.2056447 -0.18918039 -0.14163119 -0.29266414 0.13494441
-0.048334636 -0.14955412 0.13148446 -0.2585122 0.012145266 -0.23482235 0.035307303 0.036231816
0.15009335 -0.05101439 0.016937844 0.2299344 -0.24361809 0.049270947 0.08482565 -0.13023384
-0.22218719 -0.17649637 0.04525301 -0.15831771 0.19024675 -0.017264673 -0.14739512 -0.016259447
-0.15537952 0.19702768 0.19108315 -0.014423291 -0.12103628 -0.12912983 -0.2278581 0.012178511
0.13251473 -0.1134933 -0.004028057 -0.14902397 -0.09924088 0.21989456 -0.058787405 0.15471213
-0.13155182 -0.053575568 0.12995118 -0.23754458 0.10783501 -0.2895818 -0.18230008 0.24252954
-0.13669287 0.16780415 0.09706601 0.085835576 -0.10818034 0.24219258 0.08328606 0.03614394
0.27549094 -0.045015942 -0.0067527834 0.2545881 -0.2226013 0.036578547 0.24423839 -0.2842615
-0.14688963 -0.054860123 -0.03835894 -0.11844699 -0.13552937 -0.24503396 0.04151691 0.27976817
-0.055417757 0.1052741 0.038854547 -0.015683224 -0.03285852 -0.13794021 0.19843145 0.22916114
-0.12625696 -0.007217047 -0.22800276 -0.18738426 0.10956856 0.20718694 0.17815502 0.11696447
-0.12759526 -0.31043184 -0.04690451 -0.02677748 0.0832963 0.076169595 0.016460981 0.1677976
0.16227023 -0.26121673 0.26219973 0.011836834 0.247725 0.061551582 -0.16020179 -0.19213414
-0.11784224 0.024714703 -0.20763738 0.08041657 -0.02806953 0.07943348 0.0647617 0.033394255
-0.08173906 -0.03650544 0.042517886 -0.14625946 -0.23871705 0.0757316 -0.16047484 -0.3044131
0.16541372 -0.11685071 0.14914921 -0.056997467 -0.1582874 0.23997642 -0.039488718 0.02509313
0.1523552 -0.17487782 0.088175684 0.11408241 -0.025110427 0.2654435 -0.13607317 0.12330583

0.model_cnn.layer1.0.bias f4 [16]
00000000: 46a0 dfb9 39b5 80bb c8af 93bc ab23 08ba
00000010: 4343 52ba f0e0 88ba 9bdb cc3b 4725 12b9
00000020: e6de 91bb 3dae 27ba bbc2 98bb 788a 3bb9
00000030: 1e1d daba fa7b 243c 8854 0dbc 2ba6 193c
-0.00042653288 -0.0039278534 -0.018028155 -0.0005193303 -0.0008020887 -0.0010443013 0.006251765 -0.00013937532
-0.0044516204 -0.0006396508 -0.0046618856 -0.00017885293 -0.0016640758 0.010039324 -0.008626111 0.009377996

0.model_cnn.layer1.1.weight f4 [16]
00000000: 97c0 653f ccae 7c3f a93b 863f 5b31 723f
00000010: 811b 723f 0947 7c3f 4a66 823f 8a06 6b3f
00000020: 9f00 853f b4e2 913f 05b1 8c3f 4947 6d3f
00000030: af12 853f 58e0 803f 9268 6e3f 16d6 7f3f
0.89746994 0.9870422 1.0486957 0.9460656 0.9457322 0.9854589 1.0187466 0.9180685
1.0390815 1.1397309 1.0991522 0.926869 1.0396327 1.0068464 0.9312831 0.99936044

0.model_cnn.layer1.1.bias f4 [16]
00000000: eafb 78bd 3e52 ed3b 5be5 7d3d b19f 19bc
00000010: e577 86bc 1e67 0bbe 9a68 b23c 932a 5c3d
00000020: 2d03 3cbd 73e6 583e 0645 b83c b984 10be
00000030: 19ae 803d 4bad b9bc eae6 89bd 48a4 4bbd
-0.06078712 0.00724247 0.06198631 -0.009376452 -0.016414592 -0.13613555 0.021778394 0.05375154
-0.045901466 0.2118166 0.02249385 -0.1411313 0.062832065 -0.02266564 -0.067334965 -0.049717218

0.model_cnn.layer1.1.running_mean f4 [16]
00000000: 68a4 b0b9 015e c1ba 0b94 9dbc f0de a0b9
00000010: ab0c c4ba 917e d6b9 ab83 9a3b 8306 f0b9
00000020: c743 40bb 6d7f af39 bda4 33bb bb56 71b8
00000030: fa0d ccba 1179 a83b aba8 f9bb 7111 203c
-0.00033691828 -0.0014752747 -0.019235631 -0.0003068368 -0.0014957389 -0.0004091156 0.004715403 -0.0004578122
-0.0029337273 0.0003347354 -0.0027411424 -5.753965e-05 -0.001556813 0.0051413854 -0.0076189837 0.009769783

0.model_cnn.layer1.1.running_var f4 [16]
00000000: dc7d 083f ed63 8e3e 649d a23e 49c6 f83e
00000010: 21d6 9a3e 7c4a 003f f146 ae3e 5263 563e
00000020: b9ce 4a3e a26a cf3d bf0c 3a3e 27ea a33e
00000030: ef4b 643e 62dd 423e ab89 cb3e ef42 d33d
0.53317046 0.27810612 0.31760705 0.4858878 0.30241492 0.50113654 0.340385 0.20936325
0.19805421 0.101277605 0.18168925 0.32014582 0.22294591 0.19029763 0.3975347 0.10315501

0.model_cnn.layer2.0.weight f4 [32, 16, 3]
00000000: 9cf0 b43d db89 04be 1fb0 febd 8bc6 96bc
00000010: 41df b4bd b53f 76bd 63e5 803d e1b3 54bd
00000020: 37de 933d 8f34 a33d 34e9 bb3c 1b79 f23d
00000030: b3c8 073e f765 4dbd d0ac 933d 4f2f b53d
00000040: 8d8c d13d c9f8 0dbd f66d 62bd 73e1 373e
00000050: 4a0f f0bb ea21 20bd cac6 c23c c9d3 09be
00000060: d942 103d 2fd4 033e bc7d 7dbc 1d5a 973d
00000070: 91da dd3d 5d94 79bd dc80 693e 2dc4 543e
00000080: 8f75 d83d d11c bebb 113e d5bd 8715 69bc
00000090: 7a77 673d bad0 a2bd 13ec 63bd 06cb 503d
000000a0: 9f07 b43d ca50 953d f4b9 2e3d d468 b23c
000000b0: 7330 d7bd 7b45 0bbe e651 0b3e e623 733d
000000c0: 8d54 953d 222d 61bb 0c39 203d 41a2 5e3d
000000d0: 4e07 92bd 48c6 59bd 17d9 003d 2241 61bd
000000e0: abc4 0abd 13bc 04be af3a 0bbd 4760 ddbc
000000f0: 3661 78bd e6ab f63d 03d8 f0bd 1a4a 9ebd
00000100: f9b1 09be 8d7e 52be 4c3a 8dbd bb3c 713d
00000110: ed9b 083e 3196 583d fe0c b4bd b0a3 debd
00000120: 64a2 023e 165f 093e abda d93d f596 c03c
00000130: 80f9 c2bc c0b0 42bd 54fc cfbd 73f5 f7bd
00000140: bccd d33d 4b4b 203e c646 c93c 2a7a 51bc
00000150: bd75 6a3d 38f2 1e3e bea9 1f3e d4ac 1d3d
00000160: 2576 0d3e 815f 233e 8f8f 93bd 0231 373c
00000170: 8794 cfbd 0c6c 5f3c f7c8 0abe ee64 b1bc
00000180: bde9 b53d ca8f 1dbd f96e a73c 454d e9bc
00000190: bbce 4dbd 618e 403d e023 48bd 1561 893d
000001a0: 87d5 41bd 8cd3 f43c a94e a63d 8190 90bd
000001b0: a620 583d f583 2abe 2075 a03d 541c a93d
000001c0: d415 ff3d 710a e7bd 6b64 e5bd 2b72 f03c
000001d0: ae74 0ebe be07 27be 0c3b a5bd bc3a febd
000001e0: cf84 d33c 6954 7e3c a0b4 bdbd bc65 50be
000001f0: 4b67 263e 55e6 a0be 56a1 f6bd 7cac cd3d
00000200: fbf3 b0bd 224d dfbd 7dd8 33bd 6643 27bd
00000210: c723 823d 743c 01be 8515 0abe af5c 4a3e
00000220: 2e31 97bd bee1 2d3e 304e 21bd e997 bebd
00000230: 8fd8 d9bd 698a 6a3d af36 da3c a05e 063e
00000240: 7742 06be 9b6b a3bd da15 5f3d cb36 a43c
00000250: d088 cdbd a63c adbd d0a3 883d 2f80 bb3d
00000260: 152b 243e 2ad0 debd 0740 bb3d 3a52 abbd
00000270: 312e 4c3d 4b2c 59bc 0334 bcbd c8ac 6ebd
00000280: daff 14be 0173 b23d 0f9a 8b3d 522b 233d
00000290: d383 28be b749 45bd 46d9 b0bd 850f 523d
000002a0: f6d3 43bd 6381 83bd 8efd 4abe 098d debd
000002b0: 65fb 5ebe e7a9 f7bd 821a a9bc f905 59be
000002c0: 0cc2 9b3c 8152 5dbd c206 863d af1e 0e3d
000002d0: 4520 aa3d 12d4 5abd 54d1 30be 8cc3 39be
000002e0: f5d0 efbd feb7 a73d 13f9 3bbd 9592 843d
000002f0: 9520 9c3d cb1a 6cbe 64a5 e73b 8520 eebd
00000300: bfb8 d13d caa0 f63d 5387 383c 5454 eabc
00000310: 63e7 82bb 5744 4ebb 42e4 d3bd 6827 32be
00000320: 392d a5bb caef ac3d 65d1 14be f543 c83d
00000330: 08b9 3a3e 4d5c 73bd a51c d3bd 6e05 0f3e
00000340: 50d2 363e abbf 1dbb b6ea 973d 0583 363d
00000350: 8370 553c f89a c03d aec3 79be 3985 b9bd
00000360: 1e09 d9bd 87c4 4dbd 3e3a 8abd 2e19 523d
00000370: 394b 233e dc2c 0abd f92c 663d a634 00be
00000380: f182 72be 312f 8ebd 5f27 bfba 1ff3 c0bd
00000390: 60f6 49be 90b1 dcba 015b 273d 2b26 343d
000003a0: 9e2e 25be d17b 5e3d f7a0 f6bd d7a6 b93d
000003b0: 84d6 88bd cbb5 e5bc fa7a 3fbc 9d75 b23c
000003c0: e047 a7bd c9ae d23c fad7 24bd f03f b83c
000003d0: 5da7 313d 4426 0ebe 0cee cfbd ccff 58bd
000003e0: e180 c23d f9f6 cdbd 1350 bebd 86f3 86bd
000003f0: e364 103e 2cc6 f0bd 63d3 1a3e dd5d 913b
0.08834955 -0.12943213 -0.12435936 -0.01840522 -0.08831645 -0.06011935 0.06293752 -0.05192936
0.072201185 0.07969009 0.022938348 0.11839505 0.13260154 -0.05014607 0.07210696 0.08846914
0.10231886 -0.03466109 -0.05528065 0.17957096 -0.0073260413 -0.039094843 0.02377643 -0.13459696
0.03522 0.1287391 -0.015471872 0.073902346 0.10832704 -0.060932506 0.22803062 0.2077796
0.105692975 -0.005801775 -0.10412229 -0.014226324 0.056510426 -0.07949968 -0.05564506 0.05097487
0.08790516 0.072908 0.042657807 0.021778502 -0.10507288 -0.13600723 0.1360546 0.059360407
0.072915174 -0.0034359177 0.039116904 0.054353956 -0.071302995 -0.05316761 0.031457033 -0.054993756
-0.033878963 -0.1296237 -0.033991512 -0.027023448 -0.060639583 0.12044506 -0.11759951 -0.077289775
-0.13446797 -0.20556088 -0.06895885 0.058895808 0.13340731 0.05287761 -0.087915406 -0.10871065
0.1275726 0.13415179 0.10637411 0.023509482 -0.023800611 -0.047531843 -0.1015555 -0.121073626
0.10341975 0.15653722 0.02456988 -0.012785474 0.05724119 0.15522087 0.15592095 0.0384949
0.138146 0.159544 -0.07205116 0.011181118 -0.10135751 0.0136366 -0.13553225 -0.021654572
0.08882473 -0.038467206 0.020438658 -0.028479228 -0.05024598 0.047010783 -0.048862338 0.0670797
-0.047322776 0.02988603 0.08120472 -0.07058812 0.05276551 -0.166519 0.0783484 0.08257356
0.12455335 -0.112812884 -0.11200794 0.029351315 -0.13911697 -0.16311547 -0.08067903 -0.124135464
0.025820164 0.015523055 -0.09262967 -0.20351309 0.1625034 -0.3142573 -0.12042491 0.100426644
-0.086402856 -0.10903384 -0.04390763 -0.04083576 0.0635448 -0.12620717 -0.13484772 0.19761918
-0.07382427 0.16980645 -0.039381206 -0.09306318 -0.106370084 0.057260904 0.026637403 0.13122034
-0.13111292 -0.079795085 0.0544642 0.020045659 -0.100358605 -0.084588334 0.0667187 0.091553085
0.1603206 -0.10879548 0.091430716 -0.08365293 0.04984874 -0.013255189 -0.09189608 -0.058270246
-0.14550725 0.087133415 0.06816494 0.039836235 -0.16456537 -0.048166003 -0.086351916 0.05128433
-0.047809564 -0.06421163 -0.19823286 -0.10866744 -0.21775587 -0.12092953 -0.020642523 -0.21193685
0.019013427 -0.05403376 0.06544258 0.03469723 0.08306936 -0.053424902 -0.17267352 -0.18141001
-0.11709777 0.081893906 -0.045891833 0.06473271 0.07623402 -0.23057096 0.0070692766 -0.11627296
0.10240316 0.12042387 0.011262733 -0.028604664 -0.0039948686 -0.003147384 -0.10346271 -0.17397845
-0.0050407914 0.08444174 -0.14533003 0.09778587 0.18234646 -0.059414197 -0.10308198 0.13966915
0.17853665 -0.0024070542 0.074178144 0.044558544 0.013027313 0.09404558 -0.24391052 -0.09058613
-0.10597442 -0.05023625 -0.0674939 0.051293544 0.15946664 -0.033734187 0.056195233 -0.12520084
-0.23682763 -0.06942595 -0.0014583877 -0.09421372 -0.19722891 -0.0016837586 0.040858272 0.043981712
-0.16131064 0.0543173 -0.1204242 0.09065025 -0.066815406 -0.028040787 -0.011687035 0.021784598
-0.08168006 0.02571811 -0.040245034 0.022491425 0.0433725 -0.13881785 -0.10152826 -0.052978322
0.09497238 -0.10056872 -0.09292617 -0.06589417 0.14100985 -0.11756548 0.151197 0.004436238

0.model_cnn.layer2.0.bias f4 [32]
00000000: aa5e 8f3a 6cad af37 c154 223a 7fc6 e6b9
00000010: b427 b33a 1408 2238 cb4e c2bb a4d8 e83a
00000020: 1eb5 ceb8 1eb5 c4ba 8375 ac39 316d ffb9
00000030: 9c84 db3a f0d9 b4b9 3f60 ce3a 401d 10bb
00000040: 765e 9a3a 3fa2 17bc 86e8 0db8 83f8 98ba
00000050: cca6 bb3a 35f4 8d3a 3b6a 40bb 7946 1ebb
00000060: 3acd 563b eae5 eeb8 03d9 663a 6145 b53a
00000070: 69ec bfba 7b3c 983a b705 fb3a d121 18ba
0.0010938246 2.0942382e-05 0.0006192439 -0.0004401691 0.0013668449 3.8631333e-05 -0.005929803 0.0017764759
-9.856581e-05 -0.001500759 0.0003289395 -0.00048718744 0.0016747895 -0.00034494651 0.0015745236 -0.002199009
0.0011777419 -0.009254991 -3.3833574e-05 -0.0011670742 0.0014316677 0.0010830226 -0.0029360193 -0.0024150892
0.0032776133 -0.00011391549 0.0008806141 0.0013829881 -0.0014642599 0.0011614704 0.0019151483 -0.0005803379

0.model_cnn.layer2.1.weight f4 [32]
00000000: 2093 733f 20cd 843f f501 8b3f 0c08 703f
00000010: 1b6f 863f de58 6c3f c665 713f a545 823f
00000020: f0e3 7a3f 886d 6e3f 4d61 743f 30a3 6f3f
00000030: 8555 733f 0a20 813f fc80 7b3f ca81 833f
00000040: 16c9 723f 4086 7a3f c133 923f a157 873f
00000050: 91d1 733f 646e 7e3f aa8c 7f3f eace 6c3f
00000060: b554 843f 711c 823f ac7b 763f 4467 7a3f
00000070: 18a7 643f dbc8 783f c708 8b3f 6148 733f
0.9514637 1.0375099 1.0859972 0.9376228 1.0502657 0.923231 0.9429592 1.0177504
0.98004055 0.9313588 0.9546097 0.9360838 0.9505237 1.0087903 0.9824369 1.0273983
0.9483808 0.978611 1.1422044 1.0573617 0.9524165 0.9938719 0.9982401 0.92503226
1.033835 1.016493 0.9628246 0.9781382 0.89317465 0.9718148 1.0862054 0.95032316

0.model_cnn.layer2.1.bias f4 [32]
00000000: e67a 7abe cb43 ebbd d9fa 4d3d 903c 893b
00000010: 811b 2fbd 5220 43bd 63e7 a7bd 12d6 c4bd
00000020: 6b1c 92bd eb37 24bd fddd 8ebe 29dd 7dbe
00000030: 7a51 6fbe 4412 a13d bd55 c7bd 0992 a0bc
00000040: b6d9 04be 51e0 abbd fd7a 453e ed61 97be
00000050: bd3a c9bd 742d 25bd b148 ccbd 8826 23bd
00000060: af65 f1bd 8d5c 6cbd 498e 9bbe fc0c 8ebd
00000070: ab3a 61bd 9ba1 90bd 1879 993d 264d a7bc
-0.24460945 -0.1148754 0.050288055 0.004188128 -0.04275084 -0.047638245 -0.081984304 -0.09611143
-0.071343265 -0.04009239 -0.2790374 -0.24791397 -0.23370925 0.07864812 -0.0973315 -0.019600885
-0.12973675 -0.08392394 0.19285198 -0.295669 -0.098256566 -0.04032655 -0.09974802 -0.03983167
-0.11786973 -0.05770545 -0.30381992 -0.0693607 -0.05498759 -0.07062074 0.074938 -0.02042253

0.model_cnn.layer2.1.running_mean f4 [32]
00000000: dd22 e23e ea35 2b3d eb7a f2be 34df 44bf
00000010: 0ffb 87be a04a cdbe ccfb 28be fff4 6dbe
00000020: 96e4 b3be 0081 f5be a5e2 193f a6ff d13d
00000030: b8cb 1d3e c656 a5be 3157 2ebe e99e c1bd
00000040: 4a51 4d3e 3be7 42be fe19 30bf 2a26 263f
00000050: c943 93be a19a 91be bfa1 5c3e ee15 28bf
00000060: ba02 cbbd 85cf 2abe 892f da3e a7f2 43be
00000070: 9239 623d 13dd 4ebe a2fe 13be 087b 07bf
0.44167224 0.041799463 -0.47359404 -0.7690308 -0.2655873 -0.40095997 -0.16502303 -0.2323799
-0.35135335 -0.47949982 0.6011146 0.10253839 0.15409744 -0.32292765 -0.17025448 -0.09454138
0.2005054 -0.1903352 -0.6878966 0.64901984 -0.28762653 -0.28438285 0.21546076 -0.6565846
-0.099126294 -0.16680725 0.4261439 -0.19135533 0.055230685 -0.2020152 -0.14452603 -0.52922106

0.model_cnn.layer2.1.running_var f4 [32]
00000000: 205a 763e 062b 8b3e 94e5 753e 871b 053f
00000010: 6dc3 813e 4df8 af3e 6836 343e de2f 433e
00000020: 8967 973e b513 833e 80c6 9e3e 6579 4c3e
00000030: ee4b 303e 395c 783e 63e4 983e 2b02 333e
00000040: 469e 583e 7be2 4a3e 0110 b03e 6136 c13e
00000050: 847c 783e a190 b63e 06cc f53d 2222 ec3e
00000060: b3f9 613e 1d21 463e 792e 963e 74f0 473e
00000070: 92be b63e 8f46 743e 709a 113e 3442 b23e
0.24057817 0.27181262 0.24013358 0.5199513 0.2534441 0.34369126 0.1759888 0.19061229
0.2957118 0.25600973 0.31010818 0.19968183 0.17216465 0.2425393 0.29861745 0.17481296
0.21154127 0.19812958 0.3438721 0.377368 0.24266249 0.35657218 0.12001805 0.4611979
0.22067909 0.19348569 0.2933233 0.1952532 0.3569227 0.23855041 0.1421907 0.34816134

0.model_cnn.layer3.0.weight f4 [64, 32, 3]
00000000: 709e 73bd 6db1 25bc 8f00 85bc 9bc0 d23b
00000010: 97bb d9bd 2145 8f3d f801 633c 31d1 c63c
00000020: 8258 793c 55c1 83bc b020 ccbc 5a32 d5bd
00000030: cb1d 533c 928a 8dbd ac51 c53d cac0 b83b
00000040: 9821 b5bd 80c4 913c 9cbc 283d 402a febd
00000050: bff6 f5bd 91bd 4c3d fe69 c8bd 7ed0 e7bd
00000060: 68cd 623d a8e8 d53d 05cc 3b3d 5f38 df3d
00000070: 84f4 c3bd 8f26 4bbe 8a7e da3b 59d5 113d
00000080: 6368 10bd 3823 91bd c6eb 4d3d c3eb d03c
00000090: 80c2 833d 89ce c13d 9efe dcbc 067e eabd
000000a0: d986 93bc 42e3 c9bd 6397 91bd fd05 febd
000000b0: 94d5 62bd 7404 8fbe d1ad 48bd 4d28 33bc
000000c0: 92d2 f53c b101 eebd 23ef 86bc a036 aebd
000000d0: ccf9 2a3c 7824 f0bd aa58 813d 1dd3 cb3c
000000e0: 0582 53bc d146 0c3c cbc0 f03d 83a1 8e3d
000000f0: 639d 763c 4fc5 b83c c342 33bd dae6 0bbe
00000100: 1a88 26be fa0a 14be aecc 9abd f218 edbc
00000110: 7f54 5f3d 2d10 d9bc 7ffc a53c 2d19 bcbd
00000120: 0aa7 3e3e 2b32 083e 230b cd3c 9ee8 e1bd
00000130: 8b25 2ebe fe4a 57bc a827 9fbd c6c1 dd3d
00000140: 4cc6 4e3c 3a21 c3ba c6d9 bdbd dfba cebc
00000150: 82ea a83c edf1 d1bd ff48 c03b 6a69 05bd
00000160: e655 d73c 7441 c1bd 5ba3 04be 6f89 993d
00000170: b992 4c3d cf67 e5bc 8f87 34bd ca12 2dbe
00000180: 189c 01bd c6e5 7fbd da6a adbd d29e 663c
00000190: de41 c53d 4511 5a3d abb4 9dbd 879f 1a3c
000001a0: c245 06bc f4d8 b73d 7deb a23d 38af ed3d
000001b0: 79d0 0dbe e1a7 13be 8971 1bbe 3f06 a73d
000001c0: f187 903d 3977 abbd fe78 1cbe c5ff 873d
000001d0: 91a2 e63d dd25 1b3d 288e 07bd 3f72 743d
000001e0: f2f4 74bd fc27 56bd 814d fcbd e8ce 973d
000001f0: c6de 4d3c f91a 243d ef87 1d3c 82dc 243d
00000200: 443e 943b 533f 1b3d 8d1f c5bd a8b8 a23d
00000210: 9727 25be 4692 3bbc 7216 613d 0750 eebd
00000220: 1ef9 d9bd c688 00be ee3d 093e eb61 92bb
00000230: f491 ec3d f4a9 903d ab59 bfbd 49db 82bd
00000240: 15d5 bd3d 1d2f bbbd d95f fbbc dd47 08be
00000250: 092f 9c3d 389b 4fbc 3011 a9bd 59fa 0abe
00000260: 5be9 0fbd 66d7 d13d b248 653d 760d 8f3c
00000270: e303 adbd 2903 70bd 5c1f 18bc 02f8 993d
00000280: e6c6 773d 5a10 00bd 00a5 0bbd f672 61bd
00000290: 7b24 80bd 80c0 5bbc f5e0 48bd ef01 ab3d
000002a0: e5c1 0fbd 15b6 bcbd 9bbb d13d cacf 093e
000002b0: 5a2c 623c 7eac 06bd c5dd d63d 420a 9a3d
000002c0: bb28 9c3d 35f5 fd3c 6ebb f93c 3abd 16bd
000002d0: 8625 173e 2d0d 6c3d e954 023e bd8d 2dbd
000002e0: f5cd ce3d 7c12 053d 60a4 07be 7f33 03be
000002f0: 13cd 05be 0057 02bd 41b4 15bd 5ae8 68bd
00000300: 5c91 873d de4d a33d 263a daba ccdc f7bd
00000310: 0aaf 74bd 6cc6 093d ae3e 053d 1c9f 83bd
00000320: 3b21 af3c 9813 743b 1a70 503d c634 013d
00000330: e25f 1abe 0638 c83c a3c0 94bc f1fe 493d
00000340: 0a0f 053d bb2a 1ebe bc01 97bd b32e 16be
00000350: ad1a 033d beea 31bb 9a46 a63d c1f1 3b3c
00000360: d463 07bc cbac 7bbd a870 713d 4bf8 173e
00000370: a325 8bbd ecc8 fcbd 6c67 773a e8dd 923c
00000380: 80a3 a73d 1ecb 9bbd 4517 653d 16a5 843d
00000390: 3f80 fbbd e445 943d fd5d a83d 1ea2 d73c
000003a0: 7c34 a5bd ffd8 53bd 52b0 593d 7d02 a83d
000003b0: db17 bfbd 6e3e 90bd 8069 20bc 7c0a 1f3c
000003c0: c819 983c a792 423d 292d 55bd 14f4 ee3c
000003d0: 3a3a f8bb 9b7b b2bd d3ca b83d baa5 033d
000003e0: abde f83d b693 173e 9261 3a3d 6bfa 503e
000003f0: 9d96 a73d 399a 39bc 6afa d73d f80a e83d
-0.05947727 -0.010113102 -0.016235618 0.006431652 -0.10631483 0.06995607 0.01385545 0.024269672
0.015218856 -0.016083399 -0.02491793 -0.104099944 0.012885521 -0.06911196 0.09634718 0.0056382166
-0.08844298 0.017793894 0.041195497 -0.12410402 -0.12009954 0.049985472 -0.097858414 -0.113190636
0.055371672 0.10444766 0.045848865 0.10899424 -0.09568122 -0.19838928 0.0066679167 0.035603855
-0.0352558 -0.070867956 0.05027368 0.025503045 0.06433582 0.094632216 -0.02697688 -0.11449818
-0.018008636 -0.09857799 -0.07108953 -0.12403486 -0.055379465 -0.27933085 -0.04899389 -0.010934901
0.030007634 -0.11621416 -0.016471451 -0.08506513 0.010435533 -0.11725706 0.063157395 0.02488094
-0.012909417 0.008561806 0.11755522 0.069644 0.015052172 0.022555022 -0.04376484 -0.13662282
-0.16262856 -0.14457312 -0.07558571 -0.028942559 0.05452394 -0.026496971 0.020262001 -0.091844894
0.18618408 0.13300388 0.025029724 -0.11030696 -0.17006509 -0.013140438 -0.07771236 0.10827975
0.01262052 -0.0014887222 -0.092700526 -0.025235591 0.020619635 -0.10251222 0.005868077 -0.032571234
0.026286077 -0.09436312 -0.1295294 0.074969165 0.049944613 -0.028003601 -0.04407459 -0.16901699
-0.031643003 -0.06247499 -0.08467646 0.014075952 0.09631704 0.053239126 -0.07700475 0.009437448
-0.0081953425 0.089769274 0.07955072 0.11605686 -0.13849057 -0.1441951 -0.15180029 0.08155488
0.07057179 -0.08372349 -0.1528053 0.06640581 0.11261476 0.037877906 -0.033094555 0.059679266
-0.05980391 -0.052284226 -0.1231947 0.07412511 0.01256532 0.040064786 0.009614929 0.040249355
0.004524024 0.037902188 -0.096251585 0.07945377 -0.16128384 -0.0114484485 0.054953046 -0.11636358
-0.106432185 -0.12552175 0.1340253 -0.004467239 0.11551276 0.07063666 -0.09343275 -0.063894816
0.09269158 -0.091398455 -0.030685352 -0.13308664 0.07626159 -0.012671284 -0.082552314 -0.13572063
-0.035134654 0.10246162 0.05597753 0.017462473 -0.08448007 -0.058596764 -0.00928482 0.07518007
0.06049242 -0.031265594 -0.034092903 -0.055041276 -0.06256958 -0.013412595 -0.04904266 0.08349978
-0.03509702 -0.09214417 0.10240861 0.13458171 0.01380452 -0.032879345 0.10491518 0.07521488
0.07624956 0.031000713 0.030484881 -0.036801554 0.14760408 0.057629753 0.12727703 -0.0423715
0.10097877 0.03248833 -0.13246298 -0.12812613 -0.13066511 -0.03182125 -0.036548857 -0.056862213
0.06619522 0.07973836 -0.001664941 -0.121026605 -0.059737243 0.033636495 0.03253048 -0.06426832
0.02137815 0.0037243124 0.05088816 0.03154447 -0.15075639 0.024440777 -0.018158263 0.049315397
0.032485045 -0.15445988 -0.07373378 -0.14666252 0.032007862 -0.0027147974 0.08118935 0.011471213
-0.008263547 -0.061444085 0.058945328 0.1484081 -0.06794288 -0.1234301 0.00094377133 0.017928079
0.08185482 -0.07607101 0.055930395 0.064768 -0.122803204 0.07239893 0.08221052 0.02632242
-0.08066651 -0.051720615 0.053146668 0.082035996 -0.09330722 -0.070431575 -0.009790778 0.0097070895
0.018566981 0.04750314 -0.05204502 0.02916912 -0.0075753005 -0.08714982 0.09023061 0.03214047
0.121518455 0.14802441 0.045503207 0.20408027 0.08183024 -0.011328273 0.105458096 0.11330217

0.model_cnn.layer3.0.bias f4 [64]
00000000: 7aa7 b8b9 99fb 17b9 7377 dd39 9beb 21b9
00000010: 47ad f6b8 e913 3dba 3654 0c39 d333 a7b6
00000020: a725 cb38 c885 ffb9 8087 90b4 84bb e539
00000030: 98af e737 4e2e 9c37 0feb b3b9 14a9 0ab9
00000040: 810a 3fb8 e271 ceb9 12d8 783a 152a 1db9
00000050: 84a7 3a38 f6c2 e4b8 6e24 5b39 6f28 98b9
00000060: ca4e 1538 28d0 3639 10dc 6737 01c2 28ba
00000070: b5f8 3739 0d09 87ba e0a0 553a 1417 3739
00000080: da19 fab9 4162 57ba ccd9 b7b9 e93e 263a
00000090: d73b 00bb e9ee 2639 0eb9 2ab8 55be 503a
000000a0: f598 43b9 7e20 fb38 ad95 01ba 23fb f5b7
000000b0: dda3 2cba cf10 29b9 92be b0ba a893 7f39
000000c0: e0dc 14ba 0222 a03a 0223 ceb8 3c08 d3b8
000000d0: 48d2 aeb9 f71c eb38 5c44 8039 adf8 35ba
000000e0: 6191 033a 0a9b ed38 66a1 17b8 ed2c af39
000000f0: 693e db3a e589 1d3a 665c 843a 6643 20bc
-0.00035219995 -0.0001449421 0.000422414 -0.00015441926 -0.000117624695 -0.00072127447 0.00013382811 -4.983021e-06
9.6868076e-05 -0.00048737065 -2.692068e-07 0.00043817994 2.7619113e-05 1.8618211e-05 -0.00034316673 -0.00013223692
-4.554773e-05 -0.0003937623 0.0009492646 -0.00014988364 4.4501867e-05 -0.000109082015 0.00020899039 -0.00029021825
3.5597746e-05 0.00017434417 1.381991e-05 -0.00064376 0.0001754489 -0.001030238 0.00081492774 0.00017460837
-0.00047702977 -0.000821624 -0.0003506675 0.0006341772 -0.0019566917 0.00015919995 -4.0703504e-05 0.0007962932
-0.0001865363 0.00011974665 -0.0004943263 -2.932322e-05 -0.0006585697 -0.00016123358 -0.0013484529 0.00024373701
-0.0005678665 0.0012217166 -9.829366e-05 -0.00010062798 -0.00033344538 0.00011211068 0.00024464994 -0.00069416576
0.00050189166 0.00011329919 -3.615152e-05 0.00033412073 0.0016726974 0.00060096226 0.0010098338 -0.009781694

0.model_cnn.layer3.1.weight f4 [64]
00000000: 0e98 883f 42b7 723f 2d2f 853f 179e 773f
00000010: 6731 6d3f 3d3b 803f 94b3 6f3f a1f0 673f
00000020: d82b 623f 694a 733f aa75 633f c12d 813f
00000030: 33dc 853f 7a1b 893f 140a 883f f09e 783f
00000040: 20a9 733f 76bc 823f a4b9 8f3f bc24 4d3f
00000050: 9452 6c3f 29f3 7b3f 56a4 7c3f b3e5 753f
00000060: 860a 6e3f fbe5 743f 1b45 863f f4a8 863f
00000070: 333e 823f c8c0 823f ded2 863f 5851 6a3f
00000080: 559d 863f e52c 763f a55c 693f 8949 7f3f
00000090: 5ae2 783f 1192 703f a07e 7b3f b9f7 7a3f
000000a0: 9cc2 833f 6ed0 803f fab7 783f 588f 713f
000000b0: ba68 813f 29a2 843f 9be9 843f d05a 7a3f
000000c0: 0e15 653f c9ef 8f3f 3316 6b3f e410 603f
000000d0: 359f 6a3f 5bfe 6d3f 6b78 763f 2e36 813f
000000e0: 3748 803f 7e18 893f c31f 803f 77ce 853f
000000f0: f22f 833f f3ee 683f ce6c 843f 0e6e 7d3f
1.0671403 0.9481088 1.0405022 0.967256 0.92653507 1.0018078 0.9363339 0.90601546
0.8834815 0.95035416 0.88851416 1.0092088 1.0457824 1.071151 1.0628076 0.9711752
0.9517994 1.0213764 1.1228528 0.8013418 0.92313504 0.9841791 0.98688257 0.9605362
0.9298481 0.9566342 1.0489839 1.052031 1.0175232 1.0215082 1.0533102 0.9153037
1.0516764 0.96162254 0.9115699 0.9972158 0.97220385 0.9397288 0.9824009 0.98034245
1.0293765 1.0063608 0.97155726 0.9435935 1.0110085 1.0361987 1.0383791 0.9779482
0.8948525 1.1245052 0.9183075 0.87525773 0.9164918 0.9296624 0.96277493 1.0094659
1.0022038 1.07106 1.0009693 1.0453633 1.0249007 0.9098961 1.0345705 0.98996055

0.model_cnn.layer3.1.bias f4 [64]
00000000: 5751 60bd f755 1cbe c8a0 b0be e56b 24be
00000010: fe86 39be 5beb 21bd ccb6 4fbe c164 96be
00000020: cf36 02be b4bc 88be f4fd 4cbe 2cf4 cd3c
00000030: 1235 67be 41ce 0bbe 88b9 d0bc 2a67 63be
00000040: 7260 1b3d 52df 9a3c 459d a43d c526 9cbe
00000050: f2b6 80be 7e93 50be 44e9 84be 5ecc 33be
00000060: 2983 e0bd 160b febd d325 20bd fe0d acbd
00000070: 2958 7bbe b53e a1bd 01b9 47be e486 eebd
00000080: 79d6 52be cd1e 62be ce86 24be 03e9 44bc
00000090: 91f3 0bbe 35cc 8ebe 5669 92be d3d3 463d
000000a0: ee79 a6bd 112e 293d 423b 85bb d1f4 48be
000000b0: 709e 95bd be0c 3ebe e870 fe3c 363b 87be
000000c0: 0e2b 81bd 59de 70be 4d08 16be 9960 92be
000000d0: 0e7e 4bbe c5b6 55be c826 f6bd 8874 62be
000000e0: ea09 83be 989a 92be 13cc 62be 4b91 ff3b
000000f0: b38e b5bd 2854 d3bc 3550 51be edc5 adbd
-0.05476507 -0.15267168 -0.34497666 -0.16056783 -0.18117902 -0.039531093 -0.20284575 -0.29373744
-0.1271622 -0.2670647 -0.2001875 0.025140844 -0.22578838 -0.13652898 -0.025479093 -0.22207323
0.037933774 0.018905316 0.08037809 -0.3049833 -0.25139576 -0.20368764 -0.25959218 -0.17558429
-0.10962517 -0.12404458 -0.039098572 -0.08401106 -0.24545349 -0.078732885 -0.19504167 -0.11646822
-0.20589627 -0.22082062 -0.16067049 -0.012018445 -0.13667132 -0.27890173 -0.2859599 0.048541855
-0.08128725 0.041303698 -0.004065902 -0.1962464 -0.0730561 -0.18559548 0.031059697 -0.26412362
-0.0630704 -0.23522319 -0.14651604 -0.28589323 -0.19872305 -0.20870502 -0.12019116 -0.22114766
-0.255935 -0.2863357 -0.2214816 0.0077993027 -0.08865108 -0.025796965 -0.20440753 -0.08485017

0.model_cnn.layer3.1.running_mean f4 [64]
00000000: 1404 a2bf aace 00bf 63c1 8c3e aa4f 193e
00000010: c2b8 9abe 8955 8ebf eb39 b23d 169c 7a3f
00000020: 9052 53be 189f 0d3f c8a8 d93e 4e89 08c0
00000030: 6444 cbbc cf34 493d 5444 cfba 96b8 3d3f
00000040: 5d5e 6bbf 0f69 07c0 d064 28c0 c506 063e
00000050: da8f 813f 2a57 aabe 1eeb d93f 5391 923d
00000060: 00ae b7be c25a bfbe a5d4 58bf c79c b0be
00000070: 161d 213f c274 46bf ea9e b0be e793 7abf
00000080: 02ec 87bd 94de e0be d3e1 dcbd 8ccd 7bbf
00000090: 866a 97bf f26b 693e 0d64 143f dc42 d9bf
000000a0: 7cf5 9ebf f52a 14c0 2948 0abf f899 9d3e
000000b0: 15ba 47bf 4c72 e33e 2aef 0fc0 a0ab 7c3e
000000c0: 05de 2cbf 5281 c83e 5903 e0b9 e155 193f
000000d0: 6aa5 4c3e 13dd 993f 305b abbe becb 9d3e
000000e0: f3ae 583e 5159 213f e6b5 b4bd 10fe aabf
000000f0: 90e4 a4bf 931c 7cbe 5985 623f 9665 4ebf
-1.2657495 -0.50315344 0.27491292 0.14971796 -0.30219084 -1.1119853 0.08702453 0.9789442
-0.20636964 0.5532088 0.42511582 -2.1333804 -0.024812885 0.049122628 -0.001581321 0.7410978
-0.9194086 -2.1157873 -2.631153 0.1308852 1.0122025 -0.33269626 1.7024877 0.07156625
-0.3587494 -0.3737393 -0.8469947 -0.34494612 0.62935007 -0.7752191 -0.34496242 -0.9788193
-0.06636812 -0.43919814 -0.1078526 -0.98360515 -1.1829383 0.22795084 0.57965165 -1.6973529
-1.2418666 -2.315122 -0.5401636 0.3078153 -0.78018314 0.4442314 -2.2489724 0.24674845
-0.67526275 0.39161164 -0.00042727104 0.59896666 0.19984975 1.2020591 -0.33468008 0.30819505
0.21160488 0.6302691 -0.08823757 -1.3358784 -1.2882252 -0.24620275 0.8848472 -0.8062376

0.model_cnn.layer3.1.running_var f4 [64]
00000000: 7ed3 0c3f 5865 ce3e 383b be3e 9aa6 333f
00000010: 9185 ca3e a160 d43e 78ed d23e 2f9c e83e
00000020: 5022 ae3e 92f7 d53e 9454 b03e 2fe6 923f
00000030: 7094 b53e 0efe 063f 2fb1 bc3e 913e e73e
00000040: f60b 2b3f 260b d53e d60f bd3f 5ad4 7d3e
00000050: c653 503f 02ea 843e 96ab fa3e ba13 d13e
00000060: 0bf2 a53e 35f7 9a3e 48bc ea3e c7ba 0a3f
00000070: f28c 383f 30ac dd3e 7066 e33e b232 be3e
00000080: 9b46 c73e ef56 893e e4bf fe3e 5462 1d3f
00000090: 7157 d33e fe6b 5a3e 470d 9c3e d98f 9b3f
000000a0: 7335 d03e 26b7 633f eae5 e43e cbe8 b93e
000000b0: 3b78 fb3e fcb2 b03e c21b 483f 141f be3e
000000c0: a312 863e 3551 983e 987b 003f 394b a73e
000000d0: 9097 8f3e d17f d73e 5674 e13e 05eb dd3e
000000e0: 72a1 b93e b57f ea3e 3204 bb3e 5342 4e3f
000000f0: 4dbb 913e a68b 103f 6806 a83e 8525 d03e
0.5501021 0.40311694 0.37154555 0.7017609 0.39555028 0.41479972 0.411968 0.4543166
0.34010553 0.41790444 0.34439528 1.1476496 0.3546481 0.52731407 0.3685393 0.45164922
0.66815126 0.41610068 1.4770458 0.24788037 0.8137783 0.25959784 0.48959035 0.40835363
0.32411227 0.3026673 0.45846772 0.5419125 0.72090065 0.4329543 0.4441409 0.37148052
0.38921055 0.26824138 0.49755776 0.6147816 0.4127765 0.21330258 0.3047888 1.2153274
0.4066578 0.8895134 0.4470666 0.3631042 0.49115166 0.34511554 0.78167355 0.37133086
0.26186094 0.29749456 0.5018859 0.32674578 0.2804532 0.42089704 0.4403407 0.43343368
0.36255985 0.45800558 0.36526638 0.8056995 0.28463212 0.56463087 0.32817388 0.40653625

0.model_cnn.layer4.0.weight f4 [128, 64, 3]
00000000: c38b 46bd 3b55 f3bd 5fd5 023d 7fb4 abbc
00000010: db9c 593d 1d47 a03b 18c2 a4bb c626 a43b
00000020: 8888 29bd 1530 db3c 11f6 2d3d a138 f73d
00000030: 41f9 f3bc e5c9 55bc 09aa 113d f215 94bd
00000040: 2b8d 75bd 8f74 40bd affd a03b 8409 f53b
00000050: 56a7 623d 5b8b 80bd f85e b63d 9951 70bc
00000060: d3c1 d73c 5493 4dbc 33da 63bd 14e9 62bd
00000070: 72bc 8cbd efb0 fc3c a062 4c3d bf6f 1b3d
00000080: 00ab 9c3a f10f 09bd 318b 09be 5038 00bd
00000090: d007 9e3a ed6a b7bc 472c 603c 77ca a23d
000000a0: 0b1e 67bc 1918 18bd f4b4 2b3b 2ec6 8d3b
000000b0: b346 38bd 90bb de3a d8d3 e2ba 6fc7 9d3d
000000c0: 548e e9bd 6ab4 06be d756 2bbd 8778 b4bd
000000d0: 866b ad3d 5a91 a43d d844 19be 6ff0 00bd
000000e0: b0db 38bd ea78 1b3d f3ac 433d 8904 b03d
000000f0: 5692 113d 9c6b 8a3c 4d37 413d b5fe e83b
00000100: a515 1c3d 920c 7cbc ab4e 263d 8d88 2bbd
00000110: dcbe 7fbc ec89 bd3d 7682 87ba bf4e 363d
00000120: ee29 c43d 9076 f0bc 058a 0c3e 505a a5bb
00000130: ad09 b53d f2d4 1d3c 858e 303d 07ba 363d
00000140: aa09 16bc 29a3 92bd c963 063c 0689 a53d
00000150: be05 1c3d 2561 b83d 6b49 d53c fdd7 48bd
00000160: 31fe 1f3d 29ab bfba 53c9 333d 8fc0 b03d
00000170: e0cd e83d 5265 d9bc b5de 363c e162 77bc
00000180: 35d3 5bbd ce0f 563c 4fdf fabd d760 ea3c
00000190: 70bb 9f3a 5f64 893d 96c2 0dbd adef e3bc
000001a0: 4409 013c 5fc8 bbbd 2cbf c7bb da00 efbd
000001b0: 3955 4f3d b70a a03b 1de9 273d a36f 603c
000001c0: 18e3 e3bc 3567 7a3d 5609 99bc ab45 863c
000001d0: 0312 b63b c61f 17bd 03b5 15bd eb3a b8bd
000001e0: 78b1 13bc 554f 35ba d9bf 953d e793 d1bd
000001f0: 8fc7 95bd 53f6 3cbd 8800 1d3d 3dd7 88bd
00000200: 2a49 a53d dc64 eb3c 948b 34bd 86ee 3cbb
00000210: 49f9 6dbc b4d2 9c3d 18ab ecbc b8c3 aa3d
00000220: 9266 1ebd 232c f13c 02e0 cf3d e06d 3ebd
00000230: b67a 023e c7af f8ba 636c 843c 860c b43d
00000240: f714 f33c a7e5 a73d 583f 45bd 7ff5 9abb
00000250: 9319 a93d 4175 fa3c 63f3 62bd 40c1 44bd
00000260: 04cb 11bd f0e3 9ebc e40a 03bd 7dc4 a93b
00000270: 808a 223d a867 7cbd bc10 2e3c d625 a0bd
00000280: 1158 60bd c58c 75bd 3009 f13c a945 533c
00000290: 77fb a6bd e762 dc3c 0be8 4dbd f6f8 b0bd
000002a0: 2b32 a6bd ac1e 54bd b267 adbb 2ca0 c03d
000002b0: 8e5e 80bc dcf6 debd dbaa 1cbd 305a 193d
000002c0: 424a 963d 4cd1 ccbc bb76 c8bd 0e9d 11be
000002d0: 6a05 123e 90d2 b93d 7db1 493e 6d0f 3bbd
000002e0: c347 18bd 545b e1b9 b618 1cbe f599 03be
000002f0: 299c 01be cb2c b23c cf34 b2bd ec37 eebc
00000300: ad39 483c 985f 92bd b2fb b53c f740 ac3d
00000310: ef96 2d3d 1817 c33d 8ccf 3abd b974 9b3c
00000320: 76af a33c 385d 7e3c 295e 163d dd85 77bd
00000330: 0746 c03c 189f 8fbd 428b 9d3b 710a 0b3e
00000340: ddc6 493e 183b 233e d939 dabd 20c8 af3c
00000350: 48fc 05bc 97ce 3fbd d090 8ebd 5cf3 13bc
00000360: 345c d7bb 6ae9 13bd 0d77 db3d b039 cfbb
00000370: 5e00 63bd 4a83 cabd dbec 823d 46d6 8a3d
00000380: a4a6 1e3d b893 e9bd b51b debd 3b28 4abe
00000390: 5513 49bc a4a7 ae3b 0ba3 a53b 7ba7 4f3d
000003a0: 6755 193d 235b 823d f40d 45bd 9281 9dbd
000003b0: 25d5 d9bd b8a7 9cbc 7afa 13bd 4704 9abd
000003c0: c045 ed3d 730e cc3d c5d2 253d 4373 ed3d
000003d0: 4149 e43c ba0d 823d 4e00 e6bd 2b97 d3bd
000003e0: ff3d 14be cdd4 063d 3f2d 92bd 56c9 87bd
000003f0: c237 99bd f251 88bd 2c36 5ebd a8d9 93bc
-0.04847313 -0.11881491 0.031941768 -0.02096009 0.053128105 0.00489129 -0.0050280206 0.005009505
-0.041389972 0.026756326 0.042470995 0.12071348 -0.02978194 -0.013048624 0.03556255 -0.07230748
-0.05994908 -0.04698616 0.004913054 0.007477941 0.055335365 -0.0627658 0.089048326 -0.014667892
0.02633754 -0.012547333 -0.055628013 -0.055398062 -0.068718806 0.030846087 0.049898744 0.037948366
0.0011952817 -0.03346247 -0.13432004 -0.031303704 0.0012056772 -0.022389853 0.013682432 0.07948773
-0.014106284 -0.037132356 0.0026200386 0.0043266034 -0.0449893 0.0016993154 -0.0017305566 0.077040546
-0.114041 -0.1315476 -0.041830864 -0.08812051 0.08467774 0.08035536 -0.14967668 -0.031479295
-0.045131385 0.03795711 0.04777236 0.08594615 0.035539947 0.016897015 0.04717188 0.0071104416
0.03810658 -0.015383856 0.040602367 -0.04187827 -0.015609469 0.09254822 -0.0010338563 0.044508692
0.0957831 -0.02935341 0.13724525 -0.0050461665 0.08839736 0.00963329 0.043104667 0.044611003
-0.0091575775 -0.071600266 0.008202502 0.08082776 0.038091414 0.09002904 0.026035985 -0.049034107
0.039060775 -0.0014623153 0.04389317 0.08630478 0.113673925 -0.026537571 0.011161496 -0.015099258
-0.05366822 0.013065292 -0.12249624 0.02861063 0.0012186598 0.067085974 -0.0346094 -0.027824247
0.007875744 -0.09169077 -0.0060957875 -0.11670084 0.050618384 0.00488409 0.0409938 0.013698491
-0.027818248 0.061133582 -0.01868121 0.016390642 0.0055563464 -0.036895536 -0.03654958 -0.08995613
-0.00901448 -0.00069164234 0.07311983 -0.10233288 -0.073134534 -0.04613335 0.038330585 -0.066816784
0.080705956 0.028734617 -0.044078425 -0.0028828694 -0.014524766 0.07657376 -0.028890178 0.08338112
-0.038672037 0.029439991 0.10150148 -0.046491504 0.12742123 -0.0018973284 0.016164964 0.08791451
0.029673083 0.081980996 -0.048156112 -0.0047289724 0.08256831 0.03057349 -0.055407893 -0.04803586
-0.035594 -0.019395798 -0.031992808 0.005180894 0.039682865 -0.06162229 0.010624107 -0.07819717
-0.054771487 -0.0599487 0.029423326 0.012895026 -0.08153432 0.026902629 -0.05027012 -0.086412355
-0.081150375 -0.051787063 -0.0052919025 0.0940555 -0.015670087 -0.108869284 -0.038248878 0.037439525
0.07338382 -0.025002144 -0.09788271 -0.14220068 0.14259878 0.09073365 0.19696613 -0.045669008
-0.037177812 -0.0004298339 -0.15243801 -0.12851699 -0.12657227 0.021749875 -0.08701479 -0.0290794
0.012220782 -0.07147139 0.022214744 0.084108286 0.04238027 0.09525889 -0.04560809 0.018976556
0.019981127 0.015525155 0.036710892 -0.060430396 0.023470892 -0.070127666 0.0048078606 0.13578202
0.19704767 0.15940511 -0.10655565 0.021457732 -0.008177824 -0.04682788 -0.069612145 -0.009030189
-0.0065722708 -0.036111273 0.107160665 -0.0063240156 -0.055420272 -0.09888323 0.06392833 0.06779151
0.03873314 -0.11405128 -0.108451284 -0.19741909 -0.0122726755 0.005330043 0.0050548366 0.05069683
0.03743496 0.06365039 -0.04810901 -0.07690729 -0.10636357 -0.019122943 -0.036127545 -0.07520347
0.115855694 0.099636935 0.04048421 0.1159425 0.027866961 0.063502744 -0.11230527 -0.103315674
-0.14476775 0.032917786 -0.07137536 -0.06630199 -0.07481338 -0.06656255 -0.05425088 -0.018048123

0.model_cnn.layer4.0.bias f4 [128]
00000000: 68fe 8a37 303c aa37 85e5 d6b8 2b7f 37b7
00000010: 2442 f936 6a34 0d38 506c 14b9 4faa 2f38
00000020: 457a a937 15be 7db9 2412 6436 5015 30b9
00000030: 0cae c938 9b85 80b7 6dba 1eb8 0737 88b8
00000040: b864 0ab9 9e6c 51b9 9835 0ab6 5b0e 29b8
00000050: b8ba bdb8 eb1f 1839 f019 8bb7 cc98 efb7
00000060: 763b 6238 5eab acb7 0ecd edb7 3e4d 32b9
00000070: cc48 1737 b6bb 4d38 688b bab7 28b4 89b5
00000080: 1add f9b8 6b53 65b8 d299 a3b8 8dac b0b7
00000090: 32eb 13b9 9dd8 19b9 62b0 ce37 aabb 56b7
000000a0: f2c1 db38 8d02 f1b8 e03e ac36 c0e6 60b8
000000b0: 76f7 88b8 a7f2 1738 2877 0038 b801 8d37
000000c0: 98d3 53b6 b2bc fb37 76ab 9db7 a080 9ab4
000000d0: cb3e 5138 2f0c 4d38 b275 9cb8 7c98 d337
000000e0: 7e47 7fb7 ecb6 9536 8528 dd38 38dc 8ab6
000000f0: 11f1 0639 cc70 beb6 20d8 9139 5868 f2b7
00000100: f774 2d37 e268 53b6 0edd b837 a891 0a37
00000110: e285 c4b8 1254 2bb8 94af 9338 e088 f2b6
00000120: ff51 acb7 7826 7138 006a 6a38 725f 41b7
00000130: e8f9 9638 524e 2938 8528 2f38 88b5 b437
00000140: a4b3 a338 a6fb c4b8 4853 39b8 c0d5 ad36
00000150: 58f1 e2b6 f18d 4838 e470 a1b8 a81c c9b7
00000160: 4eb2 64b9 7af8 8937 bed6 57b8 18f9 5db6
00000170: e074 9eb7 ecec e7b8 5e7c 33b9 0064 d137
00000180: 02f4 0cb6 7eb4 d138 b4f2 2e37 6503 93b8
00000190: 55cc 96b7 b24c a837 8638 fbb8 b8e1 ff38
000001a0: 7e2d 16b7 c938 96b7 0803 7538 f671 f0b7
000001b0: 0011 31b9 a2c0 b037 b7ef 06b9 e198 b837
000001c0: 404c 2db7 eaeb 8738 bf0f 88b8 0058 b1b3
000001d0: 7092 9a38 f059 0d37 56b0 cb39 2660 4237
000001e0: 0852 0637 a6dd 9f37 0ff9 af36 0500 2f38
000001f0: 3e2a 9838 ac16 1839 6bdd aeb8 98c9 1eb7
1.656935e-05 2.0293606e-05 -0.000102470665 -1.0937259e-05 7.428478e-06 3.3665834e-05 -0.0001415473 4.1881864e-05
2.0203306e-05 -0.00024198771 3.3985207e-06 -0.00016792607 9.616846e-05 -1.5321004e-05 -3.7843758e-05 -6.495235e-05
-0.00013198226 -0.00019972256 -2.0594798e-06 -4.030611e-05 -9.0470014e-05 0.0001450774 -1.658217e-05 -2.8562172e-05
5.3937976e-05 -2.0583797e-05 -2.8348088e-05 -0.00017004178 9.017251e-06 4.9050628e-05 -2.2237844e-05 -1.0259728e-06
-0.000119144286 -5.4675544e-05 -7.801097e-05 -2.1061185e-05 -0.0001410663 -0.00014671912 2.4639248e-05 -1.2799088e-05
0.00010478859 -0.000114922506 5.133319e-06 -5.3620664e-05 -6.5310785e-05 3.6227193e-05 3.062855e-05 1.680931e-05
-3.1564614e-06 3.00094e-05 -1.8795701e-05 -2.8778322e-07 4.9887964e-05 4.8887156e-05 -7.460582e-05 2.5224166e-05
-1.521583e-05 4.461841e-06 0.000105456485 -4.1383573e-06 0.0001286904 -5.6755725e-06 0.0002781758 -2.8897237e-05
1.0338837e-05 -3.15025e-06 2.2037446e-05 8.259354e-06 -9.370946e-05 -4.0847874e-05 7.04221e-05 -7.2280964e-06
-2.054218e-05 5.7494704e-05 5.5888668e-05 -1.1525919e-05 7.199106e-05 4.036568e-05 4.1760988e-05 2.1542204e-05
7.805906e-05 -9.3928815e-05 -4.4185e-05 5.1806855e-06 -6.763421e-06 4.781591e-05 -7.698106e-05 -2.3974411e-05
-0.00021810198 1.6447379e-05 -5.145999e-05 -3.3076558e-06 -1.8889492e-05 -0.000110590685 -0.000171171 2.4961308e-05
-2.1003657e-06 9.999516e-05 1.0427717e-05 -7.0101385e-05 -1.7976543e-05 2.0062875e-05 -0.00011979141 0.00012201391
-8.951289e-06 -1.7907836e-05 5.8415375e-05 -2.8663297e-05 -0.00016886368 2.1070537e-05 -0.00012868537 2.2005699e-05
-1.0329357e-05 6.481244e-05 -6.487918e-05 -8.258212e-08 7.370568e-05 8.425195e-06 0.00038850558 1.1585687e-05
8.006122e-06 1.905749e-05 5.2444007e-06 4.172327e-05 7.255793e-05 0.00014504296 -8.338209e-05 -9.464471e-06

0.model_cnn.layer4.1.weight f4 [128]
00000000: fc9f 723f 986c 803f d66f 813f aa89 5f3f
00000010: 1ba3 4b3f 91af 893f 79bb 823f 372a 6e3f
00000020: aac8 813f e0d0 903f 7306 783f 23c5 7f3f
00000030: feb0 7f3f 05a5 823f 8a1b 723f f03b 643f
00000040: ecc3 863f 4a34 6d3f 2274 6e3f dd73 7a3f
00000050: ac27 783f e0af 823f d09f 713f 7835 803f
00000060: 6dea 6d3f 4a20 7f3f d74b 803f ec0f 803f
00000070: 3e1f 703f 5430 6a3f 3c83 833f 7393 893f
00000080: 43a5 833f df0d 793f cb46 6d3f bb86 653f
00000090: ab5d 743f d753 883f 0614 753f ef81 763f
000000a0: f32f 793f 4ea1 8c3f 6bd6 893f 2954 6e3f
000000b0: 7ffc 863f 212d 583f 77af 593f caa7 7b3f
000000c0: e051 6d3f 6783 7d3f 3a6c 583f 83c8 783f
000000d0: 8a07 813f 6909 673f cfcf 823f ef7c 803f
000000e0: 81f5 7e3f b15a 7b3f d9dd 803f f7c2 713f
000000f0: f925 813f 6edc 833f dc7a 823f e222 6f3f
00000100: f275 743f 77eb 6c3f 6cb9 7d3f 8284 603f
00000110: 8a3a 813f bc55 823f 4569 7a3f d8e0 843f
00000120: 3af3 673f 49de 7d3f 2d9f 6f3f 7c4c 693f
00000130: 3d63 613f 741d 813f e26f 7f3f e5ae 843f
00000140: 5c2c 733f e722 6d3f a494 743f 93f4 603f
00000150: b7b9 883f 8c22 7d3f f35e 813f c1a0 823f
00000160: f2c9 853f 7d69 883f ce4b 7f3f 213b 783f
00000170: 62ab 803f 1ee4 7b3f 4d36 863f 2a82 733f
00000180: 789d 8b3f 12ff 733f 76ef 733f 9360 823f
00000190: 6216 643f c8c3 713f 6f9d 833f e78b 793f
000001a0: 5fc6 713f 755b 873f 0831 813f f5bc 793f
000001b0: 6411 893f faae 5c3f cfc4 6b3f bc4a 693f
000001c0: 74ab 7b3f c115 783f 964f 803f 7c00 7f3f
000001d0: ee4c 823f 89fc 823f 7382 863f af48 7d3f
000001e0: 211b 7d3f fb04 7a3f d221 733f 7eb6 7d3f
000001f0: 8d9f 773f 2990 8c3f 59f5 7b3f c3a0 4f3f
0.94775367 1.003314 1.0112255 0.87319434 0.79545754 1.0756704 1.0213462 0.93033165
1.0139363 1.1313744 0.9688484 0.9991018 0.99879444 1.020661 0.9457327 0.8915396
1.0528541 0.9265791 0.93145955 0.97833043 0.96935534 1.0209923 0.9438448 1.0016317
0.9293583 0.99658644 1.0023144 1.0004859 0.9379767 0.9147999 1.0274425 1.0748123
1.0284809 0.9728679 0.92686146 0.8965871 0.95455426 1.0650586 0.9573368 0.9629201
0.9733879 1.0986726 1.076856 0.9309717 1.0545806 0.8444386 0.85033363 0.983029
0.92703056 0.9902863 0.8454014 0.97180957 1.0080426 0.90248734 1.0219668 1.0038127
0.9959336 0.9818526 1.0067703 0.9443812 1.0089713 1.0301645 1.0193744 0.934126
0.9549247 0.9254679 0.99111056 0.8770219 1.009599 1.0182414 0.9781688 1.0381117
0.9060551 0.99167305 0.9360226 0.9113233 0.8804205 1.0087113 0.99780095 1.0365874
0.9498956 0.9263138 0.9553931 0.8787319 1.0681676 0.9888084 1.0107101 1.0205308
1.0452254 1.0657192 0.99725044 0.96965224 1.0052302 0.98394954 1.0485321 0.9512049
1.0907431 0.9531108 0.95287263 1.0185722 0.89096653 0.94439363 1.028242 0.974791
0.94443315 1.0574785 1.0093088 0.9755395 1.0708432 0.86204493 0.9209718 0.9112966
0.9830849 0.96908194 1.0024288 0.99610114 1.0179727 1.0233318 1.050856 0.9893903
0.9886952 0.9766385 0.9497348 0.99106586 0.9672783 1.0981494 0.98421246 0.8110468

0.model_cnn.layer4.1.bias f4 [128]
00000000: 092b 0abe b054 15be 9959 1bbe b491 12be
00000010: 25e8 3bbe 3331 2ebe c2a5 e2bd b6b8 2cbe
00000020: dbf0 12be 9797 03be af9d 1bbe 8a44 1abe
00000030: 06eb 31be 123f 2dbe f117 c1bd e483 1cbe
00000040: d335 7abd 7b38 2ebe 8897 25be eb73 2abe
00000050: d50b 09be 341b 22be df1c 2fbe a185 19be
00000060: e068 0fbe d12b 1abe ae19 96bd 682b 10be
00000070: 1423 49be 43ae 30be f070 e7bd 33cd 44be
00000080: a827 22be c91c 3dbe 12aa 33be 9efd 3ebe
00000090: b6d7 15be 02ae ecbd 5219 3ebe ab79 17be
000000a0: 4b07 0ebe 07a0 2abe f224 5cbe 9979 19be
000000b0: a0d0 04be 100f 42be 5e36 5cbe 68d6 e4bd
000000c0: 2cc9 31be edb0 34be 7917 25be 71ff 05be
000000d0: 1ecb 02be 5ad4 36be 7736 92bd ccaa 9dbd
000000e0: bd08 debd d070 22be 8ddd ecbd 421d 3cbe
000000f0: 9938 babd 9c80 73be 0e78 44be 434c 47be
00000100: af85 9fbd fa11 f4bd 95bc b3bd f814 3fbe
00000110: 2cd1 05be a1f3 debd bc68 04be ec28 43be
00000120: fe43 21be ae42 2cbe 4f05 68be 8f50 dbbd
00000130: f53e 3dbe 6799 edbd 6e2f 34be ab52 abbd
00000140: 1971 12be af0d 38be 6348 22be b2d3 23be
00000150: b536 eebd 211b cabd ca74 01be 9868 f9bd
00000160: 22b4 23be 4dfb 2bbe 0af4 3bbe b674 3cbe
00000170: ee1a dcbd 1364 cbbd a5cc 41be 56ef f8bd
00000180: c523 31be ecab 32be b979 29be 55c6 00be
00000190: 948f 24be 4d23 e2bd 9240 1dbe a204 f5bd
000001a0: 6371 33be 5975 29be 93c5 fabd 73f9 75be
000001b0: e725 d4bd 6faa 58be 3502 51be b4aa fbbd
000001c0: c99c ccbd bdef 36be 5397 6dbe 5905 92bd
000001d0: 9a7d 83bd 2415 4ebe a67b 02be f18b 53be
000001e0: 7af7 efbd 2a0f 15be 2ce0 72be 987c 0abe
000001f0: daba aebd 1e09 05be 9bff c0bd e927 49be
-0.13492979 -0.14583087 -0.15170898 -0.14313394 -0.18350275 -0.17010956 -0.11066772 -0.16867337
-0.14349692 -0.12850796 -0.1519687 -0.15065208 -0.1737481 -0.1691859 -0.094283946 -0.15284687
-0.061086487 -0.17013733 -0.16171086 -0.16645782 -0.1338342 -0.1583069 -0.17100857 -0.14992382
-0.1400485 -0.15055777 -0.07329117 -0.14079058 -0.19642287 -0.17253976 -0.11300838 -0.19218902
-0.1583544 -0.18468012 -0.17545345 -0.18651435 -0.14633068 -0.11556627 -0.18564346 -0.14792506
-0.1386997 -0.16662608 -0.21498469 -0.14987792 -0.12970209 -0.18951058 -0.21505114 -0.11173707
-0.17361897 -0.17645617 -0.16122235 -0.13085724 -0.12772796 -0.17854443 -0.071392946 -0.076985925
-0.108415104 -0.15863347 -0.11565695 -0.18370536 -0.090928264 -0.2377953 -0.19186422 -0.19462685
-0.0778917 -0.11917491 -0.087762035 -0.18660343 -0.13068074 -0.10886312 -0.12930578 -0.19058579
-0.15748593 -0.16822311 -0.22658275 -0.10708725 -0.18481047 -0.11601525 -0.17596218 -0.08365377
-0.14300956 -0.1797397 -0.15847926 -0.15998724 -0.11631528 -0.09868456 -0.12642208 -0.12178153
-0.15986684 -0.16795082 -0.18354812 -0.18403897 -0.10747324 -0.09931197 -0.18925722 -0.12155025
-0.17298801 -0.17448395 -0.1655034 -0.12575658 -0.16070396 -0.11041889 -0.15356663 -0.11963774
-0.17523722 -0.16548671 -0.122447155 -0.24020939 -0.10358792 -0.21158765 -0.20410998 -0.122884184
-0.09990842 -0.1786489 -0.23202257 -0.07129926 -0.06420441 -0.20125252 -0.1274248 -0.20658852
-0.11717124 -0.14556566 -0.23718327 -0.13524091 -0.08531733 -0.12991759 -0.09423753 -0.19644131
