checkpoint/DA/s_0_1_t3/cnn_features_1d_0925-180509/299-0.9871-best_model.pth (torch, 944127 bytes, 30 tensors)

0.model_cnn.layer1.0.weight f4 [16, 1, 15]
00000000: bf5e 7e3e 2204 ef3d 45ea 683d 1fc2 46be
00000010: 3849 87bd 936c 83bd 90f2 69be 3e44 1dbe
00000020: 7b04 0b3c 1da7 dabd 55ac 813d f255 803e
00000030: 8015 353a 3830 90be a59c 9e3d 275b 5c3e
00000040: d274 5a3e 5783 38be f7ae 0dbc f9af 11be
00000050: f21a 83be 5f9f c63d f6a8 483e 4118 8abe
00000060: a178 d83d ba7c 9fbe be96 2bbe 8e23 973b
00000070: e2ed 93be 5417 7f3d bcdc b83e a324 483e
00000080: 6fa1 013e 6b81 163e 63c7 6fbd 93e8 b63b
00000090: a61b df3d 8e48 8fbd a6b4 61bd b626 3dbe
000000a0: 47b0 603e 584d 85be b3c8 3f3e 5b00 9f3d
000000b0: 8fb8 66be 0af7 7bbe d0a0 76be e582 68bd
000000c0: 22d1 f7bd 5a6a 5cbe 476d f7bc 51eb 2f3e
000000d0: 31ec 7cbe 8b6f d4bd cfb1 16bd 64ce 0cbe
000000e0: b553 313d c805 c9bd 83af c0bd b2bb a53e
000000f0: cff3 a6bd 333a 0a3e d389 8b3e cc60 44be
00000100: 5d62 38bd 63e7 b93d 90ca 423e eb75 a33e
00000110: cb39 32be 8d59 12bd f15b a93d 1110 aabd
00000120: 9d1c 303e af67 9dbd 94bf a4bc 59ba 813e
00000130: 95c3 2d3e 415b 553b 0c88 6c3e 155b f33d
00000140: 8514 603e 8235 7f3c 9794 3b3e ce6c 0bbd
00000150: fce2 e8bd b087 b3bd 3043 30be 3c88 703e
00000160: 4950 41be ba6a c2be 6a7d 2dbe a4f4 47be
00000170: e752 1a3c c38f 483e 9e14 c03d 84ca aa3d
00000180: 2a5b 893e ece0 1cbe 0673 423e 9440 3bbe
00000190: db70 2fbe d676 25be 4b5d 96be 2bd0 063e
000001a0: ee7b 8abd 82f0 26be 5499 fe3d 3f83 82be
000001b0: 4d0c fdba 06f3 8dbe 1477 5b3d 1f56 953d
000001c0: 3666 083e ee0b 28bd 0ba9 343d 18c5 6a3e
000001d0: 8662 83be 2cf4 253d 7ab0 aa3d f172 fdbd
000001e0: 97b7 8bbe b54f 30be 4137 4e3d c29c 21be
000001f0: 7dbc 403e 614d cbbc e883 07be 6985 5d3a
00000200: ec67 26be 77bb 343e 23c2 333e b8d1 d13a
00000210: 7930 cdbd b2bc 1bbe 903d 85be 1e50 17bc
00000220: 1bbc 243e a072 d4bd 67b4 65bc adc7 17be
00000230: dbab bbbd 9e70 683e 7874 9ebd 1ef2 283e
00000240: 59d7 04be 01d6 61bd 92ee 053e dcef 77be
00000250: 832d e93d 80a4 99be b615 58be 10a1 733e
00000260: e24d 04be 8917 363e 2b5b b93d f348 a83d
00000270: a688 cebd 71c3 713e 18be ab3d 94ae 283d
00000280: 1ace 883e dbfe 6bbd 5b5c 7c3b 9dde 913e
00000290: 94dd 75be 70d7 293d 944c 633e 890c 9abe
000002a0: c641 1abe 2250 b8bd 49e4 7ebd 35b5 f8bd
000002b0: 59ec f2bd cbbc 80be 7e9b 0e3d 0b2b 913e
000002c0: b772 1dbd 701c ea3d 8288 e43c 69ff bdbc
000002d0: 9569 b3bc 830e 12be 7c2c 4f3e 21e4 723e
000002e0: 8dba f1bd f05a 25bc 2514 6abe c9c2 40be
000002f0: a98f f83d ecd6 523e 5570 243e 4675 043e
00000300: ed30 febd 0d2c afbe 5adc 23bd edf1 91bc
00000310: d1cf b33d 6b0f c63d 4dc2 ca3c f34f 2a3e
00000320: 3734 283e f1c0 87be 6568 8f3e 7c48 143c
00000330: 40ff 873e e381 813d 6e3b 27be 96da 2ebe
00000340: 3bcd 06be 1df6 153c 4910 5fbe d45f 903d
00000350: ec3e cebb 5547 ba3d 880a 8b3d 9751 213d
00000360: 0a0f 92bd 4ab4 00bd 6a52 593d df8b 2bbe
00000370: 4380 88be 4d8f a23d 0b2f 0dbe ce8a 9ebe
00000380: 2cca 183e 10b3 09be 8197 053e c3fa 40bd
00000390: 9587 1cbe 53a9 673e 8462 33bd 7281 473d
000003a0: 2bb3 2a3e 8ef7 4cbe b677 d23d a75e fa3d
000003b0: e50e dbbc 77c2 963e 494d f6bd 37b7 ef3d
0.2484083 0.1167071 0.05686404 -0.19409989 -0.06605762 -0.06417193 -0.22846437 -0.15358064
0.008484955 -0.106764056 0.06331698 0.2506557 0.0006907806 -0.28161788 0.07744721 0.21519147
0.21333626 -0.18018852 -0.008647672 -0.14227284 -0.25606495 0.096983664 0.19595703 -0.2697163
0.10569883 -0.31149846 -0.16756722 0.0046123927 -0.28892428 0.062278107 0.36105907 0.19545226
0.12659238 0.14697807 -0.05853976 0.005581924 0.108939454 -0.069962606 -0.05510392 -0.18471798
0.21942244 -0.2603557 0.18728904 0.0776374 -0.22531341 -0.24605957 -0.24084783 -0.056765456
-0.12100436 -0.21524945 -0.030203475 0.1717961 -0.24699475 -0.10372838 -0.036790665 -0.13750607
0.04329272 -0.09815556 -0.09408476 0.32369763 -0.081519715 0.13498764 0.2725359 -0.1917755
-0.04501568 0.09077337 0.19022584 0.31925902 -0.17404859 -0.035729934 0.082694896 -0.08303846
0.17198415 -0.07685792 -0.020110883 0.25337484 0.1696914 0.0032555612 0.23098773 0.11882607
0.21882828 0.015576722 0.18318401 -0.03403931 -0.11371419 -0.08766115 -0.1721313 0.2348947
-0.18878283 -0.3797205 -0.16942373 -0.19526917 0.0094191795 0.1958609 0.093789324 0.08339408
0.26827365 -0.15320176 0.1898919 -0.18286353 -0.17132895 -0.16158614 -0.29368052 0.13165347
-0.06761919 -0.16302684 0.12431589 -0.25490758 -0.0019306034 -0.27724475 0.05358036 0.07291817
0.1332024 -0.041027002 0.044106524 0.22926748 -0.25661105 0.040516064 0.083344415 -0.12375439
-0.27288505 -0.17217906 0.050345663 -0.15782455 0.18821903 -0.02481717 -0.13233912 0.00084503606
-0.1625058 0.17649637 0.17554526 0.0016007936 -0.10019011 -0.152087 -0.2602353 -0.00923541
0.16087382 -0.103734255 -0.014020062 -0.14822264 -0.09163638 0.2269921 -0.077370584 0.1649861
-0.12972774 -0.05513573 0.13079289 -0.24212593 0.11385634 -0.30008316 -0.21102032 0.23791909
-0.12920335 0.17782415 0.09050592 0.08217039 -0.10084657 0.23609711 0.08385867 0.041182116
0.26719743 -0.057616096 0.0038507197 0.28490153 -0.24010307 0.041465223 0.22197181 -0.3008769
-0.15064153 -0.08999659 -0.06222943 -0.121439375 -0.11861486 -0.25144038 0.034816258 0.28353152
-0.03843948 0.11431205 0.027897123 -0.023193078 -0.021900931 -0.14263348 0.20231813 0.23719837
-0.1180316 -0.010092482 -0.22859247 -0.18824305 0.12136776 0.20589799 0.16058476 0.12935361
-0.124116756 -0.34213296 -0.040005066 -0.017815555 0.08779872 0.096709095 0.024750853 0.1663206
0.16426168 -0.2651439 0.28009334 0.009050485 0.26561928 0.06323602 -0.16331264 -0.17075571
-0.13164227 0.009152916 -0.21783556 0.07049528 -0.006294122 0.09095637 0.06789118 0.03938445
-0.07131775 -0.031421937 0.05305711 -0.16752575 -0.26660356 0.07937489 -0.13787477 -0.30965275
0.14920872 -0.13447213 0.13046075 -0.047114145 -0.15286095 0.22623186 -0.043795124 0.048707433
0.1666991 -0.2001631 0.10276739 0.12225085 -0.0267405 0.2944524 -0.1202646 0.11704867

0.model_cnn.layer1.0.bias f4 [16]
00000000: ca82 beb7 f48d 5338 85a2 3338 420d e737
00000010: 50a5 a9b7 0049 e237 3082 5a37 4b6b 87b4
00000020: 12fc d3b7 2dd1 20b8 5363 65b9 cbb0 1439
00000030: f64c 9db7 75d6 3b38 3181 9538 6c28 9138
-2.2710668e-05 5.0438524e-05 4.2828284e-05 2.754352e-05 -2.022335e-05 2.6975293e-05 1.3024124e-05 -2.5223775e-07
-2.527054e-05 -3.8341783e-05 -0.00021876143 0.0001418024 -1.8751696e-05 4.4784003e-05 7.1289374e-05 6.921668e-05

0.model_cnn.layer1.1.weight f4 [16]
00000000: 1fe9 5e3f ac0a 7e3f ee0e 873f 09a6 6e3f
00000010: c82d 6e3f a13e 803f 6d75 803f 977d 653f
00000020: 1c50 853f 3d46 943f efe2 8c3f 4e47 6a3f
00000030: 3cdc 883f 82bf 783f 3396 6a3f 8d48 803f
0.87074465 0.99235034 1.0551431 0.932221 0.93038607 1.0019113 1.0035836 0.8964476
1.0415072 1.1583935 1.1006755 0.9151505 1.069221 0.9716722 0.91635436 1.0022141

0.model_cnn.layer1.1.bias f4 [16]
00000000: e704 acbd 90cb 98b9 b962 343d 8194 19bd
00000010: 8bcf 36bd baf8 0fbe dc67 f13c 6517 803d
00000020: a241 04bd cdc6 9b3e b020 ff3c 98cb 38be
00000030: 7c37 8f3d e52b bdbc a3a2 3ebd a0ac 68bd
-0.083993725 -0.00029143365 0.04403946 -0.03749514 -0.044631522 -0.14059725 0.02946847 0.06254462
-0.032289155 0.3042511 0.031143516 -0.18046415 0.06993005 -0.02309222 -0.04654182 -0.056805253

0.model_cnn.layer1.1.running_mean f4 [16]
00000000: 8bef c7b7 d683 8638 5a05 c738 f215 3cb8
00000010: c647 a336 fa94 be38 e9b0 8db7 12bb 9f37
00000020: 5bca 68b8 98ce 5bb7 7add 51b9 71d4 0339
00000030: 0c85 9237 6305 a238 0f29 5238 c28c c038
-2.3834195e-05 6.414174e-05 9.490056e-05 -4.484313e-05 4.866134e-06 9.087655e-05 -1.689089e-05 1.9041388e-05
-5.550157e-05 -1.3101519e-05 -0.000200143 0.00012572274 1.7466511e-05 7.725765e-05 5.010614e-05 9.1814916e-05

0.model_cnn.layer1.1.running_var f4 [16]
00000000: aa65 083f 9c81 8c3e 16db ad3e bdd6 f73e
00000010: 26fe a33e 1e9b 093f 5168 c73e 9fde 943e
00000020: e413 6a3e eeea d73d a23d 453e 6d80 a43e
00000030: 191c 713e 2965 463e a903 dc3e a6fb b93d
0.5328013 0.27442634 0.33956212 0.4840602 0.32029837 0.53752315 0.38946775 0.29076096
0.2285915 0.10542856 0.19261792 0.3212923 0.23545875 0.19374527 0.42971542 0.09081201

0.model_cnn.layer2.0.weight f4 [32, 16, 3]
00000000: 7f92 7b3d 9823 febd d344 0ebe 8cb3 11bd
00000010: dd3d d7bd 1ccb 91bd d274 b03d 5090 44bd
00000020: 825d 523d 0819 c73d c4fa 313c 5cf3 123e
00000030: bd15 173e 67f7 b6bd feb3 a43d 62a9 8d3d
00000040: e136 e13d aec5 9ebc fd03 96bd 167a 4c3e
00000050: 525a b1bc 932a 1dbd ef4a 653c aca0 36be
00000060: 2138 333d 54c8 d63d 4da5 6f3b 716b 133d
00000070: 04bf c23d c3ae 6ebd fd8f 803e 0950 613e
00000080: ce00 dd3d 0d15 5cba 21b5 d6bd ad6d 1ebd
00000090: 492c be3c f781 dfbd 380b 70bd 71db 8c3d
000000a0: b821 ac3d 8543 883d 38ee 833c 3d95 ae3c
000000b0: aab2 d4bd 80b0 1abe 747f 1a3e 0495 f13c
000000c0: 06a8 923d 5a4f 84bc 4b91 3c3d 466b 903d
000000d0: 37de c7bd b4fd 3bbd 387d 0e3d bbba 50bd
000000e0: d4c6 0cbd 2c46 fcbd 28b7 f8bc 657e dcbc
000000f0: 596e 6dbd 7495 f63d d8ff 0fbe c7b0 e0bd
00000100: 5330 1bbe 3946 5cbe 8bc1 54bd 81c5 293d
00000110: e43e 183e f026 633d 9ef5 c6bd 5731 05be
00000120: e0e6 173e be58 093e d9cb c13d 9882 b83c
00000130: 260a 29bd f468 49bd 12a6 e3bd c661 c3bd
00000140: 4fe5 ba3d 15c8 2f3e 7038 a03c 16fd e6ba
00000150: 7dce b33d ced0 213e 7f89 2a3e 50a4 543d
00000160: 1589 343e c545 213e eb55 98bd 28b1 5ebc
00000170: 1380 c7bd 82d3 c23b e510 2bbe b42c 9ebc
00000180: 88a1 8c3d c058 1fbd 9eb4 b23c 223f a4bc
00000190: 9d05 bdbc d76e 2d3d be12 3cbd a709 463d
000001a0: 7265 76bd f0cf 073c 11f3 573d 6938 bcbd
000001b0: bed1 433d c55c 57be b63d 6b3d 2733 b33d
000001c0: 4529 e03d 88dc ffbd bae7 f6bd fb58 363d
000001d0: 56c9 22be 5bd9 1bbe c013 f0bd ab73 efbd
000001e0: 1022 453d 36e4 893c 2a89 c9bd 747a 82be
000001f0: 3bf2 373e dc39 b4be 0f29 e7bd 264c d43d
00000200: 77dd 9bbd ac01 c6bd d943 8bbd 12e8 6cbd
00000210: 9289 773d 33cd 05be a1aa 04be 39e6 4b3e
00000220: 5877 ccbd 3205 213e 42ed aabd 1de0 c2bd
00000230: 5e1f d4bd a293 833d bded ea3c 2e4a 073e
00000240: f32a fcbd bad4 85bd 9fae b83d dff6 2a3c
00000250: 46d2 57bd 6721 c5bd 5125 9e3d f916 133e
00000260: daa5 223e 8a2d e0bd 6020 c63d 6ef4 64bd
00000270: 317c b33d 3381 87bb 2530 ffbd e6a1 6fbd
00000280: 2995 e2bd be5c c93d 40e2 bf3d f601 f73b
00000290: 12d1 2abe fa00 05bd 2c35 b8bd d781 7e3d
000002a0: 619c 2e3c 9414 55bd eb1b 6cbe c8d4 eebd
000002b0: 3044 5bbe ae2f 45be 80ad f03b 4496 82be
000002c0: e6f6 df3a bc1b 2bbd 5613 a53d 196b 793d
000002d0: 3c5e e13d b647 66bd c2d1 c9bd f330 3abe
000002e0: 93c1 c9bd 51bc d03d d398 f0bb 0dd9 cb3d
000002f0: 2b47 c03d 7b87 4dbe 571e 203d f2a2 00be
00000300: 0c45 d03d d4b0 fc3d bbb3 ed3c 1182 28bd
00000310: c423 043d 1d56 a83b bbf5 f4bd e3df 1dbe
00000320: fc42 cdbc cbfc a73d 9c04 3abe 4f02 f43d
00000330: 1e1d 3f3e 0623 8bbd 4072 d0bd abca 133e
00000340: c9a8 543e 8964 783c 3851 703d d042 c33c
00000350: e73b 8b3c 229a b53d 01f5 77be bbcf d8bd
00000360: 6bd8 bfbd f6ab 46bd 0362 c1bd bfc3 273d
00000370: 9359 363e b78f 0cbd 0f2d 2b3d d7a0 10be
00000380: 6fa7 89be 7132 8cbd 99a3 f23b 3693 cbbd
00000390: c0b3 57be d3fd 0fba 9391 253d cf3b 373d
000003a0: ebec 2bbe 8aac 523d 6c68 debd ff9f bb3d
000003b0: 8dee 9dbd a959 8ebc c08d 90bc 9eb0 033d
000003c0: cb22 9fbd 0653 6a3d 6bb8 16bd 265e ac3c
000003d0: 18f8 4b3d 938f 27be 41d6 ecbd 1e4e c0bd
000003e0: a499 bb3d 9ee6 e3bd 85d2 b6bd 3957 65bd
000003f0: e77b 1f3e a841 0bbe 51cd 273e d3ec bd3c
0.061419006 -0.12409133 -0.13893442 -0.03557162 -0.10509846 -0.07118818 0.08616032 -0.04798919
0.051358707 0.09721571 0.01086301 0.14350647 0.14754386 -0.08933907 0.08042143 0.06917073
0.109967954 -0.01938137 -0.073249795 0.19968447 -0.021649513 -0.03837068 0.013994916 -0.17834729
0.0437547 0.10487428 0.0036567033 0.035991136 0.095090896 -0.058272135 0.25109854 0.22003187
0.10791169 -0.0008395471 -0.10483766 -0.038678814 0.023214476 -0.10913461 -0.05860445 0.068777926
0.08404869 0.06653503 0.016104802 0.021311397 -0.1038564 -0.15106392 0.15087682 0.029490001
0.07160954 -0.016151119 0.046037 0.07051711 -0.09759181 -0.045896247 0.034787387 -0.05095933
-0.034369305 -0.12318072 -0.030360773 -0.026915738 -0.057966564 0.12040225 -0.1406244 -0.109712176
-0.15155153 -0.21511163 -0.05194239 0.04144812 0.14867741 0.055457056 -0.097148165 -0.13007103
0.14834166 0.13412759 0.09462709 0.02252321 -0.041269444 -0.049172357 -0.1111566 -0.09540133
0.091257684 0.17166169 0.019558161 -0.0017623033 0.08779619 0.15802309 0.16654013 0.051914513
0.17630418 0.15749271 -0.074382626 -0.013592042 -0.09741225 0.005945624 -0.16705664 -0.019308425
0.06866747 -0.038902998 0.02181464 -0.020049635 -0.023073966 0.042342033 -0.04591631 0.04834905
-0.06015534 0.008289322 0.05272204 -0.09190447 0.047807448 -0.21031483 0.0574319 0.08749991
0.109453715 -0.12493235 -0.12055917 0.044518452 -0.15897116 -0.15219633 -0.11722517 -0.11691984
0.048128188 0.016832452 -0.09840615 -0.2548405 0.17963497 -0.35200393 -0.11287128 0.10366087
-0.076106004 -0.09668288 -0.0680005 -0.057838507 0.06043393 -0.13066559 -0.12955715 0.19912042
-0.099837005 0.15724638 -0.083460346 -0.095154025 -0.10357545 0.06424643 0.028677816 0.13211891
-0.123128794 -0.06534715 0.09017681 0.010434835 -0.052690767 -0.096255116 0.07721961 0.14364232
0.1588358 -0.10946186 0.09674144 -0.05589717 0.08763922 -0.004135275 -0.12460355 -0.058504008
-0.11063606 0.09832142 0.09369326 0.0075380756 -0.16681316 -0.032471634 -0.08994517 0.062135544
0.010657401 -0.052021578 -0.23057525 -0.116616786 -0.2141273 -0.1925647 0.0073449016 -0.2550527
0.0017087131 -0.041774496 0.08060329 0.060893152 0.11004302 -0.056220733 -0.09854461 -0.18182735
-0.098513745 0.101921685 -0.007342437 0.099535085 0.09388574 -0.20071213 0.039091434 -0.12562159
0.1016942 0.12338415 0.029016366 -0.041139666 0.03226067 0.0051372186 -0.11960932 -0.15417437
-0.025056355 0.08202513 -0.18165821 0.11914503 0.18663451 -0.067937896 -0.101780415 0.1443278
0.20767511 0.015160688 0.058671206 0.02383557 0.016996337 0.08867289 -0.24214555 -0.105864964
-0.0936745 -0.04850384 -0.094425224 0.040958162 0.17807607 -0.034316745 0.041791018 -0.14123856
-0.26885554 -0.068455584 0.0074047563 -0.09940188 -0.21064663 -0.000549284 0.040422034 0.044734772
-0.16789596 0.051434077 -0.10859761 0.09161376 -0.077115156 -0.017376738 -0.017645717 0.032150857
-0.07770308 0.057208084 -0.03679697 0.021040987 0.049797148 -0.16363363 -0.11564303 -0.093899
0.09160164 -0.11127971 -0.08926872 -0.055991385 0.15574609 -0.13599265 0.16386916 0.023184216

0.model_cnn.layer2.0.bias f4 [32]
00000000: 85f3 ac38 972b 0938 026e 5c36 a0c3 f8b7
00000010: a137 1138 8777 3ab8 bbff a5b7 c1b7 da37
00000020: afd4 0bb8 2d81 0239 2b59 8738 2470 3037
00000030: e042 a3b8 0285 9537 34e4 f337 18ca 5bb9
00000040: 95fd ddb7 4958 7436 852e beba 9e7f 4fb6
00000050: d4a6 e935 55b0 ecb8 f205 18b7 d971 3337
00000060: 5204 6db8 94eb 4538 ee0b 35b8 5b8c c3b7
00000070: 09ee 59b8 cff9 2e39 0bda 82b9 244a 9637
8.246958e-05 3.270394e-05 3.2846588e-06 -2.9654999e-05 3.4622502e-05 -4.4457174e-05 -1.9788617e-05 2.6073192e-05
-3.333826e-05 0.00012445888 6.4539105e-05 1.0516527e-05 -7.784902e-05 1.782412e-05 2.9074123e-05 -0.00020960753
-2.6463336e-05 3.6410222e-06 -0.0014509714 -3.0919687e-06 1.7408406e-06 -0.00011286201 -9.06129e-06 1.0695739e-05
-5.6509227e-05 4.718786e-05 -4.3164873e-05 -2.331117e-05 -5.195852e-05 0.00016686994 -0.00024957987 1.7915918e-05

0.model_cnn.layer2.1.weight f4 [32]
00000000: bcfc 6f3f e55a 833f 15b7 8b3f 5b0c 653f
00000010: d52a 893f 976c 5e3f ec8b 683f fd25 833f
00000020: b8fd 7c3f 5f46 6d3f 8c8d 733f 8a1d 6b3f
00000030: cb2f 713f 104a 853f b510 7a3f c027 863f
00000040: 8cdc 6a3f 8617 7e3f c27d 913f b261 853f
00000050: fdff 6e3f 72b7 7b3f 0dc4 7a3f a53a 703f
00000060: 8d9a 843f 7739 7e3f be8e 743f ab1d 743f
00000070: e16a 583f 6da5 7e3f 89dd 8d3f 32ce 6d3f
0.9374502 1.0262114 1.0915247 0.8947198 1.0716196 0.86884445 0.90838504 1.0245968
0.98824644 0.926855 0.9513786 0.9184195 0.9421355 1.0413227 0.9768174 1.0480881
0.9174278 0.99254644 1.1366503 1.0420439 0.9335936 0.9832679 0.979554 0.93839484
1.0359665 0.99306434 0.9553031 0.9535777 0.84538084 0.9947117 1.1083232 0.92892754

0.model_cnn.layer2.1.bias f4 [32]
00000000: 986d 84be c631 12be 6963 573d 7539 26bd
00000010: 7f3c 6bbb ddc3 d9bd d93e fcbd df29 eebd
00000020: 68fe 80bd 559f d8bc bf0a a7be 98a3 9fbe
00000030: 059a 80be e3fc 013e 83bb 7cbd 9c9d 2cbd
00000040: a42a 32be cbef 41bd 6ddb 443e bdc4 b8be
00000050: 26c0 c2bd 57dd 88bd 0886 febd a33f 32bd
00000060: 35c5 3abe db14 9bbd 1648 b7be a324 85bd
00000070: ee39 3fbd fbe3 cfbc d54b ea3d 54d1 88bc
-0.25864863 -0.142768 0.05258504 -0.04058214 -0.0035894213 -0.10633061 -0.12316675 -0.1162908
-0.06298524 -0.026443163 -0.32625386 -0.311795 -0.25117508 0.12694125 -0.061702263 -0.042142496
-0.17399079 -0.047347825 0.1922433 -0.360876 -0.09509306 -0.06682842 -0.12427908 -0.04351772
-0.18239291 -0.07572337 -0.35797185 -0.065011285 -0.046686105 -0.025377264 0.11440245 -0.016701378

0.model_cnn.layer2.1.running_mean f4 [32]
00000000: 440d b23e b3cb fe3c cc22 1fbf e9ba 22bf
00000010: 6f00 8fbe 4672 e6be 72e6 aebe 8b77 74be
00000020: cc01 03bf cd90 02bf 3ae4 413f 4549 b93d
00000030: cad9 2d3e c21d e2be ba01 a1be be8f cd3d
00000040: 83c1 493e bf13 c9be 5c02 53bf 8874 543f
00000050: 5390 9ebe 0dd9 b3be 0c1a 3c3e 8205 cabe
00000060: dbd5 90bd c741 a1be bde6 f93e f245 7abe
00000070: 0fc4 2fbe fd62 d4bd 0ea4 04bd 6846 20bf
0.34775746 0.03110299 -0.6216247 -0.6356645 -0.27930018 -0.4500906 -0.3416019 -0.23873727
-0.51174617 -0.510022 0.7573887 0.09047178 0.16977611 -0.44163328 -0.3144663 0.10037182
0.19702725 -0.39272878 -0.82425475 0.8299031 -0.30969486 -0.35126534 0.18369311 -0.39457327
-0.0707204 -0.31495497 0.48808852 -0.24440745 -0.17164634 -0.10370443 -0.032383017 -0.6260743

0.model_cnn.layer2.1.running_var f4 [32]
00000000: bc9b 7e3e ee57 993e 345f 9f3e e5ef e63e
00000010: c406 aa3e 9c21 c03e 93da 723e 04b0 523e
00000020: 21f2 c73e 9927 963e be31 be3e 6307 833e
00000030: d371 813e 570c 9c3e b7db b43e 62eb 513e
00000040: 0f02 793e 0ab7 813e 9bc9 d43e 9e73 083f
00000050: e41d a83e 0fd2 c33e 8057 153e add3 df3e
00000060: d74d 933e a5ac 763e 09ce c03e 50ed 853e
00000070: 5d53 b83e 59fa 893e 270e 483e b0c9 ef3e
0.24864095 0.29949898 0.31127322 0.451049 0.33208287 0.37525642 0.23716192 0.20574957
0.39051917 0.29327086 0.37147325 0.25591573 0.25282153 0.30478165 0.3532388 0.20499948
0.24317192 0.2533496 0.41560063 0.5330142 0.32835305 0.382462 0.1458416 0.43716183
0.28770325 0.24089296 0.37657192 0.26157618 0.360011 0.26948813 0.19536649 0.46833563

0.model_cnn.layer3.0.weight f4 [64, 32, 3]
00000000: 8dd2 2dbd f370 ab3b e7dd 23bc 065a 89bb
00000010: 0bf2 febd cb32 503d 43f0 113d 56bb 443d
00000020: 8730 133d 7bd4 06bd 7757 bfbc fe68 cabd
00000030: b868 273d ee57 81bd 4370 ef3d 0e71 c8bc
00000040: 616c b9bd 54ce bb3c 63e3 4ebb 4997 0bbe
00000050: b71f 1bbe 1ce5 8a3d ef14 cebd 3c3d 01be
00000060: a2db 8e3d 7f71 fd3d f572 073d 8ebc df3d
00000070: 10c6 dbbd bcd7 36be 1878 46bc f1bb e83c
00000080: 2010 44bd a0e5 8cbd f9a7 e63c 48ab f13c
00000090: 5106 5a3d d11a a73d a8b1 29bd a5e4 1cbe
000000a0: 64a9 67bd 56e2 f7bd a3b3 b9bd f570 04be
000000b0: 4963 93bd 268b 92be be2a 97bd 1346 89bc
000000c0: 0435 873a bb94 14be 7645 1abd cfee dfbd
000000d0: 44ae bbbc e3c8 16be a83d 9f3d b16e 3a3d
000000e0: d74a 4b3c 6784 eabb 5897 d83d 6130 713d
000000f0: 38f7 ba3c 2dcc a63c 711c babc 9801 14be
00000100: 6a66 4abe 6df0 3fbe f26b 9cbd f391 39bd
00000110: ade6 473d d6e2 5bbc f316 a93c 918d afbd
00000120: 75a0 483e 513b 033e 4655 193d c318 02be
00000130: 3743 30be 4aa1 c9bc ad1c 9cbd 3102 d53d
00000140: 509c 9a3c 528d 11bc b83e cfbd f593 8fbc
00000150: 0c8c f63a 2138 0abe 9b70 c5bb 2b5a 29bd
00000160: af7a 9e3b bff1 f8bd d511 2fbe 53d3 803d
00000170: f69a 153d b032 1bbd 3c8c 67bd 2263 22be
00000180: b14a 02bb 3ac5 4fbd 6aed 7fbd 6f9e fabb
00000190: f1d9 c53d 1340 a33d 19e4 61bd a389 3abc
000001a0: bb38 73bc 7ed3 bc3d 395f c23d ad3d 103e
000001b0: bd40 18be ef2c 30be c342 21be 4a70 aa3d
000001c0: df6d 813d 83e8 d1bd c9e3 14be e2ef 5d3d
000001d0: 79e6 ed3d 1e65 043d ac23 e4bc b927 673d
000001e0: e6d1 c3bd 7a3a 62bd ea2f 08be 2ca8 a93d
000001f0: 3008 fc3c 5d1c 153d d476 0a3d aad4 583d
00000200: 0e19 f63c cbcc 533d 7f5c b3bd 6355 e73d
00000210: de0b 2abe 9c9c 493b 1cf0 a13d ff15 fbbd
00000220: 2100 f3bd a65e 06be 276d 083e 0dca 03bc
00000230: e236 de3d c92d c53d 11a9 b8bd 06a9 d3bd
00000240: 8797 d13d aa66 bcbd 3fae 87bc 6b03 f2bd
00000250: 2ec4 af3d 4ebe d0bb d115 81bd 995d 06be
00000260: 01a8 3fbd ef20 0e3e baae 863d b3d9 163d
00000270: 2361 76bd f5f1 15bd 44be 0dbd abbd 9d3d
00000280: 7ac7 873d 73e6 01bd c265 9ebc 92a8 02bd
00000290: 4ef3 48bd 7fb8 30bc e2fd 35bd 2d5b a13d
000002a0: d6fe 01bd 1f7d 7fbd d30a 053e 0e76 163e
000002b0: eda4 d43c a8b5 c0bc 4f50 e93d 8351 ca3d
000002c0: da56 bf3d bebd 483d b42e 013d 415d d4bc
000002d0: 5e21 243e fe50 753d b524 0a3e 8b91 f2bc
000002e0: df32 e13d 5706 7d3d 3bee 27be c2d4 18be
000002f0: cd7d 08be f73f e0bc 7bf6 8abc bbf5 39bd
00000300: 453f ad3d b88e ca3d 5854 fa3c a1cd 08be
00000310: 6cb2 70bd 88e2 5c3d 0ddc 383d f957 96bd
00000320: ccdc 053c ea52 fcbc 1bfc 8a3d 19a6 013d
00000330: a9aa 43be ce3d 973c b4f3 c9bb 8992 9b3d
00000340: 4d10 1d3d 3687 1cbe 33fe 9dbd fda9 1ebe
00000350: acab d63c 9508 783c 23ec fc3d 9fa0 543d
00000360: 322f 00bc 9e7b 8fbd 4c34 773d 1e0b 223e
00000370: b5d1 90bd dc81 17be 0ccc af3b c494 c63c
00000380: eeb9 a53d a828 c4bd 1a49 8c3d c68a ae3d
00000390: f000 0bbe 84c3 823d 4d6c c23d 72e3 813c
000003a0: e76c a8bd e3bb b1bc 6f1e 873d 7ceb c03d
000003b0: b55e 9abd b427 54bd e7aa a8bc cf84 b7bc
000003c0: 89a8 883c 73af 373d e452 48bd 7e73 7d3c
000003d0: 90f7 21bc 8d23 d7bd 0136 c63d 5405 143d
000003e0: 077c 023e bad7 223e aace 473d 1db0 3f3e
000003f0: 0852 af3d 9884 0ebd 8211 d23d b80c 083e
-0.042437125 0.0052319705 -0.010001636 -0.00419164 -0.1244851 0.05082969 0.035629522 0.04803022
0.03593495 -0.03291748 -0.023357136 -0.09883307 0.040871352 -0.063155994 0.11691334 -0.024467971
-0.09053875 0.022925533 -0.0031568639 -0.1363193 -0.15148817 0.067819804 -0.100625865 -0.12621015
0.069754854 0.12375163 0.033068616 0.10924636 -0.10731137 -0.17855734 -0.0121135935 0.02840993
-0.04786694 -0.06879735 0.028156267 0.029500619 0.05322868 0.08159412 -0.04142919 -0.15321596
-0.056558028 -0.12103717 -0.09067466 -0.12933715 -0.071966715 -0.28621787 -0.07381199 -0.016757047
0.0010315483 -0.14509861 -0.0376639 -0.10934221 -0.022910245 -0.1472507 0.07775432 0.04551572
0.01240798 -0.007156897 0.105757415 0.05888403 0.022822961 0.02036103 -0.02271864 -0.14453733
-0.1976563 -0.18744059 -0.076377764 -0.045305204 0.048803974 -0.013420781 0.020640826 -0.085719235
0.1959246 0.12815596 0.03743484 -0.12704758 -0.1721314 -0.024613041 -0.07622657 0.104008086
0.018873364 -0.008883791 -0.101193845 -0.017526606 0.0018810048 -0.13497974 -0.0060253865 -0.041345757
0.0048364024 -0.121554844 -0.17096646 0.06290307 0.036524735 -0.037890136 -0.056530222 -0.15858129
-0.0019880945 -0.0507252 -0.062482275 -0.0076482813 0.0966071 0.079712056 -0.05514917 -0.011385354
-0.014845069 0.092200264 0.094908185 0.14086027 -0.14868446 -0.17204641 -0.15748124 0.08322199
0.063197844 -0.10249426 -0.14540018 0.05418385 0.11616225 0.032322995 -0.02784904 0.056434367
-0.09561519 -0.05523155 -0.13299528 0.08284029 0.030765623 0.036404002 0.03380473 0.052937187
0.030041244 0.051708978 -0.087578766 0.11295583 -0.1660609 0.0030763512 0.07907125 -0.12260055
-0.11865259 -0.13122043 0.13322888 -0.008043778 0.10850312 0.096278735 -0.09016622 -0.10334973
0.1023398 -0.09199269 -0.01656258 -0.11817058 0.0858234 -0.0063703423 -0.06302989 -0.13121642
-0.04679108 0.1387975 0.06576295 0.036828708 -0.06015123 -0.0366077 -0.03460528 0.07702192
0.06629844 -0.031713914 -0.019335631 -0.031899042 -0.04906016 -0.010786175 -0.044431575 0.078787185
-0.03173717 -0.062375184 0.1299241 0.14693472 0.025957549 -0.02352412 0.11392271 0.098788284
0.093427375 0.049009077 0.03153868 -0.025923373 0.16028354 0.059891693 0.13490565 -0.029610416
0.10996031 0.061773624 -0.16399471 -0.1492491 -0.13329239 -0.02737425 -0.016963234 -0.045400362
0.08459333 0.09890503 0.030557796 -0.13359691 -0.058763906 0.053926975 0.04513173 -0.07340998
0.008170318 -0.030801255 0.067863666 0.031652544 -0.1910807 0.018462088 -0.006163085 0.07596309
0.038345624 -0.15285954 -0.077145 -0.15494533 0.026204906 0.015138765 0.12349727 0.051910993
-0.007823752 -0.07006 0.06035261 0.15824553 -0.070712484 -0.14795631 0.0053649005 0.024240859
0.08092104 -0.09578067 0.068498805 0.08522563 -0.13574576 0.06384948 0.09493313 0.015855525
-0.082238965 -0.021696037 0.065976016 0.09419915 -0.07537595 -0.051795676 -0.020589305 -0.022402195
0.016681926 0.044845056 -0.048907176 0.01546943 -0.009885684 -0.10504828 0.09678269 0.036137894
0.12742625 0.15902606 0.048781075 0.18719526 0.08560568 -0.03479442 0.102572456 0.13286102

0.model_cnn.layer3.0.bias f4 [64]
00000000: d8d4 af36 ffda a537 d2bf 8b37 23f6 a6b7
00000010: fcc0 bbb5 250c 3d38 a263 9bb7 7456 5337
00000020: 81f4 6e35 7b50 35b7 548b 8435 e984 9e36
00000030: 7962 a537 e8c0 eab6 c888 45b8 2618 dfb7
00000040: f690 3736 55e5 85b8 ab7e 1a38 1465 6fb4
00000050: 74d2 b436 ce67 90b5 cd07 9237 9dd4 3ab7
00000060: c8b0 1f37 f5e9 9d36 fd8b 1e37 6a10 4239
00000070: fc7e 8cb7 ca6d 3437 dd6b 00b8 e511 9a36
00000080: 8537 b2b7 ecc0 1db4 f7bd 85b7 6317 f036
00000090: f2e4 c337 4875 4db6 8bb8 3f36 8187 8ab7
000000a0: 7a48 bfb5 b04e 17b7 210f 59b7 f29b 0db7
000000b0: bc91 d636 8470 c936 0e6f e537 30dd feb6
000000c0: 0f5c 53b5 1fb2 14b8 5153 b736 24a9 6c36
000000d0: 430d 7eb6 26cb fdb6 fbd3 a8b6 ae82 db36
000000e0: 4746 f2b4 6a27 f437 ef0e 8eb6 7ef4 59b7
000000f0: 01d6 05b6 89e8 2534 18dc e5b6 007f 0a32
5.2401847e-06 1.977151e-05 1.6659415e-05 -1.9903358e-05 -1.3988752e-06 4.5072422e-05 -1.8523835e-05 1.2596709e-05
8.901771e-07 -1.0807179e-05 9.875316e-07 4.7242397e-06 1.9715388e-05 -6.9962007e-06 -4.7095848e-05 -2.6594917e-05
2.7353503e-06 -6.3846506e-05 3.683443e-05 -2.2295382e-07 5.388918e-06 -1.0759047e-06 1.7408189e-05 -1.1135967e-05
9.518299e-06 4.706201e-06 9.450127e-06 0.00018507396 -1.6748432e-05 1.0754398e-05 -3.0618034e-05 4.591641e-06
-2.1245107e-05 -1.4691949e-07 -1.5943295e-05 7.15528e-06 2.3352422e-05 -3.0615647e-06 2.8568636e-06 -1.651398e-05
-1.4251702e-06 -9.018622e-06 -1.293773e-05 -8.440564e-06 6.3946627e-06 6.0033653e-06 2.7350641e-05 -7.5955395e-06
-7.873759e-07 -3.5451838e-05 5.4635243e-06 3.5265193e-06 -3.7856669e-06 -7.563637e-06 -5.031468e-06 6.5419217e-06
-4.5127146e-07 2.910542e-05 -4.2336683e-06 -1.2991133e-05 -1.994311e-06 1.5451418e-07 -6.850354e-06 8.061534e-09

0.model_cnn.layer3.1.weight f4 [64]
00000000: 797f 893f 44c9 733f f67b 853f 3564 743f
00000010: a631 6c3f d333 823f a8e7 6b3f b158 5e3f
00000020: 46dc 533f 5e85 6f3f 43dd 603f ec75 7a3f
00000030: e88a 853f afa7 8a3f 1528 8a3f 0da7 6f3f
00000040: 7552 6b3f 12b1 813f 631c 913f 566a 453f
00000050: 0e7c 673f a740 773f d501 753f 5436 713f
00000060: 323e 703f 81ae 6d3f 6993 883f db85 873f
00000070: f1f7 7c3f e41f 853f 55f2 883f 006c 613f
00000080: caa9 863f ad97 6f3f ca1b 643f 4b5b 803f
00000090: 5abe 763f 6202 673f 3ea0 7b3f 9584 723f
000000a0: 5233 843f 8bb9 7a3f 936f 7b3f 06b8 723f
000000b0: 434f 803f 08a6 833f 04d0 853f 5310 753f
000000c0: 6b1a 573f 9496 903f f3de 603f 09c0 593f
000000d0: 88aa 633f e8fc 653f d3fe 6b3f ab22 823f
000000e0: 5dd8 803f 75c0 863f 8fdb 793f 37e1 863f
000000f0: 34ee 813f ab53 683f 4906 863f 8c4b 7c3f
1.0742027 0.9522898 1.0428455 0.95465404 0.9226326 1.0172065 0.92150354 0.8685408
0.82757986 0.9356288 0.8783762 0.97836185 1.0433016 1.0832423 1.0793482 0.93614274
0.91922694 1.0132163 1.1336788 0.7711538 0.9042367 0.96583027 0.9570592 0.94223523
0.938449 0.92844397 1.0669986 1.0587724 0.9881583 1.0400357 1.0698954 0.8805542
1.0520566 0.93590814 0.891049 1.002786 0.96384203 0.9023801 0.98291385 0.94733554
1.0328162 0.97939366 0.98217124 0.9481205 1.0024189 1.0285044 1.0454106 0.95728034
0.84024686 1.1295953 0.87840194 0.8505865 0.88932085 0.8983903 0.92185706 1.016683
1.0066029 1.0527483 0.97600645 1.053748 1.0150819 0.9075267 1.0470668 0.98552775

0.model_cnn.layer3.1.bias f4 [64]
00000000: e573 aabd cb11 27be 6666 c5be 685a 50be
00000010: 30b6 36be e810 96bc 0fc1 80be c90c bfbe
00000020: f107 56be b65c a2be ca13 86be fdb3 45bc
00000030: 229a 81be 6e8e 13be 9862 50bd 8123 9bbe
00000040: e21a 3a3d 71e6 f93c 4e64 6e3d 8c76 b6be
00000050: 792e 9cbe 4cd4 77be d904 b0be 25bf 35be
00000060: 1189 f8bd 8be4 34be eed8 1cbd 0b34 d2bd
00000070: f955 96be d387 dcbd 2c19 76be 4296 f9bd
00000080: 4d60 59be f3da 91be 8ac4 45be 7c63 dcbc
00000090: 0374 08be 3bef b3be 24b9 a8be dfcf 0e3d
000000a0: ff14 0dbe ab11 e93c f8e1 4bbd 9923 65be
000000b0: b85b 07be 9e7e 7dbe 18e7 293d 4aad a0be
000000c0: 80d2 10be 77fc 8fbe e686 40be 067c aabe
000000d0: ddea 6cbe 43dc 86be 05fe 3abe 88e7 93be
000000e0: 5afe 99be 367a bcbe 9081 8cbe e953 743c
000000f0: 3579 00be db14 26bd cd62 8ebe d93b f6bd
-0.083228864 -0.16315381 -0.38554686 -0.20346987 -0.17842937 -0.018318608 -0.25147292 -0.37314442
-0.20901467 -0.31711358 -0.26186973 -0.012066838 -0.25312907 -0.14409801 -0.050875276 -0.30300525
0.045435794 0.03050539 0.058201127 -0.3563732 -0.30504206 -0.24202079 -0.34378698 -0.17748697
-0.12135518 -0.17665307 -0.038292818 -0.10263833 -0.29362467 -0.10768094 -0.2403304 -0.121868625
-0.21228142 -0.28487357 -0.19313255 -0.026902907 -0.13325505 -0.35143456 -0.3295375 0.03486621
-0.1377754 0.028450808 -0.049776047 -0.2237686 -0.13218582 -0.24755332 0.041480154 -0.3138221
-0.141428 -0.28122303 -0.1880146 -0.33297747 -0.23136468 -0.2633992 -0.18260963 -0.28887582
-0.30076867 -0.3681199 -0.27442598 0.014912584 -0.12546237 -0.040547233 -0.27809754 -0.12023134

0.model_cnn.layer3.1.running_mean f4 [64]
00000000: 7c70 c8bf 1c9a cebe cb8b fb3e f723 7a3e
00000010: 8fda 84be faea 8cbf 165a 3dbe 4c39 573f
00000020: 0562 d7be 0b23 113f f6b3 e83e 8c6f 12c0
00000030: 7626 033e 726a 82be a2a7 cdbd 8533 c73e
00000040: e82a 95bf 006c 1ac0 69ba 29c0 d40c 623e
00000050: dd2c 453f b306 90be 3cc6 e33f d2f8 3a3e
00000060: dbd4 e4be b7e5 18bf e897 7dbf 44c2 0bbf
00000070: 676f 083f 5286 53bf dfc0 0fbf ebc9 65bf
00000080: a2d4 50be 934b d3be a07e 0dbe b747 9dbf
00000090: 8610 b1bf e440 0b3e 00ee 2c3f 7c88 f1bf
000000a0: acc5 acbf 7c67 12c0 771b 2cbf 72ed 613e
000000b0: f501 27bf b07c 123f a17f 17c0 1e8a 1c3e
000000c0: 4d3d 8ebf cd85 a13e 1ef6 3ebd b53c ef3e
000000d0: 8652 803e 0517 853f c214 cfbe 5add 033e
000000e0: fd1e c33e 23d8 df3e 3887 0abf 5565 b9bf
000000f0: d431 bbbf 1e38 b3be faf1 8e3f dbdb 81bf
-1.5659328 -0.4035195 0.4913009 0.24427782 -0.25947997 -1.1009209 -0.18491396 0.84071803
-0.4206697 0.56694096 0.454498 -2.2880583 0.1280764 -0.25471836 -0.10041739 0.38906494
-1.1653719 -2.4128418 -2.6520026 0.22075206 0.7702158 -0.2813011 1.7794871 0.1825898
-0.44693646 -0.5972552 -0.99059916 -0.545933 0.53294986 -0.8262683 -0.5615367 -0.8976123
-0.20393613 -0.41268596 -0.13817835 -1.2287511 -1.3833168 0.13598973 0.6755066 -1.8869777
-1.3497825 -2.2875662 -0.6722941 0.22063234 -0.6523736 0.5722151 -2.3671649 0.15287063
-1.1112458 0.31547394 -0.046621434 0.46726003 0.2506296 1.039765 -0.40445524 0.12877408
0.3810958 0.43719587 -0.5411258 -1.4484049 -1.4624581 -0.35003752 1.1167595 -1.014522

0.model_cnn.layer3.1.running_var f4 [64]
00000000: da16 383f 3eb5 0b3f ec1f 1c3f c8c2 3e3f
00000010: c5cd f73e 83e5 0e3f 1b74 193f 3e4b de3e
00000020: 78bc 093f 581d 063f 1305 df3e 2f81 7f3f
00000030: 94bc c53e 4aa3 483f 5230 123f e022 093f
00000040: db49 5c3f 17c7 283f e9b4 c43f 1f52 633e
00000050: 4e29 3d3f 79d7 9a3e 084d 2a3f 4428 133f
00000060: 215f e33e 9592 cb3e abae 243f 00e6 273f
00000070: 941d 473f 3eba 243f 5b3a e53e fe9a fa3e
00000080: 3072 ff3e c93d ad3e 696e 063f 2826 5d3f
00000090: 07b0 123f 5422 b83e c571 c43e 9519 c63f
000000a0: 1bee 173f 0bac 7c3f c9b9 473f d19a 0d3f
000000b0: fc1c 003f bb6d f73e 5691 8a3f 6c65 0e3f
000000c0: 7def cb3e 7ece e63e 1f73 263f c66b e73e
000000d0: 25f9 be3e 3ce1 cf3e 327a fe3e 03c7 2e3f
000000e0: e1e6 123f d43e 183f 1137 173f 9aa2 273f
000000f0: d780 c83e bc6e 333f 635a 0a3f 967b 193f
0.7190987 0.5457343 0.6098621 0.7451596 0.48399177 0.5581896 0.5994279 0.4341678
0.53803205 0.52388525 0.4355856 0.99806494 0.38620436 0.7837416 0.5710498 0.5356884
0.86050195 0.65928787 1.5367709 0.22199295 0.7389115 0.30242518 0.6652379 0.57483315
0.44408515 0.3976027 0.6432902 0.6558533 0.7777951 0.64346683 0.44771084 0.48946375
0.49891806 0.338362 0.5251222 0.86386347 0.57299846 0.3596369 0.3836805 1.5476557
0.59347695 0.98700017 0.7801786 0.55314356 0.50044227 0.48325905 1.0825603 0.5562351
0.39831153 0.45079416 0.6501941 0.45199412 0.37299457 0.40601528 0.49702603 0.6827242
0.57383543 0.5947087 0.590684 0.65482485 0.39160797 0.7009084 0.5404417 0.599542

0.model_cnn.layer4.0.weight f4 [128, 64, 3]
00000000: cf12 f8bc 6a4b a4bd 3015 9f3d 5338 8bbb
00000010: 6913 5e3d 0c01 4c3c 3a92 513a a60a 703c
00000020: 5fa8 b4bc f85b aa3d f3df 993d c7ff 163e
00000030: 4e28 19bc 764f a9bb aead 913d 1551 a4bd
00000040: 3af7 1bbd 77d0 4ebd 5d8c a83c 60f0 d43c
00000050: 2130 a93d 41f2 82bd 02cc af3d 2851 0ebc
00000060: 1799 473d e601 33bc 1469 21bd 8162 9fbd
00000070: 5965 9cbd 461c e53c 3897 413d 9967 1c3d
00000080: 30f6 673b 9ff6 443b f56c a5bd e61d c03b
00000090: 41be 5c3c f094 a5bb 6963 903c 0746 bd3d
000000a0: 20e4 1dbc 0ed5 bbbc 3390 733c 7ad6 a13b
000000b0: 372d 03bd 831f 823c 6812 d93c 2422 ce3d
000000c0: 19ec fcbd 8a67 08be 35db 68bd bbf9 b4bd
000000d0: baf8 dd3d dae7 b13d 4c52 f0bd 8710 8fbb
000000e0: d26e f8ba 1313 3d3d 8c65 6f3d 9a23 423d
000000f0: 7081 733d 424e 523d 10d6 7d3d f17f b43b
00000100: d313 873d baf5 00bc c07f 193d 5340 22bd
00000110: dae3 cdbc 6960 ef3d 908c 883c a5ac 783d
00000120: aa35 1b3e 7ea6 d1bb 0d08 3e3e dd13 9bbb
00000130: b0cb c33d 8ec9 a43c 2a0d e93c 28da 093d
00000140: a42e 31bc c8b9 96bd 297a b33c ad35 bb3d
00000150: 18bb 7a3d 6ffb 033e 71dc 853d 6513 d8bc
00000160: 8933 723d 155f 7d3c 618d 3f3d 32de bb3d
00000170: d6bb d13d 1b88 603b eeec 2a3d f4ef 2abc
00000180: fe96 91bd 0a3e 18bd 6346 47be cf7e 3c3d
00000190: f677 2e3c 5115 693d 1f71 9dbc 08e2 c53a
000001a0: 93d6 b83c f5fb 9bbd 29ae a3bc 5da4 dbbd
000001b0: 9811 8a3d 2b73 233c 352a 2c3d 8b3e 4a3c
000001c0: 0f38 1dbd 4084 8d3d 9044 60bc 9fa1 1b3b
000001d0: 5106 673c 8cd0 22bd e235 2dbd 9bfa bdbd
000001e0: 11af 663c fe1f 2a3d d7b1 993d cdc5 a1bd
000001f0: 911d 0bbd daa9 f3bc 88e6 6e3d 20e8 50bd
00000200: 1af5 c13d 44d0 243d 0d30 c3bc a144 c63a
00000210: 4bb9 d93c 3e4f bb3d 5120 acbb 474f b43d
00000220: ad52 e1bc 4dea 583d a07d e53d 5cd2 90bc
00000230: af6a 073e e46c 833c c09c ae3c 072e e43d
00000240: bb3a 0b3d a46c d63d 6332 46bd bc69 3f39
00000250: 0bd0 b63d f800 443d 2671 24bd e736 abbc
00000260: e7a4 c2bc 829d 62bc 5b18 bcbc c166 973c
00000270: ea8d cc3c e7a2 7abd 5a76 4b3c 2bec e8bd
00000280: 61c5 b1bd d7e6 95bd 0831 313d 6abf fa3b
00000290: 4e5d b6bd 54d3 213d 0b5b d2bc e90e aabd
000002a0: 660b 98bd e6ef 19bd 1ee0 25bc 67c0 b23d
000002b0: 1b29 81bc 7aba a5bd 8872 f8bc a357 4d3d
000002c0: ad9d ac3d 607a d1bc 0bfb efbd 9e2c 00be
000002d0: b7ea 033e 642f a03d 2a8b 413e d1c6 84bd
000002e0: 7012 d03a 1e84 253c fd6c 26be 2d58 10be
000002f0: fbf8 f4bd a4fd e53c f053 8abd fe95 0a3c
00000300: f76e c93b 0a02 40bd 11c2 413d f09c 8c3d
00000310: 038b d93c 5236 e53d 0957 67bd 5056 173d
00000320: ee2f 9c3c c46a b5bb 9898 013d 88ff 53bd
00000330: 6b67 d8ba b50c b0bd 3ed0 cc3b d8e3 283e
00000340: b597 7e3e fff3 573e 5286 dfbd e540 103d
00000350: 12f3 323a 64a6 13bd 9ae8 babd b093 acbc
00000360: 4fe0 a73b 891e e8bc 3abb bb3d 200c 98bc
00000370: 76b1 8cbd e664 ecbd 9bd2 463d 6c00 6e3d
00000380: 9735 1b3d 1122 06be a74d b1bd 6d9b 31be
00000390: b87d 9bbc 6547 b6ba e9d9 893c 3e99 8a3d
000003a0: e858 263d dff3 9d3d 2201 60bd ec90 a6bd
000003b0: e9e0 f9bd 412c c8bc c3c8 2cbd bc25 a1bd
000003c0: 5357 ea3d 3f87 d33d 499c 463d 90df 043e
000003d0: c12f 483d 116a ec3d 0229 d5bd 4f7b d5bd
000003e0: 2c58 1ebe 7e42 853d 25d5 41bd 5640 e1bc
000003f0: 772e e2bd 8897 bdbd f572 b5bd 62c4 d9bc
-0.030282406 -0.080221966 0.07767713 -0.0042486577 0.05421773 0.0124514215 0.0007994507 0.014650976
-0.022052942 0.08318323 0.07513418 0.14746009 -0.009347988 -0.005166943 0.07113205 -0.08023278
-0.03807757 -0.050491776 0.020574743 0.025993526 0.08261133 -0.063938625 0.08583833 -0.008686341
0.048729982 -0.010925746 -0.03940685 -0.0778246 -0.07636518 0.027967583 0.047263354 0.038184736
0.0035394542 0.0030054224 -0.080774225 0.005862939 0.013473094 -0.005053155 0.017625527 0.09241872
-0.009636909 -0.02292874 0.014865923 0.0049388977 -0.032025542 0.015884167 0.026498035 0.100651056
-0.123497196 -0.13320747 -0.056849677 -0.08836695 0.108384565 0.086868 -0.11734447 -0.004365984
-0.0018953925 0.04616077 0.058446452 0.047397234 0.059449613 0.051344164 0.061971724 0.005508416
0.06595578 -0.007871086 0.037475348 -0.039612126 -0.025133062 0.11688311 0.016668588 0.06071152
0.1515719 -0.0063980212 0.18557759 -0.0047325925 0.09560335 0.02011564 0.02844866 0.033655316
-0.010814343 -0.07359654 0.021908836 0.09141097 0.061213583 0.12888883 0.065361865 -0.026376436
0.05913118 0.015464564 0.04676569 0.0917324 0.10240905 0.0034260813 0.04172986 -0.010433186
-0.071088776 -0.03716854 -0.19460444 0.04601937 0.010648718 0.056905095 -0.01921898 0.001509727
0.022563254 -0.07616416 -0.019980507 -0.10724709 0.06741637 0.009976189 0.04203244 0.012344013
-0.03838354 0.0690999 -0.013688222 0.0023747457 0.014100627 -0.039749667 -0.042287715 -0.09276315
0.014079825 0.041534416 0.075046234 -0.07899056 -0.033963744 -0.029744077 0.05832532 -0.05100262
0.094705775 0.04023768 -0.023826623 0.0015126654 0.026577612 0.091459736 -0.005252876 0.088041835
-0.027505243 0.05295782 0.11205602 -0.017678432 0.1322429 0.016043134 0.021314979 0.111415915
0.033991557 0.1046994 -0.048387896 0.00018254569 0.089264 0.047852486 -0.04014697 -0.020900203
-0.023760272 -0.013831498 -0.022960832 0.018481614 0.024970014 -0.061190512 0.012418354 -0.113731705
-0.08680225 -0.0731942 0.04325965 0.007652213 -0.08904515 0.03950818 -0.025678178 -0.08303625
-0.07424049 -0.0375823 -0.0101242345 0.08728104 -0.01576667 -0.08092208 -0.03032805 0.050132405
0.08428512 -0.025571048 -0.117178045 -0.1251702 0.12882505 0.07821539 0.18900743 -0.06483234
0.0015874635 0.0101023 -0.16252513 -0.14096136 -0.11961552 0.028075047 -0.06754291 0.0084586125
0.0061472612 -0.046876945 0.047304217 0.06865871 0.026555544 0.111920014 -0.056479488 0.03694755
0.019065823 -0.005536409 0.031639665 -0.051757365 -0.0016510313 -0.08596174 0.0062504103 0.16493165
0.24862559 0.21089171 -0.109142914 0.03521814 0.00068263814 -0.036047354 -0.091263965 -0.021066517
0.005123175 -0.028334873 0.0916657 -0.01856047 -0.068697855 -0.11542682 0.048540693 0.05810587
0.037892904 -0.13098933 -0.08657389 -0.17344446 -0.018980846 -0.0013906775 0.01682754 0.0676751
0.04061213 0.0771253 -0.05468858 -0.081331104 -0.12201101 -0.024435164 -0.04218365 -0.078685254
0.11442437 0.103285305 0.04848889 0.12975907 0.048873667 0.11543668 -0.10408212 -0.1042391
-0.15463322 0.06506823 -0.04732241 -0.027496498 -0.11044019 -0.09257418 -0.08859817 -0.0265829

0.model_cnn.layer4.0.bias f4 [128]
00000000: 9196 7636 2319 5236 c0af bcb5 135c 2cb5
00000010: 203f c8b4 8b86 5436 4b67 0c37 6441 3bb5
00000020: 026e 0e34 23c4 83b6 3ded b435 4f02 c336
00000030: 3a31 18b7 59e4 55b6 11a3 d4b4 c255 ffb5
00000040: 9064 8ab6 b04a 8ab6 0719 c5b6 5308 8536
00000050: eaa2 4636 7cda 7736 9531 8535 9e9c 28b6
00000060: 47e9 c2b6 5851 eb36 44d0 c5b5 765c 73b5
00000070: 316e ed35 e13e 4636 05d5 2bb6 b592 a135
00000080: 44ce 0437 a49b 30b6 c782 c835 7eb8 5534
00000090: 6c70 3236 47ce 5036 bb87 8c34 44b2 2a36
000000a0: a829 2cb4 349d 3d37 c016 84b7 bbf7 cfb5
000000b0: bd4b 7fb6 5a8c abb3 c88f afb4 b997 dfb5
000000c0: e3cb 9db5 6439 83b6 26d0 0fb5 5fe4 f5b4
000000d0: f7dc 81b5 ce08 1734 b468 20b6 3b1a 9fb5
000000e0: 020d d636 0a4a 1034 4a67 c8b5 70d3 97b6
000000f0: 0b95 c836 acbf 8e36 910a 5ab7 7c48 3f35
00000100: b2b5 34b5 fd9c 98b2 ca89 4736 3066 fe33
00000110: 6b37 1d36 e481 ed35 e7d9 93b5 469b 6eb7
00000120: 48dc b535 8426 4b36 7487 aab3 7584 39b5
00000130: 7826 ceb5 9619 3034 62de 27b6 7b54 9236
00000140: 681e 5435 683b 8c35 577e 9236 d18d 2ab6
00000150: 9600 5b34 8333 abb6 beea c036 0386 1db5
00000160: 2843 ce36 0988 8bb6 b6cf 0eb6 28ec f2b4
00000170: 1532 bbb6 aadb a035 1a68 28b7 c79e b5b5
00000180: 0c78 2fb6 b92d 32b6 bd2b 53b6 d675 5136
00000190: 44c3 7436 9513 efb5 f10e b936 d9bf ed35
000001a0: aead 08b5 64ce 06b7 90c1 eeb5 4026 71b3
000001b0: 4640 74b6 b4ff 5935 d6ec adb6 4c49 18b3
000001c0: 8cac 0ab3 b816 f234 8d3b 4f37 129b 9bb6
000001d0: 6a61 0c35 9c19 feb5 44d5 ebb6 7d1a cdb4
000001e0: f1fe 19b6 f368 82b5 af7f 86b4 3ee4 14b6
000001f0: 2135 89b6 a7a2 2137 4843 6136 1e4f 51b5
3.6744498e-06 3.130707e-06 -1.4058242e-06 -6.420898e-07 -3.7298832e-07 3.1668776e-06 8.3687e-06 -6.9758084e-07
1.3264801e-07 -3.9269376e-06 1.348009e-06 5.8117216e-06 -9.0713675e-06 -3.187239e-06 -3.9606724e-07 -1.9023939e-06
-4.1244275e-06 -4.1214153e-06 -5.873971e-06 3.964678e-06 2.9599128e-06 3.6933043e-06 9.923702e-07 -2.5125114e-06
-5.8088076e-06 7.0130154e-06 -1.4738257e-06 -9.06591e-07 1.7689946e-06 2.95409e-06 -2.560498e-06 1.2038132e-06
7.915838e-06 -2.6316638e-06 1.4939222e-06 1.9904289e-07 2.6589505e-06 3.1114484e-06 2.617579e-07 2.5435738e-06
-1.6033903e-07 1.130188e-05 -1.574622e-05 -1.5494801e-06 -3.8042047e-06 -7.988338e-08 -3.2700905e-07 -1.6658952e-06
-1.175675e-06 -3.9107854e-06 -5.3574547e-07 -4.5800968e-07 -9.675558e-07 1.4066174e-07 -2.3902803e-06 -1.1854057e-06
6.3792113e-06 1.343798e-07 -1.4931222e-06 -4.5247652e-06 5.9778154e-06 4.2542433e-06 -1.2996273e-05 7.1258523e-07
-6.7319627e-07 -1.7766519e-08 2.9733515e-06 1.18463845e-07 2.342708e-06 1.7695679e-06 -1.1015771e-06 -1.4222058e-05
1.3549661e-06 3.0271776e-06 -7.940881e-08 -6.911062e-07 -1.5359392e-06 1.6400585e-07 -2.5014383e-06 4.360974e-06
7.90204e-07 1.0448102e-06 4.365847e-06 -2.5414522e-06 2.0396178e-07 -5.102194e-06 5.7493735e-06 -5.868207e-07
6.1470964e-06 -4.1583594e-06 -2.1280553e-06 -4.524784e-07 -5.5788646e-06 1.198486e-06 -1.0037818e-05 -1.3531761e-06
-2.6146909e-06 -2.655068e-06 -3.146691e-06 3.1212016e-06 3.6472493e-06 -1.7812587e-06 5.515169e-06 1.7713711e-06
-5.0916685e-07 -8.0350765e-06 -1.7788716e-06 -5.6146973e-08 -3.6396245e-06 8.1210896e-07 -5.183373e-06 -3.545692e-08
-3.228756e-08 4.5092543e-07 1.2352027e-05 -4.6374125e-06 5.229582e-07 -1.8931928e-06 -7.028373e-06 -3.8203498e-07
-2.2947172e-06 -9.716299e-07 -2.5052347e-07 -2.2186573e-06 -4.089103e-06 9.634218e-06 3.3566776e-06 -7.79737e-07

0.model_cnn.layer4.1.weight f4 [128]
00000000: 4fe3 6c3f 88b8 7b3f ccef 7f3f 8ed9 4c3f
00000010: 5388 393f cff8 883f f307 823f 001b 693f
00000020: ef0b 813f e274 913f 0f0f 703f 69c7 7a3f
00000030: dfe8 7c3f 7eaa 793f f7aa 663f 3c09 5d3f
00000040: 8301 863f 2c5b 6c3f 6925 6e3f cd7d 753f
00000050: c651 713f d843 7e3f 11ff 673f 8ccc 7e3f
00000060: 753c 633f dad7 7e3f ad6f 7e3f e032 7c3f
00000070: 0123 683f b009 643f 055a 813f 2e8c 893f
00000080: b00a 833f 3405 723f 6bb8 683f 86bc 5d3f
00000090: 2926 713f 8d1b 863f 1a9f 6b3f 465c 703f
000000a0: b4c3 703f d917 8d3f 3b5b 893f d866 643f
000000b0: ac87 863f 1534 423f 8249 4b3f bae5 7b3f
000000c0: 220a 693f f8fd 7b3f 91dc 4c3f 18d6 773f
000000d0: b712 803f a976 5f3f abe6 823f 3a86 7b3f
000000e0: bda1 783f 70e8 713f d1ad 7c3f dae3 6e3f
000000f0: 5424 803f 3d60 813f a799 803f ab0b 643f
00000100: 8e58 6b3f fcfb 5e3f 0771 7a3f c689 573f
00000110: a2ad 793f aa2e 7e3f 471a 773f 97ee 833f
00000120: eae2 583f 34cf 773f ffca 673f 67e3 5c3f
00000130: f0d5 5c3f 8bdc 7c3f 1f72 763f 3407 833f
00000140: e07d 6d3f 5ffc 653f 7923 6b3f 4acc 503f
00000150: e7c1 843f db70 763f 1643 813f 396e 7f3f
00000160: ba18 853f 77a4 873f c72f 7a3f 1cae 723f
00000170: 138c 783f 6a6d 763f 89d5 843f 67f7 6a3f
00000180: d077 893f 8d76 6e3f dce2 6a3f aa97 813f
00000190: 1be8 583f 0f46 663f 6d8a 813f 368e 733f
000001a0: 57d5 693f d39c 863f 2f16 7f3f 5f81 743f
000001b0: 256a 853f 3548 483f 1b50 653f 1653 5a3f
000001c0: 204d 713f a747 6d3f 7200 7c3f 52fa 783f
000001d0: 7d9c 803f 4591 7e3f 2946 843f 0eb1 743f
000001e0: 31a1 763f 8336 6c3f bbe8 6e3f f783 793f
000001f0: 75ca 723f 16b6 8a3f 13a7 753f 83e9 3f3f
0.92534345 0.9832845 0.99975276 0.8001946 0.7247364 1.070093 1.0158676 0.91056824
1.0081767 1.1363795 0.9377298 0.97960526 0.98792833 0.97525775 0.9010462 0.86342216
1.0469211 0.9232662 0.93025833 0.9589508 0.942654 0.9932227 0.90623575 0.99530864
0.88764125 0.99548113 0.99389154 0.9851513 0.9067841 0.8907728 1.0105597 1.0745904
1.0237637 0.9453919 0.909064 0.8661579 0.9419885 1.0477158 0.92039645 0.938908
0.9404862 1.1022903 1.0730966 0.8921943 1.0510154 0.7586072 0.7940904 0.9839741
0.91031086 0.984344 0.8002406 0.96811056 1.0005711 0.87290436 1.0226644 0.9825169
0.97121793 0.94495296 0.9870272 0.93316424 1.0011086 1.0107495 1.0046891 0.89080304
0.91932 0.8710325 0.97828716 0.841946 0.9753057 0.99289954 0.9652447 1.0307187
0.84721243 0.9680054 0.9054412 0.8628449 0.8626394 0.9877402 0.96267885 1.0236573
0.92770195 0.8983821 0.91851 0.8156172 1.0371674 0.96265954 1.0098598 0.9977756
1.0398171 1.0597066 0.9772915 0.9479692 0.97088736 0.962607 1.0377666 0.91783756
1.0739689 0.93149644 0.9175241 1.0124409 0.84729165 0.8995065 1.0120369 0.9513887
0.91341156 1.0516609 0.99643224 0.95509905 1.0423018 0.7823518 0.89575356 0.8528303
0.9425831 0.9268746 0.9843818 0.9725696 1.0047756 0.99440414 1.0333911 0.95582664
0.9633971 0.9227068 0.9332387 0.9746699 0.94840175 1.0836818 0.9595806 0.74965686

0.model_cnn.layer4.1.bias f4 [128]
00000000: f247 31be 68b2 40be 4816 3ebe ab4c 56be
00000010: bbf1 74be b43d 54be c817 06be deb5 50be
00000020: 3a40 2fbe b17e 17be b18c 35be 81ac 38be
00000030: 6b42 54be 0f09 54be 45b7 0fbe 3fab 33be
00000040: 48ee bcbd d8d4 5cbe f019 47be 9033 5fbe
00000050: f447 26be d954 42be dcb5 5abe 65d2 42be
00000060: 2c82 38be 1755 30be 3680 c8bd 6fb7 3fbe
00000070: 6204 7ebe a123 57be 2b57 1abe e99f 76be
00000080: 2da9 50be 489a 6abe ed2b 5cbe 93b3 63be
00000090: 71bd 3cbe 9fdb 13be 7367 48be 71b3 39be
000000a0: 8c7e 39be 2b19 67be 1446 87be 4146 29be
000000b0: 1331 1bbe 12f3 8abe d767 87be 0404 10be
000000c0: baa0 5abe b15d 56be f647 51be 7eaa 32be
000000d0: 8c00 1ebe ab90 61be 5d02 c0bd 71ea c7bd
000000e0: 842b 1bbe 847b 4dbe 8d7b 13be 0e86 62be
000000f0: c16e f7bd 4ca1 8fbe 8df6 6dbe a7d2 66be
00000100: 1799 f5bd 4282 39be 060d 00be 83aa 5ebe
00000110: 6314 18be b023 13be 379e 19be a073 69be
00000120: db26 65be 3378 4dbe e709 8abe f306 20be
00000130: 9d54 5cbe dbec 24be f550 4bbe af1d 01be
00000140: 9d64 38be adde 69be ecde 42be d0ea 67be
00000150: aa01 1fbe 7ab3 02be 18c1 20be 5f7d 1cbe
00000160: 6c2d 47be c161 5dbe 2528 65be aa27 54be
00000170: 3a3d 14be 5869 00be bc71 69be f5ec 24be
00000180: c491 6abe 53a5 5fbe 2101 43be 4c48 1ebe
00000190: dfe7 3fbe 5083 2cbe eb10 3cbe 7281 34be
000001a0: 066a 64be a10b 56be 1a99 17be 952c 93be
000001b0: 698c 12be 21be 90be a8dc 5ebe 17d8 3dbe
000001c0: 9696 11be 5670 50be 37b2 8ebe dc0a cebd
000001d0: 8a43 c6bd 9ae6 71be b7bf 30be 33fa 74be
000001e0: 9a8d 19be 9ad8 44be 459f 92be 5dfe 26be
000001f0: b565 dfbd 922d 22be ed0b f6bd a73b 82be
-0.17312601 -0.18818057 -0.18563187 -0.20927684 -0.23920338 -0.20726663 -0.1309501 -0.20381877
-0.17114344 -0.14794423 -0.17729451 -0.18034555 -0.20728461 -0.2070658 -0.14034756 -0.17545794
-0.09225136 -0.21565568 -0.19443488 -0.21797013 -0.16238385 -0.1897768 -0.21358436 -0.19025572
-0.18018407 -0.17219959 -0.09790079 -0.18722318 -0.2480636 -0.21009685 -0.15072314 -0.24084438
-0.20377035 -0.22910416 -0.21501131 -0.22236471 -0.18431641 -0.14439248 -0.19570713 -0.18134858
-0.1811468 -0.22568195 -0.26420653 -0.16530706 -0.15155439 -0.27138573 -0.2644641 -0.14064032
-0.21350375 -0.20934178 -0.20437607 -0.1744785 -0.15429896 -0.22027843 -0.09375451 -0.09761513
-0.15153319 -0.20066649 -0.144026 -0.2212145 -0.120816715 -0.28052747 -0.23238583 -0.22541295
-0.1199209 -0.18116096 -0.12504968 -0.21744733 -0.14851527 -0.14369082 -0.1500176 -0.22798014
-0.22378103 -0.20065384 -0.2696068 -0.15627651 -0.21516652 -0.16105978 -0.19855101 -0.1260898
-0.18007131 -0.2283885 -0.1903035 -0.22648168 -0.15527979 -0.12763777 -0.1569866 -0.152822
-0.19450921 -0.21619321 -0.22378595 -0.20718256 -0.14476481 -0.12540185 -0.22797292 -0.16106017
-0.22907168 -0.2184041 -0.190434 -0.15457267 -0.18740796 -0.16846967 -0.18365829 -0.17627504
-0.2230607 -0.20902874 -0.14804497 -0.2874495 -0.14311375 -0.28270057 -0.21763861 -0.18539463
-0.142176 -0.20355353 -0.27870342 -0.10060665 -0.09680851 -0.23623124 -0.17260633 -0.23923568
-0.14995423 -0.19223252 -0.28637138 -0.1630797 -0.10908071 -0.15837696 -0.120139934 -0.25436136
