checkpoint/DA/s_0_1_t3/cnn_features_1d_0925-180509/50-0.8964-best_model.pth (torch, 944127 bytes, 30 tensors)

0.model_cnn.layer1.0.weight f4 [16, 1, 15]
0.19883253 0.15670206 0.023968173 -0.2450351 -0.021074712 -0.017485213 -0.23830083 -0.12763931
0.03527365 -0.09633948 0.042361002 0.20541899 -0.05095261 -0.24941169 0.08246546 0.15734035
0.18179536 -0.15584458 0.013020833 -0.13236034 -0.2547282 0.11386374 0.22039571 -0.25864303
0.063699454 -0.31750694 -0.16303258 -0.019989775 -0.25307402 0.09053131 0.31875375 0.15991268
0.13487893 0.16157846 -0.06663384 -0.006680471 0.11040755 -0.052281108 -0.069420956 -0.2417533
0.18062674 -0.24873734 0.17954583 0.073866405 -0.21857491 -0.25460225 -0.17535242 -0.03854374
-0.14610592 -0.2310738 -0.0068952413 0.1793061 -0.23041724 -0.0888911 -0.045713216 -0.13067402
0.091680236 -0.067286 -0.1237344 0.28124213 -0.04475301 0.109072454 0.2871295 -0.16521278
-0.07848129 0.078826696 0.19508909 0.28441277 -0.18286407 -0.04586457 0.13420036 -0.063309856
0.13192497 -0.06844287 -0.020961724 0.234782 0.13456413 -0.023187533 0.2404817 0.14997005
0.2118732 0.0020391792 0.22225645 -0.0253001 -0.15130113 -0.09282295 -0.18666972 0.2097445
-0.17205828 -0.3019942 -0.10653274 -0.19026788 0.0033048426 0.19777204 0.10068268 0.03568755
0.23338905 -0.14441715 0.14448306 -0.23437794 -0.18466665 -0.14899786 -0.30756792 0.13980117
-0.012875304 -0.1227496 0.14401051 -0.24288364 0.009024642 -0.2320063 0.043722656 0.031078555
0.12557197 -0.08095078 0.023947963 0.2179807 -0.26488844 0.02359835 0.07525924 -0.119915925
-0.17637524 -0.15944265 0.022483394 -0.17398487 0.19259073 -0.015324564 -0.1564374 -0.042589493
-0.1851879 0.17610058 0.18661253 -0.02030634 -0.1340352 -0.1338144 -0.20300648 0.032633707
0.11710895 -0.11988872 -0.022427473 -0.17812687 -0.102014065 0.20895095 -0.04687541 0.1413188
-0.12352995 -0.069031194 0.11698375 -0.22688594 0.12107744 -0.25246876 -0.16280356 0.2117959
-0.11893724 0.17365421 0.09032256 0.100422464 -0.1019123 0.22903453 0.06610514 0.057365295
0.27183568 -0.06911519 -0.008609833 0.2613635 -0.21254401 0.04111357 0.22919469 -0.2596377
-0.12665007 -0.04676231 -0.017047172 -0.11182971 -0.14691381 -0.25657955 0.03126007 0.2639852
-0.087178454 0.10344346 0.06042354 0.0012716617 -0.047867913 -0.12333464 0.19919015 0.23185071
-0.12239206 0.0045811236 -0.219204 -0.1881107 0.10708422 0.19527385 0.16134161 0.09968126
-0.1239951 -0.30968907 -0.037719578 -0.039632324 0.058262624 0.065626994 0.026036546 0.18360709
0.16997257 -0.2518137 0.24597879 0.019173156 0.2456408 0.049706414 -0.15661168 -0.17820707
-0.10263339 0.0283017 -0.16811864 0.09787395 -0.050054856 0.06807369 0.057253137 0.023171674
-0.0850725 -0.019303067 0.05353099 -0.15233935 -0.2367264 0.10946267 -0.11717869 -0.29643506
0.14787793 -0.107950136 0.13881132 -0.0449382 -0.12345953 0.24882315 -0.035590995 0.023589365
0.16677319 -0.13207845 0.077707924 0.11771878 -0.014536023 0.25755876 -0.13428581 0.12096002
00000000: c19a 4b3e 8176 203e e758 c43c 7bea 7abe
00000010: e0a4 acbc 263d 8fbc 2205 74be e1b3 02be
00000020: 1a7b 103d a24d c5bd bb82 2d3d 5b59 523e
00000030: afb3 50bd c765 7fbe a7e3 a83d d41d 213e
00000040: 9028 3a3e b995 1fbe 5555 553c 7889 07be
00000050: bc6b 82be 6431 e93d 6aaf 613e dc6c 84be
00000060: dc74 823d 4590 a2be 03f2 26be 99c1 a3bc
00000070: eb92 81be 7b68 b93d b133 a33e 26c0 233e
00000080: b41d 0a3e d374 253e 5377 88bd dae7 dabb
00000090: 5b1d e23d b724 56bd 932c 8ebd 2d8e 77be
000000a0: 37f6 383e 00b5 7ebe ddda 373e 4547 973d
000000b0: 1ad2 5fbe 3a5b 82be 968f 33be 0ae0 1dbd
000000c0: ca9c 15be 9c9e 6cbe 7af1 e1bb 059c 373e
000000d0: 7ff2 6bbe 890c b6bd c83d 3bbd 69cf 05be
000000e0: d9c2 bb3d 3ecd 89bd 7668 fdbd f8fe 8f3e
000000f0: ef4e 37bd 6161 df3d a302 933e 8a2d 29be
00000100: ccba a0bd e46f a13d 6fc5 473e 8d9e 913e
00000110: b840 3bbe 7ddc 3bbd d26b 093e 99a8 81bd
00000120: 5717 073e c72b 8cbd ecb7 abbc b16a 703e
00000130: 2ecb 093e c8f3 bdbc d640 763e c091 193e
00000140: 4af5 583e c0a3 053b 3297 633e 2842 cfbc
00000150: afee 1abe f519 bebd 5926 3fbe 43c7 563e
00000160: 0c30 30be fc9e 9abe d62d dabd 95d5 42be
00000170: 0f96 583b c184 4a3e b932 ce3d 1c2d 123d
00000180: 8afd 6e3e 17e2 13be 5ef3 133e c500 70be
00000190: 4119 3dbe e592 18be 8b79 9dbe 0a28 0f3e
000001a0: f0f2 52bc 2464 fbbd 7e77 133e 7db6 78be
000001b0: 18dc 133c 0f93 6dbe 8716 333d 7498 fe3c
000001c0: f095 003e 86c9 a5bd 852e c43c 5536 5f3e
000001d0: 759f 87be 5451 c13c 8421 9a3d 7b96 f5bd
000001e0: b69b 34be ef44 23be 182f b83c 1729 32be
000001f0: 8136 453e e113 7bbc 2031 20be 5272 2ebd
00000200: e6a1 3dbe b653 343e 5b17 3f3e 7b59 a6bc
00000210: 8640 09be a406 09be eee0 4fbe ecaa 053d
00000220: d1d6 ef3d 3888 f5bd d2b9 b7bc e466 36be
00000230: c0ec d0bd 3df7 553e 6e00 40bd e0b5 103e
00000240: 45fd fcbd 3a60 8dbd 2d95 ef3d ca54 68be
00000250: 73f7 f73d 9643 81be fab5 26be 06e1 583e
00000260: 5e95 f3bd 69d2 313e 09fb b83d 4baa cd3d
00000270: 65b7 d0bd 0788 6a3e 2262 873d dff7 6a3d
00000280: 0c2e 8b3e 448c 8dbd 4210 0dbc 70d1 853e
00000290: 23a5 59be b466 283d 03b2 6a3e 3cef 84be
000002a0: 8eb0 01be d689 3fbd 83a6 8bbc fa06 e5bd
000002b0: 9370 16be 655e 83be 8f0a 003d 1129 873e
000002c0: 9e8a b2bd 2ada d33d ad7e 773d e3ad a63a
000002d0: 2511 44bd df96 fcbd 81f8 4b3e 466a 6d3e
000002e0: b0a8 fabd 401d 963b 0377 60be 17a0 40be
000002f0: f94e db3d def5 473e bc36 253e b025 cc3d
00000300: 25f1 fdbd 918f 9ebe d87f 1abd 8155 22bd
00000310: caa4 6e3d 7267 863d 984a d53c 7f03 3c3e
00000320: 4a0d 2e3e baed 80be dde1 7b3e 0611 9d3c
00000330: 4389 7b3e f498 4b3d d05e 20be ea7b 36be
00000340: 7431 d2bd f7d8 e73c 4b27 2cbe 2372 c83d
00000350: 5206 4dbd 386a 8b3d 4482 6a3d 86d2 bd3c
00000360: 7e3a aebd 7721 9ebc 5043 5b3d d9fe 1bbe
00000370: 6868 72be f72d e03d 62fb efbd 56c6 97be
00000380: 506d 173e f614 ddbd 8e24 0e3e 1e11 38bd
00000390: 5ad8 fcbd 7fcb 7e3e ddc7 11bd 7c3e c13c
000003a0: 97c6 2a3e 933f 07be 5525 9f3d 8b16 f13d
000003b0: 8028 6ebc bede 833e 3882 09be e3b9 f73d

0.model_cnn.layer1.0.bias f4 [16]
-0.0009670867 -0.0025922107 0.0008158149 3.722329e-06 -0.0031129282 0.0019356976 -0.0018413969 -0.0027104064
0.0006037797 0.00055753713 8.204754e-05 -0.0016501889 -0.0018341313 -0.008727298 0.0050963014 -0.004489529
00000000: 1784 7dba 14e2 29bb 69dc 553a 20cd 7936
00000010: 4502 4cbb 3cb7 fd3a 075b f1ba 13a1 31bb
00000020: f846 1e3a af27 123a f010 ac38 274b d8ba
00000030: 3c67 f0ba f1fc 0ebc e0fe a63b e61c 93bb

0.model_cnn.layer1.1.weight f4 [16]
0.9167608 0.97285974 1.0184935 0.9695412 0.96186435 0.9899968 1.025424 0.96508294
1.0362759 1.0877793 1.0809959 0.9336721 1.0283172 1.0106755 0.9486943 1.0213027
00000000: d6b0 6a3f 560d 793f ff5d 823f da33 783f
00000010: be3c 763f 6e70 7d3f 1841 833f ad0f 773f
00000020: b0a4 843f 5a3c 8b3f 135e 8a3f 2205 6f3f
00000030: e69f 833f d15d 813f a1dd 723f 0cba 823f

0.model_cnn.layer1.1.bias f4 [16]
-0.01581902 -0.0018615362 0.06778647 -0.03029089 0.009027293 -0.09237039 0.006660604 0.020921605
-0.07706281 0.12566048 0.06308105 -0.07995822 0.083982594 -0.002231473 -0.05671386 -0.04450641
00000000: e496 81bc cafe f3ba a2d3 8a3d 9a24 f8bc
00000010: 36e7 133c b02c bdbd 3241 da3b c963 ab3c
00000020: 1bd3 9dbd 24ad 003e a330 813d 23c1 a3bd
00000030: 11ff ab3d e83d 12bb cb4c 68bd 5a4c 36bd

0.model_cnn.layer1.1.running_mean f4 [16]
0.0015054152 -3.0120718e-06 0.001610352 0.0009716935 -0.0029877597 0.000261402 -0.0011106158 -0.002294669
-0.00023561604 0.0005532667 -0.0014822802 -0.0024609705 -0.0019478815 -0.008415321 0.00393125 -0.0022861096
00000000: 5a51 c53a 0023 4ab6 7212 d33a 3fb9 7e3a
00000010: 4ace 43bb c80c 8939 1592 91ba 2862 16bb
00000020: b30f 77b9 1a09 113a 1249 c2ba 3c48 21bb
00000030: 0f50 ffba 6ae0 09bc b7d1 803b 8ed2 15bb

0.model_cnn.layer1.1.running_var f4 [16]
0.53395474 0.27625462 0.3004225 0.44132572 0.3435712 0.5059453 0.36264384 0.21953513
0.1890125 0.09828156 0.18372475 0.30819437 0.21080981 0.18943538 0.40558463 0.11236683
00000000: 42b1 083f 3f71 8d3e fad0 993e 72f5 e13e
00000010: 90e8 af3e a285 013f 74ac b93e d1cd 603e
00000020: 7e8c 413e d847 c93d 5722 3c3e a7cb 9d3e
00000030: 87de 573e 59fb 413e caa8 cf3e 9520 e63d

0.model_cnn.layer2.0.weight f4 [32, 16, 3]
0.09128908 -0.12713331 -0.11799225 -0.020383498 -0.073076986 -0.060967542 0.05280111 -0.052601673
0.071379654 0.07581838 0.021136392 0.10314703 0.10941275 -0.060475267 0.045805067 0.078424096
0.103316285 -0.060092352 -0.004311499 0.14938661 -0.002059574 -0.02181062 0.027494531 -0.12133622
0.059067965 0.13397309 -0.01096883 0.10625355 0.085074335 -0.06875358 0.21439104 0.18800573
0.090615325 -0.009172528 -0.10033199 -0.005080449 0.04259468 -0.06113733 -0.06533927 0.0045063435
0.08373975 0.04068419 0.062384386 0.015421899 -0.09028508 -0.15317315 0.11968066 0.03771966
0.06970606 -0.026669368 0.046295587 0.0342497 -0.08150132 -0.03909736 0.024999298 -0.06574918
-0.056502286 -0.10447968 -0.022032011 0.0028634542 -0.072762504 0.1054981 -0.14062116 -0.09228233
-0.12415894 -0.18852063 -0.071380354 0.037730437 0.14815739 0.036268584 -0.09489577 -0.13246848
0.10887326 0.12948725 0.09683243 0.010517262 -0.008524641 -0.06017658 -0.11569405 -0.105122484
0.07710031 0.1254609 0.011993082 -0.03906021 0.020957705 0.1464389 0.14247505 0.0047329445
0.12134454 0.13204788 -0.09202047 0.007846763 -0.09936481 -0.00665896 -0.114974715 -0.020947725
0.07653378 -0.020376084 -0.004841354 -0.08781021 -0.07054005 0.027715156 -0.070647754 0.060112756
-0.06870821 0.03960425 0.060851343 -0.07220196 0.069107406 -0.16743949 0.096319936 0.06922184
0.11787365 -0.13792923 -0.13405147 -0.03154065 -0.12517294 -0.11908285 -0.094863005 -0.12972263
0.039467137 0.028947746 -0.08435274 -0.1227479 0.10657442 -0.24506417 -0.11992954 0.084937274
-0.07510584 -0.1038361 -0.048613604 -0.07678873 0.035751868 -0.10526079 -0.1308089 0.1577221
-0.03654857 0.14189562 -0.04753838 -0.0874529 -0.12223242 0.08412849 0.03697076 0.12005834
-0.13248344 -0.0830984 0.06744252 0.009376384 -0.06423557 -0.065583974 0.05863678 0.052460115
0.09968558 -0.11055437 0.09415531 -0.04462858 0.029503806 -0.034521434 -0.12053724 -0.105335176
-0.13524547 0.06944875 0.054797564 0.015509499 -0.10477199 -0.04515576 -0.089253426 0.03760036
-0.022105038 -0.07051152 -0.15851012 -0.14887774 -0.1728835 -0.09735484 0.01295631 -0.17042844
-0.016928155 -0.047576312 0.08498074 0.043808743 0.05382602 -0.03393446 -0.06607347 -0.16295034
-0.14827171 0.056207813 -0.05923487 0.068328194 0.09456594 -0.22409312 0.042835493 -0.0980251
0.121409334 0.1014021 0.00043944217 -0.026426848 -0.016555224 -0.004969098 -0.11440444 -0.12785868
-0.00052789215 0.102386296 -0.13289703 0.09171588 0.15178879 -0.050662145 -0.10446478 0.1247084
0.13878627 -0.015185035 0.07226136 0.052522577 -0.0009919062 0.08759271 -0.17750885 -0.10425432
-0.13082269 -0.039106216 -0.06690516 0.04101228 0.1319887 -0.017813057 0.057186667 -0.12646896
-0.22756252 -0.057367753 0.009934836 -0.09852285 -0.18550636 0.005562671 0.043293547 0.060005978
-0.16087802 0.0037446676 -0.08941506 0.08417082 -0.048311163 -0.02523522 -0.028389363 0.036237366
-0.065537 0.040588893 -0.039761316 0.041895807 0.045639854 -0.14752018 -0.077853985 -0.06732295
0.07622879 -0.10786769 -0.05086601 -0.06362178 0.14449205 -0.12524574 0.118866354 -0.01358555
00000000: c5f5 ba3d 3c2f 02be eca5 f1bd 4bfb a6bc
00000010: 63a9 95bd 1ab9 79bd fa45 583d da74 57bd
00000020: 7f2f 923d ab46 9b3d 3a26 ad3c c03e d33d
00000030: cb13 e03d eab4 77bd 189e 3b3d d09c a03d
00000040: 7d97 d33d 6623 76bd 7a47 8dbb cef8 183e
00000050: ebf9 06bb 2fac b2bc 363c e13c 207f f8bd
00000060: 40f1 713d 3e30 093e 9cb6 33bc 769b d93d
00000070: 743b ae3d adce 8cbd 5389 5b3e 9384 403e
00000080: 8794 b93d 5f48 16bc dc7a cdbd e579 a6bb
00000090: c277 2e3d 236b 7abd 98d0 85bd f3a9 933b
000000a0: bf7f ab3d 77a4 263d c586 7f3d 22ac 7c3c
000000b0: 62e7 b8bd 6cd9 1cbe 221b f53d ee7f 1a3d
000000c0: 0dc2 8e3d b879 dabc 71a0 3d3d 6a49 0c3d
000000d0: 2aea a6bd 8e24 20bd 54cb cc3c 82a7 86bd
000000e0: f16e 67bd 71f9 d5bd 7a7c b4bc caa8 3b3b
000000f0: 8204 95bd 630f d83d fefe 0fbe 85fe bcbd
00000100: 0b47 febd 8d0b 41be dd2f 92bd 3b8b 1a3d
00000110: 92b6 173e 5e8e 143d b758 c2bd d1a5 07be
00000120: f2f8 de3d 4e98 043e 1550 c63d 9850 2c3c
00000130: f0aa 0bbc b87b 76bd 01f1 ecbd 754a d7bd
00000140: c4e6 9d3d d278 003e a27e 443c 99fd 1fbd
00000150: 7eaf ab3c 14f4 153e fbe4 113e d116 9b3b
00000160: 7c83 f83d 8f37 073e 3a75 bcbd b68f 003c
00000170: c77f cbbd 6833 dabb dd77 ebbd 909a abbc
00000180: bebd 9c3d bfeb a6bc 39a4 9ebb d7d5 b3bd
00000190: 4d77 90bd e50a e33c c5af 90bd cb38 763d
000001a0: e4b6 8cbd 1138 223d 423f 793d 9fde 93bd
000001b0: 2f88 8d3d 4275 2bbe 6343 c53d 2ec4 8d3d
000001c0: bd67 f13d 523d 0dbe ca44 09be c530 01bd
000001d0: 562d 00be b6e1 f3bd 8947 c2bd 02d6 04be
000001e0: 4ba8 213d d323 ed3c 21c1 acbd 4063 fbbd
000001f0: b143 da3d 1af2 7abe 9e9d f5bd 98f3 ad3d
00000200: 17d1 99bd 05a8 d4bd 0f1f 47bd 6943 9dbd
00000210: 8d70 123d f892 d7bd c5f2 05be e781 213e
00000220: f4b3 15bd 164d 113e 9bb7 42bd 821a b3bd
00000230: fe54 fabd 8f4b ac3d a76e 173d 26e1 f53d
00000240: bda9 07be 7e2f aabd 4e1f 8a3d 689f 193c
00000250: f08d 83bd e450 86bd 1f2d 703d 6be0 563d
00000260: f427 cc3d 546a e2bd 80d4 c03d 75cc 36bd
00000270: f7b1 f13c 5966 0dbd 3adc f6bd f8b9 d7bd
00000280: ca7d 0abe 253b 8e3d 6973 603d 8e1b 7e3c
00000290: b292 d6bd 3ff5 38bd 80ca b6bd d602 1a3d
000002a0: a015 b5bc 5868 90bd 7a50 22be 6873 18be
000002b0: 5f08 31be f961 c7bd b446 543c cb84 2ebe
000002c0: eaac 8abc 61df 42bd 620a ae3d cc70 333d
000002d0: ac78 5c3d dcfe 0abd 8751 87bd 74dc 26be
000002e0: 8ad4 17be 2a3a 663d 43a0 72bd a7ef 8b3d
000002f0: caab c13d ab78 65be 4574 2f3d 62c1 c8bd
00000300: 75a5 f83d e7ab cf3d ee64 e639 1e7d d8bc
00000310: d29e 87bc d1d3 a2bb e04c eabd 63ed 02be
00000320: 3e62 0aba e8af d13d 2916 08be 89d5 bb3d
00000330: 856e 1b3e 1c83 4fbd a1f1 d5bd 1e67 ff3d
00000340: fd1d 0e3e a7ca 78bc c4fd 933d ea21 573d
00000350: d902 82ba cf63 b33d e1c4 35be 4a83 d5bd
00000360: 62f6 05be d72d 20bd 9305 89bd 7efc 273d
00000370: 0c28 073e b0ec 91bc 913c 6a3d 1481 01be
00000380: 2606 69be 73fa 6abd b9c5 223c 59c6 c9bd
00000390: 61f5 3dbe 1147 b63b 9354 313d d4c8 753d
000003a0: 35bd 24be 1969 753b 3e1f b7bd c061 ac3d
000003b0: ede1 45bd 18ba cebc cf90 e8bc a26d 143d
000003c0: 4338 86bd 8a40 263d c3dc 22bd f09a 2b3d
000003d0: dbf0 3a3d 880f 17be e971 9fbd 9de0 89bd
000003e0: d71d 9c3d bce9 dcbd e158 50bd 234c 82bd
000003f0: b9f5 133e 6b40 00be 3470 f33d ed95 5ebc

0.model_cnn.layer2.0.bias f4 [32]
0.00014169289 -0.00067142537 -0.00090363587 0.0031327766 -0.005181814 0.0011735997 -0.0025221212 0.00020012194
0.00042972548 -0.0040306896 -0.0025959068 0.0010396066 -0.000689167 0.0017063759 0.00022372702 -0.0016364318
-0.0007406076 0.008437885 0.0019617237 0.0020445718 -0.00043668825 0.0038521776 -0.00078539574 -0.0019544747
0.0009668361 0.0053850925 -0.00035556877 0.0008989258 0.012452379 0.0013396785 0.0098626865 0.014632352
00000000: 6593 1439 9802 30ba fae1 6cba 454f 4d3b
00000010: 35cc a9bb 79d3 993a 2c4a 25bb d3d7 5139
00000020: c74c e139 e013 84bb 1720 2abb 6943 883a
00000030: 37a9 34ba 79a8 df3a 4498 6a39 8a7d d6ba
00000040: 5625 42ba 0e3f 0a3c 4390 003b 39fe 053b
00000050: 4ef3 e4b9 d174 7c3b 04e3 4dba a516 00bb
00000060: 4673 7d3a 6e75 b03b a26b bab9 e4a5 6b3a
00000070: 1005 4c3c 2798 af3a 1b97 213c 88bc 6f3c

0.model_cnn.layer2.1.weight f4 [32]
0.9681993 1.0449576 1.0484738 0.95700145 1.025182 0.9580552 0.9529363 1.0130402
0.9822977 0.9362584 0.9614299 0.95480186 0.96502495 0.9959699 0.9859903 1.0320884
0.98127097 1.0025687 1.142893 1.0251797 0.95563006 1.0035748 1.0022472 0.93964183
1.0220927 1.0188047 0.96451145 0.989439 0.91460794 0.9983683 1.0763838 0.9929948
00000000: e9db 773f 2cc1 853f 6434 863f 0cfe 743f
00000010: 2a39 833f 1b43 753f a2f3 733f 4dab 813f
00000020: dd77 7b3f a1ae 6f3f 4520 763f e56d 743f
00000030: e00b 773f e2f7 7e3f dc69 7c3f 791b 843f
00000040: 9334 7b3f 2c54 803f 514a 923f 1739 833f
00000050: 2ca4 743f 2475 803f a349 803f 5e8c 703f
00000060: efd3 823f 3168 823f 39ea 763f e04b 7d3f
00000070: bf23 6a3f 1195 7f3f f2c6 893f e834 7e3f

0.model_cnn.layer2.1.bias f4 [32]
-0.18553904 -0.08756399 0.049873587 -0.013346512 -0.03712328 -0.041790463 -0.049439617 -0.083734356
-0.022787647 -0.037099075 -0.21670066 -0.1860828 -0.16485816 0.04389894 -0.10250201 -0.038340483
-0.09217121 -0.010137746 0.164808 -0.21753919 -0.07293434 -0.029580614 -0.103580855 -0.024240024
-0.0817116 -0.04931782 -0.21094482 -0.06572584 -0.049439933 -0.03885831 0.04307952 -0.029205738
00000000: f2fd 3dbe c054 b3bd 3f48 4c3d 54ab 5abc
00000010: 950e 18bd 7a2c 2bbd 3281 4abd eb7c abbd
00000020: 29ad babc 33f5 17bd c7e6 5dbe 7d8c 3ebe
00000030: 94d0 28be 60cf 333d 93ec d1bd e90a 1dbd
00000040: 42c4 bcbd ca18 26bc 6ec3 283e 98c2 5ebe
00000050: 995e 95bd 0b53 f2bc 3322 d4bd 0493 c6bc
00000060: 6958 a7bd 7c01 4abd eb01 58be 459b 86bd
00000070: 8781 4abd e429 1fbd 2774 303d df40 efbc

0.model_cnn.layer2.1.running_mean f4 [32]
0.3909718 -0.10202256 -0.4934497 -0.68035513 -0.19315809 -0.2911704 -0.21841975 -0.2819422
-0.32414943 -0.36839926 0.49728644 0.21671453 0.14227526 -0.33300194 -0.0875426 -0.047549717
0.14432509 -0.167377 -0.6127056 0.5349381 -0.23066875 -0.16714893 0.26465875 -0.6698947
-0.1504546 -0.19638883 0.28756437 -0.24050833 0.16318585 -0.21562685 -0.12507743 -0.5159646
00000000: 752d c83e 34f1 d0bd 70a5 fcbe c12b 2ebf
00000010: 3ccb 45be 4914 95be 6da9 5fbe ba5a 90be
00000020: eaf6 a5be d49e bcbe 549c fe3e 6aea 5d3e
00000030: 9bb0 113e 3b7f aabe 8949 b3bd 7ec3 42bd
00000040: f5c9 133e e064 2bbe 46da 1cbf b4f1 083f
00000050: 6e34 6cbe 1729 2bbe 5a81 873e 387e 2bbf
00000060: c510 1abe 271a 49be a33b 933e d147 76be
00000070: 311a 273e 49cd 5cbe 4c14 00be 4216 04bf

0.model_cnn.layer2.1.running_var f4 [32]
0.1754223 0.25876388 0.20659715 0.36995935 0.19696954 0.24758512 0.16472946 0.16353646
0.24997857 0.17678419 0.23219556 0.17302191 0.12586223 0.21547541 0.21463805 0.15158242
0.15029682 0.15112443 0.25210184 0.28587475 0.20069008 0.26904702 0.10675859 0.4105963
0.1598286 0.14654052 0.19824761 0.15374465 0.2562291 0.20924003 0.10301005 0.26199752
00000000: e7a1 333e b37c 843e 348e 533e 506b bd3e
00000010: 62b2 493e f486 7d3e d7ae 283e 1a76 273e
00000020: 62fa 7f3e ea06 353e acc4 6d3e a82c 313e
00000030: 07e2 003e 96a5 5c3e 14ca 5b3e 6c38 1b3e
00000040: 69e7 193e 5dc0 1a3e 7e13 813e 2d5e 923e
00000050: b381 4d3e 88c0 893e 3fa4 da3d ae39 d23e
00000060: 1caa 233e b80e 163e 6c01 4b3e 3d6f 1d3e
00000070: 7630 833e 0543 563e eff6 d23d 8a24 863e

0.model_cnn.layer3.0.weight f4 [64, 32, 3]
-0.070443004 -0.01822309 -0.026498597 0.01186432 -0.10442762 0.06120376 0.0082442425 0.04034619
0.033626582 -0.01149363 0.0005370171 -0.07941942 0.01491637 -0.060728326 0.10149547 -0.015191468
-0.11701693 0.008086018 0.06423525 -0.086954534 -0.10036105 0.034531005 -0.08811393 -0.081610985
0.065840654 0.121225335 0.027910616 0.09530036 -0.115454204 -0.14818722 -0.02840006 0.019866735
-0.045692336 -0.08169267 0.0384334 0.005004109 0.059675135 0.08895433 -0.037367836 -0.10611328
-0.029850317 -0.07407 -0.065919995 -0.10492875 -0.04764472 -0.2103707 -0.010746511 -0.014699402
0.036770817 -0.123884134 -0.012126506 -0.097994626 -0.009610827 -0.09902445 0.059898954 0.025907692
-0.015927268 -0.027693924 0.08250977 0.0410714 0.016756512 0.03600632 -0.02144269 -0.084304035
-0.13689712 -0.070242345 -0.055755343 -0.037425656 0.040718097 -0.036663793 0.009418414 -0.08442647
0.15647984 0.11709309 0.006105961 -0.09398919 -0.1288352 0.020935316 -0.0847052 0.10881876
0.0017958832 -0.0310396 -0.084063075 -0.008952215 0.034844507 -0.09804758 -0.0024474845 -0.033622954
0.006942745 -0.101447545 -0.1218042 0.07508307 0.060959905 -0.04762774 -0.046447318 -0.16354665
-0.02963632 -0.040384747 -0.08779292 0.04584357 0.09152618 0.029325364 -0.022758331 0.073508844
0.014107222 0.08355007 0.06801256 0.038309775 -0.094773516 -0.09123485 -0.12722494 0.055803638
0.06849632 -0.045563538 -0.12432719 0.07096204 0.11803403 0.074483864 -0.032590106 0.05676898
-0.007493634 -0.03881182 -0.104729086 0.08597367 0.025043674 0.041819025 0.014957241 0.038185775
0.0041882456 0.058766756 -0.06260348 0.075186476 -0.1211686 0.01690798 0.042116657 -0.092748635
-0.064295694 -0.087867975 0.13396567 0.020398762 0.1022937 0.029726597 -0.080669 -0.060567457
0.10691214 -0.0877396 -0.015318528 -0.12796125 0.08908518 0.013426777 -0.086698994 -0.115399696
-0.057522945 0.091104604 0.0398764 0.013503305 -0.04790564 -0.034912042 0.04036956 0.081740685
0.06931564 -0.023261279 -0.026703672 -0.0685505 -0.06748391 -0.026064422 -0.044859514 0.0690902
-0.02467481 -0.086712934 0.09384815 0.10514339 0.0070192064 -0.026965272 0.10747996 0.04908168
0.06870357 0.0182407 0.059021983 -0.027731493 0.1313764 0.036144346 0.10647871 -0.050499737
0.10662014 0.043182712 -0.112709194 -0.10309149 -0.11941444 -0.023885658 -0.021861661 -0.0527359
0.06125022 0.08786338 0.0073064053 -0.10068123 -0.051502887 0.024195308 0.014038638 -0.068319075
0.032574687 -0.006498954 0.034863472 0.056891218 -0.089342184 0.040595952 -0.016870202 0.049865678
0.004205159 -0.13102823 -0.052190233 -0.115998074 0.084886394 0.0021401048 0.09042044 -0.0030348066
-0.010448539 -0.0800955 0.04011174 0.12909576 -0.10447327 -0.09650488 -0.006741187 0.0023617954
0.058458447 -0.061434127 0.06271199 0.056957375 -0.12659873 0.071742214 0.08350289 0.011534662
-0.08819232 -0.055012513 0.045437537 0.08614463 -0.088854775 -0.06905742 -0.0188308 -0.0106306
0.011153902 0.04466392 -0.06104178 0.031821962 -0.011665838 -0.09334719 0.06710048 -0.0015749651
0.107715026 0.11806438 0.006602397 0.14932904 0.07874098 -0.010558039 0.109174505 0.0993306
00000000: 6c44 90bd 9748 95bc 9613 d9bc 9162 423c
00000010: 26de d5bd cbb0 7a3d dc12 073c 0c42 253d
00000020: 07bc 093d c74f 3cbc 9cc6 0c3a a6a6 a2bd
00000030: ca63 743c 44be 78bd dbdc cf3d a3e5 78bc
00000040: 92a6 efbd 387b 043c c58d 833d 3815 b2bd
00000050: 188a cdbd 6270 0d3d 1375 b4bd a923 a7bd
00000060: 77d7 863d fd44 f83d cea4 e43c d62c c33d
00000070: 4173 ecbd 64be 17be 3ea7 e8bc 90bf a23c
00000080: e327 3bbd 7d4e a7bd 576c 1d3d 82f9 a33b
00000090: ea6d 743d b02d b63d 040f 19bd eb51 d9bd
000000a0: a788 f4bc 03b2 97bd 1001 87bd e2e4 d6bd
000000b0: 1c27 43bd 6b6b 57be 2212 30bc c3d5 70bc
000000c0: ff9c 163d f7b6 fdbd 41ae 46bc 68b1 c8bd
000000d0: bb76 1dbc 55cd cabd 9b58 753d 5e3c d43c
000000e0: e779 82bc 5ede e2bc e2fa a83d 7c3a 283d
000000f0: f444 893c 5d7b 133d 95a8 afbc 98a7 acbd
00000100: c22e 0cbe 38db 8fbd b75f 64bd a54b 19bd
00000110: 05c8 263d c62c 16bd b14f 1a3c c9e7 acbd
00000120: 403c 203e 81ce ef3d 8314 c83b 687d c0bd
00000130: 60ed 03be 8a80 ab3c eb79 adbd 5fdc de3d
00000140: d763 eb3a c246 febc 4329 acbd 50ac 12bc
00000150: 1db9 0e3d 2bcd c8bd fa65 20bb 39b8 09bd
00000160: f77f e33b bbc3 cfbd 7b74 f9bd 27c5 993d
00000170: 18b1 793d 4e15 43bd 8b3f 3ebd c678 27be
00000180: dec7 f2bc 7a6a 25bd c6cc b3bd 78c6 3b3d
00000190: 1472 bb3d bf3b f03c ae6f babc ce8b 963d
000001a0: fa21 673c 4d1c ab3d 2b4a 8b3d b6ea 1c3d
000001b0: 9e18 c2bd 56d9 babd 4147 02be 5b92 643d
000001c0: cc47 8c3d d5a0 3abd 419f febd 8c54 913d
000001d0: d3bb f13d ff8a 983d 347d 05bd 9786 683d
000001e0: 288d f5bb 25f9 1ebd 347c d6bd f712 b03d
000001f0: 6428 cd3c 6d4a 2b3d 370f 753c b068 1c3d
00000200: 8d3d 893b 69b5 703d 4136 80bd 5efb 993d
00000210: 3e27 f8bd 9b82 8a3c 8482 2c3d fff2 bdbd
00000220: 76ad 83bd 20f4 b3bd 4c2e 093e 4e1b a73c
00000230: 5c7f d13d 3185 f33c ca35 a5bd 9515 78bd
00000240: c1f4 da3d d2b0 b3bd 90fa 7abc 4608 03be
00000250: 4a72 b63d fcfb 5b3c 3e8f b1bd ad56 ecbd
00000260: 2e9d 6bbd 0d95 ba3d 7055 233d f73c 5d3c
00000270: b438 44bd eeff 0ebd 8d5a 253d a967 a73d
00000280: 5cf5 8d3d 708e bebc a9c1 dabc 3464 8cbd
00000290: 0135 8abd 0e85 d5bc 9cbe 37bd 2a7f 8d3d
000002a0: d422 cabc 8d96 b1bd 7533 c03d 6b55 d73d
000002b0: 5f01 e63b 46e6 dcbc 741e dc3d df09 493d
000002c0: 75b4 8c3d 856d 953c 09c1 713d 282d e3bc
000002d0: 8987 063e 180c 143d 8311 da3d d0d8 4ebd
000002e0: a95b da3d 5be0 303d 14d4 e6bd a221 d3bd
000002f0: 8f8f f4bd dbab c3bc 3a17 b3bc 9901 58bd
00000300: 83e1 7a3d b7f1 b33d 926a ef3b f631 cebd
00000310: b1f4 52bd 3d35 c63c 5102 663c dfea 8bbd
00000320: 096d 053d 2df5 d4bb 00cd 0e3d c406 693d
00000330: 09f9 b6bd f147 263d 6133 8abc f43f 4c3d
00000340: 6ecb 893b 442c 06be 6dc5 55bd 6690 edbd
00000350: ebd8 ad3d 0041 0c3b 5a2e b93d 9be3 46bb
00000360: 5930 2bbc 1c09 a4bd 354c 243d ae31 043e
00000370: 15f6 d5bd 5aa4 c5bd 2de5 dcbb 5ac8 1a3b
00000380: 2072 6f3d 5aa2 7bbd 256f 803d 234c 693d
00000390: 19a3 01be 95ed 923d 9003 ab3d e1fb 3c3c
000003a0: 2d9e b4bd cd54 61bd b61c 3a3d 996c b03d
000003b0: 7ef9 b5bd fa6d 8dbd 0d43 9abc f82b 2ebc
000003c0: dbbe 363c 84f1 363d f206 7abd bf57 023d
000003d0: 1222 3fbc d02c bfbd fa6b 893d 0f6f ceba
000003e0: b299 dc3d bdcb f13d ec58 d83b b6e9 183e
000003f0: f342 a13d a0fb 2cbc e296 df3d d76d cb3d

0.model_cnn.layer3.0.bias f4 [64]
-9.3373084e-05 -9.606048e-05 0.0019663007 -0.00053592474 -0.00021985586 -9.724849e-05 -9.1118214e-05 -7.465039e-06
3.213678e-05 -0.00030220626 -0.0016432403 9.608574e-05 -0.0010772818 -0.0002908007 0.0012690892 0.0010923296
0.0012138614 -0.0011773213 0.001435935 0.00018787775 0.002060329 -0.000566114 0.0009934404 0.00027919703
-0.000105739375 -0.00067881186 -0.0016007177 -0.0010029224 -0.00093277823 0.0028947263 0.0019109765 1.9772702e-05
-0.00045255868 -0.0027851067 0.002629078 3.049508e-05 -0.004091444 0.00027600562 0.000350818 -0.0008286008
0.0007940694 -0.00037415675 0.0007475971 0.000845144 0.0010329732 -0.0004501271 0.0009526634 0.00058459013
-0.00026593686 0.0027052348 -0.00040100107 -0.00017527101 -0.0011926284 0.0006718903 0.0006162862 -0.0006373576
-0.0013309047 0.00044066785 0.00033825057 0.0038750744 -0.0015321508 0.001672207 -0.0008441757 -0.0008907859
00000000: 4bd1 c3b8 1474 c9b8 0ddd 003b 4d7d 0cba
00000010: 1c89 66b9 e3f1 cbb8 b816 bfb8 327c fab6
00000020: 9bca 0638 7071 9eb9 ff61 d7ba a481 c938
00000030: 9433 8dba 9c76 98b9 9157 a63a 802c 8f3a
00000040: 6e1a 9f3a 5950 9aba fc35 bc3a 0d01 4539
00000050: 9606 073b 4467 14ba 5436 823a 3161 9239
00000060: 65c0 ddb8 4bf2 31ba 2ccf d1ba 7e74 83ba
00000070: b085 74ba 73b5 3d3b bb79 fa3a 8edd a537
00000080: 6645 edb9 5686 36bb 9c4c 2c3b b0cf ff37
00000090: 8511 86bb d9b4 9039 ffed b739 7536 59ba
000000a0: 1829 503a 782a c4b9 64fa 433a a78c 5d3a
000000b0: d464 873a 09ff ebb9 29bc 793a 2e3f 193a
000000c0: 716d 8bb9 4f4a 313b 743d d2b9 f4c8 37b9
000000d0: f851 9cba cb21 303a 448e 213a 5814 27ba
000000e0: c071 aeba 7009 e739 3957 b139 f6f4 7d3b
000000f0: 73d2 c8ba f52d db3a ac4b 5dba a183 69ba

0.model_cnn.layer3.1.weight f4 [64]
1.0681664 0.95739806 1.0220262 0.95206815 0.9513877 1.0117452 0.9400375 0.94885904
0.9451856 0.9777489 0.92662364 1.0129426 1.0236697 1.0319582 1.0395432 0.9826965
0.9915023 1.0193417 1.102024 0.8464995 0.93996364 0.9933165 0.9965763 0.97188026
0.94917494 0.97619236 1.0455891 1.0455796 1.0077823 0.9933556 1.0629194 0.95153457
1.036158 0.9859149 0.9467499 1.0075215 0.9662087 0.94355315 0.959836 1.0225495
1.0509204 1.0123398 0.9645639 0.96335405 1.0368896 1.018074 1.0301208 0.9805859
0.93672544 1.1180025 0.9407776 0.931675 0.9279863 0.94105715 1.0018661 1.0133682
1.0095011 1.0290967 0.9989022 1.0656925 1.0432861 0.95082253 1.0422778 1.0080374
00000000: adb9 883f 0a18 753f c1d1 823f bdba 733f
00000010: 258e 733f de80 813f 4ca6 703f 6de8 723f
00000020: aff7 713f c04d 7a3f 3537 6d3f 1aa8 813f
00000030: 9c07 833f 3517 843f c00f 853f ff91 7b3f
00000040: 18d3 7d3f ca79 823f 1f0f 8d3f 31b4 583f
00000050: 75a1 703f fd49 7e3f a01f 7f3f 25cd 783f
00000060: 21fd 723f bee7 793f ddd5 853f 8dd5 853f
00000070: 03ff 803f 8d4c 7e3f be0d 883f c597 733f
00000080: d3a0 843f eb64 7c3f 345e 723f 77f6 803f
00000090: 7459 773f b38c 713f d0b7 753f e7e2 823f
000000a0: 8f84 863f 5a94 813f a9ed 763f 5f9e 763f
000000b0: ccb8 843f 4050 823f 00db 833f ad07 7b3f
000000c0: 3dcd 6f3f b51a 8f3f cdd6 703f 4182 6e3f
000000d0: 8390 6d3f 1fe9 703f 263d 803f 0db6 813f
000000e0: 5537 813f 71b9 833f 0eb8 7f3f 9d68 883f
000000f0: 668a 853f 1b69 733f 5c69 853f 5f07 813f

0.model_cnn.layer3.1.bias f4 [64]
-0.0094456 -0.08666805 -0.2433855 -0.12486803 -0.11407066 -0.016120946 -0.17439465 -0.19939004
-0.035285022 -0.14561887 -0.1346723 0.047935553 -0.20222433 -0.14971074 -0.017551485 -0.12662835
0.041521322 0.02116754 0.07162645 -0.20091183 -0.17990427 -0.09902004 -0.19519874 -0.111791484
-0.081084505 -0.05572758 0.004859328 -0.05631834 -0.19402987 -0.01147513 -0.16430774 -0.08707598
-0.13020892 -0.14230476 -0.099192604 0.0299303 -0.13382022 -0.20884544 -0.2052272 0.07616246
-0.010861403 0.055441458 -0.0032474615 -0.1278376 -0.00017298845 -0.12467625 0.023155117 -0.21790203
-0.057142213 -0.19794105 -0.121114835 -0.1557507 -0.1251026 -0.15296356 -0.09355559 -0.12246675
-0.17110191 -0.17806077 -0.16870223 0.048756987 -0.037795845 0.015862508 -0.14236961 -0.08857129
00000000: b8c1 1abc 057f b1bd 0c3a 79be cfba ffbd
00000010: e19d e9bd 1310 84bc 8394 32be e72c 4cbe
00000020: 0787 10bd 1d1d 15be 89e7 09be 1258 443d
00000030: e513 4fbe c64d 19be 22c8 8fbc ddaa 01be
00000040: 4312 2a3d 8d67 ad3c e3b0 923d d5bb 4dbe
00000050: d338 38be 05cb cabd 2ee2 47be eff2 e4bd
00000060: a20f a6bd 9a42 64bd ff3a 9f3b 0fae 66bd
00000070: c4af 46be 2f02 3cbc 4a40 28be e454 b2bd
00000080: 7d55 05be 57b8 11be 7e25 cbbd 6330 f53c
00000090: 2b08 09be 94db 55be 1427 52be 10fb 9b3d
000000a0: 07f4 31bc 9516 633d 5dd3 54bb dce7 02be
000000b0: 3c64 35b9 4356 ffbd cdaf bd3c b621 5fbe
000000c0: f40d 6abd 0fb1 4abe 0e0b f8bd 1d7d 1fbe
000000d0: e51a 00be 7ba2 1cbe 139a bfbd d9cf fabd
000000e0: 5735 2fbe 9055 36be 47c0 2cbe 68b5 473d
000000f0: d1cf 1abd 17f2 813c 57c9 11be dd64 b5bd

0.model_cnn.layer3.1.running_mean f4 [64]
-1.0997938 -0.15207537 0.15782717 0.09874156 -0.19462219 -0.7058615 0.11162978 0.8958918
-0.0048517184 0.47533518 0.380898 -1.6916124 0.027089056 0.015480123 0.12495298 0.73306245
-0.7993741 -1.5186337 -2.2705243 0.05586744 0.82155263 -0.23093987 1.4890798 0.2202948
-0.1102265 -0.39943308 -0.461596 -0.3726903 0.55674356 -0.73498505 -0.15880992 -0.63613755
-0.035154507 -0.38919175 -0.14999706 -0.94269645 -0.6550471 0.33079013 0.5759229 -1.4754272
-1.216422 -2.0565956 -0.4159748 0.5042903 -0.57298744 0.5101357 -1.644278 0.4619582
-0.4362691 0.22231564 0.26366577 0.7003093 0.058785297 0.94187176 -0.17942774 0.19442125
0.15957248 0.6821749 0.13207233 -1.0995748 -0.8016263 -0.18938084 0.98491347 -0.57151383
00000000: 0bc6 8cbf a5b9 1bbe 729d 213e 0439 ca3d
00000010: 0a4b 47be 57b3 34bf 279e e43d 2a59 653f
00000020: 2afb 9ebb 225f f33e 1005 c33e c186 d8bf
00000030: dee9 dd3c 58a0 7d3c 59e7 ff3d fba9 3b3f
00000040: c8a3 4cbf 9762 c2bf 4550 11c0 42d5 643d
00000050: 4651 523f 807b 6cbe 2b9a be3f f694 613e
00000060: 6ebe e1bd 7e82 ccbe 5056 ecbe 43d1 bebe
00000070: bf86 0e3f fb27 3cbf 119f 22be e9d9 22bf
00000080: 2cfe 0fbd 2444 c7be d498 19be 8e54 71bf
00000090: 2bb1 27bf 535d a93e af6f 133f ccda bcbf
000000a0: b7b3 9bbf 439f 03c0 a6fa d4be 2b19 013f
000000b0: 4eaf 12bf 4198 023f b477 d2bf c985 ec3e
000000c0: aa5e dfbe b6a6 633e 33ff 863e 7847 333f
000000d0: dac8 703d 821e 713f e8bb 37be 5d16 473e
000000e0: f866 233e 04a3 2e3f f83d 073e debe 8cbf
000000f0: 6237 4dbf 0ded 41be 4a23 7c3f bb4e 12bf

0.model_cnn.layer3.1.running_var f4 [64]
0.39767632 0.2873771 0.22319971 0.44953677 0.23592827 0.35630274 0.31920058 0.30974996
0.23535861 0.26722765 0.21154453 0.799989 0.24463136 0.49406365 0.26580012 0.29886064
0.49183804 0.24500361 1.2503403 0.19120285 0.4580559 0.2672149 0.27880514 0.27046815
0.22356577 0.2143665 0.2540429 0.37302017 0.37470052 0.39010635 0.2564492 0.29187503
0.31827998 0.16989881 0.27505043 0.45422354 0.25740063 0.17296925 0.20993672 0.8709943
0.38971004 0.63959914 0.40655783 0.2433728 0.2943614 0.2215034 0.48522863 0.23672983
0.19502439 0.21900903 0.40174666 0.22826292 0.19211155 0.28879547 0.26131186 0.26008958
0.24498112 0.35481828 0.26412117 0.4914634 0.210957 0.30406955 0.21766157 0.22854605
00000000: 3b9c cb3e 1723 933e 778e 643e af29 e63e
00000010: 2e97 713e 506d b63e 426e a33e 8c97 9e3e
00000020: d901 713e 10d2 883e 219f 583e 14cc 4c3f
00000030: a580 7a3e e9f5 fc3e f416 883e 4304 993e
00000040: 32d2 fb3e 3ae2 7a3e 270b a03f aeca 433e
00000050: 4e86 ea3e 64d0 883e 8cbf 8e3e cd7a 8a3e
00000060: 6dee 643e e482 5b3e e911 823e 80fc be3e
00000070: bfd8 bf3e 05bc c73e 4f4d 833e a570 953e
00000080: 98f5 a23e f4f9 2d3e 69d3 8c3e fd8f e83e
00000090: 04ca 833e da1e 313e a7f9 563e 7cf9 5e3f
000000a0: 1388 c73e c5bc 233f 5928 d03e b836 793e
000000b0: 8ab6 963e cad1 623e e36f f83e 4e69 723e
000000c0: 79b4 473e e743 603e bdb1 cd3e c1bd 693e
000000d0: e4b8 443e 00dd 933e abca 853e 762a 853e
000000e0: 55dc 7a3e beaa b53e e43a 873e 17a1 fb3e
000000f0: 1d05 583e 01af 9b3e ade2 5e3e fa07 6a3e

0.model_cnn.layer4.0.weight f4 [128, 64, 3]
-0.039323393 -0.11064077 0.03501155 0.011998307 0.048534747 -0.021771446 0.03566584 0.00734555
-0.06473508 -0.012867475 0.009598019 0.091717094 -0.03381638 -0.015163564 0.02810212 -0.06979106
-0.041945994 -0.020879706 -0.018692836 -0.003928461 0.054919172 -0.064680025 0.07494757 -0.012505576
0.014394226 -0.02082593 -0.05832889 -0.044992402 -0.058383554 0.026925584 0.077623814 0.037802182
0.0174921 -0.01073226 -0.100189455 -0.026185583 0.0076381634 -0.02526788 0.029401831 0.055141795
-0.033589076 -0.045341797 -0.028575744 -0.0066891885 -0.06583846 -0.0011410951 -0.0063475883 0.056382213
-0.09360978 -0.06904322 -0.023628136 -0.06312303 0.055522546 0.026930934 -0.08523231 0.009762921
-0.0047412845 0.03257418 0.04132388 0.07840133 0.053836804 0.030871317 0.059741516 0.0074172546
0.0019824652 -0.031078905 0.025740115 -0.05052561 -0.014364486 0.09427258 0.019824537 0.049698055
0.07357392 -0.05898917 0.10641681 -0.019393034 0.077765934 -0.0026141137 0.037564196 0.04151303
-0.0028523535 -0.05575014 -0.011659238 0.07912362 0.0034574736 0.076507755 0.005107093 -0.037254315
0.0013793063 -0.031011904 -0.0018231563 0.062137 0.06898719 -0.07187147 -0.0032819666 -0.040710647
-0.02735053 0.021598918 -0.09452297 0.02593038 0.015090212 0.081715725 -0.03579269 -0.017616523
0.018895015 -0.06289454 0.016207574 -0.09314874 0.033306967 0.012699016 0.040506892 0.02297242
-0.011244115 0.05688433 -0.029705439 0.0066947686 0.0006960401 -0.026067637 -0.009807477 -0.0687894
-0.011765764 -0.002854734 0.036746446 -0.06403096 -0.05330528 -0.016618902 0.038173024 -0.06089713
0.07333392 0.03234293 -0.05139691 -0.002301603 -0.03885129 0.060261983 -0.0119628925 0.06471552
-0.023280729 0.009491879 0.07923025 -0.076727435 0.10657514 -0.0026346424 -0.007972526 0.060057312
-0.024899198 0.061429087 -0.04265079 -0.040031087 0.053664085 -0.0058087585 -0.055038035 -0.045329057
-0.05475155 0.0056959307 -0.01975184 0.012642733 0.046410657 -0.068779714 0.03317153 -0.061571676
-0.046795703 -0.06503703 0.010754974 0.017187273 -0.043710206 0.02785836 -0.052786585 -0.07537929
-0.03735616 -0.018956147 0.00772096 0.07041749 -0.04449997 -0.11643592 -0.052907713 0.021379087
0.07314854 0.008320111 -0.058321394 -0.118905574 0.11599231 0.06726717 0.16735859 -0.00835676
-0.00239369 0.002838011 -0.12051428 -0.11154868 -0.10076544 -0.008565114 -0.0953461 -0.047525715
0.02924067 -0.0748888 0.027648417 0.07871747 0.026530921 0.07587546 -0.041371204 0.033628013
0.027353007 0.02994734 0.055106714 -0.042866446 0.05573219 -0.051180784 0.0064999512 0.12944886
0.15333691 0.16661811 -0.09200988 0.03208998 -0.00314186 -0.049743786 -0.06517073 0.0186771
0.0040988117 -0.05384968 0.09329912 -0.0021023909 -0.046615735 -0.08546192 0.034594037 0.042056654
0.04992187 -0.08191355 -0.10512368 -0.13942042 0.015921181 0.0057042483 0.017344901 0.046985224
0.044449672 0.07503252 -0.04452156 -0.053769644 -0.06611403 -0.030548612 -0.028427547 -0.07144562
0.09669504 0.06089738 0.019986112 0.10758798 0.013892701 0.029698035 -0.0581938 -0.075815536
-0.10046986 0.037295975 -0.06110265 -0.068002045 -0.04491836 -0.05709682 -0.02642728 -0.016290346
00000000: 9111 21bd a197 e2bd 4568 0f3d 8c94 443c
00000010: 5fcc 463d 085a b2bc 5816 123d f1b2 f03b
00000020: d393 84bd 1ad2 52bc 0241 1d3c 2cd6 bb3d
00000030: 0b83 0abd 9970 78bc 6b36 e63c 9eee 8ebd
00000040: 90cf 2bbd eb0b abbc b821 99bc 52ba 80bb
00000050: edf2 603d f676 84bd 1d7e 993d 30e4 4cbc
00000060: c2d5 6b3c 249b aabc 46ea 6ebd f449 38bd
00000070: 9823 6fbd 0b93 dc3c 3cf9 9e3d 76d6 1a3d
00000080: 984b 8f3c 5cd6 2fbc 2130 cdbd 2683 d6bc
00000090: 8f49 fa3b 96fe cebc 1cdc f03c 5ddc 613d
000000a0: b394 09bd 52b8 39bd ae17 eabc fb30 dbbb
000000b0: 51d6 86bd cc90 95ba 6eff cfbb 09f1 663d
000000c0: 7cb6 bfbd 8866 8dbd cb8f c1bc a646 81bd
000000d0: 9c6b 633d 439e dc3c 478e aebd a9f4 1f3c
000000e0: c75c 9bbb 816c 053d 3b43 293d e090 a03d
000000f0: fb83 5c3d d8e5 fc3c 85b3 743d 710c f33b
00000100: 3fec 013b 3099 febc efdc d23c f1f3 4ebd
00000110: 0559 6bbc fc11 c13d 1167 a23c 3090 4b3d
00000120: ecad 963d a19e 71bd 0ef1 d93d 24de 9ebc
00000130: bf43 9f3d 8d51 2bbb eadc 193d 9109 2a3d
00000140: 8dee 3abb 425a 64bd 6306 3fbc 910b a23d
00000150: c896 623b 19b0 9c3d 6759 a73b fb97 18bd
00000160: d7c9 b43a ad0c febc f9f6 eeba 5e83 7e3d
00000170: 2849 8d3d 5931 93bd 4316 57bb 35c0 26bd
00000180: 380e e0bc 37f0 b03c 4295 c1bd f36b d43c
00000190: f03c 773c 935a a73d 5b9b 12bd 8750 90bc
000001a0: b8c9 9a3c dace 80bd bfc5 843c c4c4 bebd
000001b0: e36c 083d 890f 503c 8eea 253d a830 bc3c
000001c0: 3d39 38bc 8bff 683d d258 f3bc ca5f db3b
000001d0: 7676 363a cc8b d5bc 8aaf 20bc 75e1 8cbd
000001e0: 31c5 40bc 7d16 3bbb 7183 163d aa22 83bd
000001f0: a356 5abd 5d24 88bc 515b 1c3d 456f 79bd
00000200: 1830 963d 057a 043d 9185 52bd 7ed6 16bb
00000210: 8822 1fbd 45d5 763d 0200 44bc 9289 843d
00000220: 3ab7 bebc d383 1b3c 7843 a23d 4623 9dbd
00000230: 1144 da3d f7a9 2cbb 339f 02bc a8fe 753d
00000240: 67f9 cbbc 119d 7b3d 98b2 2ebd a3f7 23bd
00000250: dfce 5b3d 6657 bebb 906f 61bd f6aa 39bd
00000260: 2943 60bd eea4 ba3b 9cce a1bc 7723 4f3c
00000270: 1a19 3e3d 61dc 8cbd dfde 073d 9532 7cbd
00000280: daac 3fbd 2232 85bd a135 303c 53cc 8c3c
00000290: 7909 33bd 3737 e43c bf36 58bd 7560 9abd
000002a0: c602 19bd ec49 9bbc 1b00 fd3b 0c37 903d
000002b0: 9a45 36bd f575 eebd c2b5 58bd 3223 af3c
000002c0: e7ce 953d 1351 083c 6ae2 6ebd c484 f3bd
000002d0: 608d ed3d 5fc3 893d 0d60 2b3e cbea 08bc
000002e0: 74df 1cbb ecfd 393b 31d0 f6bd a273 e4bd
000002f0: 1c5e cebd b154 0cbc d144 c3bd 53aa 42bd
00000300: 218a ef3c 4d5f 99bd ef7e e23c a036 a13d
00000310: 6057 d93c 9864 9b3d da74 29bd 87bd 093d
00000320: 6a13 e03c 2054 f53c 94b7 613d ba94 2fbd
00000330: 7047 643d f1a2 51bd 8bfd d43b 3e8e 043e
00000340: 5a04 1d3e f09d 2a3e ad6f bcbd c870 033d
00000350: aae7 4dbb 24c0 4bbd 3b78 85bd b800 993c
00000360: 534f 863b 7b91 5cbd 9c13 bf3d 44c8 09bb
00000370: 24f0 3ebd a906 afbd 7ab2 0d3d 9943 2c3d
00000380: e07a 4c3d 4bc2 a7bd 154b d7bd 3ac4 0ebe
00000390: 236d 823c b4ea ba3b e516 8e3c 9473 403d
000003a0: dc10 363d a6aa 993d 3d5c 36bd 8f3d 5cbd
000003b0: cb66 87bd 1541 fabc e3e0 e8bc 1552 92bd
000003c0: 0d08 c63d 886f 793d eab9 a33c 1657 dc3d
000003d0: 369e 633c 4b49 f33c 9f5c 6ebd 2d45 9bbd
000003e0: 24c3 cdbd aac3 183d c646 7abd a844 8bbd
000003f0: 50fc 37bd 5bde 69bd 067e d8bc 5573 85bc

0.model_cnn.layer4.0.bias f4 [128]
9.7170356e-05 -0.00090989016 0.00021088225 0.000291694 -2.3491813e-05 -0.00016381331 0.000119359494 0.0004238317
7.438038e-05 -6.997117e-05 -5.787762e-05 -0.00017986227 0.00064637046 0.0002387053 -0.00017108252 0.00052529894
0.00025839673 -0.00037883225 -6.0341714e-05 -1.6651244e-05 1.4852438e-05 -6.9075286e-05 0.00039664248 -0.00011092753
-0.00013683 0.00023430798 -0.0004428794 -0.0003042912 0.00074374274 0.00015169129 0.0006256103 0.00012471608
-2.9765251e-06 0.00069100806 0.0002763538 9.1356575e-05 0.00061126624 3.6376427e-05 -6.981117e-05 3.7599184e-05
-0.00042093455 -6.157152e-05 -0.0005191606 1.9857434e-05 -4.1053194e-05 -0.0002456648 0.00015967208 0.0003383109
-1.3971974e-05 0.00014993869 0.00012496916 0.00044030944 0.0009078823 -3.4042918e-05 0.00051838567 -0.00014482638
-8.812665e-05 0.00023335914 0.0004131662 -0.00064810074 4.1036637e-05 -0.00029421828 -0.00041745024 0.0001511963
4.0260064e-05 0.00014017583 2.0763859e-05 0.00031922793 0.002075167 0.00026924987 0.00080418866 -0.0008593086
7.557211e-05 -0.000109281056 -3.4705266e-05 -0.000202588 9.1723356e-05 0.00016589531 0.0002698059 0.00020852913
-0.00028451197 0.0001658554 0.00018637122 -0.00015422495 -0.0007960432 -0.00012457624 7.984592e-05 -0.00010470953
-0.00075801054 -0.0005182731 0.00018315064 0.00019473818 -0.00039211192 -0.00012686758 0.000119566204 -4.0223345e-06
0.0016158128 -0.0002359629 0.0001662517 -0.00026129736 -0.00013898872 8.5256115e-06 -2.4411685e-05 0.0005728324
-0.00016492132 7.6988115e-05 0.0001947755 0.00035063818 -0.0005525192 0.00011408828 0.0002540748 0.0002600149
-0.00019342668 -3.9077906e-05 -0.00032946226 -0.00044899876 5.9728e-05 0.00017106772 -0.00077981 -0.00040963083
0.0001964972 -0.00011151483 -0.00013745586 7.9687044e-05 7.6289143e-07 -0.00016422047 0.00014481465 -0.0001524659
00000000: f0c7 cb38 b285 6eba 4620 5d39 82ee 9839
00000010: 4910 c5b7 4dc5 2bb9 a450 fa38 ba35 de39
00000020: aafc 9b38 7cbd 92b8 9fc1 72b8 6999 3cb9
00000030: 3071 293a f74c 7a39 9d64 33b9 37b4 093a
00000040: 6c79 8739 019e c6b9 6c17 7db8 46ae 8bb7
00000050: bc2e 7937 83dc 90b8 74f4 cf39 c4a1 e8b8
00000060: 067a 0fb9 92b0 7539 4432 e8b9 4689 9fb9
00000070: bbf7 423a 520f 1f39 ffff 233a 38c6 0239
00000080: 50c0 47b6 c424 353a 94e3 9039 b096 bf38
00000090: 623d 203a e492 1838 9667 92b8 d1b3 1d38
000000a0: e1b0 dcb9 f51f 81b8 4718 08ba 8493 a637
000000b0: 8830 2cb8 92cc 80b9 a66d 2739 525f b139
000000c0: 2c69 6ab7 dc38 1d39 270a 0339 55d9 e639
000000d0: f3fe 6d3a 4ec9 0eb8 46e4 073a 89dc 17b9
000000e0: a3d0 b8b8 deb1 7439 3b9e d839 4ee5 29ba
000000f0: c11e 2c38 4f41 9ab9 39dd dab9 738a 1e39
00000100: eadc 2838 2afc 1239 0c2e ae37 0c5e a739
00000110: 86ff 073b 1b2a 8d39 30d0 523a 3943 61ba
00000120: 787c 9e38 d22d e5b8 7f90 11b8 cd6d 54b9
00000130: 9a5b c038 2ff4 2d39 bc74 8d39 9da8 5a39
00000140: 8d2a 95b9 78e9 2d39 a56c 4339 72b7 21b9
00000150: 8ead 50ba aea0 02b9 f472 a738 8097 dbb8
00000160: 3ab5 46ba b8dc 07ba 200c 4039 a232 4c39
00000170: 5f94 cdb9 c207 05b9 9ebf fa38 97f7 86b6
00000180: aec9 d33a cf6c 77b9 da53 2e39 bdfe 88b9
00000190: 80bd 11b9 3909 0f37 b2c7 ccb7 222a 163a
000001a0: bbee 2cb9 ae74 a138 a63c 4c39 dcd5 b739
000001b0: f0d6 10ba ae42 ef38 5835 8539 9c52 8839
000001c0: 94d2 4ab9 95e7 23b8 adbb acb9 9867 ebb9
000001d0: 7484 7a38 a460 3339 2a6c 4cba b8c3 d6b9
000001e0: d10a 4e39 12dd e9b8 0722 10b9 a81d a738
000001f0: 80c9 4c35 9932 2cb9 63d9 1739 41df 1fb9

0.model_cnn.layer4.1.weight f4 [128]
0.98990464 1.0291559 1.0216266 0.9509596 0.89819276 1.0780003 1.0263844 0.96360916
1.01202 1.1045583 0.98502016 1.0118537 1.0081428 1.030089 0.9869384 0.9437281
1.0542026 0.9447642 0.9476579 0.98186463 0.98693085 1.0478029 0.9913959 1.0089508
0.97670496 1.0083659 1.0123512 1.0219059 0.9874731 0.949962 1.0493807 1.0488175
1.0457386 1.0045139 0.96245694 0.957661 0.98648727 1.0637567 0.9908653 0.97985023
1.0075474 1.089271 1.0656853 0.9744183 1.0545032 0.93558407 0.9173607 0.99686265
0.958963 1.0031285 0.91631585 0.97667766 1.0259198 0.95301163 1.0403973 1.0181451
0.99737567 0.98975146 1.0217346 0.97557104 1.023572 1.0513513 1.0336738 0.9799381
0.99777746 0.97433496 1.0128919 0.9293073 1.0348426 1.0136496 0.9972434 1.0452002
0.95736325 0.9925388 0.9766286 0.96670747 0.9273771 1.0260241 1.012597 1.0498359
0.97121096 0.968262 0.98853207 0.95109665 1.0868964 1.0083581 1.011825 1.0371732
1.0536089 1.0749029 1.0149355 0.9998629 1.0378127 1.0047896 1.0586008 0.9692148
1.0722201 0.98315936 0.9878645 1.0193002 0.93858296 0.9826727 1.0450824 1.0035942
0.9776152 1.0578243 1.0232214 1.0007654 1.0834626 0.94334066 0.9637548 0.9645685
1.0182813 0.98718774 0.99781334 1.0253762 1.0336543 1.0285878 1.0652966 1.0303525
1.006003 0.99832374 0.9767932 1.0040313 1.0083054 1.0847254 1.0048857 0.8989849
00000000: 646a 7d3f 61bb 833f a9c4 823f 1772 733f
00000010: f6ef 653f eafb 893f 9060 833f 17af 763f
00000020: df89 813f 2b62 8d3f 482a 7c3f 6c84 813f
00000030: d30a 813f f5d9 833f ffa7 7c3f 2a98 713f
00000040: 1cf0 863f 11dc 713f b599 723f 7b5b 7b3f
00000050: 80a7 7c3f 681e 863f 1fcc 7d3f 4d25 813f
00000060: 5609 7a3f 2212 813f b994 813f d0cd 823f
00000070: 09cb 7c3f b630 733f 1b52 863f a73f 863f
00000080: c3da 853f e993 803f 9463 763f 4529 753f
00000090: 6e8a 7c3f 2e29 883f 59a9 7d3f 77d7 7a3f
000000a0: 50f7 803f 3b6d 8b3f 6068 883f 7a73 793f
000000b0: f6f9 863f 7082 6f3f 27d8 6a3f 6432 7f3f
000000c0: 997e 753f 8466 803f ad93 6a3f 8c07 7a3f
000000d0: 5751 833f 92f8 733f bd2b 853f 9452 823f
000000e0: 0354 7f3f 5a60 7d3f 33c8 823f 06bf 793f
000000f0: 6804 833f ae92 863f 6c4f 843f 39dd 7a3f
00000100: 586e 7f3f 046e 793f 71a6 813f 15e7 6d3f
00000110: b975 843f 45bf 813f 584b 7f3f 1fc9 853f
00000120: c215 753f 0617 7e3f 5504 7a3f 247a 773f
00000130: 9668 6d3f c254 833f c79c 813f 0661 863f
00000140: 48a1 783f 05e0 773f 7010 7d3f 127b 733f
00000150: 6c1f 8b3f e111 813f 7b83 813f 17c2 843f
00000160: a8dc 863f 6b96 893f 68e9 813f 04f7 7f3f
00000170: 0cd7 843f f29c 803f 3b80 873f 761e 783f
00000180: 823e 893f 55b0 7b3f b0e4 7c3f 6e78 823f
00000190: f946 703f 7090 7b3f 43c5 853f c675 803f
000001a0: fd44 7a3f c966 873f ebf8 823f 1519 803f
000001b0: e7ae 8a3f c67e 713f a2b8 763f f6ed 763f
000001c0: 0b57 823f 56b8 7c3f b270 7f3f 873f 833f
000001d0: c94e 843f c4a8 833f a45b 883f 97e2 833f
000001e0: b5c4 803f 2592 7f3f 1f0f 7a3f 1984 803f
000001f0: 2710 813f 48d8 8a3f 18a0 803f e023 663f

0.model_cnn.layer4.1.bias f4 [128]
-0.07304514 -0.07528971 -0.10216577 -0.064943515 -0.0948299 -0.10388765 -0.06868041 -0.09522578
-0.09593453 -0.089128256 -0.13562281 -0.101684004 -0.11069095 -0.13018245 -0.0397004 -0.114091836
-0.030453661 -0.10251079 -0.10614638 -0.13133764 -0.10419945 -0.09732537 -0.09881368 -0.102551855
-0.10451512 -0.1067405 -0.03188596 -0.06985456 -0.11686867 -0.107109405 -0.057330158 -0.13613608
-0.09311268 -0.122230545 -0.10650921 -0.09787591 -0.07835626 -0.06660808 -0.12958014 -0.11057008
-0.09722121 -0.11612525 -0.13928297 -0.087158695 -0.08356737 -0.087629646 -0.13289231 -0.08108838
-0.107410245 -0.11091817 -0.09073678 -0.0714367 -0.066440515 -0.10463486 -0.031229379 -0.031896662
-0.08888122 -0.11414621 -0.065180734 -0.1168456 -0.052678578 -0.14973295 -0.12946329 -0.14487153
-0.027620213 -0.050939012 -0.055132724 -0.122176595 -0.09264901 -0.084538594 -0.07452335 -0.1225736
-0.08199907 -0.12798654 -0.15863653 -0.048502658 -0.13306484 -0.07242851 -0.13034588 -0.04480771
-0.10365434 -0.09854115 -0.12003954 -0.07485247 -0.06635693 -0.04573372 -0.074475 -0.07094148
-0.10033076 -0.10741857 -0.13140018 -0.13171601 -0.050113775 -0.05668125 -0.11239087 -0.09728607
-0.097793184 -0.10969128 -0.119390614 -0.07756219 -0.114086755 -0.050419588 -0.09900388 -0.0557117
-0.12946448 -0.11284097 -0.077374056 -0.1326105 -0.05824936 -0.10621676 -0.12916355 -0.05277946
-0.03933522 -0.13294457 -0.1484047 -0.02552492 -0.033365455 -0.14061512 -0.06895128 -0.13606536
-0.08308982 -0.10029308 -0.14999378 -0.09788502 -0.03924873 -0.09211972 -0.05133162 -0.10748546
00000000: b198 95bd 7e31 9abd 4a3c d1bd 1b01 85bd
00000010: 2e36 c2bd 0cc3 d4bd 51a8 8cbd bc05 c3bd
00000020: 5379 c4bd e088 b6bd b5e0 0abe b43f d0bd
00000030: f0b1 e2bd 8c4e 05be e39c 22bd fba8 e9bd
00000040: f579 f9bc 2df1 d1bd 4663 d9bd 607d 06be
00000050: 8566 d5bd 8652 c7bd d45e cabd b506 d2bd
00000060: 060c d6bd c39a dabd da9a 02bd e80f 8fbd
00000070: d758 efbd 2d5c dbbd 07d3 6abd 4267 0bbe
00000080: dcb1 bebd 0254 fabd 8021 dabd 2a73 c8bd
00000090: 3f79 a0bd d169 88bd a8b0 04be 9172 e2bd
000000a0: ea1b c7bd 13d3 edbd 32a0 0ebe 4280 b2bd
000000b0: 5f25 abbd 2c77 b3bd ec14 08be aa11 a6bd
000000c0: e7f9 dbbd 1129 e3bd 34d4 b9bd 684d 92bd
000000d0: f711 88bd cd4a d6bd c1d4 ffbc 13a6 02bd
000000e0: 5b07 b6bd 7dc5 e9bd 7a7d 85bd bf4c efbd
000000f0: 7ec5 57bd 9853 19be 0692 04be 3459 14be
00000100: c943 e2bc 6da5 50bd dad2 61bd b937 fabd
00000110: c4be bdbd 9222 adbd b39f 98bd de07 fbbd
00000120: 21ef a7bd e70e 03be 9d71 22be b9aa 46bd
00000130: 2642 08be 6655 94bd 6479 05be 4a88 37bd
00000140: ba48 d4bd f1cf c9bd 4ad7 f5bd 404c 99bd
00000150: 24e6 87bd 4853 3bbd 5986 98bd c449 91bd
00000160: 377a cdbd 44fe dbbd c58d 06be 90e0 06be
00000170: 1a44 4dbd 992a 68bd 2f2d e6bd eb3d c7bd
00000180: cb47 c8bd d2a5 e0bd 1183 f4bd edd8 9ebd
00000190: 51a6 e9bd c584 4ebd 8cc2 cabd f431 64bd
000001a0: 5692 04be 2b19 e7bd 4a76 9ebd 0ccb 07be
000001b0: e296 6ebd 2c88 d9bd 7343 04be 462f 58bd
000001c0: f81d 21bd 9f22 08be 67f7 17be a319 d1bc
000001d0: 37aa 08bd 69fd 0fbe 5436 8dbd b854 0bbe
000001e0: ff2a aabd 7566 cdbd f897 19be f177 c8bd
000001f0: 47c3 20bd 44a9 bcbd 1b41 52bd 5621 dcbd
