checkpoint/DA/s_0_1_t3/cnn_features_1d_0925-180509/51-0.9353-best_model.pth (torch, 944127 bytes, 30 tensors)

0.model_cnn.layer1.0.weight f4 [16, 1, 15]
000000 7f 2f 4c 3e a0 bb 1a 3e 94 d6 d9 3c 79 e2 74 be
       0.19939993 0.15110636 0.026591577 -0.23914517
000010 4c b2 a2 bc 4f 68 82 bc 3a 93 77 be 69 b9 06 be
       -0.01986041 -0.015918879 -0.24177256 -0.13156666
000020 e0 26 12 3d 96 55 c7 bd 3f b4 24 3d 2e a2 54 3e
       0.035681605 -0.09733121 0.04021096 0.20764992
000030 4d 95 4a bd b6 58 7e be ba 10 b8 3d a4 8b 23 3e
       -0.04945879 -0.24838528 0.08987565 0.15971237
000040 e7 86 3b 3e dd a8 1e be 5f 2c 82 3c 73 d4 01 be
       0.1831318 -0.15494104 0.015890298 -0.12678699
000050 d7 f2 81 be 76 28 e4 3d 86 c0 63 3e 52 8b 85 be
       -0.25380585 0.1114053 0.2224141 -0.26082855
000060 ad df 86 3d 74 76 a0 be 29 f8 29 be c4 75 f8 bc
       0.065856315 -0.31340373 -0.16598572 -0.030329593
000070 cc e2 81 be 6a 8a cb 3d 05 8a a0 3e 3c fa 2b 3e
       -0.25368345 0.0993851 0.313553 0.16794676
000080 c5 5e 12 3e eb d9 1e 3e 08 75 8f bd a8 aa 89 39
       0.14293964 0.15512817 -0.07004744 0.00026257825
000090 39 be e5 3d 98 67 71 bd e7 c8 92 bd 26 2d 7a be
       0.11217923 -0.058936685 -0.07167225 -0.24431285
0000a0 27 a1 36 3e 81 df 81 be 2b b4 30 3e 12 20 8d 3d
       0.17834912 -0.25365832 0.17256229 0.068908826
0000b0 52 ca 60 be c7 65 80 be 96 d5 36 be 58 af 38 bd
       -0.21952179 -0.2507765 -0.17854914 -0.045089096
0000c0 bb bc 18 be ff c3 66 be c0 87 0b bb 93 a4 36 3e
       -0.14915745 -0.22535704 -0.002129063 0.17836218
0000d0 44 a5 74 be c1 8b b3 bd 47 d7 19 bd 4b 82 0a be
       -0.23891169 -0.0876689 -0.03755882 -0.13526265
0000e0 80 90 a2 3d f5 92 8f bd 1d 8c f2 bd f1 c7 8e 3e
       0.079377174 -0.07010452 -0.11843131 0.27886918
0000f0 cf bc 3c bd 77 9e ce 3d 7b a9 95 3e 1a bf 20 be
       -0.0460785 0.100888185 0.29230866 -0.156979
000100 0a 5b 93 bd 96 95 a0 3d 78 ae 4c 3e eb 62 94 3e
       -0.07195099 0.07841031 0.1998843 0.28981718
000110 4c 3d 3e be 37 ff 32 bd 58 7c 08 3e 30 76 8d bd
       -0.1857807 -0.043700423 0.13328683 -0.06907308
000120 51 88 03 3e 6e 17 87 bd fc e1 58 bc 61 1b 7c 3e
       0.1284497 -0.06596266 -0.013237473 0.24619819
000130 7c fa 10 3e 3d ec db bc d9 e7 73 3e d3 c6 1f 3e
       0.14158052 -0.026846046 0.23818912 0.15603189
000140 69 42 62 3e f9 6e 19 3b c0 5b 58 3e 1a 0c d3 bc
       0.22095646 0.0023412092 0.2112875 -0.025762606
000150 6d 45 12 be f0 00 b9 bd 2b cd 43 be 3f 57 50 3e
       -0.14284296 -0.09033382 -0.19121234 0.20345782
000160 9c 18 32 be 72 cf 97 be 0c 15 dc bd 3c 3f 39 be
       -0.173922 -0.29650456 -0.10746202 -0.18090528
000170 8f b1 e9 3b c1 fe 42 3e cb 0d c9 3d f0 a2 32 3d
       0.0071317623 0.19042493 0.09817084 0.04361242
000180 30 b9 72 3e e2 5f 21 be 38 7b 12 3e 19 ae 68 be
       0.23703456 -0.15759233 0.14304817 -0.22722663
000190 83 3a 3c be cb fb 1e be a5 a0 9e be 6e b4 15 3e
       -0.18381695 -0.15525739 -0.30981937 0.1461961
0001a0 bd f3 1e bc 79 ee ff bd fe ec 12 3e 07 d2 78 be
       -0.009701666 -0.12496657 0.14348218 -0.24298869
0001b0 bb 87 d9 3b d5 8f 6f be e8 4b 33 3d ac b0 0b 3d
       0.006638495 -0.23394711 0.04377356 0.034104034
0001c0 82 9b 04 3e d9 4f a4 bd 1c ad b9 3c 5d 39 6a 3e
       0.12949947 -0.08023042 0.022665553 0.22873445
0001d0 5e d4 82 be 73 ec b4 3c e6 54 9d 3d 58 cd e5 bd
       -0.25552648 0.022085404 0.07682209 -0.11220807
0001e0 14 27 3e be c9 6d 2a be 42 06 d0 3c 6b 68 30 be
       -0.18569595 -0.16643442 0.025393609 -0.17227332
0001f0 2e 65 45 3e 7f 51 78 bc 06 d7 22 be a9 c1 1f bd
       0.19276878 -0.015156149 -0.15902337 -0.039003048
000200 1b aa 2f be 06 fa 35 3e fc 20 37 3e 1f 48 d5 bc
       -0.17154734 0.17771158 0.17883676 -0.026035367
000210 30 30 ff bd 4b d3 03 be 5b 08 5d be e8 2e 0e 3d
       -0.12460363 -0.1287357 -0.21585219 0.034712702
000220 d7 39 f9 3d 3c af f2 bd f6 d7 9b bc 6f 91 30 be
       0.12169235 -0.118498296 -0.019023877 -0.17242979
000230 1a 6a c6 bd 15 47 55 3e 1a 39 4a bd d3 72 1a 3e
       -0.09688206 0.20827897 -0.049370863 0.15082864
000240 98 5b 00 be 82 9a 90 bd bd ca fb 3d 4d 86 67 be
       -0.1253494 -0.0706072 0.12294529 -0.22609825
000250 56 70 f3 3d 53 90 81 be 92 fd 2b be 69 8b 5b 3e
       0.11886661 -0.25305423 -0.16795948 0.214399
000260 27 8b f0 bd 0c 0e 31 3e 9e f5 b3 3d 6c 4a ce 3d
       -0.11745291 0.17290515 0.08787082 0.100727886
000270 c4 bc ca bd 80 3e 6e 3e f5 0b 95 3d d8 01 66 3d
       -0.098992854 0.2326603 0.07277671 0.056154102
000280 92 af 8d 3e 9e 47 6f bd bc ab 16 bc 82 96 80 3e
       0.27673012 -0.05841791 -0.009196218 0.25114828
000290 7e ac 5b be aa c5 38 3d de 89 69 3e 34 a2 84 be
       -0.2145252 0.045110382 0.22806498 -0.25905
0002a0 d2 32 fe bd 8f ad 4d bd 79 aa d9 bc ec b1 eb bd
       -0.12412037 -0.050214346 -0.026570546 -0.11508545
0002b0 04 c3 14 be 42 63 83 be 64 00 f1 3c 7e 79 88 3e
       -0.14527518 -0.25661665 0.029419132 0.2665519
0002c0 2a 81 a6 bd bd 47 d7 3d 53 a3 7b 3d a7 40 b7 bb
       -0.08130105 0.1051173 0.061435055 -0.005592424
0002d0 6f ed 2d bd 9c bb 00 be c0 66 48 3e 94 90 72 3e
       -0.042462762 -0.12571567 0.19570446 0.23687965
0002e0 fb af e4 bd 66 e8 5d 3b b9 95 66 be 51 c8 3d be
       -0.11166378 0.0033860444 -0.22518052 -0.18533446
0002f0 70 2e ed 3d 63 ba 49 3e 27 14 1e 3e 22 d2 c1 3d
       0.11581123 0.19700007 0.15437375 0.09463908
000300 c3 c3 ff bd b9 24 9f be 98 ee 36 bd 02 93 26 bd
       -0.124885105 -0.31082705 -0.044661134 -0.04066754
000310 5e de 68 3d 48 54 87 3d a6 7a f4 3c d8 d2 3c 3e
       0.05685269 0.06607872 0.02984364 0.18439806
000320 6e ab 2a 3e ff 58 80 be 02 30 82 3e 02 ba 21 3c
       0.16666958 -0.250679 0.25427252 0.009871008
000330 e9 65 74 3e 1a dc 3e 3d 31 1a 22 be 6a ed 3a be
       0.23867 0.046596624 -0.15830304 -0.18254629
000340 49 9c e3 bd 1f 38 d1 3c f4 a8 2e be 73 ab b9 3d
       -0.111137934 0.025539456 -0.17056638 0.090659045
000350 fb 7a 39 bd 28 99 9e 3d 59 2d 76 3d 1b cd ae 3c
       -0.0452833 0.07744056 0.06010184 0.021338036
000360 81 ba 9e bd 28 52 84 bc f0 1a 54 3d 9d 87 1e be
       -0.077504165 -0.016152456 0.051783502 -0.1548142
000370 dc 1c 73 be ef f2 de 3d 04 0c f2 bd 4b 69 9a be
       -0.23741478 0.1088618 -0.11818698 -0.30158457
000380 35 62 13 3e ce 40 e1 bd 5c 7d 0f 3e a8 71 32 bd
       0.14392932 -0.10998689 0.14012665 -0.043565422
000390 e1 85 03 be 11 0d 78 3e 51 67 03 bd 0d 30 d6 3c
       -0.1284404 0.24223734 -0.032080952 0.02614596
0003a0 86 ac 24 3e b8 ba 16 be f9 4a 9f 3d 59 2f f2 3d
       0.16081437 -0.14719665 0.07777972 0.11825437
0003b0 b4 98 c7 bc 1a 49 7d 3e 3d bd 0f be 87 bc 05 3e
       -0.024364807 0.24734917 -0.14037032 0.13060199

0.model_cnn.layer1.0.bias f4 [16]
000000 16 e6 a2 39 63 c7 b7 ba 38 d7 46 ba 07 42 59 3a
       0.00031070475 -0.0014021214 -0.00075851707 0.0008287732
000010 68 10 6c bb f6 ea 32 bc 74 19 21 3b 48 39 e0 b8
       -0.003602052 -0.010920277 0.0024581822 -0.00010691822
000020 98 67 7e ba 16 30 8f bc 5e 00 5d 3b 3b 9c e8 3a
       -0.0009704768 -0.017478984 0.0033722143 0.0017746756
000030 65 e6 6d 39 09 e9 88 bb 06 99 3b 3b 67 10 0d bc
       0.0002268791 -0.0041781706 0.0028625145 -0.008609868

0.model_cnn.layer1.1.weight f4 [16]
000000 e2 80 6c 3f d3 53 7b 3f 58 81 82 3f aa 8d 75 3f
       0.9238416 0.9817478 1.0195723 0.9591929
000010 5c 71 77 3f 14 b2 7d 3f 22 5f 83 3f b8 a8 75 3f
       0.9665735 0.9909985 1.0263407 0.9596057
000020 a3 2f 84 3f 07 f5 8c 3f fe fd 89 3f c0 8e 6d 3f
       1.0327038 1.1012276 1.0780637 0.92795944
000030 b2 00 83 3f af 86 81 3f cf a7 70 3f df bb 82 3f
       1.0234587 1.0119227 0.94006056 1.0213584

0.model_cnn.layer1.1.bias f4 [16]
000000 59 e9 45 bc ae 7a 7c 3b 30 5c 8a 3d 10 5f 1b bd
       -0.01207956 0.0038525271 0.067558646 -0.037932456
000010 99 35 9b 3c d3 c4 c0 bd 0a 12 43 3c 93 28 a3 3c
       0.018946456 -0.09412541 0.011906156 0.019916808
000020 66 0f 9d bd e4 13 0b 3e f6 23 78 3d 79 35 c2 bd
       -0.07668953 0.13581806 0.06058117 -0.09482855
000030 bf 10 ae 3d f6 5c ad 39 f4 e5 7f bd 4b c9 38 bd
       0.08499288 0.00033066393 -0.06247516 -0.045113843

0.model_cnn.layer1.1.running_mean f4 [16]
000000 f9 51 14 bb 31 2e 36 bb c8 f3 d0 38 9f 43 54 38
       -0.0022631867 -0.0027798528 9.963621e-05 5.0607716e-05
000010 bb e0 71 bb 7f 87 28 bc f5 ca b3 3a 31 a3 ab ba
       -0.0036907631 -0.010286211 0.0013717102 -0.00130949
000020 31 fa ab 39 1a 5c 8d bc 82 ed 7c 3b 12 be 04 3b
       0.0003280207 -0.017255832 0.0038593714 0.0020254892
000030 a5 ba b8 ba 36 1e af bb 4a 2e 3b 3b 18 95 ff bb
       -0.001409371 -0.0053441776 0.0028561526 -0.007799756

0.model_cnn.layer1.1.running_var f4 [16]
000000 a8 1a 07 3f 4e 37 8b 3e 22 cc 9a 3e 41 97 db 3e
       0.5277505 0.27190632 0.30233866 0.42888835
000010 90 da b3 3e 1e 35 fc 3e 1f 44 b5 3e 68 70 63 3e
       0.35127687 0.49259275 0.35403535 0.22210848
000020 5c 99 42 3e 11 bc c3 3d 65 ea 39 3e 49 eb 9d 3e
       0.19003814 0.09557355 0.1815582 0.3084357
000030 5c 25 57 3e 1a 44 42 3e 04 13 cf 3e 51 03 dc 3d
       0.21010345 0.18971291 0.40444195 0.1074282

0.model_cnn.layer2.0.weight f4 [32, 16, 3]
000000 c7 b7 bd 3d 9a d6 01 be 7e 5a f9 bd 7c 07 9e bc
       0.09263568 -0.1267952 -0.12175463 -0.019290678
000010 43 81 8b bd 6b 77 6d bd 3a 9b 6b 3d 11 72 70 bd
       -0.06811764 -0.057975214 0.057521082 -0.058702532
000020 c6 20 9c 3d ec fe 94 3d 7a ba 96 3c 30 d5 ca 3d
       0.076234385 0.07275185 0.018399466 0.099039435
000030 87 a2 e8 3d 75 ce 6f bd d2 ed 4a 3d cd f3 ab 3d
       0.11359125 -0.058546502 0.04954321 0.08396111
000040 fb d5 d0 3d 5e 88 67 bd 74 73 94 bb d0 c2 1d 3e
       0.101970635 -0.056526534 -0.0045303646 0.15406346
000050 77 8a 16 3c 21 a5 88 bc bc 42 ac 3c 66 13 f1 bd
       0.009188286 -0.016680302 0.021027915 -0.11771278
000060 8d 6e 8b 3d 0e dd 0c 3e ce 13 c6 bb 84 ef d9 3d
       0.06808195 0.137562 -0.0060448414 0.10641387
000070 70 23 ac 3d 9b 9a 86 bd 65 e9 4d 3e 76 0f 43 3e
       0.08405197 -0.065724574 0.20108564 0.19048867
000080 84 2e aa 3d 2e 9b fa bb c4 fe d3 bd 7d 51 fb bb
       0.083096534 -0.0076478934 -0.10351327 -0.0076696263
000090 d5 b6 29 3d 54 d3 80 bd 44 2a 8e bd c0 09 81 3c
       0.041434128 -0.06290308 -0.06941655 0.01575172
0000a0 bb a4 b9 3d d5 89 40 3d 6a fc 81 3d 8a 55 9c 3c
       0.09064623 0.047006447 0.06346972 0.019083757
0000b0 5e f1 c0 bd 1c 2a 16 be b2 0b ff 3d 4a 8d fc 3c
       -0.09421037 -0.14664501 0.124534026 0.03082909
0000c0 72 2b 98 3d f1 d6 be bc 45 26 3d 3d 18 a6 1f 3d
       0.074301615 -0.023295851 0.046179075 0.03897676
0000d0 89 4c 9f bd c4 b4 eb bc d5 d7 de 3c f6 35 7f bd
       -0.0777827 -0.02877272 0.027202526 -0.06230732
0000e0 f2 fa 41 bd 4d 63 d6 bd c1 44 bf bc 7e 66 3f b9
       -0.04735846 -0.10468159 -0.023348214 -0.00018253361
0000f0 28 ec 92 bd b8 fa db 3d 4d 53 0c be 9a 8e b8 bd
       -0.071739495 0.1074118 -0.13703652 -0.09011574
000100 e0 a7 f3 bd bf f7 3e be 3b fa 8c bd 31 21 1c 3d
       -0.11897254 -0.18649195 -0.06883665 0.03811759
000110 8c ae 1b 3e 52 69 1e 3d d9 49 b2 bd da 86 02 be
       0.15203303 0.03867466 -0.087054916 -0.12746754
000120 78 be e3 3d a2 da 09 3e de 47 c9 3d 7c cf 98 3c
       0.111203134 0.13462308 0.09828161 0.018653624
000130 20 f1 da bb 1a 4d 5d bd 43 be e5 bd bd f8 cc bd
       -0.0066815764 -0.054028608 -0.1121793 -0.100083806
000140 56 66 a7 3d 84 67 06 3e 99 ee 8b 3c 39 5f 1c bd
       0.08173816 0.13125426 0.017081546 -0.03817675
000150 13 fa cf 3c 41 e4 16 3e d1 89 12 3e 72 a6 f5 3b
       0.0253878 0.1473551 0.14310385 0.0074966485
000160 94 db 03 3e 58 53 0b 3e b2 97 b4 bd de e0 62 3c
       0.12876731 0.13606012 -0.08817996 0.013847558
000170 7e 55 c7 bd 15 df 0e bb 95 f7 e9 bd dd bd a0 bc
       -0.09733103 -0.0021800448 -0.11424176 -0.019621784
000180 a7 df 9c 3d f8 24 7a bc e9 2e 22 3b f7 45 9e bd
       0.07659846 -0.015267603 0.00247472 -0.077281885
000190 5d b8 8d bd d2 77 1c 3d 59 e8 88 bd 8a 4a 5f 3d
       -0.0691993 0.038200207 -0.06684942 0.054514445
0001a0 26 34 8d bd d6 5d 46 3d ff 71 98 3d 0b 24 81 bd
       -0.06894712 0.048429333 0.07443618 -0.06305703
0001b0 fe 26 91 3d 77 9d 29 be e2 2e c9 3d c4 9e 98 3d
       0.07087515 -0.16563974 0.09823395 0.07452157
0001c0 2d d8 f2 3d dd 8c 0a be 62 63 04 be 7d 20 cd bc
       0.118576385 -0.13530298 -0.12928537 -0.025039906
0001d0 80 3d 00 be be 98 f5 bd b9 b7 c1 bd 2a 5b 00 be
       -0.1252346 -0.11992024 -0.094588704 -0.12534776
0001e0 8b f4 35 3d c1 76 e2 3c b3 93 9b bd b4 d8 f2 bd
       0.044422667 0.027644517 -0.07596531 -0.11857739
0001f0 fd 77 fd 3d 03 20 82 be 92 7b 01 be 8e 98 a1 3d
       0.123764016 -0.25415048 -0.12644795 0.078904256
000200 fd 6d 9f bd ac df b4 bd 1b 63 2c bd a0 23 67 bd
       -0.077846505 -0.088317245 -0.0420867 -0.05643046
000210 02 3f 2e 3d ce 03 d5 bd cb 73 07 be 91 cc 21 3e
       0.042540558 -0.10401116 -0.13227765 0.15800692
000220 12 84 2c bd 46 6d 16 3e 74 fc 3e bd b3 36 a2 bd
       -0.04211814 0.14690122 -0.046627477 -0.07920589
000230 7f d7 ec bd 32 8b ad 3d d9 c4 c3 3c 81 33 02 3e
       -0.1156454 0.08473815 0.023897575 0.1271496
000240 f7 eb 0d be a1 90 a0 bd c8 ce 8c 3d 72 0e 97 3c
       -0.13859545 -0.07840086 0.06875378 0.018439505
000250 9a 4c 98 bd 61 ee 8b bd 37 f4 83 3d c4 21 80 3d
       -0.074364856 -0.068325765 0.06443065 0.0625644
000260 66 78 e0 3d 5d 97 db bd f0 8c c2 3d 49 b3 57 bd
       0.10960464 -0.1072223 0.09499538 -0.052661214
000270 b9 67 11 3d 07 07 fd bc 3f 47 f1 bd 30 72 d5 bd
       0.03549931 -0.03088714 -0.11781167 -0.1042217
000280 89 55 0c be eb 3d a3 3d 00 76 77 3d 2f 3f de 3c
       -0.13704504 0.07970794 0.060415268 0.027129738
000290 11 90 f2 bd 39 46 31 bd de 02 aa bd bd 5d 0d 3d
       -0.11843885 -0.04327986 -0.08301328 0.034513224
0002a0 b8 8b cd bc fc fc 79 bd fd df 1f be 37 b5 17 be
       -0.025091037 -0.06103228 -0.15612788 -0.14815222
0002b0 cd 1d 3c be 7d d2 cb bd 39 11 82 3c 72 bd 26 be
       -0.18370743 -0.09952257 0.015877353 -0.16283205
0002c0 89 0c b6 bb 79 bd 3b bd ee c1 b3 3d 91 24 35 3d
       -0.0055556935 -0.045834992 0.087772235 0.044224326
0002d0 70 73 73 3d 43 dd fc bc 8b 28 7e bd 9a 98 22 be
       0.05943626 -0.030867225 -0.062050384 -0.15878525
0002e0 8d 73 0f be db f3 83 3d 70 16 5d bd ff 40 88 3d
       -0.14008923 0.06442996 -0.053976476 0.06653022
0002f0 a9 9e c3 3d e6 34 62 be 64 f0 37 3d a2 1f c1 bd
       0.095517464 -0.22090492 0.04490699 -0.094298616
000300 41 75 fb 3d d4 fe d6 3d 5a 60 e2 3a d9 18 e4 bc
       0.12278224 0.10497823 0.0017271147 -0.02784388
000310 b5 7f 5c bc 22 03 01 ba 7e 1c ee bd c4 fe 01 be
       -0.013458182 -0.00049214263 -0.11626528 -0.12694842
000320 31 81 07 3b 3c 1a db 3d 50 3b 0b be 63 d5 ca 3d
       0.002067637 0.10698363 -0.13596845 0.099039815
000330 f1 6f 21 3e 11 00 30 bd e7 61 c2 bd a2 3e 09 3e
       0.15765359 -0.042968813 -0.0949133 0.13402799
000340 a4 9f 17 3e de 4b 3f bc f7 e2 88 3d 7d c9 51 3d
       0.14806992 -0.011675803 0.06683915 0.051217545
000350 e8 88 fc b7 54 04 b5 3d 3c 25 38 be 9e 61 d3 bd
       -3.0104493e-05 0.08838716 -0.17982954 -0.103213534
000360 d4 d7 00 be 0e 5f 3c bd 55 30 8c bd d5 6d fe 3c
       -0.12582332 -0.04598909 -0.06845156 0.031058231
000370 dc 26 0b 3e 05 68 7d bc 1b d8 77 3d 8d 8e 03 be
       0.13589042 -0.015466695 0.06050883 -0.12847348
000380 53 fa 67 be 9d 61 60 bd d7 37 7e 3c 7f e9 c9 bd
       -0.22654085 -0.05478059 0.015516243 -0.09858989
000390 52 b5 3b be 96 d3 7b 3c f6 c5 40 3d b7 90 81 3d
       -0.18330887 0.01537027 0.04706379 0.0632643
0003a0 06 c3 20 be 32 f3 bd 3b 45 35 ba bd b6 fc b0 3d
       -0.15699396 0.0057968134 -0.090921916 0.08641951
0003b0 ec c7 47 bd a5 0e d3 bc 57 98 d8 bc 17 73 1d 3d
       -0.048774645 -0.025763819 -0.026439829 0.038439836
0003c0 e8 bf 8d bd d6 e1 e1 3c 8e 44 0e bd b8 40 2d 3d
       -0.06921369 0.027573507 -0.034733348 0.04229805
0003d0 1a 6c 29 3d d9 02 1f be 5d 4b 93 bd 50 6a 7f bd
       0.04136286 -0.1552843 -0.07192109 -0.062357247
0003e0 2a 2a 96 3d 94 1f ee bd 0d fd 60 bd 5d 9c 86 bd
       0.07332261 -0.11627117 -0.054928828 -0.06572793
0003f0 cd 61 0a 3e 4e ed 02 be b2 75 fb 3d e2 f5 42 bc
       0.1351387 -0.12785837 0.12278308 -0.011899443

0.model_cnn.layer2.0.bias f4 [32]
000000 92 60 1d ba d8 6b dd 3a d8 68 29 bb a0 69 2c 3b
       -0.0006003465 0.0016893102 -0.0025849845 0.0026308075
000010 15 e7 2c bc 2c 09 cd b9 ce f1 77 3a ea 57 fa 3a
       -0.010553141 -0.0003910748 0.0009458334 0.0019099687
000020 ea 8e 82 3a 6c 7f c2 38 3f 93 9d 3c 63 45 8f bb
       0.0009960805 9.274375e-05 0.019235251 -0.004372285
000030 2f 5a 13 b7 a7 a5 eb ba 27 2e a8 3c d0 70 eb 37
       -8.78288e-06 -0.0017978445 0.02052982 2.8066715e-05
000040 40 e1 74 3a 17 b7 c8 3b 50 be 3d 3b ee 7d f8 b9
       0.0009341426 0.0061253416 0.0028952546 -0.0004739607
000050 c8 5c 11 bb 6b 0c 63 3b 76 08 10 ba 82 f6 93 ba
       -0.0022180546 0.0034644853 -0.0005494425 -0.0011288675
000060 0d bb 0b 3b 25 29 91 3b ab 64 e0 ba c0 93 86 36
       0.0021321208 0.0044299536 -0.0017119845 4.0107116e-06
000070 1d 10 54 3c a2 42 eb 3a 6e c0 56 3c 45 8c 05 3c
       0.012943295 0.0017948935 0.013107402 0.008151119

0.model_cnn.layer2.1.weight f4 [32]
000000 24 16 78 3f 03 3d 86 3f 4e 69 87 3f f1 f1 72 3f
       0.96908784 1.0487369 1.0579011 0.94900423
000010 b6 f4 83 3f d4 59 71 3f a3 1c 72 3f e5 ba 80 3f
       1.0309055 0.9427769 0.94574946 1.0057036
000020 44 b0 7c 3f df 5c 6e 3f 29 4c 77 3f ec 97 77 3f
       0.9870646 0.9311046 0.96600586 0.9671619
000030 30 5e 77 3f a9 c3 7d 3f 07 98 7a 3f 74 d1 84 3f
       0.96628094 0.9912668 0.97888225 1.037642
000040 f9 ed 79 3f 2e d4 7f 3f 9f 5c 92 3f d0 c6 83 3f
       0.9762874 0.99933136 1.1434516 1.0295048
000050 6e 6b 73 3f 16 6a 7e 3f 3f a4 7f 3f 8c 5b 6f 3f
       0.950858 0.99380624 0.99859995 0.93499064
000060 4f b1 82 3f 89 dc 81 3f 24 60 78 3f 6c 1a 7f 3f
       1.021036 1.0145427 0.970217 0.9964969
000070 ce 75 6a 3f 97 c2 7b 3f 85 5e 8a 3f 8c b3 7d 3f
       0.91586006 0.98343796 1.0810095 0.9910209

0.model_cnn.layer2.1.bias f4 [32]
000000 f7 74 35 be de 47 bb bd cc 1e 37 3d 23 5d 97 bc
       -0.177204 -0.09144567 0.044707105 -0.018477028
000010 ef 25 1c bd 95 70 47 bd 84 6b 61 bd 2e 4d c5 bd
       -0.038122114 -0.04869135 -0.055034176 -0.096338615
000020 0b 2f bc bc 43 e0 36 bd 63 8e 60 be 31 7c 33 be
       -0.02297165 -0.044647466 -0.21929316 -0.17527844
000030 57 5d 25 be d8 16 2c 3d 72 57 da bd 87 6c 2f bd
       -0.16148888 0.042013973 -0.1066121 -0.04282811
000040 76 bc bd bd 30 f4 a2 bc ac e3 26 3e 40 ed 5d be
       -0.09264462 -0.019891828 0.16297787 -0.21672535
000050 46 36 99 bd e9 9d 26 bd ea 20 cd bd ea a2 0c bd
       -0.07481055 -0.04067794 -0.100160435 -0.034335054
000060 ef 95 ab bd 06 20 72 bd 0c d8 57 be 9b 61 88 bd
       -0.08378207 -0.05911257 -0.21078509 -0.06659242
000070 46 39 41 bd 08 ee 54 bd ac 0e 2c 3d cc ea 0d bd
       -0.04717376 -0.051984817 0.04200618 -0.034647748

0.model_cnn.layer2.1.running_mean f4 [32]
000000 45 49 cc 3e 49 c9 5f bd ae cd e8 be af 58 2a bf
       0.3989965 -0.05463532 -0.4546942 -0.6654157
000010 6e 3b 86 be 4b 52 b6 be 78 78 4a be 8d f6 7b be
       -0.26217216 -0.3560966 -0.19772518 -0.2460577
000020 6e ac ba be 9c 31 c4 be 7a 9b 06 3f 38 3b 36 3e
       -0.36459678 -0.383191 0.5258099 0.17796028
000030 80 eb 25 3e d9 ec b7 be bc 03 1d bd a7 6d 3d bd
       0.16203117 -0.35922888 -0.03833364 -0.04624715
000040 f7 b5 2e 3e 67 a6 4c be 3b 63 27 bf 64 04 0d 3f
       0.17061602 -0.19985352 -0.6538579 0.55084825
000050 22 4f 8a be 89 17 2c be b3 97 68 3e 98 f7 25 bf
       -0.270135 -0.16805853 0.22714119 -0.64830923
000060 ff 94 31 be 79 9d 3a be 4c 24 98 3e 42 6e 6f be
       -0.17341994 -0.18224134 0.29715192 -0.23381904
000070 1a 20 2b 3e 1a 32 68 be 22 eb e9 bd cc 1e d3 be
       0.16711465 -0.22675362 -0.11421801 -0.41234434

0.model_cnn.layer2.1.running_var f4 [32]
000000 b9 d1 42 3e 96 5c 84 3e bb f8 42 3e fc 5d c7 3e
       0.19025315 0.25851887 0.19040196 0.38938892
000010 f3 78 4c 3e 2c 2e 8e 3e 6a 0d 27 3e f6 5b 27 3e
       0.19968013 0.277696 0.16313711 0.16343674
000020 29 7e 73 3e d9 ea 40 3e e1 79 71 3e f2 b5 34 3e
       0.23778595 0.18839587 0.2358165 0.17647532
000030 6f d3 ff 3d 3b 87 61 3e 1e 5c 61 3e ea b5 10 3e
       0.124915 0.22024243 0.22007796 0.14131895
000040 44 69 1d 3e c4 8e 18 3e ee 9c 86 3e ae 9f 96 3e
       0.15372187 0.14898211 0.26291603 0.294187
000050 66 19 52 3e 12 f5 90 3e f6 5e d9 3d 37 1b cf 3e
       0.20517501 0.28311974 0.106138155 0.4045045
000060 c8 10 28 3e 57 14 20 3e 8d a5 57 3e 4d 9d 1b 3e
       0.16412652 0.15632759 0.21059246 0.15196724
000070 0d 1a 8b 3e 66 83 54 3e ba f6 cd 3d 65 f1 71 3e
       0.27168313 0.2075325 0.10056825 0.23627241

0.model_cnn.layer3.0.weight f4 [64, 32, 3]
000000 64 a4 98 bd 9e ed ba bc 1e f7 f8 bc ca 14 f9 3b
       -0.0745323 -0.022818383 -0.030391272 0.007601355
000010 06 cb d7 bd 96 38 77 3d 69 38 0f 3c 1d 97 1f 3d
       -0.105367705 0.0603567 0.008741477 0.038962472
000020 db a0 04 3d a6 34 b5 bb 30 88 55 3b 64 20 9b bd
       0.032379966 -0.005529958 0.0032582395 -0.075745374
000030 a8 0d 91 3c 5c 96 6b bd 27 77 d5 3d 8a b2 92 bc
       0.017706707 -0.05751644 0.10423117 -0.0179074
000040 97 d0 e3 bd f7 20 c1 3b dd ad 82 3d 70 a0 b4 bd
       -0.1112377 0.0058938223 0.06380818 -0.088196635
000050 39 e7 ca bd 1f 92 0d 3d a5 d1 b6 bd f8 f8 a4 bd
       -0.099073835 0.03456318 -0.08926705 -0.080552995
000060 1f f8 89 3d f2 3d 04 3e b8 3e e9 3c 27 b8 c1 3d
       0.067367785 0.12914255 0.02847229 0.094589524
000070 e5 2a e9 bd aa 80 1b be 2a 2a ff bc ea dd 99 3c
       -0.113851346 -0.151858 -0.031148035 0.018782575
000080 36 e0 43 bd 87 ea ad bd 9b e2 11 3d 4d fb e7 3a
       -0.047821246 -0.08491998 0.0356165 0.0017698795
000090 77 6f 67 3d 0b 7e b0 3d e7 2b 28 bd 2c 6c bd bd
       0.056502786 0.08617791 -0.041057494 -0.09249148
0000a0 7b 8a dc bc af a7 89 bd f5 4b 8f bd 04 ab e4 bd
       -0.026921501 -0.06721436 -0.069969095 -0.11165431
0000b0 e2 31 55 bd e1 01 5a be b2 40 79 bc 1a 83 8f bc
       -0.052049525 -0.21289779 -0.0152131785 -0.017518569
0000c0 64 96 08 3d f4 e2 00 be 76 14 94 bc 6f 5a c1 bd
       0.03334655 -0.12586576 -0.018076163 -0.09441077
0000d0 19 af 3f bc 2e e7 c7 bd dd 15 82 3d c5 10 f8 3c
       -0.011699461 -0.09760891 0.06351826 0.030281434
0000e0 13 a5 5e bc 49 f2 00 bd a1 18 a5 3d b4 0c 15 3d
       -0.013589161 -0.03148106 0.08061338 0.036389068
0000f0 64 be 76 3c 2a 11 09 3d 74 a1 b5 bc 57 35 b3 bd
       0.015060041 0.033463635 -0.022171713 -0.08750408
000100 fc 5c 11 be 12 f0 93 bd c6 21 82 bd a6 1d 27 bd
       -0.14195627 -0.07223524 -0.06354098 -0.04079976
000110 30 b3 0c 3d 3c c9 0c bd b4 8e 27 3c e0 00 a9 bd
       0.034350574 -0.0343716 0.010226894 -0.0825212
000120 34 32 21 3e 53 e6 ed 3d 7e e4 9d 3b c4 0f c3 bd
       0.15741807 0.116161965 0.004818498 -0.095244914
000130 96 21 04 be 95 28 a2 3c 16 9a b3 bd fa 6c d9 3d
       -0.12903437 0.019794742 -0.08769624 0.10616489
000140 b4 df 36 ba 5e fa e9 bc c3 8e b1 bd 58 5b 0c bc
       -0.00069760834 -0.028561767 -0.08669808 -0.0085667
000150 bb d2 f9 3c 84 e8 cf bd 4e d3 a5 bb 86 5f 06 bd
       0.030495992 -0.10151771 -0.00506059 -0.032805942
000160 b5 8b 2d 3c be e5 d4 bd f9 4e f6 bd 67 5f 98 3d
       0.010592391 -0.10395382 -0.120267816 0.074400716
000170 8d 9a 7e 3d f2 ad 37 bd fb b3 2e bd e0 5b 23 be
       0.06215911 -0.04484362 -0.04265211 -0.15953016
000180 ba 99 b9 bc b9 12 06 bd 70 9e ac bd ed 35 49 3d
       -0.02265631 -0.0327327 -0.08428657 0.049123693
000190 c5 74 b1 3d f5 41 fa 3c ca fd dc bc 6a 34 89 3d
       0.0866485 0.030549029 -0.026976485 0.0669945
0001a0 23 5a 87 3c 50 53 a1 3d c7 5c 83 3d 24 8f 20 3d
       0.016522473 0.07877219 0.0641418 0.03919901
0001b0 a2 d0 c4 bd 1d c9 c2 bd e0 c3 05 be 32 da 6d 3d
       -0.09610106 -0.095110156 -0.13063002 0.058069415
0001c0 c2 10 7f 3d 6b 5c 50 bd 44 e1 fc bd 8f 25 81 3d
       0.06227184 -0.050869387 -0.123476535 0.06305992
0001d0 9d db f0 3d 6a c0 8e 3d 9a 36 f7 bc b8 ca 55 3d
       0.11760638 0.06970294 -0.030177403 0.05219528
0001e0 c5 4a 3e bc cb 9b 2a bd c6 b3 d8 bd 20 49 a5 3d
       -0.011614506 -0.041652482 -0.10581164 0.08070588
0001f0 5f 3a cf 3c 35 63 2b 3d a7 65 6c 3c c3 ee 18 3d
       0.025296388 0.041842658 0.014428533 0.037337076
000200 ad 3a b7 3b b2 39 71 3d 26 06 5d bd 0a e4 9a 3d
       0.0055917115 0.058892913 -0.05396094 0.07563026
000210 ba 95 f6 bd cb a2 fa 3b bf 77 26 3d 2a 11 c9 bd
       -0.12040277 0.007648801 0.040641543 -0.09817727
000220 88 81 8b bd e9 ea c9 bd 9a c2 04 3e f6 e5 88 3c
       -0.068118155 -0.09859259 0.1296486 0.016711216
000230 4d 45 cd 3d 1e fd 08 3d 51 32 9e bd bb 63 7a bd
       0.10022984 0.033444516 -0.07724441 -0.061130267
000240 73 6b d9 3d d4 69 b1 bd 40 78 b7 bc 87 b8 06 be
       0.106161974 -0.08662763 -0.022396207 -0.13156329
000250 c7 c4 bd 3d 62 29 34 3c 00 9a bf bd 74 97 fc bd
       0.09266048 0.010996195 -0.09355545 -0.12333575
000260 ea 11 84 bd 6b 14 c8 3d 50 b6 2c 3d 99 98 9c 3c
       -0.06448729 0.097695194 0.042166054 0.019115733
000270 37 de 45 bd 59 c1 e6 bc 4d b9 20 3d 7e 42 99 3d
       -0.048307624 -0.028168367 0.039239217 0.074833855
000280 e2 0a 89 3d b8 b7 d8 bc f8 f7 95 bc 9c 94 89 bd
       0.06691529 -0.026454791 -0.018306717 -0.06717798
000290 fc 4b 7f bd 05 1f c8 bc 8e 24 2b bd 0d ab 89 3d
       -0.062328324 -0.024428854 -0.04178291 0.067220785
0002a0 eb 7d f6 bc ae 58 b5 bd ca 6f bc 3d e1 d4 e1 3d
       -0.03008934 -0.08854805 0.092010096 0.110269316
0002b0 5a e1 99 3b 1a 6a 00 bd bc 4c ec 3d 10 39 7a 3d
       0.0046960535 -0.031351186 0.115380734 0.061089575
0002c0 a9 88 9d 3d 81 1a 69 3c ad bb 88 3d 6d a1 c6 bc
       0.076920815 0.01422751 0.06676421 -0.024246896
0002d0 24 4a 0c 3e 78 d3 38 3d 71 95 e3 3d 09 7b 58 bd
       0.13700157 0.045123547 0.11112488 -0.05285171
0002e0 01 4d cd 3d f6 c6 36 3d e6 5b ed bd 2b 56 d6 bd
       0.10024453 0.044623338 -0.11589794 -0.10465654
0002f0 29 9c f7 bd 5e 1f b6 bc af c6 bd bc da ca 5f bd
       -0.12090332 -0.022231754 -0.023166029 -0.054636814
000300 de d9 82 3d c5 2f b2 3d 89 04 c0 3b fb ac e1 bd
       0.06389211 0.087005176 0.0058599156 -0.110193215
000310 81 ca 55 bd 37 a0 d9 3c e2 fe 3a 3c a6 28 8f bd
       -0.052195076 0.026565654 0.011413308 -0.06990175
000320 7b 58 02 3d 44 00 15 bc e4 28 1d 3d 65 98 81 3d
       0.031822663 -0.009094302 0.038369074 0.06327895
000330 ce 3c b4 bd a1 09 33 3d 3a 42 47 bc 2c da 38 3d
       -0.0880066 0.043710355 -0.012161786 0.04512994
000340 35 36 b0 bb 02 d6 0b be e6 3a 65 bd f1 45 fe bd
       -0.0053775557 -0.13655856 -0.055964373 -0.12415684
000350 e7 b4 b5 3d b0 ff fd bb 8b 64 ac 3d 1f 5b c9 bb
       0.08872395 -0.0077514276 0.084176145 -0.0061448957
000360 7f 2d 72 bc 5a 16 9b bd e8 03 3b 3d f3 b8 0b 3e
       -0.014781355 -0.075726226 0.045658022 0.13644771
000370 ca ac c8 bd e4 c0 ba bd fd 29 93 ba 26 d7 1d 3c
       -0.09798582 -0.09118822 -0.0011227723 0.009633815
000380 22 f8 83 3d 04 3d 6c bd 75 ae 89 3d 67 88 80 3d
       0.06443812 -0.057675377 0.06722728 0.06276017
000390 e4 20 08 be e4 04 93 3d 3d 72 a8 3d a7 b6 7f 3c
       -0.13293797 0.07178667 0.08224914 0.015607513
0003a0 b0 b6 af bd 74 08 53 bd 62 61 38 3d 81 74 9a 3d
       -0.08579767 -0.051521733 0.045014746 0.075417526
0003b0 ee 7a ba bd 52 aa 88 bd e2 6a f5 bc 92 2c 8e bc
       -0.09105478 -0.06673111 -0.029958192 -0.017355237
0003c0 a6 6e da 3b 59 2b 25 3d 9e 2d 8c bd d7 ad 25 3d
       0.0066660224 0.040324543 -0.06844638 0.04044899
0003d0 82 bc b9 bb ab 52 ba bd b1 e7 8d 3d b0 50 53 ba
       -0.005668224 -0.09097799 0.06928957 -0.00080610346
0003e0 08 55 e3 3d e8 ed fb 3d 2c 70 4c 3c 16 06 19 3e
       0.11100203 0.123012364 0.012477916 0.14943728
0003f0 32 2f a8 3d e1 ff 63 bc 1c 87 cf 3d 1e d7 b2 3d
       0.08212127 -0.013915987 0.10133192 0.087324366

0.model_cnn.layer3.0.bias f4 [64]
000000 11 2b 1d 3a 59 78 0b 3a 2c 7c c1 3a e3 4c ee b9
       0.0005995492 0.00053203624 0.0014761738 -0.00045452183
000010 ec bf dd ba 0f 3c a6 b9 a8 9a 18 b9 7a a2 aa b9
       -0.0016918159 -0.00031706734 -0.00014553464 -0.0003254598
000020 69 df 5f b8 43 6c 4a 3b dd ea 58 ba 75 e3 ee 39
       -5.337541e-05 0.0030887283 -0.00082747434 0.00045564366
000030 59 d7 b8 39 ac 72 11 b8 5d 58 c3 39 a0 52 89 b9
       0.0003525566 -3.467749e-05 0.00037259134 -0.00026192237
000040 ae 6c a2 b9 56 37 bc b9 bb b2 dd 3a fb d3 31 b9
       -0.0003098002 -0.00035899383 0.0016914228 -0.00016959004
000050 a6 7e 67 3a 83 8b 00 b9 f1 27 eb 39 88 80 82 37
       0.0008830823 -0.00012259003 0.00044852452 1.555706e-05
000060 8a d2 52 ba f2 d8 99 ba 67 ed 30 3a 1c 18 36 3a
       -0.0008042237 -0.0011737628 0.0006749243 0.00069463416
000070 3a ac f5 b9 f2 b9 86 ba de 59 41 3b 3e 56 c0 37
       -0.0004685836 -0.0010278805 0.0029503028 2.2928343e-05
000080 23 be 3f 3a b0 ea 90 37 d0 a2 5c 3a c2 cf c9 3a
       0.00073144044 1.7275423e-05 0.0008416595 0.0015397
000090 62 88 87 39 1a 35 7c 3a 05 75 3f ba cb 90 1a 3a
       0.0002585082 0.000962095 -0.0007303509 0.00058962096
0000a0 2c c2 e0 b8 a8 09 a9 39 f2 8e 79 b8 07 a3 29 38
       -0.0001071732 0.00032241386 -5.9499354e-05 4.044457e-05
0000b0 4c 39 09 bb 51 a3 15 bb 3c 1f 0c bb ca 81 45 38
       -0.0020938693 -0.002283294 -0.0021380922 4.7089336e-05
0000c0 41 01 c6 38 b8 b6 a8 b7 58 da 03 ba e7 82 dc b9
       9.441609e-05 -2.0112246e-05 -0.0005029789 -0.000420592
0000d0 51 3d fa 39 9d 00 ff 39 5d 48 8d 3a e6 b3 0e b8
       0.000477294 0.00048637847 0.0010779012 -3.402298e-05
0000e0 22 72 26 39 09 a3 2b 3a 98 89 78 39 b4 82 cd b9
       0.00015873511 0.00065474265 0.0002370238 -0.00039198028
0000f0 a5 7e a9 3b f8 8c 51 3a d5 50 0a 3a 53 b6 c4 39
       0.005172568 0.0007993723 0.0005276327 0.00037519875

0.model_cnn.layer3.1.weight f4 [64]
000000 4a 66 88 3f e1 81 74 3f 5a f2 82 3f 66 3d 73 3f
       1.0656216 0.9551068 1.023021 0.9501556
000010 d4 86 72 3f 4c 06 81 3f 5d 01 71 3f 51 fc 72 3f
       0.9473698 1.0080047 0.94142705 0.94916254
000020 eb 8f 70 3f c7 7a 7b 3f 58 f9 6c 3f b7 b6 81 3f
       0.939696 0.9823422 0.9256797 1.0133885
000030 9e c9 82 3f a1 1d 84 3f ea 9d 84 3f 6c 5b 7c 3f
       1.0217779 1.0321542 1.0360692 0.98577
000040 ac c9 7a 3f fb 3b 81 3f 90 04 8e 3f 7e 93 57 3f
       0.97963977 1.009643 1.1095142 0.8420943
000050 c0 9a 70 3f 4a 1c 7e 3f 44 7a 7f 3f fc 83 78 3f
       0.9398613 0.99261916 0.9979594 0.9707639
000060 24 64 73 3f 71 88 79 3f 82 05 86 3f 3d 3d 86 3f
       0.9507468 0.9747382 1.0470431 1.0487438
000070 3c 84 80 3f ac 7c 7c 3f 61 5c 88 3f 2b 6b 73 3f
       1.0040355 0.98627734 1.0653192 0.950854
000080 5d 0f 85 3f a7 c8 7c 3f 91 8a 71 3f 27 c8 80 3f
       1.0395314 0.9874367 0.9435206 1.0061082
000090 dd 87 77 3f 50 6a 72 3f f7 99 75 3f e5 a0 82 3f
       0.96691686 0.9469347 0.95938057 1.0205351
0000a0 88 d2 85 3f cc e0 81 3f fc 48 76 3f 93 ad 75 3f
       1.0454874 1.0146728 0.96205115 0.9596798
0000b0 a7 4b 85 3f 6d ed 82 3f dd 10 85 3f f6 3e 7a 3f
       1.0413712 1.0228707 1.0395771 0.9775232
0000c0 85 d5 6e 3f 5b 6f 90 3f e3 49 71 3f e7 fe 6d 3f
       0.93294555 1.1283983 0.9425337 0.92967075
0000d0 40 55 6d 3f 7b 3a 72 3f db 6e 7f 3f 72 2b 82 3f
       0.92708206 0.94620484 0.9977853 1.0169508
0000e0 5f f9 80 3f 08 5d 83 3f c4 85 80 3f 7c 3f 88 3f
       1.0076102 1.0262766 1.0040822 1.0644374
0000f0 ab a5 83 3f 7c b4 71 3f 1a fb 84 3f 1e c5 80 3f
       1.0284933 0.9441602 1.038913 1.0060155

0.model_cnn.layer3.1.bias f4 [64]
000000 60 0c 3c bc 40 08 a6 bd 45 be 7f be 72 25 03 be
       -0.01147756 -0.08107042 -0.24974926 -0.12807253
000010 75 47 e6 bd ad 71 9c bc 35 10 32 be f8 35 4b be
       -0.11244098 -0.019097174 -0.17388995 -0.19844806
000020 a7 d5 21 bd c1 66 18 be c9 c8 05 be 20 45 3a 3d
       -0.039510395 -0.14882948 -0.13064875 0.04547608
000030 8a 4b 53 be 6b 50 15 be 79 aa 8a bc 04 d1 02 be
       -0.20634285 -0.14581458 -0.01692699 -0.12775046
000040 72 62 16 3d db 60 98 3c 7c d8 99 3d 30 46 53 be
       0.03671498 0.018600872 0.07511994 -0.20632243
000050 84 bf 36 be f0 18 d1 bd ae e1 46 be 07 ac d0 bd
       -0.17846495 -0.102098346 -0.19422027 -0.101890616
000060 96 cc a4 bd d0 9b 66 bd 9f 90 ac 3a 1e e6 8c bd
       -0.08046834 -0.056300938 0.0013165659 -0.06879829
000070 ed d4 4c be 37 e8 89 bc c6 4b 27 be f0 8c b5 bd
       -0.200031 -0.016834361 -0.16337499 -0.08864772
000080 cc 90 0c be 16 8f 0e be 1c 5c c0 bd 09 b9 d8 3c
       -0.1372711 -0.1392177 -0.093925685 0.02645542
000090 95 09 04 be 15 6e 54 be 88 19 52 be 2c 53 96 3d
       -0.1289428 -0.20745118 -0.20517552 0.073400825
0000a0 1a 8e 85 bc 8b 73 59 3d c9 2b bc bb 1a d7 02 be
       -0.01630311 0.053088706 -0.0057425243 -0.12777367
0000b0 cd 1f 39 bb 34 b9 fb bd 7d ba ea 3c 29 b0 5c be
       -0.0028247715 -0.12291184 0.028653378 -0.21551575
0000c0 d9 80 7f bd bf ab 51 be cd 05 f3 bd c1 3e 1c be
       -0.062378738 -0.20475672 -0.11866341 -0.15258314
0000d0 cd 7b 05 be 6a 84 1c be e0 9a d1 bd 7d b4 00 be
       -0.13035508 -0.15284887 -0.10234618 -0.12568851
0000e0 7c 79 2c be d3 30 3c be 38 d0 1d be 9a a7 2e 3d
       -0.16843218 -0.18378 -0.1541146 0.042640306
0000f0 b6 74 27 bd db 84 a5 3b 05 70 0c be c1 4f c1 bd
       -0.04088279 0.005051238 -0.13714607 -0.0943904

0.model_cnn.layer3.1.running_mean f4 [64]
000000 e3 d8 8d bf 1a 2f ce bd 1a c7 0d 3e f7 5e c0 3d
       -1.1081814 -0.10067578 0.13845482 0.09393113
000010 2c 2d 44 be 05 a2 41 bf 15 67 e3 3d 2c 90 61 3f
       -0.19157857 -0.7563785 0.11103646 0.88110614
000020 71 6c 7d bc 8d 4c f5 3e 3a 7e 97 3e a8 57 d8 bf
       -0.015467749 0.47909966 0.2958849 -1.690175
000030 f4 d9 a1 3d ec a8 06 3d 1e 7c eb 3c 64 f2 2f 3f
       0.079028994 0.03287594 0.028745707 0.68729234
000040 94 c8 64 bf 13 97 cd bf 85 d2 10 c0 87 87 ba bc
       -0.8936856 -1.6061729 -2.262849 -0.022769703
000050 2d 28 50 3f 8f 7c 46 be 6e a9 c5 3f b4 fa 4d 3e
       0.81311303 -0.19383453 1.5442331 0.20115167
000060 cd 6c 0c be 56 6e 0b bf 08 6d f6 be 59 a7 8a be
       -0.13713379 -0.54465234 -0.4813006 -0.270808
000070 de 0a ef 3e 9d a0 43 bf e0 1f 67 be 12 6b 0f bf
       0.46687979 -0.7641695 -0.22570753 -0.5602275
000080 86 83 db bd b0 b3 ba be 6f 96 f8 bd 57 25 7c bf
       -0.107184455 -0.36465216 -0.12138068 -0.98494476
000090 fe 9c 20 bf d8 51 a3 3e 94 e8 12 3f 09 2d c1 bf
       -0.6273955 0.3189838 0.57386136 -1.5091869
0000a0 8c 1c 9b bf 6c 8f 03 c0 c0 eb d2 be 4c cb fc 3e
       -1.2118087 -2.0556288 -0.41195488 0.49373853
0000b0 6c ff 04 bf 78 03 f2 3e 3d d3 d2 bf f0 ce dd 3e
       -0.5195224 0.4726827 -1.6470715 0.43321943
0000c0 d4 07 fb be 1a d1 90 3e 89 02 80 3e 1e 91 27 3f
       -0.4902941 0.28284532 0.25001934 0.65455806
0000d0 e5 da 9e 3d 0e ea 77 3f 84 4d 94 be 90 38 98 3e
       0.077565946 0.96841514 -0.2896539 0.29730654
0000e0 83 7e 45 3e fe ff 2c 3f 07 65 12 3e 08 0d 8d bf
       0.19286542 0.67578113 0.14296351 -1.1019602
0000f0 d5 e3 4e bf 28 62 cc be ed ee 6c 3f 13 21 12 bf
       -0.80816394 -0.39918637 0.9255207 -0.5708172

0.model_cnn.layer3.1.running_var f4 [64]
000000 0f 15 d6 3e ac 4b b5 3e 1c 84 7a 3e 01 b7 fd 3e
       0.4181294 0.35409296 0.24464458 0.49553683
000010 1e 6e 98 3e 4a 29 ab 3e 9a 0e 97 3e 2a f6 9d 3e
       0.29771513 0.3342994 0.29503328 0.3085187
000020 dc e3 66 3e a5 91 78 3e 27 c6 58 3e 37 e3 5e 3f
       0.22547859 0.24274309 0.21169339 0.8706545
000030 6d e9 6f 3e de 16 ed 3e 17 04 94 3e 2d 23 9f 3e
       0.23428889 0.4630651 0.2890937 0.31081524
000040 7c a4 14 3f 51 4b 71 3e 09 00 a0 3f 3b c6 62 3e
       0.58063483 0.23563887 1.2500011 0.22145931
000050 dd eb fe 3e 9a fa 7f 3e 26 e5 9e 3e ce 50 a4 3e
       0.49789324 0.2499794 0.310342 0.320929
000060 45 64 61 3e b8 f0 71 3e d2 8d 8e 3e 9a 5f a2 3e
       0.22010906 0.23626983 0.27842575 0.31713563
000070 ce df c5 3e 88 4a bf 3e 99 78 81 3e 5f 76 90 3e
       0.38647312 0.3736155 0.2528732 0.2821531
000080 d7 d2 92 3e fa 6f 45 3e c4 f9 a6 3e b3 ab e5 3e
       0.28676483 0.19280997 0.3261243 0.4485756
000090 f5 e4 8e 3e 5f 98 36 3e 32 7b 53 3e 7a 4a 56 3f
       0.27909055 0.17831562 0.20652464 0.8370739
0000a0 0d 41 b3 3e 30 e8 0f 3f e6 c4 c9 3e 01 73 8a 3e
       0.35010567 0.56213665 0.39408034 0.27040866
0000b0 68 ad 8b 3e 7f 0d 5a 3e 8b cd 00 3f ef a6 85 3e
       0.27280736 0.21294211 0.50313634 0.26103923
0000c0 43 e4 52 3e c1 d9 5d 3e 29 eb da 3e 17 4c 83 3e
       0.20594887 0.21665098 0.42757538 0.2564399
0000d0 c4 54 49 3e df 16 8a 3e 23 d8 8b 3e c0 d2 9e 3e
       0.19661242 0.26970574 0.27313337 0.31020164
0000e0 1e 17 92 3e fd d4 ba 3e 8c eb 84 3e b7 52 e6 3e
       0.28533262 0.36490622 0.25960958 0.4498498
0000f0 48 96 62 3e 65 30 d4 3e d9 4e 71 3e 01 ce 69 3e
       0.2212764 0.41443172 0.23565234 0.2283249

0.model_cnn.layer4.0.weight f4 [128, 64, 3]
000000 a5 e3 11 bd 5d 18 d8 bd 4a ea 32 3d 56 d1 ca 3b
       -0.03561749 -0.10551522 0.043680467 0.0061895056
000010 ef 3f 3d 3d 9d cd b0 bc f5 6b 0e 3d 7a 97 39 3c
       0.04620355 -0.021582419 0.034770925 0.011327619
000020 de 64 67 bd e9 22 26 bc fc 4a 7d 3c a2 10 c5 3d
       -0.05649268 -0.010140159 0.015459772 0.09622313
000030 df 11 07 bd 52 e3 8b bc 06 62 f4 3c 25 a7 9b bd
       -0.032976028 -0.017076168 0.029831897 -0.0760024
000040 8e e9 45 bd 5b 66 0e bd da 5d 70 bc 91 ed 0f ba
       -0.04831844 -0.034765583 -0.014670813 -0.0005490417
000050 8c ad 68 3d 97 57 85 bd 7e 27 88 3d 2d eb 92 bc
       0.056806132 -0.06510847 0.066481575 -0.017934406
000060 74 6d af 3c b5 ff 85 bc 47 4e 6b bd 1b 7e 56 bd
       0.021414496 -0.016357282 -0.057447698 -0.052366357
000070 76 a9 72 bd 54 56 d6 3c a1 c0 8f 3d 3f 92 0f 3d
       -0.05924364 0.026164211 0.07019163 0.03505158
000080 59 1e 76 3c 56 1c 4e bc 78 90 d0 bd 84 16 fd bc
       0.015021884 -0.012579998 -0.10183805 -0.030894525
000090 b9 e2 d4 3b ba 50 bf bc 87 b7 f0 3c d1 ba 7e 3d
       0.006496754 -0.023353923 0.029384388 0.06218988
0000a0 58 7a e7 bc 5a 05 2a bd 87 52 99 bc 3a f1 10 bb
       -0.02825658 -0.04150901 -0.01871611 -0.0022116438
0000b0 f5 06 86 bd ae 3f 67 3a dc 51 ca ba e2 82 70 3d
       -0.06544296 0.00088214397 -0.0015435773 0.05871857
0000c0 e7 bc c1 bd ec 9d a1 bd bf ef f1 bc 26 34 84 bd
       -0.094598584 -0.07891449 -0.029533265 -0.06455259
0000d0 b1 2d 76 3d 1a 3b 1b 3d 40 6a b7 bd 52 11 07 3c
       0.06010217 0.03789816 -0.089558125 0.008243876
0000e0 a9 5c c7 bb c5 e4 05 3d 5d d4 3b 3d bb 8a a7 3d
       -0.006084044 0.032688875 0.045856822 0.081807576
0000f0 48 1b 3d 3d ea 0c e5 3c 02 8e 6d 3d 67 cb 2f 3c
       0.046168596 0.02796026 0.057996757 0.010729647
000100 60 d2 b3 3b 17 f3 d3 bc 18 cd c8 3c f9 34 47 bd
       0.005487725 -0.02587275 0.024511859 -0.048634503
000110 22 ed 48 bc a6 2e bd 3d 22 85 59 3c 30 3b 41 3d
       -0.012263568 0.09237413 0.01327637 0.047175586
000120 3f 53 99 3d 1c 82 60 bd 36 0d e6 3d fa 41 85 bc
       0.07486581 -0.054811582 0.112329885 -0.016266812
000130 dd 4a aa 3d c0 91 a9 3b 13 46 1c 3d 56 67 32 3d
       0.0831506 0.0051748455 0.038152765 0.04355558
000140 1d 2d b2 3a 17 d5 7c bd 6e 59 9c bc a1 2e 86 3d
       0.0013593767 -0.061726656 -0.019085612 0.065518625
000150 9d 16 09 3c ea 50 a8 3d 6f 41 c8 3b cb cf 08 bd
       0.008367208 0.08218558 0.006111316 -0.03340129
000160 e5 29 05 3c 9c 5b c1 bc e6 8f e2 3a 92 9a 90 3d
       0.008127664 -0.023603253 0.0017285317 0.07060732
000170 8d fa 9e 3d 36 2a 80 bd 80 12 51 bb 61 bf 14 bd
       0.077626325 -0.06258051 -0.0031901896 -0.036315326
000180 a8 b2 13 bd 0e fa 83 3c 00 11 d2 bd 42 16 a6 3c
       -0.03605905 0.016110446 -0.10257149 0.020274285
000190 78 d0 31 3c 74 07 9a 3d 4a 06 1c bd 7a 0a b1 bc
       0.0108529255 0.07520953 -0.038091935 -0.02161144
0001a0 1d da 8f 3c 9f 48 75 bd bd 33 65 3c ed 8b be bd
       0.01756006 -0.05988371 0.013989386 -0.093040325
0001b0 f2 e5 02 3d 0f 08 ca 3a b7 04 1e 3d b6 0f 86 3c
       0.031957574 0.0015413779 0.038578715 0.016364913
0001c0 4d 05 29 bc c1 de 65 3d 3b 89 df bc 83 0a 56 3c
       -0.010316205 0.056120638 -0.027287116 0.01306403
0001d0 cc a2 ba 39 04 92 c4 bc 98 66 7d bc 2d 4e 92 bd
       0.00035597978 -0.023995407 -0.015466355 -0.07143817
0001e0 de 02 e1 bb ff c6 f9 3a 1d b6 3f 3d 58 b5 9b bd
       -0.006866797 0.0019056498 0.046804536 -0.07602948
0001f0 10 e9 6c bd 80 a7 b8 bc ac 9f 25 3d 17 6d 6e bd
       -0.057839453 -0.022540808 0.040435478 -0.058209505
000200 12 fe 9e 3d 3a f4 09 3d 79 8c 50 bd 4e e7 b3 39
       0.07763304 0.03368018 -0.050915215 0.00034313876
000210 c8 74 18 bd 46 bd 64 3d 47 90 84 bc 8b 2d 88 3d
       -0.037220746 0.055844568 -0.016182078 0.06649312
000220 e7 e2 e9 bc da 06 3e 3c ee 27 b3 3d de f6 8d bd
       -0.028550578 0.011598313 0.0874785 -0.06931852
000230 1c 56 f0 3d 21 23 0a 3a b4 5d 9c bb df 3b 7b 3d
       0.11735174 0.0005269517 -0.0047719125 0.061336394
000240 86 18 b8 bc 14 b5 8c 3d ea 3e 2d bd c6 3a 39 bd
       -0.022472631 0.068704754 -0.042296328 -0.045222066
000250 27 a9 3e 3d 0e 66 ef bb b6 a9 56 bd dd 36 42 bd
       0.046548035 -0.007305867 -0.052407943 -0.047415603
000260 db 82 58 bd f7 3a 1b 3b 3d 02 c0 bc 39 14 13 3c
       -0.05285917 0.0023686269 -0.023438567 0.008976989
000270 e1 16 33 3d 9f 90 84 bd 6e e4 01 3d 4c 13 8f bd
       0.04372299 -0.06472897 0.03171199 -0.069861025
000280 05 d5 4a bd 05 29 8f bd f4 33 3a 3c ba 3d 75 3c
       -0.049519558 -0.06990246 0.011364926 0.01496833
000290 80 e4 43 bd 11 a3 e7 3c a9 18 53 bd 84 52 95 bd
       -0.047825336 0.028275998 -0.05153719 -0.07291129
0002a0 b7 1b 1b bd a0 8d b3 bc cb d4 6e 3b c4 6c 90 3d
       -0.037868228 -0.021918118 0.0036442752 0.070519954
0002b0 ed 8b 3b bd 52 71 ed bd d4 df 40 bd 1a d5 b0 3c
       -0.04578774 -0.1159388 -0.04708846 0.02158599
0002c0 0f 24 9b 3d 5c fd 76 bb 88 0f 8e bd 4c 49 01 be
       0.07575237 -0.0037687635 -0.06936556 -0.12625617
0002d0 a3 9b e5 3d 9c 22 8a 3d 24 0f 25 3e ec 77 35 bc
       0.11211326 0.067448825 0.16119057 -0.011075955
0002e0 b5 bb 28 bc 66 1c d6 ba e8 62 f7 bd be 05 e7 bd
       -0.010298659 -0.0016335368 -0.12079412 -0.11280392
0002f0 f3 d6 d6 bd 33 69 91 bb 48 25 c5 bd 39 8f 4c bd
       -0.10490217 -0.0044375896 -0.096262515 -0.049941275
000300 d2 c1 e4 3c db 57 99 bd 53 1c cb 3c 24 9e 9a 3d
       0.027924452 -0.0748746 0.02479378 0.07549694
000310 72 f7 db 3c 3c 03 96 3d c5 a1 32 bd 5c 65 04 3d
       0.02685139 0.07324836 -0.043611307 0.032323226
000320 c2 4a ed 3c e1 97 e3 3c 7f 83 4d 3d e2 c3 34 bd
       0.028966311 0.027782382 0.050174233 -0.04413212
000330 16 1e 58 3d 6c 1d 58 bd af b4 8d 3b de 9e 05 3e
       0.052763067 -0.052762434 0.0043245177 0.13048884
000340 86 39 1e 3e 99 f7 29 3e 8f a7 bc bd 7d 41 ff 3c
       0.15451631 0.16598357 -0.09211647 0.031159157
000350 8f bd a5 bb 9b bb 49 bd 80 47 88 bd 44 9e a0 3c
       -0.0050579975 -0.04925118 -0.066542625 0.019606717
000360 13 0d 95 3b 0c 4e 5f bd 25 f6 bc 3d 55 e6 a8 39
       0.0045486777 -0.05451779 0.09226636 0.00032215068
000370 1e 41 47 bd be a8 b1 bd 5d d1 01 3d ae df 2c 3d
       -0.048646085 -0.08674763 0.031693805 0.042205505
000380 de b8 46 3d e1 10 b1 bd 41 96 db bd c7 fe 12 be
       0.048516147 -0.086457975 -0.10722018 -0.14355002
000390 9c 44 89 3c 32 73 e2 3b 0b 9a 90 3c fb 9b 47 3d
       0.016756348 0.006910705 0.017651578 0.04873274
0003a0 ed 37 3d 3d b8 1f 9b 3d 1a bc 2b bd 10 b4 52 bd
       0.046195913 0.07574409 -0.041927435 -0.051441252
0003b0 eb 41 85 bd 14 ea 05 bd 7a da 03 bd 69 24 96 bd
       -0.065067135 -0.032693937 -0.032190777 -0.073311634
0003c0 f5 4d c9 3d 9b 13 7c 3d 98 6a b3 3c 2e 2d db 3d
       0.09829322 0.061542135 0.021901414 0.10701977
0003d0 d2 0a 7c 3c b1 20 ec 3c b6 07 83 bd d9 c2 a6 bd
       0.015383439 0.028824182 -0.06397955 -0.08142633
0003e0 e0 f1 d6 bd 47 8c 1e 3d 12 5a 70 bd 77 2d 87 bd
       -0.10495353 0.038707998 -0.058679648 -0.066004686
0003f0 bc fb 46 bd 0e dc 70 bd 4e 79 f5 bc f1 9d 8b bc
       -0.048579916 -0.05880361 -0.02996507 -0.017043086

0.model_cnn.layer4.0.bias f4 [128]
000000 59 8a 3a b8 23 26 ce 39 95 b1 4b ba 5e ef 3a 38
       -4.4474702e-05 0.00039319796 -0.0007770297 4.4568784e-05
000010 7c e3 d5 36 37 02 ba 39 89 03 f7 b8 8c 99 8b b8
       6.3743773e-06 0.00035478335 -0.00011778536 -6.656637e-05
000020 71 89 6f 39 d3 f6 51 3a 48 d6 94 b8 5a 86 53 b9
       0.00022844017 0.0008009497 -7.097103e-05 -0.00020172578
000030 2e 23 d3 39 cc 2d ee b8 a1 2b 94 b9 bb 84 6f b8
       0.00040271267 -0.00011357255 -0.00028261266 -5.7105655e-05
000040 08 d9 19 39 c8 c2 a3 b5 32 81 d0 b8 0d 04 39 b7
       0.00014672067 -1.2201135e-06 -9.9422774e-05 -1.1027802e-05
000050 bc ec 86 37 51 32 a3 39 2a 64 3c b9 e9 61 bb b9
       1.6084283e-05 0.0003112727 -0.00017966391 -0.00035740368
000060 e3 23 62 39 f1 d5 70 39 76 41 fd b6 e7 a4 aa b8
       0.00021566408 0.00022967883 -7.547608e-06 -8.136947e-05
000070 43 85 29 39 be 3b ea 37 c8 01 c5 37 c6 cb 79 b9
       0.0001616674 2.7922793e-05 2.348506e-05 -0.00023822402
000080 3b 19 2f b9 27 00 49 39 76 b0 30 39 64 ad e1 38
       -0.000166987 0.0001916891 0.00016850405 0.000107611326
000090 c6 a0 24 3a 42 bc 0a 3a f8 35 b5 b7 a1 b8 89 39
       0.00062800606 0.0005292335 -2.1602013e-05 0.00026268236
0000a0 a3 8d f0 b9 20 d0 3a b9 8e 0f 01 39 ec 78 e6 39
       -0.00045881895 -0.00017815875 0.00012308193 0.00043959112
0000b0 7f 00 7d b9 c3 8a ac 38 93 3b 60 38 72 5e 08 ba
       -0.00024128145 8.2274455e-05 5.3461245e-05 -0.0005202062
0000c0 6e b0 df 38 b1 b2 e6 39 54 94 16 39 36 03 84 39
       0.00010666331 0.00044002154 0.00014360371 0.00025179394
0000d0 88 30 00 b9 8b 2d 39 39 80 b9 22 36 39 94 05 b9
       -0.0001222511 0.00017659941 2.4247856e-06 -0.00012739086
0000e0 d8 12 5d 35 25 7a fa 38 52 a6 0d 3a 6d 24 52 39
       8.2356337e-07 0.0001194368 0.0005403507 0.0002004073
0000f0 49 f4 ee b9 28 1b 00 3a fb e3 c1 b9 be 0a b8 b7
       -0.00045576904 0.0004886859 -0.00036981687 -2.1939511e-05
000100 50 ad b6 37 6c 44 25 38 3c 7e b7 39 66 2d 3f b7
       2.1776796e-05 3.940279e-05 0.00034998532 -1.1395057e-05
000110 36 df 60 b9 81 52 65 39 bc fb 06 ba 69 20 16 ba
       -0.00021445457 0.00021869877 -0.00051492057 -0.00057268754
000120 ba 3c e1 38 c2 fc f0 38 29 29 f6 39 9b 9d 8d b9
       0.00010740147 0.000114911716 0.00046951443 -0.0002701104
000130 c2 25 de 37 62 7b 3e 3a 99 d0 6e 39 b0 02 06 3a
       2.6482045e-05 0.000726631 0.00022775157 0.0005112095
000140 14 b2 66 b7 a7 3c 82 b8 bf e0 e7 38 cc 7a fb 37
       -1.375053e-05 -6.2101804e-05 0.000110568006 2.9978713e-05
000150 cd 92 b4 37 2b 98 93 38 c9 7a 83 39 a3 70 85 38
       2.1526032e-05 7.03785e-05 0.0002507775 6.3629144e-05
000160 88 70 c5 b7 d7 1a 27 ba be 5b fd 38 2d 9e 76 b9
       -2.3536631e-05 -0.0006374544 0.000120810684 -0.00023519313
000170 ff 3d 55 ba 7e 36 c9 b8 52 6d b7 b7 40 ea f6 38
       -0.00081345433 -9.594577e-05 -2.1866206e-05 0.000117738266
000180 16 0a 82 b9 80 0b ca b4 85 7a 54 39 36 13 65 37
       -0.00024803047 -3.76338e-07 0.00020263538 1.3653937e-05
000190 a4 99 c1 b9 46 bd ea b9 5d 5a 20 ba 87 ae 29 b9
       -0.000369263 -0.00044772978 -0.0006116981 -0.00016182112
0001a0 ba 65 ba b9 38 50 67 b8 cc 9d 8d b9 e4 75 81 b9
       -0.00035552477 -5.51494e-05 -0.00027011184 -0.00024692633
0001b0 c3 9a b7 b8 01 55 89 38 8a 95 c2 b9 b4 30 3f b9
       -8.7549466e-05 6.548502e-05 -0.0003711398 -0.00018233323
0001c0 78 d0 c7 b7 6b af 01 b8 32 da 7a b9 db 68 48 3a
       -2.3819724e-05 -3.0919367e-05 -0.00023923142 0.0007645019
0001d0 04 f3 af b8 da e7 95 b9 cc de 04 39 19 9e 9d b8
       -8.3899155e-05 -0.00028592238 0.000126715 -7.5157914e-05
0001e0 aa d8 28 39 e8 0a cb 38 d8 17 1b 38 ca f0 3e 38
       0.00016102442 9.681826e-05 3.6977086e-05 4.5523782e-05
0001f0 57 93 3a 39 b4 7c 16 3a d7 fd 80 b8 d3 df 5d 38
       0.0001779323 0.0005740628 -6.150797e-05 5.289896e-05

0.model_cnn.layer4.1.weight f4 [128]
000000 d4 90 7b 3f 7c 3d 83 3f d1 0e 83 3f 51 c3 71 3f
       0.98267865 1.0253139 1.0238897 0.94438654
000010 14 dd 63 3f 7f 5c 8a 3f dd 59 83 3f 92 ff 76 3f
       0.89009213 1.0809478 1.0261799 0.9648372
000020 92 2f 82 3f 01 35 8e 3f a3 4e 7c 3f b2 1f 82 3f
       1.0170767 1.1109926 0.9855749 1.0165923
000030 97 1d 81 3f d7 88 83 3f ee bd 7b 3f 19 87 71 3f
       1.0087155 1.0276135 0.98336685 0.9434677
000040 aa 36 87 3f 3d b5 71 3f 74 38 72 3f 90 0a 7c 3f
       1.0563557 0.9441717 0.9461739 0.9845362
000050 ac 82 7d 3f 0b c7 85 3f f1 f8 7c 3f 15 3c 81 3f
       0.99027514 1.0451368 0.98817354 1.009646
000060 96 6e 79 3f 46 6a 81 3f eb 43 81 3f ca 38 82 3f
       0.97434366 1.0110557 1.0098852 1.0173581
000070 7f ec 7a 3f c5 57 73 3f 60 fc 85 3f c1 3a 86 3f
       0.98017114 0.950558 1.0467644 1.048668
000080 0c a0 85 3f 06 5b 80 3f ae 15 76 3f b8 68 74 3f
       1.0439467 1.0027778 0.9612683 0.9547229
000090 9b b9 7d 3f 6a 02 88 3f b6 a4 7c 3f bd 4b 7b 3f
       0.99111336 1.0625737 0.9868883 0.9816244
0000a0 e1 43 80 3f 28 65 8b 3f e2 aa 88 3f 42 a4 77 3f
       1.0020715 1.0890245 1.0677149 0.9673501
0000b0 2a e0 87 3f 20 e8 6d 3f 8c 2b 6a 3f 5d cd 7f 3f
       1.0615284 0.9293232 0.914727 0.99922734
0000c0 91 f3 74 3f 17 42 80 3f fb 44 69 3f 5c 39 7a 3f
       0.9568415 1.0020169 0.9112088 0.97743773
0000d0 9e 01 84 3f ce e5 73 3f fb c6 84 3f 1a 7a 82 3f
       1.0312994 0.9527253 1.0373224 1.0193512
0000e0 f2 82 7f 3f cc aa 7c 3f 1a 8c 83 3f 14 58 78 3f
       0.9980918 0.98698115 1.0277131 0.97009397
0000f0 c9 d4 82 3f 54 0d 86 3f 8d 63 83 3f c2 4a 79 3f
       1.0221187 1.0472817 1.0264755 0.97379696
000100 32 2e 7e 3f 4d 55 78 3f 7b da 81 3f 22 46 6e 3f
       0.9928924 0.9700516 1.01448 0.93075764
000110 6c 02 84 3f 0d 9d 81 3f b1 4b 80 3f 24 c0 84 3f
       1.0313239 1.0126053 1.0023099 1.0371137
000120 46 5f 73 3f db 93 7e 3f 7d 7a 78 3f 6e a6 76 3f
       0.9506725 0.9944436 0.970619 0.963477
000130 8d 93 6d 3f b3 72 83 3f 91 52 81 3f 8e 4a 86 3f
       0.9280327 1.0269378 1.0103322 1.0491502
000140 39 3a 79 3f 96 15 78 3f 8d 98 7b 3f d9 7d 71 3f
       0.97354466 0.9690794 0.9827965 0.94332653
000150 f4 b6 8a 3f 88 01 81 3f 61 9b 81 3f 67 7e 84 3f
       1.0837083 1.0078592 1.0125543 1.0351075
000160 74 b4 87 3f 88 af 89 3f fa 40 82 3f 59 94 7f 3f
       1.0601945 1.0756693 1.0176079 0.99835736
000170 ef 27 84 3f 5e 1b 81 3f ed ea 86 3f 4e ec 77 3f
       1.0324687 1.0086477 1.0540444 0.9684495
000180 c1 2f 89 3f b5 0c 7b 3f d6 94 7c 3f d2 64 82 3f
       1.0717698 0.98066264 0.98664606 1.0187018
000190 30 0d 6f 3f 9f 9e 7b 3f 34 1e 86 3f cb c6 7f 3f
       0.933795 0.9828891 1.0477967 0.9991271
0001a0 6b 2d 7a 3f 14 5e 87 3f c4 63 83 3f ef 6a 7f 3f
       0.9772555 1.0575585 1.0264821 0.9977254
0001b0 84 26 8a 3f 70 d3 6f 3f ac f4 75 3f 69 09 76 3f
       1.0793004 0.93682003 0.96076465 0.9610811
0001c0 22 e5 81 3f 9a 7a 7c 3f a2 dd 7d 3f c9 ec 82 3f
       1.0148051 0.98624575 0.9916631 1.0228511
0001d0 e7 52 84 3f 19 5f 83 3f ae ce 87 3f 06 30 83 3f
       1.03378 1.0263397 1.0609949 1.024903
0001e0 2f d1 80 3f e6 ac 7f 3f 1b f4 79 3f 7c 82 81 3f
       1.0063838 0.998732 0.976381 1.0117946
0001f0 8f 1c 81 3f 41 0b 8b 3f 86 2d 81 3f 5e 41 65 3f
       1.008684 1.086281 1.0092018 0.8955287
