checkpoint/DA/s_0_1_t3/cnn_features_1d_0925-180509/53-0.9644-best_model.pth (torch, 944127 bytes, 30 tensors)

0.model_cnn.layer1.0.weight f4 [16, 1, 15]
000000 e2 e8 44 3e be 37 1f 3e 8c 4a fb 3c 34 8b 7b be
       0.19229463 0.15548608 0.030675195 -0.2456482
000010 b9 dc ca bc a1 82 38 bc e4 1f 70 be 56 ac 05 be
       -0.024763452 -0.011261613 -0.23449665 -0.13054022
000020 91 df 12 3d 7a 4e c3 bd ec 12 3c 3d dc 51 56 3e
       0.03585774 -0.095364526 0.045916483 0.20929664
000030 c8 d3 5d bd b7 48 80 be fd 65 c0 3d 47 bc 1e 3e
       -0.05415705 -0.25055477 0.09394453 0.1550151
000040 93 7b 3f 3e 49 28 21 be 68 f9 37 3c a0 c3 02 be
       0.18699484 -0.15738024 0.011228897 -0.12769938
000050 d5 68 82 be 5c 17 de 3d af 76 5f 3e fc 14 84 be
       -0.25470605 0.10844299 0.21822618 -0.2579726
000060 6d 17 85 3d 0b 89 a2 be 18 d1 2b be b2 67 fa bc
       0.06498609 -0.3174518 -0.16778982 -0.030567024
000070 6d e3 83 be 6b c8 b7 3d d5 86 a4 3e 1c 58 28 3e
       -0.2575945 0.089737736 0.3213412 0.16439861
000080 52 6c 0b 3e 82 f5 22 3e 88 3e 84 bd 05 6c 79 bb
       0.1361554 0.15913966 -0.064572394 -0.003805877
000090 35 fa dd 3d 20 76 5e bd f5 80 8f bd 01 01 7a be
       0.10838739 -0.05431187 -0.070070185 -0.24414445
0000a0 e5 84 3a 3e 33 21 82 be 6a 79 2b 3e e2 aa 91 3d
       0.18214758 -0.25415954 0.16745535 0.071126714
0000b0 80 bd 5d be 05 e2 80 be 74 e4 35 be c2 fd 31 bd
       -0.2165432 -0.2517244 -0.17762929 -0.043454893
0000c0 d7 94 17 be 6d c2 6b be d6 64 b9 ba 70 66 37 3e
       -0.14802872 -0.23023386 -0.0014144431 0.1791017
0000d0 64 a3 75 be 14 1f b5 bd 96 47 0f bd 7c 20 0a be
       -0.2398811 -0.08843818 -0.03498038 -0.13488954
0000e0 29 cc 9c 3d c0 ca 8c bd 34 d0 ed bd 64 30 8f 3e
       0.07656128 -0.06874609 -0.11611977 0.27966607
0000f0 37 31 64 bd af 77 da 3d ff ed 97 3e 26 80 28 be
       -0.055710997 0.10667359 0.29673764 -0.16455135
000100 bb 0a 96 bd 68 18 9d 3d 63 d5 49 3e 63 38 91 3e
       -0.073262654 0.07670671 0.19710307 0.28363332
000110 2f bc 40 be 77 5c 3a bd 35 d0 03 3e 43 9c 88 bd
       -0.18821786 -0.045498338 0.12872393 -0.066704296
000120 06 b4 01 3e b7 69 8d bd 23 88 39 bc d3 dc 7a 3e
       0.1266633 -0.06904929 -0.011323961 0.244983
000130 6d c6 0f 3e 58 fe de bc 9b 90 72 3e f4 24 1f 3e
       0.14040537 -0.02722089 0.23687975 0.1554144
000140 60 66 62 3e 42 55 e5 39 d4 85 54 3e 52 22 cd bc
       0.22109365 0.00043741806 0.20754176 -0.02504078
000150 d9 38 11 be 69 92 c0 bd 07 75 44 be 0b 58 53 3e
       -0.14181842 -0.094029255 -0.19185267 0.20639054
000160 e6 85 30 be c9 f1 98 be d8 cc db bd ff 92 3b be
       -0.17238578 -0.29871967 -0.1073243 -0.18317793
000170 e3 d5 a2 3b 9b 3f 42 3e a5 12 cb 3d 46 83 2e 3d
       0.004969345 0.18969576 0.099156655 0.04260566
000180 e6 36 6e 3e e8 86 23 be af 4a 15 3e 72 cf 68 be
       0.2326313 -0.15969431 0.14579271 -0.22735384
000190 f5 e7 40 be 61 8a 21 be 52 e9 9c be 59 b1 15 3e
       -0.18838485 -0.15775444 -0.3064676 0.14618434
0001a0 49 39 42 bc 5c 4c ff bd fe eb 0e 3e 4b 53 7d be
       -0.011854478 -0.12465736 0.13957211 -0.24738805
0001b0 e5 ef d0 3b 80 24 6c be 79 d5 2a 3d ea 4a fc 3c
       0.006376254 -0.23060799 0.04170749 0.03079744
0001c0 e0 d1 02 3e 59 d2 a1 bd ec 89 d1 3c 9e d0 67 3e
       0.12775373 -0.07901449 0.025578462 0.22638175
0001d0 e4 ed 84 be 90 21 bc 3c 85 8a a1 3d 20 55 e9 bd
       -0.25962746 0.022965223 0.07887749 -0.113931894
0001e0 30 48 41 be 6a d2 25 be 35 de 06 3d 1a 71 31 be
       -0.18875194 -0.16193548 0.032926757 -0.17328301
0001f0 05 ee 44 3e c8 17 47 bc 3c 8a 1f be 68 cc 22 bd
       0.19231422 -0.012151666 -0.15580076 -0.03974572
000200 c1 e3 31 be f2 20 3a 3e 87 6b 35 3e 69 74 da bc
       -0.17372037 0.1817663 0.177168 -0.026666837
000210 4f bf f5 bd 1a 54 01 be 67 de 60 be 69 ae 0b 3d
       -0.1199938 -0.12629738 -0.2195984 0.034101877
000220 79 2b f4 3d 10 ae eb bd f3 ed 9f bc d9 52 36 be
       0.11922354 -0.11507809 -0.019522643 -0.17805041
000230 e5 1e c5 bd c2 b8 54 3e 83 a2 4d bd a5 31 14 3e
       -0.09625033 0.20773605 -0.05020381 0.14472063
000240 c6 72 02 be b4 42 92 bd af d4 f0 3d d6 90 69 be
       -0.12739095 -0.07141629 0.11759316 -0.22809157
000250 8a ce ed 3d 4d d7 83 be b2 f0 27 be 34 ef 5e 3e
       0.1161166 -0.257502 -0.16400412 0.21770936
000260 22 f6 f5 bd 7e 89 2c 3e 66 9a be 3d ba 18 d2 3d
       -0.12009837 0.16849324 0.09306793 0.102586225
000270 15 f4 d4 bd 00 fe 6d 3e 72 d6 9e 3d 89 1d 6a 3d
       -0.103981175 0.23241425 0.07755746 0.057157073
000280 30 cc 8c 3e 7b 2f 6a bd 07 a5 09 bc 06 9f 80 3e
       0.27499533 -0.057174187 -0.008401162 0.25121325
000290 a7 42 5a be e1 24 3c 3d b3 59 6a 3e e5 77 86 be
       -0.21314488 0.045933608 0.2288578 -0.26263347
0002a0 18 88 02 be d1 19 3e bd 52 cf ce bc 76 26 ed bd
       -0.12747228 -0.04641134 -0.025245342 -0.115796015
0002b0 ab c0 15 be c9 f0 81 be 2e 3b 07 3d 9b 25 87 3e
       -0.14624278 -0.25379017 0.033015423 0.26395878
0002c0 3a 6c ad bd 4e 3e d5 3d 77 53 82 3d c1 59 06 bc
       -0.08467908 0.10412274 0.06363576 -0.00820011
0002d0 22 0f 40 bd 0c 03 00 be a7 9a 49 3e 98 50 72 3e
       -0.04688943 -0.12501162 0.19687901 0.23663557
0002e0 f6 90 ee bd 62 a4 33 bb 03 4d 65 be f8 37 38 be
       -0.11648743 -0.0027411212 -0.22392659 -0.179901
0002f0 43 1a ed 3d 9b b1 42 3e 94 b7 20 3e da 0d e3 3d
       0.11577275 0.19013064 0.1569503 0.11086626
000300 a8 87 fb bd b4 c7 a2 be 35 95 32 bd 9a 36 1f bd
       -0.12281734 -0.31792986 -0.043599326 -0.03887043
000310 2a 44 83 3d 1c 95 83 3d 9e 4b cd 3c 0c 7c 3e 3e
       0.06409486 0.06424925 0.025060471 0.18602008
000320 f5 96 2b 3e 0f 11 7f be 46 ec 82 3e 3f 90 26 3c
       0.16756804 -0.24908851 0.25570887 0.010166227
000330 d0 0d 74 3e 55 13 51 3d a2 26 1e be 1d 76 3d be
       0.23833394 0.051043827 -0.15444425 -0.18502088
000340 15 63 e8 bd 05 c9 cb 3c 8c c7 37 be f2 c2 c5 3d
       -0.113470234 0.024876127 -0.17947215 0.096563235
000350 d6 09 2e bd 51 0b 8e 3d a4 7b 5e 3d 6f 68 d3 3c
       -0.04248985 0.06935752 0.05431713 0.025806634
000360 df d1 a5 bd f3 d4 bc bc 1a 67 5f 3d 34 b3 18 be
       -0.0809667 -0.02305076 0.054541685 -0.1491211
000370 87 a2 70 be 2e 63 dc 3d b7 b0 f6 bd fe 52 99 be
       -0.234995 0.107611045 -0.120454244 -0.2994613
000380 61 de 14 3e dc bb ef bd aa 52 16 3e 28 dd 34 bd
       0.14537956 -0.11705753 0.14679971 -0.044156224
000390 b4 ae 0a be 36 68 73 3e 2f d0 08 bd c2 96 d4 3c
       -0.13543206 0.23770222 -0.033401664 0.025950793
0003a0 21 28 1f 3e 65 cb 1a be 3f ab 9c 3d a9 8b f0 3d
       0.15542652 -0.15116651 0.0764985 0.11745388
0003b0 70 51 c3 bc 11 37 7c 3e 58 17 0e be 7f 0d 05 3e
       -0.023842543 0.24630381 -0.13876092 0.1299343

0.model_cnn.layer1.0.bias f4 [16]
000000 d8 67 84 b9 4d 5b 4e 3b a4 33 9d ba 25 3a 87 ba
       -0.00025254372 0.0031487525 -0.001199354 -0.0010317011
000010 04 ba 55 bc 2d d2 ea ba 73 0b 4f bb 87 49 c1 b9
       -0.013044838 -0.001791542 -0.0031592518 -0.0003686661
000020 fa 3b be 38 16 bb b1 bb 04 dc d9 b9 c4 ed 4a b9
       9.0710775e-05 -0.0054239137 -0.0004155339 -0.00019352796
000030 b4 0d 1a 3b 7b 1e 8c 3b ce 04 90 b9 41 7d 60 bb
       0.0023506703 0.0042760945 -0.000274694 -0.0034254345

0.model_cnn.layer1.1.weight f4 [16]
000000 3e 99 6c 3f ad 9e 7a 3f c2 56 82 3f 14 a2 75 3f
       0.9242133 0.9789837 1.0182726 0.95950437
000010 54 56 78 3f 52 c1 7d 3f 5f 4a 83 3f 93 93 74 3f
       0.97006726 0.9912311 1.0257071 0.9553768
000020 e4 4f 84 3f df 3e 8c 3f fe b2 89 3f 89 14 6d 3f
       1.0336881 1.0956687 1.0757749 0.9260946
000030 ae b5 83 3f 47 3b 82 3f ab 8b 70 3f 99 d0 82 3f
       1.0289819 1.017434 0.93963116 1.0219909

0.model_cnn.layer1.1.bias f4 [16]
000000 39 98 45 bc 88 13 8d 3b 37 ab 89 3d 50 6c 1b bd
       -0.0120602185 0.004305307 0.0672211 -0.03794509
000010 d6 4e b8 3c b2 4e c1 bd 65 8f 09 3c 77 65 97 3c
       0.02249853 -0.09438838 0.008396004 0.018481
000020 f4 db 8f bd fc 80 07 3e 6e 31 4e 3d ad 86 d2 bd
       -0.070243746 0.13232797 0.05034011 -0.102795936
000030 ec b5 b2 3d 88 ef 8f bb 3d 33 83 bd f6 30 3e bd
       0.08726105 -0.004392568 -0.06406257 -0.04643341

0.model_cnn.layer1.1.running_mean f4 [16]
000000 04 02 b9 b8 90 bd 83 3b 03 bd 77 ba 8c d3 01 ba
       -8.821863e-05 0.0040204003 -0.0009450467 -0.00049524824
000010 ea c4 b0 bb f7 bd 23 bb 7e 12 a9 bb f4 f2 fc 38
       -0.0053945677 -0.0024985054 -0.005159675 0.0001206155
000020 52 11 e0 ba 0a f2 ba bb ab da 94 b9 16 2d 9f 39
       -0.0017095006 -0.005705123 -0.0002839168 0.00030360435
000030 75 33 45 3b 3a b5 74 3b 1d e5 af 39 e9 08 cd bb
       0.0030090485 0.0037339465 0.00033549304 -0.0062571657

0.model_cnn.layer1.1.running_var f4 [16]
000000 25 33 06 3f 91 95 8c 3e 92 23 99 3e 06 6a e0 3e
       0.5242179 0.2745786 0.2990995 0.4383089
000010 a6 e8 b3 3e fa e7 ff 3e 92 e4 b3 3e db f1 61 3e
       0.35138434 0.49981672 0.35135323 0.22064917
000020 4d 24 44 3e 29 d9 c3 3d 32 13 3d 3e ac 69 9e 3e
       0.19154473 0.095629044 0.18464354 0.30939996
000030 4f 36 59 3e 36 3a 41 3e 97 56 cb 3e 2b 53 d2 3d
       0.21212123 0.18869862 0.397145 0.10269769

0.model_cnn.layer2.0.weight f4 [32, 16, 3]
000000 c4 a5 c1 3d 11 49 fd bd 0a 9f f3 bd a4 4f 78 bc
       0.094554454 -0.12367452 -0.11895569 -0.015155707
000010 91 8e 89 bd c5 b8 5e bd 6d 3d 80 3d 5c b4 5d bd
       -0.067166455 -0.05437543 0.06261716 -0.054127082
000020 74 65 a0 3d ad 3d 9d 3d a8 b7 a2 3c 61 08 c8 3d
       0.07831851 0.07677779 0.019862965 0.09767223
000030 ec 1c fc 3d 57 7c 63 bd a0 ec 53 3d 0c ca b2 3d
       0.12310204 -0.0555385 0.051739335 0.08729944
000040 c8 81 d2 3d 73 64 47 bd 87 a3 98 bb 7c 5d 1d 3e
       0.1027866 -0.04867978 -0.004658166 0.15367693
000050 85 47 0e 3c 04 78 6c bc bd a1 c9 3c 64 d0 ec bd
       0.008684044 -0.014432911 0.024613256 -0.11563185
000060 4f cb 89 3d 36 0c 0a 3e bc 20 a7 bb dd 52 de 3d
       0.06728231 0.1348122 -0.005100338 0.10855649
000070 07 2b ae 3d ea a7 86 bd b2 1a 49 3e 91 3b 46 3e
       0.085043006 -0.06574996 0.1963909 0.1935866
000080 71 e8 a9 3d 85 c4 a4 bb ae 88 c9 bd 32 5e 97 bb
       0.08296288 -0.0050283098 -0.09840523 -0.0046193833
000090 f6 d5 31 3d 8a a4 82 bd 46 e9 8c bd 93 52 a1 3c
       0.04341694 -0.063790396 -0.06880431 0.019692695
0000a0 2e b9 c6 3d a9 a9 51 3d 8c 0e 85 3d db fd b2 3c
       0.09703289 0.05118719 0.06496915 0.021849563
0000b0 af 8f bf bd 49 a0 12 be c4 2f 01 3e c9 e4 f1 3c
       -0.09353577 -0.14318956 0.12615877 0.029528039
0000c0 9d 8f 8e 3d b3 18 b0 bc 7e 2b 45 3d 9d fb 1a 3d
       0.06960986 -0.021496153 0.04813718 0.037837613
0000d0 73 5f a4 bd 0c e3 f7 bc f1 01 ee 3c a4 42 7e bd
       -0.08026018 -0.030259632 0.02905366 -0.062075272
0000e0 db 1b 35 bd da 5d dc bd 87 8d a9 bc 39 f4 3d bb
       -0.04421602 -0.10760088 -0.020697368 -0.002898468
0000f0 7b ea 92 bd 07 33 e7 3d 20 64 07 be e0 09 ad bd
       -0.0717363 0.112890296 -0.13221788 -0.08449149
000100 04 b8 f1 bd 55 5a 3f be 77 63 88 bd 8a 4d 12 3d
       -0.11802676 -0.18686803 -0.066595964 0.03571848
000110 45 a7 18 3e c0 36 1b 3d 4d 8e b2 bd 5d a2 fc bd
       0.14907558 0.03789401 -0.08718548 -0.12335656
000120 4e 98 df 3d ab a8 09 3e 39 61 c4 3d 8b 71 96 3c
       0.10917722 0.13443248 0.09588856 0.018364688
000130 90 92 01 bc 1e 66 5f bd 85 20 e0 bd e2 bd d4 bd
       -0.007908478 -0.054540746 -0.109437026 -0.1038778
000140 c6 23 af 3d 77 4a 03 3e 91 22 7c 3c 33 0f 04 bd
       0.08551745 0.12821375 0.015389101 -0.032241058
000150 74 40 ee 3c f2 fb 1c 3e 0e 64 11 3e 77 26 cd 3b
       0.029083468 0.15330485 0.14198324 0.006260689
000160 f1 65 03 3e 49 81 0f 3e d5 5c b6 bd af 4d 84 3c
       0.12831856 0.14014162 -0.08904425 0.016150324
000170 08 fc c5 bd e5 48 93 bb a3 d4 e6 bd 12 8e 88 bc
       -0.09667212 -0.0044947737 -0.11271026 -0.016669307
000180 a1 39 9d 3d 59 8a c7 bc 77 ad c0 bb af b9 a4 bd
       0.076770075 -0.024357961 -0.0058800536 -0.08043229
000190 37 5c 82 bd e1 18 11 3d 4b 1f 8f bd 8d 3e 56 3d
       -0.06365245 0.035424117 -0.069883905 0.052305747
0001a0 f6 6e 7d bd 98 6a 34 3d 77 b3 92 3d 28 e4 82 bd
       -0.0618734 0.04404697 0.071631365 -0.063911736
0001b0 a4 71 7c 3d 02 0e 2b be b9 0a c8 3d f9 8e a2 3d
       0.061631814 -0.16704562 0.0976767 0.07937426
0001c0 52 45 03 3e 18 51 08 be 18 40 04 be 33 e7 bf bc
       0.12819412 -0.13312185 -0.12915075 -0.023425674
0001d0 0a e2 e4 bd 38 e8 02 be 67 83 d7 bd 62 3e 03 be
       -0.11175926 -0.12783897 -0.1052311 -0.12816766
0001e0 93 a1 2b 3d c1 27 a3 3c 21 22 9e bd 3e 71 06 be
       0.041902136 0.019916417 -0.07721353 -0.13129136
0001f0 60 5a ec 3d f4 1c 82 be 82 f3 ed bd f7 da a8 3d
       0.11540675 -0.25412714 -0.11618711 0.08244889
000200 5d e6 8d bd 00 26 be bd a4 29 68 bd da 4f 84 bd
       -0.06928704 -0.09284592 -0.056680337 -0.06460543
000210 84 93 37 3d 29 85 ea bd d5 60 07 be c8 13 29 3e
       0.044818416 -0.114511795 -0.13220532 0.16511452
000220 10 c0 fe bc 87 0d 15 3e 1e 4d 3d bd e9 ec b0 bd
       -0.031097442 0.14555942 -0.046216123 -0.08638937
000230 a4 b0 f2 bd 23 87 b5 3d f7 e0 d8 3c 18 0d 04 3e
       -0.11850098 0.08863666 0.02647446 0.1289562
000240 ed bc 0e be 47 7a 9f bd cc 42 89 3d 7d 1e a2 3c
       -0.13939257 -0.077869944 0.067021936 0.019789929
000250 01 4f a3 bd 7d 56 97 bd 1f c9 7f 3d 76 63 61 3d
       -0.07974053 -0.07389543 0.062447663 0.055026494
000260 9b e8 d5 3d ae 54 e3 bd f8 81 c8 3d c4 1e 75 bd
       0.104447566 -0.11100136 0.097904146 -0.059843794
000270 8f b1 15 3d 0e 74 fa bc 9f bc f6 bd f1 78 da bd
       0.036546286 -0.030572917 -0.12047695 -0.10667599
000280 ca 96 11 be 6c d8 9f 3d 05 a8 62 3d c5 fc d8 3c
       -0.14217678 0.07804951 0.055336017 0.026487717
000290 55 8b e2 bd 8d 28 23 bd 4b 91 ad bd aa 9d 3a 3d
       -0.11061732 -0.039833594 -0.08474978 0.045560516
0002a0 d3 76 eb bc a6 36 71 bd 94 01 21 be 10 97 11 be
       -0.028743183 -0.058890007 -0.15723258 -0.14217782
0002b0 6e ff 3c be d4 f5 c2 bd 71 c6 8f 3c 7d c6 2d be
       -0.18456814 -0.09519544 0.017550679 -0.16970249
0002c0 d7 b8 02 3b 62 89 30 bd b5 1c ac 3d fc 6c 3f 3d
       0.00199466 -0.04309977 0.08403913 0.046734795
0002d0 6d 57 73 3d da 1a 01 bd 05 ad 88 bd 87 38 28 be
       0.059409548 -0.03151975 -0.06673626 -0.16427813
0002e0 95 a0 0e be f0 58 89 3d 9e a6 64 bd 42 c0 88 3d
       -0.13928445 0.067064166 -0.05582296 0.06677295
0002f0 68 dd c5 3d 5e fe 5e be a7 eb 35 3d 0b 6e c2 bd
       0.096613705 -0.21776721 0.04441419 -0.09493645
000300 56 86 f4 3d 71 8c d5 3d a4 18 bd 3b 21 6a a3 bc
       0.11939685 0.10427178 0.0057707597 -0.019948067
000310 8d 40 4b bc c7 4f 78 3b f4 bd e5 bd cb d2 fa bd
       -0.012405527 0.0037889348 -0.11217871 -0.12247237
000320 88 1d 81 3b 2e 52 d8 3d 23 77 07 be f6 c0 c7 3d
       0.003940288 0.105625495 -0.13229041 0.09753601
000330 3a 5e 21 3e 66 38 1a bd ec 59 c8 bd 83 88 0a 3e
       0.15758601 -0.037651442 -0.09782776 0.13528638
000340 0c 0b 21 3e 96 99 90 bb e3 f2 9b 3d 61 e2 65 3d
       0.1572687 -0.00441284 0.07614686 0.056124095
000350 cd 99 06 3b 37 a9 bd 3d 2b bd 30 be 3b 4d d7 bd
       0.002053845 0.09260791 -0.17259662 -0.105127774
000360 df 10 fa bd 36 9a 23 bd d9 b7 83 bd 36 3e 1d 3d
       -0.12210249 -0.03994199 -0.064315505 0.038389407
000370 0b 39 13 3e c7 ba 80 bc 76 3f 7a 3d 73 b1 02 be
       0.14377229 -0.015714062 0.061095677 -0.12763004
000380 2e a3 67 be 16 34 69 bd af 34 38 3c 48 fc c7 bd
       -0.22620842 -0.05693444 0.0112430295 -0.09764916
000390 df a1 3b be fb 1a 84 3c 26 a6 3f 3d 7a e5 81 3d
       -0.18323468 0.016126147 0.04678931 0.06342597
0003a0 c7 89 20 be bf 5b 74 3c eb 97 b8 bd 69 84 b5 3d
       -0.15677558 0.014914452 -0.09013351 0.08863146
0003b0 48 e4 2d bd e8 ab f5 bc 08 ad da bc 16 15 31 3d
       -0.042454034 -0.029989198 -0.026693836 0.043233
0003c0 09 8b 94 bd 3c eb fe 3c f3 9f 27 bd c3 1f 2e 3d
       -0.07253081 0.031118028 -0.040924024 0.04251076
0003d0 aa a3 36 3d 73 e2 1c be 55 6d 96 bd b3 17 80 bd
       0.044589676 -0.15320759 -0.07345072 -0.0625452
0003e0 95 93 99 3d 59 0e ec bd f6 46 68 bd 7b 20 8a bd
       0.07498852 -0.11526174 -0.0567083 -0.067444764
0003f0 21 2c 0b 3e 41 d0 01 be 1a a1 fa 3d 41 22 2b bc
       0.13591053 -0.12677099 0.12237759 -0.0104451785

0.model_cnn.layer2.0.bias f4 [32]
000000 93 f8 91 39 78 5a 73 3a 63 b5 bc 3a fe 13 a0 3a
       0.00027841757 0.0009283195 0.0014397319 0.0012212989
000010 16 ec 52 38 59 7c 02 b9 9b e1 63 ba 4b 48 1c bb
       5.0287774e-05 -0.00012444089 -0.00086929806 -0.00238468
000020 07 9b 55 39 61 84 a8 39 00 ea 08 3b b1 44 85 b9
       0.00020371015 0.00032142087 0.0020891428 -0.00025418916
000030 04 d5 a1 3a 47 8b 5c ba 05 cb b5 3b 7c 82 be bb
       0.0012346809 -0.0008413088 0.0055478835 -0.005813895
000040 65 8e 10 3b 71 19 01 bb 80 2f 97 39 78 fe ca 38
       0.002205753 -0.0019699002 0.00028836355 9.679509e-05
000050 82 4e 0b 3a 3d 2c 2e 3b 41 77 70 ba f3 b6 42 bb
       0.0005314128 0.002657666 -0.00091730437 -0.0029711097
000060 22 d2 f6 bb cc c2 cc 3b ab 52 1f ba 5d 4c 8e ba
       -0.007532374 0.0062488075 -0.0006077687 -0.0010856498
000070 1d 10 b2 3b d5 6f a1 39 3c 61 02 bc 64 f5 52 3b
       0.0054340498 0.00030791634 -0.007957753 0.0032189721

0.model_cnn.layer2.1.weight f4 [32]
000000 2c 85 78 3f 92 07 86 3f 28 07 86 3f 0a 42 74 3f
       0.97078204 1.047106 1.0470934 0.9541327
000010 e9 00 84 3f 0a f0 70 3f 68 10 73 3f 41 ac 80 3f
       1.0312778 0.9411627 0.9494691 1.0052568
000020 5c 2d 7c 3f ca 46 6e 3f 79 1e 77 3f 7b 6f 78 3f
       0.9850671 0.93076766 0.9653087 0.97045106
000030 d1 1d 77 3f 99 c5 7d 3f 0d 62 7a 3f 85 3b 84 3f
       0.9652987 0.99129635 0.97805864 1.0330664
000040 43 97 79 3f e0 5c 80 3f f6 9d 91 3f 3c 99 83 3f
       0.9749643 1.0028343 1.1376331 1.0281138
000050 8d 86 72 3f 32 ed 7e 3f fa 24 80 3f fb 09 70 3f
       0.9473656 0.9958068 1.0011284 0.9376523
000060 2c 0d 83 3f 17 7f 82 3f 15 c3 78 3f af 68 7f 3f
       1.0238395 1.0195035 0.9717267 0.9976911
000070 80 e8 68 3f 30 be 7a 3f 09 96 8a 3f 01 d5 7e 3f
       0.90979767 0.97946453 1.0827037 0.9954377

0.model_cnn.layer2.1.bias f4 [32]
000000 84 84 31 be e3 2a c0 bd 06 a4 21 3d ae 1e 41 bc
       -0.17335707 -0.0938318 0.039463066 -0.0117871
000010 5e bd 35 bd 23 cc 4a bd 4f c7 49 bd 9f 45 c3 bd
       -0.044370048 -0.049511086 -0.04926234 -0.095347635
000020 c8 f0 dc bc 4c 1c 34 bd 37 e1 62 be 9a 9f 39 be
       -0.026970282 -0.0439723 -0.22156225 -0.1812729
000030 99 dd 25 be 7f 59 1a 3d c1 44 d7 bd b0 a4 31 bd
       -0.16197814 0.037683006 -0.10511161 -0.04336995
000040 01 bd c4 bd 91 aa 90 bc 1d 79 22 3e e9 31 5e be
       -0.09606362 -0.017659457 0.15866514 -0.21698727
000050 90 bc ad bd 9d 57 1c bd 03 94 d1 bd 0c 94 07 bd
       -0.08483231 -0.038169492 -0.10233309 -0.033100173
000060 c7 f1 b4 bd de 55 60 bd 53 24 5d be 27 37 82 bd
       -0.08835178 -0.05476939 -0.21595888 -0.06358176
000070 80 cd 4a bd 44 2a 4d bd 79 a8 2c 3d 58 d7 d9 bc
       -0.049512386 -0.050089136 0.042152856 -0.026591942

0.model_cnn.layer2.1.running_mean f4 [32]
000000 37 5c d9 3e 94 32 02 bd b1 e5 e7 be 65 4d 26 bf
       0.42453167 -0.031786516 -0.45292428 -0.64961845
000010 4f 42 36 be e4 c3 bc be d0 91 4c be 71 f6 8a be
       -0.17798732 -0.36868203 -0.19977498 -0.27141145
000020 34 24 b6 be f5 9e c2 be dc bd 06 3f 88 8c 4a 3e
       -0.35574496 -0.380119 0.5263345 0.19780171
000030 6b c0 29 3e 49 2b 9f be 9b e8 a1 bd 34 06 58 bd
       0.16577308 -0.3108771 -0.07905694 -0.05274029
000040 6c a3 27 3e 97 c7 2a be e2 36 2b bf 1f fb 0a 3f
       0.16370934 -0.166777 -0.6688062 0.5428943
000050 e7 22 95 be 3e 89 53 be 96 40 6a 3e c3 07 21 bf
       -0.2912819 -0.20657822 0.228762 -0.6290247
000060 a4 b3 1d be 9b b3 3f be 47 04 9d 3e b8 bd 56 be
       -0.15400559 -0.18720858 0.30667326 -0.2097081
000070 3e e5 18 3e 5f 92 7a be 0c 9e d3 bd ae 2d cd be
       0.14931199 -0.24469899 -0.103328794 -0.40073913

0.model_cnn.layer2.1.running_var f4 [32]
000000 a3 08 4d 3e f2 a0 7c 3e e0 2b 45 3e 00 28 c4 3e
       0.20022826 0.24670771 0.19255018 0.38311768
000010 08 b4 4a 3e a3 f7 92 3e 7c 36 2a 3e 17 28 2c 3e
       0.19795239 0.28704557 0.16622347 0.16812168
000020 c8 93 7b 3e a8 d4 40 3e 96 93 76 3e 9b 72 36 3e
       0.24568093 0.18831122 0.24079737 0.17817156
000030 e4 4c fd 3d 5c ef 56 3e 5e 41 69 3e df f1 0c 3e
       0.12368181 0.20989746 0.22778842 0.13764141
000040 a5 75 27 3e 5d ad 16 3e aa 1f 8b 3e 0b 3d 96 3e
       0.16353472 0.1471457 0.27172595 0.29343447
000050 3b c6 57 3e de 07 99 3e 8f a0 d6 3d 38 2c c4 3e
       0.21071713 0.29888815 0.10479843 0.38314986
000060 5b d4 27 3e 55 35 1e 3e b1 6b 5b 3e a0 1e 24 3e
       0.16389601 0.15450032 0.214278 0.16027308
000070 ab 92 89 3e fe 3a 55 3e 49 e6 c9 3d 5f 33 6a 3e
       0.2686971 0.20823285 0.098583765 0.22871159

0.model_cnn.layer3.0.weight f4 [64, 32, 3]
000000 22 16 94 bd c9 71 a1 bc 07 df eb bc 4e f9 dd 3b
       -0.07230784 -0.019707577 -0.028792871 0.006774104
000010 6a 87 da bd c5 0d 78 3d 36 ad 1b 3c 21 53 1f 3d
       -0.106703594 0.060560007 0.009501746 0.038897637
000020 85 3d 04 3d 04 cc 34 bc 12 2e b5 ba d2 12 a9 bd
       0.032285232 -0.011034969 -0.0013822934 -0.08255543
000030 c7 9a 8b 3c f3 9b 63 bd 43 f4 d6 3d d5 1a a0 bc
       0.017041577 -0.055568647 0.10495808 -0.019544045
000040 51 da e5 bd d2 43 26 3b bb 2b 7a 3d 13 41 c3 bd
       -0.11223281 0.0025370014 0.06107686 -0.09533896
000050 0b 82 d0 bd 4b fe 18 3d b6 97 ba bd be b7 ad bd
       -0.10181054 0.037351888 -0.09110968 -0.08482312
000060 fd 06 8d 3d 54 0f 04 3e 81 df 01 3d 5f 96 c6 3d
       0.068860985 0.12896472 0.03170729 0.0969665
000070 20 6e e4 bd 5d 74 1f be c4 46 f8 bc 92 01 a5 3c
       -0.11153817 -0.15571733 -0.030307181 0.02014235
000080 9e a3 41 bd ab 62 ad bd f6 c9 0a 3d 2b cb 32 3b
       -0.047275178 -0.08466085 0.03388401 0.0027281742
000090 c0 dd 6c 3d e8 3d b1 3d 83 a9 24 bd e2 ca ba bd
       0.057828665 0.08654386 -0.04020072 -0.09120728
0000a0 fb e8 bd bc ab 17 8f bd 4c 03 8c bd eb 37 e1 bd
       -0.023182383 -0.06986936 -0.06836566 -0.10996994
0000b0 eb 73 64 bd 90 1d 56 be 73 08 81 bc 93 d4 85 bc
       -0.05577461 -0.20909715 -0.0157511 -0.016336715
0000c0 a8 9f 14 3d f7 19 f9 bd 84 97 88 bc 05 a4 bb bd
       0.036285073 -0.121631555 -0.01667381 -0.091621436
0000d0 41 c2 18 bc ef c9 c2 bd 04 6a 67 3d c9 98 cf 3c
       -0.0093236575 -0.09511172 0.05649759 0.025341408
0000e0 08 92 8c bc b1 c4 f3 bc 57 24 a9 3d 1d 4e 1c 3d
       -0.017159477 -0.029756876 0.082588844 0.038160432
0000f0 4b 75 58 3c 31 56 07 3d 7d f7 c2 bc db 14 b9 bd
       0.013211559 0.033041183 -0.023799652 -0.09037181
000100 e6 5a 16 be eb 74 99 bd c4 0d 85 bd 40 08 25 bd
       -0.14683113 -0.074930035 -0.06496766 -0.04029107
000110 b8 ab 1d 3d bd 2c 12 bd 9b 31 46 3c a8 75 ab bd
       0.038493842 -0.035687197 0.012096788 -0.083720505
000120 23 24 21 3e 77 22 eb 3d 06 24 a1 3b 02 1e c4 bd
       0.15736441 0.11481183 0.0049176244 -0.09576036
000130 4e d4 05 be eb b3 81 3c 7f 7f b1 bd 81 35 db 3d
       -0.13069269 0.015832862 -0.08666896 0.107035644
000140 40 49 0f ba a1 a2 da bc e4 fc b2 bd 23 51 fc bb
       -0.0005465932 -0.026688876 -0.08739641 -0.007700102
000150 0e 1a fd 3c 16 2f d0 bd 51 08 8e bb 5e aa 0e bd
       0.030896213 -0.10165231 -0.0043344875 -0.034830444
000160 99 1e 40 3c 59 da d9 bd e7 4a eb bd e6 d7 99 3d
       0.011726045 -0.1063735 -0.11488896 0.075118825
000170 85 cf 78 3d 15 17 3c bd ab f7 44 bd 1b 75 28 be
       0.06074478 -0.04592045 -0.048087757 -0.16450922
000180 5e 11 e4 bc 8d c4 1a bd 21 de af bd c0 b5 4c 3d
       -0.027840313 -0.0377851 -0.085872896 0.049978018
000190 8b 51 ad 3d 90 89 fd 3c bf f4 c8 bc d2 65 89 3d
       0.08462819 0.030949384 -0.024530767 0.06708874
0001a0 fa 62 9d 3c b0 06 aa 3d b9 e2 85 3d 13 ad 33 3d
       0.019212235 0.08302057 0.065373845 0.04386623
0001b0 af 7c cb bd 67 0b cd bd 78 53 08 be 65 c4 65 3d
       -0.09935891 -0.100119404 -0.13313091 0.0560955
0001c0 2d ee 81 3d d9 0e 5a bd ef 7d fc bd b0 07 89 3d
       0.063442566 -0.053236816 -0.123287074 0.066909194
0001d0 3c 10 f0 3d e6 1c 93 3d 6e fb de bc 28 4d 5b 3d
       0.117218465 0.07183246 -0.0272195 0.05354038
0001e0 55 33 64 bc 58 23 20 bd 7f 19 e1 bd f8 a7 a8 3d
       -0.013928254 -0.039096206 -0.10991191 0.082351625
0001f0 58 4d e6 3c 61 1b 2b 3d ce bb 49 3c 5c f1 11 3d
       0.028113052 0.041774157 0.0123128425 0.03563057
000200 ea 5f 84 3b 23 a9 60 3d 74 b4 71 bd 4f 3c 94 3d
       0.004039754 0.0548488 -0.059009984 0.072380655
000210 01 6c fa bd 48 13 c9 3b 6b 20 1e 3d 84 9f c2 bd
       -0.12227631 0.0061363317 0.038605135 -0.095030814
000220 21 2a 8d bd 41 9e c8 bd c4 8a 04 3e 39 2d 8c 3c
       -0.06892801 -0.097958095 0.1294356 0.017111408
000230 05 25 d6 3d 71 29 f9 3c 0a 0b a3 bd 45 89 85 bd
       0.1045628 0.030415269 -0.0796109 -0.06520323
000240 c6 76 d9 3d d2 92 b1 bd 53 4d b5 bc f7 f7 05 be
       0.10618357 -0.08670582 -0.022131598 -0.13082872
000250 67 ba ac 3d 7c f6 28 3c f0 a1 c2 bd 54 f9 fc bd
       0.08433991 0.010312673 -0.095035434 -0.12352243
000260 45 50 81 bd a8 ab bb 3d 5c e7 24 3d 96 bf 75 3c
       -0.06314138 0.091636 0.040259704 0.014999291
000270 81 da 50 bd fb 92 09 bd 6f 3f 0d 3d 60 70 a3 3d
       -0.05098963 -0.033587437 0.034484323 0.07980418
000280 9d a9 88 3d 4c d6 b2 bc ba a7 a9 bc 05 84 90 bd
       0.06672976 -0.0218307 -0.020709861 -0.07056431
000290 67 3c 83 bd c2 08 b5 bc 9a 58 21 bd e2 5c 90 3d
       -0.06408005 -0.022098903 -0.039391138 0.07048966
0002a0 38 8d 00 bd 87 43 c2 bd 31 ab ba 3d 41 18 e1 3d
       -0.031384677 -0.09485536 0.091146834 0.10990954
0002b0 1b 56 27 3c 61 90 fa bc 36 7d e4 3d 7b 94 69 3d
       0.0102134 -0.030586423 0.111566946 0.057026368
0002c0 54 6f 97 3d 7c 59 78 3c e5 a1 82 3d cc 63 cd bc
       0.07394281 0.0151580535 0.06378535 -0.025072
0002d0 84 c8 04 3e 27 a2 2e 3d c2 9a df 3d 7c 71 54 bd
       0.12967116 0.04263511 0.109181896 -0.05186604
0002e0 e0 ee d4 3d 7b f0 3d 3d be df f1 bd 2d 24 dc bd
       0.10397124 0.04637192 -0.118102536 -0.107490875
0002f0 8d 7a f6 bd a4 e1 91 bc fb 12 ae bc cf 32 61 bd
       -0.120350935 -0.01780779 -0.021249285 -0.054980095
000300 dd 69 89 3d 51 83 b5 3d c5 72 9d 3b 3b 62 ee bd
       0.06709645 0.08862937 0.0048049414 -0.1163983
000310 62 43 5a bd 1c 20 cd 3c 89 00 62 3c ba 77 8d bd
       -0.053286918 0.025039725 0.013794073 -0.06907602
000320 29 a8 02 3d 8e 35 67 bc 27 4a 12 3d 11 85 74 3d
       0.03189865 -0.0141118895 0.03571525 0.059697215
000330 ef 30 be bd 01 96 2b 3d 68 93 38 bc d4 2f 35 3d
       -0.09286677 0.0418911 -0.011265613 0.044235066
000340 6a 66 c2 bb 15 a9 0a be c8 ff 76 bd 52 d6 00 be
       -0.005932619 -0.13541062 -0.060302526 -0.12581757
000350 fb 9b aa 3d 33 a2 3e bc 39 d5 9d 3d 7f 57 12 bc
       0.08330532 -0.011635351 0.077066846 -0.0089319935
000360 c2 b5 8b bc 01 8c 98 bd d9 e7 3c 3d 6c 86 0d 3e
       -0.017054442 -0.074485786 0.046119545 0.13820809
000370 cd c6 c3 bd d1 01 bf bd 63 87 48 bb 1a 15 0a 3c
       -0.095594026 -0.09326518 -0.0030598275 0.008427883
000380 d4 a3 84 3d 10 c5 71 bd f4 47 8b 3d b0 4c 82 3d
       0.0647656 -0.059025824 0.06800833 0.06362283
000390 83 26 09 be ff ce 94 3d 21 19 a6 3d 65 be 6d 3c
       -0.13393597 0.07266044 0.08110262 0.014510726
0003a0 ce f5 ac bd 43 aa 48 bd f0 8a 3a 3d fe 69 99 3d
       -0.08445321 -0.0489905 0.045542657 0.074909195
0003b0 19 c7 c0 bd 75 ab 89 bd 8c 1d 06 bd fe 93 a1 bc
       -0.09412975 -0.06722156 -0.03274302 -0.019723888
0003c0 4a a1 f4 3b 15 08 1c 3d 1f 4d 8d bd 6a 08 24 3d
       0.007465516 0.038093645 -0.06899475 0.040047087
0003d0 e2 92 c9 bb e0 71 b7 bd 07 00 87 3d d9 07 2f bb
       -0.006151543 -0.08957267 0.06591802 -0.0026707558
0003e0 86 12 e0 3d 8b 0d fa 3d 3d 37 27 3c cb f9 19 3e
       0.10941033 0.12209614 0.010206041 0.15036695
0003f0 b0 3b a6 3d 62 23 84 bc d1 35 cd 3d 13 b8 a9 3d
       0.08116853 -0.016130153 0.1002003 0.082870625

0.model_cnn.layer3.0.bias f4 [64]
000000 d0 b8 29 b7 9e b8 fa 36 7e 82 b7 b8 0a a9 06 37
       -1.0116215e-05 7.472073e-06 -8.750426e-05 8.02638e-06
000010 b4 05 08 b9 06 8f 92 39 d8 fb 13 b9 0c 8e 58 b9
       -0.00012972095 0.0002795385 -0.00014112832 -0.00020652282
000020 64 18 d9 38 80 bb d8 b7 22 43 55 3a 9e 1b 06 39
       0.000103519094 -2.5836518e-05 0.0008135309 0.00012789524
000030 b2 c9 95 b8 9d ad 16 b9 c2 ae 53 3a f2 0e 6a b8
       -7.142442e-05 -0.00014369791 0.0008075052 -5.5803866e-05
000040 d9 6b 00 39 c1 c7 4b 38 27 e6 13 3a cc 71 c7 b8
       0.00012247208 4.8585007e-05 0.00056419004 -9.510256e-05
000050 18 66 08 ba 89 de 34 ba e9 91 46 b9 26 c6 2c b9
       -0.00052032014 -0.00068996154 -0.00018937107 -0.00016477014
000060 a0 2c 8a 39 14 e6 c8 39 5c 98 ef b8 ca 4d 08 3b
       0.0002635466 0.00038318394 -0.00011424787 0.002079832
000070 c2 90 18 b7 0e 48 0e b7 92 be 36 b9 02 74 5a b8
       -9.09361e-06 -8.480636e-06 -0.00017427866 -5.208329e-05
000080 75 96 b4 39 dd 44 bb 39 b6 fe d1 38 fa de a4 b9
       0.00034444375 0.00035718727 0.0001001334 -0.00031446648
000090 40 10 e3 38 f4 15 71 37 e5 91 f3 b7 45 44 57 b9
       0.0001082723 1.4369831e-05 -2.9035795e-05 -0.0002052943
0000a0 72 37 95 b8 c4 38 2b 38 c6 1b 90 b8 80 ed 1a b8
       -7.115201e-05 4.0822444e-05 -6.871628e-05 -3.693765e-05
0000b0 76 28 80 ba 20 37 f4 b8 41 72 63 39 9c dc 4d b8
       -0.0009777683 -0.000116450945 0.0002169097 -4.9081267e-05
0000c0 20 40 84 b7 d7 97 c7 b9 14 ac 95 b9 84 0c bb b9
       -1.5765487e-05 -0.00038069367 -0.00028547703 -0.00035676744
0000d0 1e 60 87 b8 de 34 17 39 98 bb 32 bb cc 08 4f b9
       -6.455205e-05 0.00014420177 -0.002727246 -0.00019744335
0000e0 98 75 4c ba 4a 41 68 39 67 98 4b b9 79 0f a0 b9
       -0.0007799505 0.00022149566 -0.00019416363 -0.00030529106
0000f0 b8 e5 88 36 a3 42 85 3a d3 49 0b 39 b5 c3 6d bb
       4.0798586e-06 0.0010166954 0.00013283575 -0.003627998

0.model_cnn.layer3.1.weight f4 [64]
000000 0a 43 88 3f 31 f9 72 3f e0 48 83 3f 65 a0 73 3f
       1.0645459 0.94911486 1.0256615 0.9516662
000010 80 0c 72 3f 07 3f 81 3f 80 9e 70 3f fb b3 73 3f
       0.94550323 1.009736 0.9399185 0.95196503
000020 3f fd 6f 3f e9 0c 7b 3f 39 0e 6d 3f 9e 2a 81 3f
       0.937458 0.98066574 0.9259983 1.0091131
000030 9f c5 83 3f 88 74 84 3f 23 f7 84 3f 8e c7 7c 3f
       1.0294684 1.0348063 1.038792 0.98741996
000040 66 cb 78 3f a3 aa 80 3f bd 78 8d 3f 99 c8 58 3f
       0.9718536 1.0052074 1.1052471 0.8468109
000050 97 dd 70 3f 6e 7e 7e 3f 80 01 80 3f 44 2a 79 3f
       0.9408812 0.99411666 1.0000458 0.9733012
000060 28 25 73 3f 25 a4 79 3f d3 0a 86 3f 00 40 85 3f
       0.9497857 0.9751609 1.0472053 1.0410156
000070 24 ec 80 3f 1d d2 7b 3f 58 e2 88 3f 99 ea 72 3f
       1.0072064 0.9836748 1.0694075 0.9488922
000080 b2 41 85 3f 51 cd 7c 3f 1b a2 71 3f 45 91 80 3f
       1.0410674 0.9875079 0.9438798 1.0044333
000090 de 68 76 3f b7 f9 72 3f 97 9b 77 3f c6 ab 81 3f
       0.96253765 0.94912285 0.96721786 1.0130546
0000a0 0a d6 85 3f fb fb 80 3f d8 41 76 3f 06 3b 75 3f
       1.0455945 1.0076898 0.9619422 0.9579319
0000b0 78 8d 85 3f c7 a1 82 3f 8e 71 84 3f 53 cf 79 3f
       1.0433798 1.020562 1.0347154 0.97581977
0000c0 b9 27 6f 3f be 1a 90 3f 21 23 71 3f 35 3b 6e 3f
       0.93419987 1.1258161 0.9419423 0.9305909
0000d0 bb 73 6d 3f b5 65 72 3f c6 b4 7f 3f 58 26 83 3f
       0.92754716 0.9468644 0.99885213 1.0246077
0000e0 c0 10 81 3f a7 de 83 3f af f3 7f 3f a8 2f 87 3f
       1.0083237 1.0302323 0.99981207 1.0561419
0000f0 3d 72 83 3f f3 75 70 3f 12 a4 84 3f 87 7a 80 3f
       1.0269238 0.93929976 1.036257 1.0037392

0.model_cnn.layer3.1.bias f4 [64]
000000 5d ec 4d bc e6 d9 b2 bd ea 09 83 be 00 d5 03 be
       -0.01256856 -0.08732967 -0.255935 -0.12874222
000010 c1 ed e7 bd d2 05 99 bc 7c e5 32 be d8 72 49 be
       -0.11324645 -0.018679533 -0.17470354 -0.19672716
000020 f3 3f 3d bd 2a 62 1e be 17 ff 03 be 4c 4b 25 3d
       -0.046203565 -0.15467134 -0.12890278 0.04035501
000030 9a 36 52 be 61 23 13 be f7 d3 93 bc ce e1 05 be
       -0.20528641 -0.14368965 -0.018045409 -0.13074419
000040 73 ed 02 3d 33 06 6d 3c 05 d7 8f 3d 36 b7 54 be
       0.03196473 0.01446681 0.070234336 -0.20773014
000050 82 a3 38 be d8 11 e1 bd 49 3f 44 be f3 22 ce bd
       -0.18031123 -0.109897316 -0.19164766 -0.1006526
000060 2f cf af bd 57 ea 7b bd de f6 a3 bb 16 d8 94 bd
       -0.08584439 -0.06150278 -0.005003794 -0.072677776
000070 34 44 49 be 08 3e b5 bc e6 9f 32 be d6 c7 bd bd
       -0.19654924 -0.022124305 -0.17443809 -0.09266631
000080 f3 59 11 be ad f1 0f be cf f8 c6 bd 95 dd ac 3c
       -0.14194469 -0.14057036 -0.09715425 0.021101752
000090 b1 31 07 be 96 1d 52 be ec 28 56 be dd 51 88 3d
       -0.1320255 -0.20519099 -0.20914048 0.06656239
0000a0 86 6e c2 bc ac 71 3e 3d b5 46 02 bc c4 5e 05 be
       -0.023734342 0.046495125 -0.007951428 -0.13024431
0000b0 b9 05 cb bb f1 9a 03 be 9e fd ac 3c 49 18 5d be
       -0.0061957506 -0.12852074 0.021117028 -0.21591295
0000c0 96 04 71 bd f0 ed 53 be 7e d0 f1 bd f3 67 1c be
       -0.058842264 -0.20696235 -0.11807345 -0.15274028
0000d0 cf d0 04 be 97 41 1b be c5 d1 d3 bd 50 25 06 be
       -0.12970279 -0.1516174 -0.10342745 -0.13100171
0000e0 d6 dd 2e be 76 a3 37 be 72 b5 29 be 26 75 08 3d
       -0.17076811 -0.17933449 -0.16573122 0.033314846
0000f0 2a 44 36 bd ed f4 38 3a 42 eb 07 be 06 02 c8 bd
       -0.0444986 0.000705554 -0.13273337 -0.09766011

0.model_cnn.layer3.1.running_mean f4 [64]
000000 1a f2 8f bf cc 9e 13 be 13 9c 84 3d ee 46 06 3d
       -1.1245759 -0.14416045 0.06475081 0.032782488
000010 fb a0 87 be 6e 8e 5d bf 7b 48 a6 3d b8 89 72 3f
       -0.26490006 -0.86545455 0.08119293 0.9474139
000020 be f9 00 bd 24 5d 00 3f 82 57 9a 3e a4 5f d8 bf
       -0.031488173 0.5014212 0.30144888 -1.6904187
000030 77 12 00 3e b2 bb cd 3d 04 ce 72 3d b9 a4 2d 3f
       0.12507044 0.10045566 0.059278503 0.6782947
000040 12 f7 69 bf e2 31 d5 bf 9b bd 12 c0 0e 38 cc 3c
       -0.91392624 -1.6655848 -2.2928226 0.024929073
000050 b6 26 4d 3f 89 4d 01 be da fd c7 3f 3e f7 26 3e
       0.80137193 -0.12627234 1.5624344 0.16305253
000060 7f 23 3f be 1c 88 0f bf 38 2a e3 be 7c 08 87 be
       -0.18665884 -0.5606706 -0.44368148 -0.2637366
000070 c8 d4 de 3e bd 98 49 bf 89 5e 78 be 2b 5a 14 bf
       0.43521714 -0.78748685 -0.24254812 -0.57950085
000080 87 b8 df bd 96 a4 bf be 76 45 20 be cf 12 82 bf
       -0.10923868 -0.37430257 -0.15651497 -1.016199
000090 d7 19 30 bf b9 03 b5 3e 5a 09 30 3f 60 e9 d0 bf
       -0.6878943 0.35354403 0.6876427 -1.632122
0000a0 48 60 9b bf 47 fb 05 c0 ce 93 c7 be 2e 71 d6 3e
       -1.2138758 -2.0934618 -0.38979954 0.41883224
0000b0 6d 59 fa be 23 79 cc 3e fc be d7 bf 62 04 b1 3e
       -0.4889635 0.3993617 -1.6855159 0.34573656
0000c0 64 be 0e bf f6 cf a5 3e 36 79 41 3e 12 4a 23 3f
       -0.55759263 0.32385224 0.18893895 0.637849
0000d0 e9 9c a9 3d a1 65 84 3f 09 9b 9e be 20 b7 92 3e
       0.08281881 1.0343515 -0.30977657 0.28655338
0000e0 f3 8d fd 3d fb 5e 30 3f a3 e9 fa 3d 3c 6f 9b bf
       0.1238059 0.6889493 0.12251594 -1.2143321
0000f0 a3 c6 67 bf ae 65 d7 be 92 6f 61 3f 3e 0b 10 bf
       -0.9053747 -0.42069763 0.8806087 -0.56267154

0.model_cnn.layer3.1.running_var f4 [64]
000000 80 c8 df 3e 1d c1 9a 3e c2 bb 89 3e 89 aa f8 3e
       0.43707657 0.3022546 0.2690106 0.48567608
000010 b7 6c 95 3e a9 fb ec 3e b8 03 96 3e 0f 5c a4 3e
       0.29184505 0.4628575 0.29299712 0.32101485
000020 9e 14 7b 3e 6f 84 8e 3e e9 e2 5b 3e 6e 1a 4c 3f
       0.24519584 0.27835414 0.21473278 0.7972783
000030 8e d6 71 3e 6b 4f f1 3e 7f 9b 88 3e e5 d0 9a 3e
       0.23617002 0.47130904 0.26681134 0.302375
000040 c3 2d 18 3f ce 80 99 3e 73 63 a2 3f 3f a1 51 3e
       0.59444827 0.29981083 1.26866 0.20471667
000050 84 64 f1 3e ba b6 56 3e 9f c1 bb 3e 5a 7d 8f 3e
       0.47147 0.20968142 0.3667116 0.28025323
000060 85 df 7f 3e 5a ca 82 3e e5 26 95 3e 18 28 ac 3e
       0.2498761 0.25545007 0.29131237 0.3362434
000070 1d 69 c4 3e 4e dc d7 3e 96 e1 9b 3e d0 38 8e 3e
       0.38361445 0.42160267 0.30445546 0.2777772
000080 fc 75 93 3e eb e3 32 3e a1 43 9e 3e 15 58 da 3e
       0.28800952 0.17469756 0.30910972 0.42645326
000090 95 16 84 3e e1 f7 35 3e 12 df 48 3e d0 d0 83 3f
       0.2579848 0.1777034 0.19616345 1.02981
0000a0 8e a8 c5 3e 42 a9 26 3f ca 62 c7 3e 84 eb 89 3e
       0.3860516 0.65102017 0.38942558 0.26937497
0000b0 52 ff 89 3e df 7c 69 3e 1b 51 0a 3f ff cb 8f 3e
       0.26952606 0.22801541 0.5403001 0.28085324
0000c0 11 64 66 3e 0b 52 5a 3e 66 aa d0 3e c9 29 74 3e
       0.2249911 0.2132036 0.40755004 0.23844065
0000d0 6e 95 51 3e 41 33 a2 3e a2 66 90 3e 54 08 a3 3e
       0.20467159 0.3167973 0.28203303 0.3184229
0000e0 2e 62 91 3e 12 0f b8 3e 96 c4 84 3e fd 45 1d 3f
       0.28395218 0.35948998 0.25931233 0.6143492
0000f0 ac 2e 72 3e a2 f8 d3 3e fa 95 6f 3e 08 0b 76 3e
       0.23650616 0.4140063 0.23397055 0.24027646

0.model_cnn.layer4.0.weight f4 [128, 64, 3]
000000 bf d1 15 bd 0a e5 d8 bd ee ee 1b 3d 6f 0e 7e 3b
       -0.036576983 -0.10590561 0.038069658 0.0038765927
000010 7c 37 33 3d de 38 ad bc 25 73 07 3d f2 8b fc 3b
       0.043754086 -0.02114528 0.033068795 0.0077071125
000020 93 b8 6e bd f7 e1 1e bc 4a 7c 61 3c fb 71 c9 3d
       -0.058281492 -0.009697429 0.013762543 0.09836193
000030 76 73 0f bd d4 03 9a bc 80 ef dc 3c 0e 1b 94 bd
       -0.03502222 -0.018800654 0.026969671 -0.07231723
000040 35 e0 31 bd 73 b2 fb bc c0 3d 93 bc 4a b5 98 bb
       -0.04342671 -0.03072474 -0.01797378 -0.004660283
000050 38 cd 5f 3d dc 73 90 bd 06 56 87 3d b4 85 9b bc
       0.05463907 -0.070533484 0.066082045 -0.018984653
000060 fc 54 96 3c 73 14 a1 bc e6 d4 6d bd 24 c3 55 bd
       0.01835107 -0.019663071 -0.058064364 -0.052188054
000070 8f 2f 71 bd 28 f8 f0 3c 5f f2 93 3d 3d 09 17 3d
       -0.058883246 0.029415205 0.07223963 0.036874045
000080 ad 55 94 3c b7 7d 71 bc fe d4 cf bd 07 7a f5 bc
       0.01810726 -0.014739445 -0.10148047 -0.029965414
000090 c3 a4 ed 3a ff 17 c6 bc 50 2e b4 3c 6c 62 6f 3d
       0.0018130768 -0.024181364 0.02199474 0.05844347
0000a0 30 80 fb bc a3 4e 36 bd 6f f6 a8 bc 68 fa 69 bb
       -0.030700773 -0.044508588 -0.020625321 -0.0035702232
0000b0 44 d5 88 bd f1 6e 54 bb 07 76 2a 38 90 8d 72 3d
       -0.06681302 -0.003241476 4.064108e-05 0.059217036
0000c0 18 62 b6 bd a3 25 9d bd 10 3e eb bc 52 b1 88 bd
       -0.08905429 -0.07673194 -0.028716117 -0.06674446
0000d0 34 43 4e 3d 1e 8d 01 3d c3 86 b3 bd f9 2d 05 3c
       0.05035706 0.03162872 -0.08765938 0.0081286365
0000e0 41 59 d7 bb 6f e7 0b 3d 69 80 2e 3d 4d 5c 9e 3d
       -0.006571919 0.03415626 0.04260293 0.07732449
0000f0 dd d0 3c 3d 44 99 f7 3c f2 5d 6d 3d 11 c5 01 3c
       0.046097625 0.03022445 0.05795092 0.007920519
000100 57 29 28 3c e8 13 0a bd 92 ec b3 3c bf 1b 3e bd
       0.010263762 -0.03371039 0.021963391 -0.04641318
000110 e0 92 78 bc 15 10 c0 3d cd e1 7f 3c 69 aa 47 3d
       -0.0151717365 0.093780674 0.0156178 0.0487465
000120 5c a0 a0 3d d3 c3 71 bd 66 e7 f3 3d f6 ef 94 bc
       0.07843086 -0.059024643 0.1190937 -0.018180829
000130 12 3e af 3d 40 1d 38 3b 5f 5d 1c 3d f3 8b 39 3d
       0.08556761 0.0028093606 0.038174983 0.04529948
000140 18 6a 52 3b ae 3e 75 bd 33 47 6d bc a6 9e 90 3d
       0.0032106694 -0.05987423 -0.014482307 0.0706151
000150 bc 26 e1 3b 26 ba a3 3d f2 1c 84 3b ca f9 1e bd
       0.0068710726 0.07994489 0.004031771 -0.038812436
000160 59 95 48 3b 37 fe f4 bc de 1f 5f 3a e3 88 95 3d
       0.0030606596 -0.029906375 0.00085115235 0.073015
000170 ae 99 9b 3d c4 0e 89 bd 3b 67 c9 bb d6 53 20 bd
       0.075976714 -0.066922694 -0.0061463392 -0.039142452
000180 e4 b8 1b bd e5 c5 7a 3c 3b 10 d8 bd 0f fd a5 3c
       -0.038018122 0.015305971 -0.10549971 0.02026227
000190 89 08 2e 3c fa 45 a1 3d ce a2 26 bd e6 a1 a1 bc
       0.010622152 0.07874675 -0.040682606 -0.01973052
0001a0 e6 07 a4 3c 43 0e 73 bd ca 9a 27 3c fa 19 be bd
       0.020023298 -0.059339773 0.010229776 -0.092822984
0001b0 1c dc 10 3d 85 2b 93 3a dc 61 1c 3d c7 07 71 3c
       0.035366163 0.001122818 0.038179263 0.014711327
0001c0 36 df 10 bc 92 61 6c 3d 66 f1 dc bc 02 32 fc 3b
       -0.00884228 0.057710238 -0.026970576 0.007696391
0001d0 62 a0 9e bb 14 4c a9 bc df 32 67 bc 24 b4 8d bd
       -0.0048408965 -0.02066616 -0.01411125 -0.06919125
0001e0 e0 df 91 bc 02 30 ab bb 40 5d 22 3d a5 85 99 bd
       -0.017806947 -0.005224229 0.03963971 -0.07496194
0001f0 5a bc 5d bd 44 8a b4 bc f0 a2 18 3d b6 3b 7a bd
       -0.054134704 -0.022038586 0.037264764 -0.0610921
000200 9a 88 95 3d 9b 04 01 3d 8d 04 58 bd f9 d2 41 bb
       0.07301445 0.031498533 -0.052738715 -0.0029575212
000210 42 3d 12 bd 15 03 69 3d 07 db 48 bc 0d 05 88 3d
       -0.03570295 0.056887705 -0.012259251 0.06641588
000220 98 25 e7 bc 81 a1 4d 3c 2f 94 b4 3d fc d7 99 bd
       -0.028216168 0.012550713 0.08817326 -0.07511899
000230 15 a2 ef 3d b8 ef 0a bb e6 60 d2 bb 8a a8 7b 3d
       0.117008366 -0.0021200012 -0.0064202426 0.06144003
000240 c7 12 a7 bc 5e 9e 95 3d b4 7b 25 bd 5d 4f 2c bd
       -0.020394696 0.07305597 -0.040401176 -0.042067874
000250 cb 9c 51 3d 07 79 3d ba 97 67 5d bd 81 ac 45 bd
       0.05117492 -0.00072278123 -0.05405387 -0.048260216
000260 4f 84 59 bd 54 d0 45 3b 81 27 cf bc 64 cc 4c 3c
       -0.053104695 0.0030183988 -0.025287392 0.012499902
000270 f8 72 41 3d 23 6e 74 bd df 4e 03 3d b4 06 91 bd
       0.047228783 -0.059675347 0.03205764 -0.07081357
000280 ae f2 52 bd bd f5 8b bd a8 f7 85 3c f5 96 17 3c
       -0.05150097 -0.0683398 0.016353443 0.0092523
000290 61 a5 38 bd f9 72 c2 3c ea 3b 4d bd 37 13 9d bd
       -0.045079593 0.023736464 -0.050105967 -0.076696806
0002a0 84 30 25 bd 7c b2 9f bc 30 f0 48 3b b5 49 86 3d
       -0.04032947 -0.019494288 0.003066074 0.06557027
0002b0 f6 74 3b bd 32 8a f4 bd 6f ad 47 bd d8 92 98 3c
       -0.04576584 -0.11940421 -0.048749384 0.018624708
0002c0 a8 2d 8f 3d af 0a 3b bb 05 c6 82 bd 66 8d f8 bd
       0.0699113 -0.0028540303 -0.063854255 -0.121363446
0002d0 86 e5 ef 3d 93 a3 7f 3d 5d 42 29 3e 0d 73 df bb
       0.117137 0.062411856 0.16529222 -0.006819135
0002e0 1a 50 e0 bb 9d 06 4e 3b 64 7a f4 bd d9 5d df bd
       -0.0068454864 0.0031437047 -0.11937407 -0.10906572
0002f0 4c f6 d4 bd 10 02 ba bb f5 0b c8 bd 86 49 3c bd
       -0.1039854 -0.0056765154 -0.097679056 -0.045968555
000300 8c ba cf 3c 18 6b 9b bd 27 c9 c0 3c 06 5c 96 3d
       0.025357507 -0.07588786 0.023533417 0.07341771
000310 63 9f b0 3c da d4 8e 3d 6e de 40 bd b5 bd ef 3c
       0.021560377 0.06974192 -0.047087125 0.029265264
000320 3e 82 d2 3c fa c6 e0 3c 14 e3 4d 3d 4c 7f 35 bd
       0.02569687 0.02743863 0.050265387 -0.044310853
000330 8b 19 48 3d 76 6c 5c bd c3 25 a0 3b 08 42 06 3e
       0.048852485 -0.053814374 0.004887314 0.13111126
000340 00 a8 20 3e b1 e8 26 3e 04 4b be bd 72 5e f0 3c
       0.15689087 0.16299702 -0.09291652 0.02934191
000350 59 dc b6 bb 3a 4c 56 bd 08 e5 86 bd bd 4a 7d 3c
       -0.0055804667 -0.05231879 -0.06586653 0.0154597135
000360 7d 05 05 bb 26 d0 5a bd 07 aa b8 3d 36 62 1e bb
       -0.002029746 -0.053421162 0.09016805 -0.0024167425
000370 e0 43 57 bd 2f c7 b7 bd 31 57 08 3d 4d 47 2c 3d
       -0.052554965 -0.08973538 0.033286277 0.042060185
000380 33 b3 3b 3d 64 fa b5 bd b2 52 e0 bd 52 43 14 be
       0.045825195 -0.08885649 -0.10953273 -0.14478806
000390 43 64 8a 3c 54 24 e6 3b 85 21 83 3c 3a 1c 49 3d
       0.016893512 0.0070233736 0.016007194 0.049099185
0003a0 3e 68 40 3d 2b 72 9c 3d 4e df 28 bd bd a6 4f bd
       0.046974413 0.07638963 -0.041228585 -0.050696123
0003b0 f1 b4 85 bd e9 8e 12 bd 2b b9 09 bd 26 d1 9b bd
       -0.065286525 -0.03578082 -0.033623856 -0.07608251
0003c0 04 e4 cb 3d b5 42 85 3d 5b 7e bc 3c f0 4f d6 3d
       0.099556 0.06506864 0.02300947 0.104644656
0003d0 b4 ce 78 3c 41 50 03 3d 43 14 91 bd 71 36 af bd
       0.015186001 0.032058958 -0.07083943 -0.08555306
0003e0 e0 d2 de bd ec 41 23 3d 28 63 5c bd 7d 14 88 bd
       -0.10880065 0.03985779 -0.0538055 -0.06644533
0003f0 7a 49 53 bd b9 09 7d bd 1f 2e 0c bd d8 1a 83 bc
       -0.051583745 -0.06177685 -0.034223672 -0.016004011

0.model_cnn.layer4.0.bias f4 [128]
000000 ae 2c 0f b9 3b bc e0 b7 d9 87 2e 39 72 23 61 37
       -0.00013654187 -2.6790533e-05 0.0001664454 1.3419298e-05
000010 33 03 97 b7 80 1a 03 36 58 87 3a b7 bd 71 bc b8
       -1.8002092e-05 1.9535946e-06 -1.1117976e-05 -8.985724e-05
000020 7c 6a 5b b9 68 f2 17 b7 6d bc 06 37 54 7e 19 ba
       -0.00020925136 -9.056741e-06 8.030894e-06 -0.0005855311
000030 12 51 d7 b7 c9 85 0d b8 68 b5 cd 35 93 ab d6 b8
       -2.5667749e-05 -3.3741617e-05 1.5326486e-06 -0.000102362734
000040 fe 1e ff 38 b5 36 47 b7 eb 4b 29 36 66 18 1a 38
       0.0001216512 -1.1874062e-05 2.5227152e-06 3.6739184e-05
000050 21 a7 4c 37 dc 59 3a 38 0a d3 28 38 bc ba 24 b9
       1.219826e-05 4.4429544e-05 4.0250867e-05 -0.00015709823
000060 57 88 c9 b7 6f 49 93 b9 05 eb bb 37 63 0d 8f b8
       -2.4024555e-05 -0.00028092737 2.2401577e-05 -6.821265e-05
000070 22 26 d5 38 29 b4 e5 38 3c a6 68 b9 64 98 87 b8
       0.00010163734 0.000109531284 -0.00022187171 -6.4656866e-05
000080 56 b4 e3 b6 b4 0d 36 b9 fc f5 11 b8 74 c1 c7 38
       -6.786121e-06 -0.00017361977 -3.4799785e-05 9.525093e-05
000090 b4 85 68 b9 61 2c 2c b9 96 f1 ae b8 8b 40 4a 38
       -0.00022175052 -0.0001641973 -8.3419654e-05 4.8220663e-05
0000a0 ef 54 99 38 fb f3 44 37 ba d5 a9 38 72 dd a5 37
       7.3114286e-05 1.17393165e-05 8.098358e-05 1.9772651e-05
0000b0 17 3a 8a 38 1e b3 83 b8 38 43 1e 38 ad b0 39 39
       6.591173e-05 -6.27993e-05 3.7732738e-05 0.00017708792
0000c0 fa 09 70 b7 fa c4 3c 37 11 2f aa 37 6c 60 ac 37
       -1.4307438e-05 1.1251535e-05 2.0287496e-05 2.0548898e-05
0000d0 f7 70 a5 38 af 0a 54 38 cb 97 6c 38 13 d7 d3 b8
       7.8888545e-05 5.055469e-05 5.6408153e-05 -0.00010101325
0000e0 5e 82 a9 b7 86 cd 3c 38 6c 50 99 b8 ce e6 ff b7
       -2.0207077e-05 4.50141e-05 -7.310588e-05 -3.0505846e-05
0000f0 f4 98 ed 38 c2 85 dc b7 8e a1 a6 b6 92 30 a7 b9
       0.000113295304 -2.628833e-05 -4.965993e-06 -0.0003188891
000100 17 5a 65 38 ee 00 8a b7 cc 03 34 39 13 cd c0 38
       5.4681757e-05 -1.6451315e-05 0.00017167552 9.1934715e-05
000110 6c b8 fb 37 e7 21 8a b8 73 be d3 b8 bc bf db 37
       3.000741e-05 -6.5866676e-05 -0.00010096738 2.6196118e-05
000120 86 5b 83 b7 9a 1a c6 b7 e6 56 18 39 8c e9 c8 b7
       -1.5659036e-05 -2.3615827e-05 0.00014528222 -2.3950612e-05
000130 f0 80 5d 39 01 e2 c2 b9 1d 47 8a 37 6b 92 37 b9
       0.00021124235 -0.0003717095 1.6483997e-05 -0.00017506785
000140 58 66 8e 38 f6 7b eb b7 be 25 16 b8 13 03 aa b6
       6.790151e-05 -2.8071907e-05 -3.5797937e-05 -5.0667527e-06
000150 14 cb 3c 38 8b 1a 8f b8 61 10 f8 38 1c be 58 39
       4.5011824e-05 -6.8237154e-05 0.00011828612 0.00020670186
000160 58 d5 bf 39 f9 f1 86 38 db c9 9d b6 82 45 ed b6
       0.00036589312 6.434689e-05 -4.7024637e-06 -7.071242e-06
000170 df 45 c1 38 58 13 8c 39 3e 72 12 ba ff 2f c4 b7
       9.215972e-05 0.00026717293 -0.00055864814 -2.338737e-05
000180 c5 57 a0 b8 11 90 b5 b8 a2 da 0b 39 86 23 d7 37
       -7.645743e-05 -8.657587e-05 0.0001333752 2.564654e-05
000190 dc d1 fd 36 4a 70 84 b8 62 2c 20 b9 16 16 78 b8
       7.5644184e-06 -6.315166e-05 -0.00015275323 -5.9148377e-05
0001a0 50 78 22 b7 1a f0 26 38 f8 10 71 39 65 bd e1 39
       -9.683965e-06 3.9801096e-05 0.00022989872 0.00043056454
0001b0 f1 be ed b7 bb 3a b9 b7 e7 57 82 38 58 6e 04 37
       -2.8341516e-05 -2.2081067e-05 6.215256e-05 7.8935045e-06
0001c0 00 c3 6c 37 cc fd d9 38 87 c7 7a 39 20 61 fc 38
       1.4112098e-05 0.0001039464 0.00023916188 0.00012034387
0001d0 9b cb 4b 39 b6 bc dd 37 f4 59 08 39 7e dd 91 b8
       0.00019435438 2.6433128e-05 0.00013003481 -6.955395e-05
0001e0 da 63 cc 37 eb 28 f8 37 a0 29 f0 b4 bd b2 44 39
       2.4365192e-05 2.9582958e-05 -4.473377e-07 0.00018758602
0001f0 0b dd 30 b9 ac 97 64 b9 90 50 60 37 a6 ba b1 b7
       -0.00016867013 -0.00021800277 1.3370198e-05 -2.118696e-05

0.model_cnn.layer4.1.weight f4 [128]
000000 8e 54 7c 3f 9d d1 82 3f 36 d5 82 3f 02 f1 70 3f
       0.9856652 1.0220219 1.0221317 0.9411775
000010 0d f4 62 3f c0 69 8a 3f e9 90 83 3f fb db 76 3f
       0.8865364 1.0813522 1.0278598 0.96429414
000020 39 ce 81 3f 72 24 8e 3f eb 0d 7c 3f 9a 96 81 3f
       1.0141059 1.1104872 0.9845874 1.0124085
000030 7d 23 81 3f 0e d9 83 3f bb 2d 7b 3f c2 22 72 3f
       1.0088955 1.0300615 0.98116654 0.94584286
000040 0f 39 87 3f 87 93 71 3f 84 4f 73 3f ba 58 7b 3f
       1.0564288 0.94365734 0.95043206 0.9818226
000050 3d f5 7c 3f 00 ec 85 3f 30 79 7c 3f ea 73 81 3f
       0.98811704 1.0462646 0.9862242 1.0113499
000060 88 cf 78 3f 35 52 81 3f 6d 56 81 3f 31 49 82 3f
       0.9719167 1.0103213 1.01045 1.0178586
000070 16 38 7c 3f 4d fe 72 3f 3a 54 86 3f 22 4d 86 3f
       0.9852308 0.9491928 1.0494454 1.0492289
000080 fe 70 85 3f af 85 80 3f 9a 39 76 3f 25 04 73 3f
       1.0425107 1.0040797 0.96181643 0.949282
000090 c9 fd 7c 3f ca 77 88 3f 45 95 7d 3f 4d e2 7b 3f
       0.98824745 1.0661557 0.9905589 0.9839218
0000a0 84 c2 80 3f 15 cf 8b 3f e0 e0 88 3f e4 d8 76 3f
       1.0059361 1.0922571 1.0693626 0.964247
0000b0 1e db 87 3f 67 ff 6c 3f 9b 23 69 3f 9a 25 7f 3f
       1.0613744 0.92577213 0.91069955 0.9966675
0000c0 60 8d 75 3f 89 19 80 3f 19 eb 68 3f ce c5 7a 3f
       0.95918846 1.0007793 0.9098373 0.97958076
0000d0 10 bf 83 3f 24 d0 73 3f ba c0 84 3f bc f3 81 3f
       1.0292683 0.9523947 1.0371315 1.0152507
0000e0 9b de 7f 3f 7c 69 7c 3f 3d 72 83 3f 62 0e 78 3f
       0.99949044 0.98598456 1.0269238 0.96896946
0000f0 ad 08 83 3f 40 2e 86 3f cc 0e 83 3f c0 28 79 3f
       1.0237023 1.0482864 1.0238891 0.97327805
000100 06 2b 7d 3f da b0 77 3f d3 c7 81 3f 77 64 6d 3f
       0.98893774 0.9675423 1.0139107 0.9273142
000110 4e 09 84 3f 7e a0 81 3f 6a ce 7f 3f b9 c5 84 3f
       1.031534 1.0127103 0.9992434 1.037284
000120 60 7e 72 3f 59 cb 7e 3f 37 5a 78 3f f4 45 75 3f
       0.9472408 0.99529034 0.97012657 0.95809865
000130 b5 5e 6d 3f c5 b0 83 3f 2c ba 81 3f 0e 7f 86 3f
       0.92722636 1.0288321 1.013494 1.0507524
000140 21 c5 78 3f 69 02 78 3f ef b5 7b 3f 31 99 70 3f
       0.97175795 0.9687868 0.98324484 0.9398375
000150 cd ba 8a 3f b9 04 81 3f 2c 4e 81 3f d4 99 84 3f
       1.0838257 1.0079566 1.0101981 1.0359445
000160 0a f4 86 3f 38 61 89 3f a3 0d 82 3f a5 a9 7f 3f
       1.0543225 1.0732794 1.0160412 0.9986823
000170 74 c0 83 3f d1 e1 80 3f a4 b3 86 3f c6 10 78 3f
       1.0293107 1.0068914 1.0523572 0.96900594
000180 33 3a 89 3f f6 c2 7a 3f b0 f2 7c 3f 30 55 82 3f
       1.0720886 0.97953737 0.9880781 1.0182247
000190 15 92 6e 3f 5a b5 7b 3f f2 fb 85 3f 66 c8 7e 3f
       0.93191653 0.98323596 1.0467513 0.99524534
0001a0 a0 75 7a 3f e2 7d 87 3f ef 47 83 3f ae ef 7e 3f
       0.9783573 1.0585291 1.0256327 0.9958447
0001b0 68 46 8a 3f b0 ab 6e 3f 7c e8 74 3f 3b 48 75 3f
       1.0802736 0.93230724 0.95667243 0.9581334
0001c0 3d eb 81 3f cf 10 7c 3f 16 d8 7d 3f ff a1 82 3f
       1.0149914 0.9846315 0.99157846 1.0205687
0001d0 be 6a 84 3f 90 93 83 3f 8c 0d 88 3f 38 77 83 3f
       1.0345075 1.0279408 1.0629134 1.0270758
0001e0 50 91 80 3f 55 50 7f 3f d0 d6 79 3f 94 2d 81 3f
       1.0044346 0.9973195 0.975934 1.0092034
0001f0 57 0e 81 3f 16 e8 8b 3f 25 f9 80 3f 1c 79 63 3f
       1.0082501 1.0930202 1.0076033 0.88856673
