checkpoint/DA/s_0_1_t3/cnn_features_1d_0925-180509/56-0.9773-best_model.pth (torch, 944127 bytes, 30 tensors)

0.model_cnn.layer1.0.weight f4 [16, 1, 15]
0	0x3e45f61b	0.19332163
1	0x3e1cadca	0.1530067
2	0x3cfc5fbd	0.03080737
3	0xbe7bcd68	-0.24590075
4	0xbce8d2b2	-0.02842078
5	0xbc6f44fe	-0.014603851
6	0xbe70262d	-0.23452063
7	0xbe08c1c8	-0.13355172
8	0x3d014e44	0.03156878
9	0xbdc41474	-0.095742136
10	0x3d414481	0.04718447
11	0x3e57165f	0.21004628
12	0xbd568668	-0.052374274
13	0xbe7e6b1c	-0.24845546
14	0x3dc49146	0.09598021
15	0x3e2e1099	0.16998519
16	0x3e3cbc73	0.18431263
17	0xbe24c0c2	-0.16089156
18	0x3c82fc5f	0.01598948
19	0xbe007fe4	-0.12548786
20	0xbe83ca37	-0.25740215
21	0x3de6c8b3	0.11268749
22	0x3e6552ce	0.22394869
23	0xbe860731	-0.26177362
24	0x3d8a4910	0.06752217
25	0xbe9b864f	-0.30375907
26	0xbe26ce11	-0.16289546
27	0xbd192f9b	-0.037398916
28	0xbe824e87	-0.25450537
29	0x3dca81e8	0.09888059
30	0x3ea0d199	0.3140991
31	0x3e2ec3fa	0.17066947
32	0x3e0f3055	0.13983281
33	0x3e1bed84	0.15227324
34	0xbd84eef5	-0.0649089
35	0x3aeb93d6	0.0017973136
36	0x3de0ea5b	0.109822
37	0xbd652b0b	-0.055949252
38	0xbd87d175	-0.06631748
39	0xbe75f287	-0.24018298
40	0x3e37e182	0.17957118
41	0xbe834c1c	-0.25644004
42	0x3e311878	0.1729449
43	0x3d900097	0.070313625
44	0xbe694c8c	-0.22783107
45	0xbe7a69f7	-0.24454485
46	0xbe403997	-0.18771969
47	0xbd3b45dd	-0.045720924
48	0xbe10ca43	-0.14139657
49	0xbe7170a0	-0.2357812
50	0xbbb7627e	-0.005596458
51	0x3e3bc03b	0.18335049
52	0xbe75eb3e	-0.24015519
53	0xbdbfc7d7	-0.09364288
54	0xbceb3eea	-0.028716523
55	0xbe07255e	-0.13197848
56	0x3d8576c5	0.06516794
57	0xbd908aa4	-0.070576936
58	0xbdd99f76	-0.10626118
59	0x3e8fcb8a	0.28084975
60	0xbd60e5cb	-0.054906648
61	0x3dcf2a9f	0.10115551
62	0x3e9a19a6	0.30097693
63	0xbe27d390	-0.16389298
64	0xbd9c557a	-0.07633491
65	0x3d9b137a	0.07572074
66	0x3e474658	0.19460428
67	0x3e92c7b0	0.28667974
68	0xbe3e7e18	-0.18602788
69	0xbd447d0f	-0.047970828
70	0x3df9c417	0.12195604
71	0xbd8b9340	-0.06815195
72	0x3e014dfb	0.12627403
73	0xbd9f7742	-0.077864185
74	0xbc878b7e	-0.016546007
75	0x3e80638f	0.25075957
76	0x3e0f2b1f	0.13981293
77	0xbcf0913a	-0.029366124
78	0x3e7479de	0.23874614
79	0x3e1f1e81	0.1553898
80	0x3e603a99	0.21897353
81	0x3b28bac3	0.0025746084
82	0x3e5cbea7	0.21557103
83	0xbcd0ae85	-0.025473842
84	0xbe138eaf	-0.14409898
85	0xbdb83861	-0.089951284
86	0xbe407413	-0.18794279
87	0x3e51bce1	0.20482208
88	0xbe337719	-0.17525901
89	0xbe96dda4	-0.29465973
90	0xbde3d607	-0.11124807
91	0xbe38cfc0	-0.18048
92	0x3bff4215	0.00778986
93	0x3e411f75	0.18859656
94	0x3dd0f8ac	0.102036804
95	0x3d4edefe	0.05050563
96	0x3e6d8832	0.23196486
97	0xbe286a8a	-0.16446891
98	0x3e1b07ab	0.15139644
99	0xbe633e4c	-0.22191733
100	0xbe41e767	-0.18935929
101	0xbe200442	-0.15626624
102	0xbe9a5b2f	-0.30147693
103	0x3e17d244	0.14826304
104	0xbc409b38	-0.011755757
105	0xbe082b62	-0.13297799
106	0x3e0df98e	0.13864729
107	0xbe7e3d2b	-0.24828021
108	0x3b47bd5a	0.0030477853
109	0xbe70ebed	-0.23527499
110	0x3d2b4095	0.041809637
111	0x3cf4bc90	0.02987507
112	0x3e05bede	0.13061091
113	0xbd93ef9b	-0.072234355
114	0x3cc62e44	0.024191983
115	0x3e670a99	0.22562636
116	0xbe7fdd18	-0.24986684
117	0x3cfbfaba	0.030759204
118	0x3d95e922	0.07319857
119	0xbdf269e7	-0.118366055
120	0xbe428615	-0.1899646
121	0xbe1f7f14	-0.1557582
122	0x3d081db2	0.033231445
123	0xbe34e24f	-0.17664455
124	0x3e4848f3	0.19559078
125	0xbc208870	-0.009798154
126	0xbe2307d5	-0.15920956
127	0xbd2a7e1b	-0.04162417
128	0xbe2d874d	-0.16946144
129	0x3e39f4fe	0.18159863
130	0x3e335a01	0.17514803
131	0xbcd202f9	-0.025636183
132	0xbdf5c21b	-0.11999913
133	0xbe022cbf	-0.12712382
134	0xbe621f67	-0.22082292
135	0x3d211aa0	0.039332032
136	0x3de8cc34	0.11367074
137	0xbdf61b88	-0.1201697
138	0xbc26d32c	-0.010182183
139	0xbe315fb8	-0.1732167
140	0xbdcf2b6f	-0.10115706
141	0x3e573460	0.21016073
142	0xbd35516c	-0.044267103
143	0x3e1537cf	0.1457207
144	0xbe06f51a	-0.13179436
145	0xbd8be5b3	-0.06830921
146	0x3df5888d	0.119889356
147	0xbe69de99	-0.2283882
148	0x3df0ea38	0.11763424
149	0xbe8234ac	-0.2543081
150	0xbe30e393	-0.17274313
151	0x3e5e251a	0.2169384
152	0xbdf36a5d	-0.118855216
153	0x3e2b528c	0.16730708
154	0x3dbca2ca	0.09210737
155	0x3dd26823	0.10273769
156	0xbdd9bda5	-0.10631875
157	0x3e6c9479	0.23103513
158	0x3d9f83c5	0.07788805
159	0x3d5aac03	0.0533867
160	0x3e8a1989	0.26972607
161	0xbd7564c8	-0.059910566
162	0xbbf70746	-0.007538709
163	0x3e801581	0.25016406
164	0xbe5e4580	-0.217062
165	0x3d4e8d04	0.05042745
166	0x3e6e563f	0.23275088
167	0xbe88aef2	-0.26695973
168	0xbe0167fe	-0.12637326
169	0xbd304d5a	-0.04304252
170	0xbcd96cfb	-0.026541224
171	0xbdef80e1	-0.116945036
172	0xbe129ff0	-0.14318824
173	0xbe811921	-0.25214484
174	0x3cfab9e2	0.030606214
175	0x3e86339b	0.26211247
176	0xbdab5f1c	-0.0836775
177	0x3dd8e483	0.1059046
178	0x3d700db7	0.05860683
179	0xbc0a0dc1	-0.008426131
180	0xbd314386	-0.043277286
181	0xbe01ed74	-0.12688237
182	0x3e473241	0.19452764
183	0x3e7564f3	0.2396429
184	0xbde3dadc	-0.111257285
185	0xbb8a4ff6	-0.004220958
186	0xbe64bd77	-0.223379
187	0xbe358509	-0.1772653
188	0x3dea44be	0.11438893
189	0x3e3f86ca	0.18703762
190	0x3e2357fb	0.1595153
191	0x3de34268	0.1109665
192	0xbe063868	-0.13107455
193	0xbea3f43a	-0.32022268
194	0xbd1a85e9	-0.037725363
195	0xbd212a2f	-0.03934687
196	0x3d8541a8	0.065066636
197	0x3d811159	0.06302137
198	0x3c9a0c72	0.018804763
199	0x3e3d9a9d	0.18516012
200	0x3e2d631c	0.16932338
201	0xbe80a991	-0.2512937
202	0x3e81f05f	0.253787
203	0x3c2a9606	0.010411745
204	0x3e760f2f	0.2402923
205	0x3d57524b	0.052568715
206	0xbe1fe32c	-0.15614003
207	0xbe3c56bc	-0.18392462
208	0xbdd622de	-0.10455869
209	0x3ce0906e	0.02741262
210	0xbe37b91b	-0.17941706
211	0x3db3e10f	0.08783161
212	0xbd374228	-0.044740826
213	0x3d9b68a8	0.07588321
214	0x3d6721d5	0.05642875
215	0x3cba377e	0.022731539
216	0xbda292f1	-0.07938183
217	0xbca7593a	-0.020428289
218	0x3d539f7f	0.05166578
219	0xbe1a103d	-0.15045257
220	0xbe6d0706	-0.2314721
221	0x3dd1768b	0.102276884
222	0xbe052be0	-0.13005018
223	0xbe984d34	-0.297464
224	0x3e1d8fd9	0.15386905
225	0xbddb6765	-0.1071308
226	0x3e0c43e7	0.13697778
227	0xbd4cb9a3	-0.049981724
228	0xbe06a472	-0.13148668
229	0x3e73d090	0.23810029
230	0xbd2ec686	-0.042669795
231	0x3cd501b3	0.026001787
232	0x3e26eb5f	0.16300724
233	0xbe1de600	-0.1541977
234	0x3d9f0d0e	0.07766162
235	0x3dfa9aaf	0.12236535
236	0xbcaba6bc	-0.020953529
237	0x3e7a83c0	0.24464321
238	0xbe0bee4e	-0.13665125
239	0x3e090b5e	0.13383242

0.model_cnn.layer1.0.bias f4 [16]
0	0xb9ab003c	-0.00032615836
1	0xba4bd8fd	-0.0007776169
2	0x3ab44505	0.001375348
3	0xbb5fb272	-0.0034133461
4	0xbb280fdf	-0.0025644226
5	0x3bbb9181	0.0057241325
6	0xbc0fb178	-0.008770339
7	0xba092156	-0.00052311027
8	0xbaa56d22	-0.0012621025
9	0xbb4df7b4	-0.003142816
10	0x3aae57d0	0.0013301317
11	0x3ad5a3ea	0.001629946
12	0xbc3981ae	-0.011322422
13	0xbb124a28	-0.0022322033
14	0x3a7860b8	0.00094748614
15	0x3c1d8f80	0.009616733

0.model_cnn.layer1.1.weight f4 [16]
0	0x3f6bb6da	0.92075884
1	0x3f7bb12b	0.9831721
2	0x3f8227ba	1.0168374
3	0x3f752208	0.9575505
4	0x3f785259	0.9700065
5	0x3f7d3f4c	0.9892471
6	0x3f83548d	1.0260178
7	0x3f738e2e	0.95138824
8	0x3f83de2a	1.0302174
9	0x3f8bea94	1.0930963
10	0x3f8a5eca	1.0810177
11	0x3f6e3036	0.93042314
12	0x3f83b163	1.0288509
13	0x3f827d52	1.0194495
14	0x3f6f819e	0.93557155
15	0x3f832182	1.0244601

0.model_cnn.layer1.1.bias f4 [16]
0	0xbc9ef3e4	-0.019403405
1	0x3c596887	0.01326955
2	0x3d6b04fc	0.0573778
3	0xbce9970e	-0.028514411
4	0x3ca14150	0.019684464
5	0xbdd0c932	-0.10194625
6	0x3bedcade	0.0072568497
7	0x3c39b92e	0.011335654
8	0xbd9c078c	-0.07618627
9	0x3e0b3ee6	0.13598213
10	0x3d60db6d	0.05489676
11	0xbdc8f27d	-0.09811876
12	0x3db21552	0.08695473
13	0xbb83858a	-0.004013722
14	0xbd8b6f3a	-0.06808324
15	0xbd2a8f1e	-0.041640393

0.model_cnn.layer1.1.running_mean f4 [16]
0	0xb972f2f6	-0.00023169428
1	0xba9f3bd1	-0.0012148564
2	0x3add352a	0.0016876806
3	0x3a06b2a8	0.0005138316
4	0xbbcc00eb	-0.0062256954
5	0x3ba6a9d8	0.005086165
6	0xbc1e00fe	-0.009643791
7	0xb9ed0699	-0.00045209078
8	0xba8f78e9	-0.0010946068
9	0xbb5e059e	-0.003387786
10	0x3a98ab5d	0.001164775
11	0x3aab4821	0.0013067761
12	0xbbf996ae	-0.0076168394
13	0xbb284278	-0.0025674384
14	0x3b0b0d97	0.0021217817
15	0x3c2a0916	0.010378143

0.model_cnn.layer1.1.running_var f4 [16]
0	0x3f04cda1	0.51876265
1	0x3e924c8d	0.2857403
2	0x3e98dd57	0.2985637
3	0x3ee42078	0.44556022
4	0x3eb7a21e	0.35865873
5	0x3f0141b6	0.5049089
6	0x3eb25ba6	0.34835547
7	0x3e5e6ab2	0.21720389
8	0x3e4376c4	0.19088274
9	0x3dca4a24	0.098774225
10	0x3e35e458	0.17762887
11	0x3e9d7dcc	0.30760038
12	0x3e5c4ee4	0.2151447
13	0x3e42c965	0.19022138
14	0x3ec8dc2d	0.3923048
15	0x3dcf6ff7	0.101287775

0.model_cnn.layer2.0.weight f4 [32, 16, 3]
0	0x3dc16cbc	0.094445676
1	0xbdfae23b	-0.12250181
2	0xbdf44d91	-0.11928857
3	0xbc438b3a	-0.01193505
4	0xbd873a90	-0.06602967
5	0xbd5c78a5	-0.053825993
6	0x3d8333d7	0.06406372
7	0xbd5557df	-0.052085754
8	0x3da780fe	0.081789
9	0x3d9bf118	0.07614344
10	0x3c887030	0.016655058
11	0x3dc67840	0.096909046
12	0x3df70f57	0.12063473
13	0xbd63dc45	-0.055629987
14	0x3d54530d	0.051837016
15	0x3db771c0	0.08957243
16	0x3dd1c02b	0.10241731
17	0xbd3ab070	-0.04557842
18	0xbbd9edb9	-0.006650653
19	0x3e1dbff7	0.1540526
20	0x3c117c91	0.008879797
21	0xbc92786b	-0.017879685
22	0x3cd1254c	0.02553048
23	0xbdeb49d8	-0.11488694
24	0x3d8664be	0.06562184
25	0x3e082bce	0.1329796
26	0xbbd412c7	-0.006471965
27	0x3dde3429	0.108497925
28	0x3db53ecc	0.08849868
29	0xbd7631f2	-0.060106225
30	0x3e49ca5d	0.19706102
31	0x3e44029d	0.19141622
32	0x3daef400	0.08542633
33	0xbbfb6902	-0.00767243
34	0xbdcffc6c	-0.101555675
35	0xbbdf8192	-0.006820866
36	0x3d3e8bb3	0.046519946
37	0xbd887dc9	-0.066646166
38	0xbd8fd591	-0.070231564
39	0x3cac03b8	0.020997867
40	0x3dcce35e	0.10004304
41	0x3d587c6b	0.05285303
42	0x3d859652	0.06522812
43	0x3cc87f67	0.024474813
44	0xbdc06b92	-0.093955174
45	0xbe14402f	-0.14477609
46	0x3e00c9bc	0.12576956
47	0x3cde2ec4	0.027121909
48	0x3d979a4f	0.07402479
49	0xbc943217	-0.018090291
50	0x3d4f58ff	0.050621983
51	0x3d2b7a52	0.0418647
52	0xbda054bc	-0.07828662
53	0xbcf775c5	-0.030207524
54	0x3d00d31f	0.03145134
55	0xbd71276c	-0.058875486
56	0xbd20c71d	-0.03925239
57	0xbdd592a8	-0.10428363
58	0xbc9589f6	-0.018254261
59	0xbb9b1aae	-0.004733405
60	0xbd8b9a9e	-0.068166
61	0x3de98da4	0.11403969
62	0xbe06e0cf	-0.13171695
63	0xbda2bd01	-0.07946206
64	0xbde9f0c3	-0.11422875
65	0xbe3b0bfc	-0.1826629
66	0xbd8375f4	-0.06418982
67	0x3d2ac5bf	0.04169249
68	0x3e19c9fe	0.1501846
69	0x3d23e4da	0.04001317
70	0xbdafc5e0	-0.085826635
71	0xbdff37fd	-0.12461851
72	0x3ddd15be	0.107951626
73	0x3e0843a2	0.1330705
74	0x3dc5997d	0.09648416
75	0x3c973dd9	0.018462108
76	0xbc19ce13	-0.009387511
77	0xbd6b468b	-0.057440322
78	0xbde15d01	-0.11004067
79	0xbddaac66	-0.10677414
80	0x3db51a4f	0.088429086
81	0x3e03f686	0.1288701
82	0x3c94a971	0.018147202
83	0xbcf9f6c8	-0.030513182
84	0x3ceeee5a	0.02916639
85	0x3e1e9097	0.15484844
86	0x3e101a54	0.14072543
87	0x3c3ce1be	0.0115284305
88	0x3e061d49	0.13097109
89	0x3e13b664	0.14425045
90	0xbdad298f	-0.08455192
91	0x3cade1fd	0.021225924
92	0xbdc0b7c1	-0.09410048
93	0x3ab09ba9	0.0013474125
94	0xbdebcfe7	-0.115142636
95	0xbc77391f	-0.015089302
96	0x3da0ecff	0.078577034
97	0xbc7f1d51	-0.015570954
98	0x3a9feaab	0.0012200674
99	0xbdaa0492	-0.08301653
100	0xbd8161de	-0.06317495
101	0x3d21b29a	0.03947697
102	0xbd8ef38f	-0.06980049
103	0x3d493a59	0.04912791
104	0xbd8d7178	-0.06906408
105	0x3d3b7c08	0.045772582
106	0x3d8ad321	0.06778551
107	0xbd7c7d52	-0.061642952
108	0x3d8e6020	0.06951928
109	0xbe2ca3ff	-0.16859435
110	0x3dc9bab6	0.098500654
111	0x3d98ddac	0.074641556
112	0x3dfe399f	0.12413334
113	0xbe102bb8	-0.14079177
114	0xbe07c90b	-0.13260286
115	0xbd03c562	-0.03217066
116	0xbdf8e19f	-0.12152409
117	0xbdfcfdef	-0.123531215
118	0xbdd4c4e5	-0.10389117
119	0xbe0375fa	-0.12837973
120	0x3d35eb40	0.044413805
121	0x3c595458	0.013264738
122	0xbda219f1	-0.07915104
123	0xbe046868	-0.12930453
124	0x3df4095b	0.11915847
125	0xbe812e9c	-0.25230873
126	0xbdf6287e	-0.12019442
127	0x3da27ecd	0.079343416
128	0xbd9de592	-0.07709803
129	0xbdc50759	-0.09620542
130	0xbd66ce74	-0.056349233
131	0xbd72f1cd	-0.05931263
132	0x3d33e477	0.043919053
133	0xbdedef66	-0.11617927
134	0xbe090e09	-0.1338426
135	0x3e239174	0.15973455
136	0xbd18ea95	-0.03733309
137	0x3e13d99a	0.14438477
138	0xbd321562	-0.043477423
139	0xbda04b09	-0.07826812
140	0xbde86325	-0.11347035
141	0x3db052af	0.08609521
142	0x3ce87767	0.028377248
143	0x3dfdd4cd	0.12394104
144	0xbe04c203	-0.12964635
145	0xbd8df25e	-0.069309935
146	0x3d848738	0.064711034
147	0x3cb18f75	0.021674851
148	0xbd84e240	-0.06488466
149	0xbd93c4ba	-0.07215257
150	0x3d89c11a	0.06726284
151	0x3d87ff46	0.066404864
152	0x3de45af8	0.111501634
153	0xbdd82ce7	-0.105554394
154	0x3dc53e71	0.096310504
155	0xbd50f61d	-0.051015962
156	0x3d434cea	0.047680773
157	0xbcfcfc49	-0.030882018
158	0xbdfad45c	-0.122475356
159	0xbdc89555	-0.09794108
160	0xbe0ce820	-0.13760424
161	0x3da95b2c	0.08269343
162	0x3d55dd48	0.052212983
163	0x3cbc1957	0.022961302
164	0xbde0cce6	-0.10976581
165	0xbd2a4f70	-0.041579664
166	0xbda812d3	-0.082067154
167	0x3d3f0555	0.046635944
168	0xbcc25708	-0.02372314
169	0xbd7950ba	-0.060868002
170	0xbe2d5934	-0.1692856
171	0xbe09ba76	-0.13450035
172	0xbe3a0f3d	-0.18169875
173	0xbdc24ec4	-0.094876796
174	0x3c422499	0.011849546
175	0xbe34e42f	-0.1766517
176	0xbbd6829c	-0.0065463316
177	0xbd3b14bc	-0.04567407
178	0x3db6e353	0.089300774
179	0x3d35750f	0.04430109
180	0x3d91e2bc	0.07123324
181	0xbd08deee	-0.033415727
182	0xbd8a3794	-0.06748882
183	0xbe291b74	-0.16514379
184	0xbe07ddf4	-0.13268262
185	0x3d8eea11	0.069782384
186	0xbd41dc05	-0.047328968
187	0x3d86e811	0.06587232
188	0x3dba6640	0.09101534
189	0xbe5d4309	-0.21607603
190	0x3d3396d0	0.043844998
191	0xbddc68a6	-0.107621476
192	0x3df9addb	0.121913634
193	0x3de5039b	0.11182328
194	0x38dff1c4	0.00010678501
195	0xbcd9698f	-0.026539592
196	0xbc51d137	-0.012806228
197	0x3bfe3d13	0.0077587455
198	0xbdeeb3f4	-0.11655417
199	0xbe071bfc	-0.13194269
200	0x3c354e33	0.011066007
201	0x3de581b5	0.1120638
202	0xbe0cfa66	-0.13767394
203	0x3dae5437	0.085121565
204	0x3e2a6809	0.16641249
205	0xbd350603	-0.044195186
206	0xbdccb0a3	-0.09994628
207	0x3e07dd7c	0.13268083
208	0x3e1becc6	0.1522704
209	0xbbc5b20a	-0.006033187
210	0x3d963a83	0.07335379
211	0x3d51e65a	0.05124507
212	0x3c0cf267	0.008602715
213	0x3db43344	0.08798841
214	0xbe4120c8	-0.18860161
215	0xbdd0884d	-0.10182247
216	0xbdf358f5	-0.118822016
217	0xbd38fc08	-0.04516223
218	0xbd8f0de4	-0.06985071
219	0x3d1494a4	0.036274567
220	0x3e0fd51f	0.14046143
221	0xbc86808d	-0.01641872
222	0x3d43e655	0.047827084
223	0xbe042d88	-0.12907994
224	0xbe630d4c	-0.22173041
225	0xbd813a45	-0.06309942
226	0x3c90aa0d	0.017659212
227	0xbda9b0cf	-0.08285677
228	0xbe34cddb	-0.17656653
229	0x3be9678d	0.00712294
230	0x3d17bece	0.0370472
231	0x3d7de86a	0.061989225
232	0xbe1ac7e6	-0.15115318
233	0x3c7a9ef2	0.015296685
234	0xbdb998d4	-0.09062353
235	0x3dc156db	0.094403945
236	0xbd6fd05b	-0.058548313
237	0xbcfd1299	-0.030892657
238	0xbc9a69d0	-0.018849283
239	0x3d27f379	0.041003678
240	0xbd8b5b52	-0.06804527
241	0x3cf9067b	0.030398598
242	0xbd15e432	-0.036594577
243	0x3d508571	0.05090851
244	0x3d49f989	0.04931024
245	0xbe18ebcb	-0.14933698
246	0xbd8679e7	-0.0656622
247	0xbd65b549	-0.05608109
248	0x3d9cdc8d	0.07659254
249	0xbde8cc6a	-0.11367114
250	0xbd52419b	-0.051332098
251	0xbd825132	-0.06363143
252	0x3e094f59	0.13409175
253	0xbdf44989	-0.11928088
254	0x3e03b21d	0.12860914
255	0xbac7bfea	-0.001523969

0.model_cnn.layer2.0.bias f4 [32]
0	0x3abde61b	0.0014488132
1	0x3a28f07d	0.0006444527
2	0x3a846a73	0.0010102525
3	0x3a9f2971	0.0012143088
4	0x3b02cb18	0.001995748
5	0x3a87543d	0.0010324788
6	0x3ab5512e	0.0013833398
7	0x3c98e16d	0.018662179
8	0xba93c61a	-0.0011274249
9	0xba783d3d	-0.00094695744
10	0xbb0bf0bc	-0.0021353206
11	0x39f0ac24	0.00045904622
12	0xba42f4ea	-0.0007437008
13	0x38895714	6.5488886e-05
14	0x39b78da3	0.00035010008
15	0xbaac5ad0	-0.0013149623
16	0xb9e4185f	-0.00043505707
17	0xbb07a529	-0.0020697808
18	0xba3837f0	-0.00070273783
19	0xb968bc18	-0.00022195315
20	0xba68e58d	-0.00088843034
21	0xbaaa7949	-0.0013006116
22	0x3a3bc02c	0.000716212
23	0x3a7512f0	0.000934883
24	0x3a0e4710	0.0005427459
25	0xbb2be454	-0.0026228623
26	0x39238e32	0.00015597863
27	0xb8f38bf0	-0.00011613208
28	0x39940234	0.000282304
29	0xba67077f	-0.00088130677
30	0x3a291009	0.0006449228
31	0xba4f00ea	-0.00078965595

0.model_cnn.layer2.1.weight f4 [32]
0	0x3f77bbea	0.9677111
1	0x3f860a7e	1.0471952
2	0x3f8669d8	1.0501051
3	0x3f742ed0	0.9538393
4	0x3f846057	1.03419
5	0x3f6fbda4	0.93648744
6	0x3f71f315	0.9451154
7	0x3f80f718	1.0075407
8	0x3f7bd49e	0.98371303
9	0x3f6dea6e	0.92935836
10	0x3f775f42	0.96629727
11	0x3f78cbae	0.9718579
12	0x3f76800e	0.96289146
13	0x3f7bd15f	0.9836635
14	0x3f7adf55	0.9799703
15	0x3f83d006	1.0297859
16	0x3f7a05fe	0.97665393
17	0x3f7e7af9	0.9940639
18	0x3f9211f4	1.1411729
19	0x3f83a4ca	1.0284665
20	0x3f72ab9d	0.9479311
21	0x3f7ed2c7	0.9954037
22	0x3f80d3da	1.0064652
23	0x3f7018a8	0.9378762
24	0x3f82f9d2	1.0232489
25	0x3f82b254	1.0210671
26	0x3f78e9ce	0.9723176
27	0x3f7f2823	0.9967062
28	0x3f693214	0.9109204
29	0x3f7b58cc	0.9818237
30	0x3f8a6338	1.0811529
31	0x3f7e5fad	0.9936474

0.model_cnn.layer2.1.bias f4 [32]
0	0xbe337846	-0.1752635
1	0xbdbfd0fe	-0.09366034
2	0x3d31d3ad	0.04341476
3	0xbc395822	-0.011312516
4	0xbd3ad07e	-0.04560899
5	0xbd48a043	-0.048980962
6	0xbd7df474	-0.062000707
7	0xbdc424f7	-0.09577363
8	0xbd11bd8d	-0.03558116
9	0xbd0f5972	-0.03499741
10	0xbe632a3c	-0.2218408
11	0xbe3dc26b	-0.18531196
12	0xbe2b1de3	-0.1671062
13	0x3d33debc	0.043913588
14	0xbde491c2	-0.111606136
15	0xbcf0b005	-0.029380808
16	0xbdbe50d0	-0.092927575
17	0xbcace652	-0.021105919
18	0x3e2a7802	0.16647342
19	0xbe622dd1	-0.2208779
20	0xbdaea75b	-0.08528014
21	0xbd2f4377	-0.04278895
22	0xbdd051ef	-0.101718776
23	0xbd0dc23f	-0.034609076
24	0xbdabc376	-0.083868906
25	0xbd6dc519	-0.058049295
26	0xbe5f86cb	-0.21828763
27	0xbd75a8c3	-0.059975397
28	0xbd530d1c	-0.051526174
29	0xbd490a3b	-0.049082022
30	0x3d51a0be	0.051178686
31	0xbce7b788	-0.028285757

0.model_cnn.layer2.1.running_mean f4 [32]
0	0x3ede72ed	0.43447056
1	0x3a1a9988	0.0005897512
2	0xbeec85af	-0.46195742
3	0xbf1b28d1	-0.60609156
4	0xbe4c49c3	-0.19950013
5	0xbea6157c	-0.32438266
6	0xbe35851f	-0.17726563
7	0xbe497b1c	-0.19675869
8	0xbeb71848	-0.35760713
9	0xbec293ab	-0.38003287
10	0x3f0106d4	0.50401044
11	0x3e54c2ab	0.20777385
12	0x3e3aaaf9	0.18229283
13	0xbeab0b16	-0.33406895
14	0xbd4ddd14	-0.050259665
15	0xbd86fff6	-0.065917894
16	0x3e35ca5b	0.17752974
17	0xbe48ce00	-0.19609833
18	0xbf28578c	-0.65758586
19	0x3f1462cb	0.57963246
20	0xbe90514c	-0.28187025
21	0xbe31d63d	-0.17366882
22	0x3e518005	0.20458992
23	0xbf2116da	-0.62925494
24	0xbe3c5774	-0.18392736
25	0xbdfd6ffa	-0.123748735
26	0x3e989808	0.2980349
27	0xbe55486a	-0.20828405
28	0x3e2c58e3	0.16830783
29	0xbe6489cd	-0.22318192
30	0xbda04961	-0.07826496
31	0xbeda8116	-0.4267661

0.model_cnn.layer2.1.running_var f4 [32]
0	0x3e4fa558	0.20277917
1	0x3e78e5d9	0.2430643
2	0x3e48ae78	0.19597805
3	0x3eb66fd8	0.35632205
4	0x3e4c24af	0.19935869
5	0x3e8eddee	0.27903694
6	0x3e225d08	0.15855801
7	0x3e1e0bb0	0.15434146
8	0x3e680c78	0.22661006
9	0x3e454f1a	0.19268456
10	0x3e6ac4d8	0.22926652
11	0x3e378ba5	0.17924364
12	0x3df42035	0.119202055
13	0x3e699fc5	0.22814853
14	0x3e5c9221	0.21540119
15	0x3e119291	0.14216067
16	0x3e2a7848	0.16647446
17	0x3e1b4624	0.15163475
18	0x3e88bdac	0.26707208
19	0x3e9471bc	0.28993022
20	0x3e579f9f	0.21056984
21	0x3e8d6d13	0.2762228
22	0x3dcc7cdf	0.09984755
23	0x3ec8c5a9	0.39213303
24	0x3e2e3b4a	0.17014804
25	0x3e122aa9	0.14274086
26	0x3e59c84b	0.21267812
27	0x3e249869	0.16073765
28	0x3e8f4bd7	0.2798755
29	0x3e514e06	0.2043992
30	0x3dcdac79	0.10042662
31	0x3e6f2f12	0.233578

0.model_cnn.layer3.0.weight f4 [64, 32, 3]
0	0xbd917766	-0.071028516
1	0xbc953cb4	-0.018217422
2	0xbcdb185f	-0.02674502
3	0x3c13b822	0.009016069
4	0xbdd9d06f	-0.10635459
5	0x3d79b592	0.060964175
6	0x3c7fc4ad	0.015610856
7	0x3d3c04a7	0.045902874
8	0x3d157ef6	0.036498033
9	0xbc26bb1a	-0.010176444
10	0xbc2ae8fd	-0.010431525
11	0xbdabf697	-0.08396643
12	0x3c1c71d7	0.009548626
13	0xbd6d1b2f	-0.057887252
14	0x3dd506dd	0.104017
15	0xbc40103e	-0.011722622
16	0xbdd501fc	-0.10400769
17	0x3b09c116	0.002101963
18	0x3d85412a	0.0650657
19	0xbda99375	-0.08280078
20	0xbdd56d68	-0.10421258
21	0x3d1aef2b	0.037825745
22	0xbdba87d7	-0.09107941
23	0xbdb008bb	-0.08595415
24	0x3d8c3df4	0.06847754
25	0x3e0e410e	0.13892004
26	0x3d08e3b8	0.033420295
27	0x3db6ab35	0.08919374
28	0xbdfab39e	-0.122412905
29	0xbe2802e1	-0.16407348
30	0xbd050fbd	-0.032485712
31	0x3c9dc7c0	0.019260287
32	0xbd442c69	-0.047893915
33	0xbdb4e698	-0.08833045
34	0x3d03da00	0.032190323
35	0x3b8a5ecb	0.004222726
36	0x3d6e790f	0.05822092
37	0x3db029c7	0.086017184
38	0xbd294094	-0.041321352
39	0xbda5fb9a	-0.0810463
40	0xbcb8d0ce	-0.022560503
41	0xbd8a42f5	-0.06751052
42	0xbd824155	-0.06360117
43	0xbdd5c2fb	-0.1043758
44	0xbd53e974	-0.05173631
45	0xbe5755f1	-0.21028878
46	0xbc34a63f	-0.011025964
47	0xbc77bc88	-0.015120633
48	0x3d168494	0.03674753
49	0xbe0014ef	-0.12507986
50	0xbc8399c3	-0.01606453
51	0xbdc7b34d	-0.09750996
52	0xbca425d5	-0.020037571
53	0xbdc68f57	-0.09695309
54	0x3d739ca5	0.05947556
55	0x3cdaaba9	0.026693182
56	0xbc70b73c	-0.014692124
57	0xbce80713	-0.028323686
58	0x3da7a43c	0.08185622
59	0x3d15bba0	0.036555886
60	0x3c2fffa0	0.010742098
61	0x3cf72f0a	0.030173797
62	0xbcac4163	-0.021027273
63	0xbdb23190	-0.087008595
64	0xbe179d7e	-0.14806172
65	0xbd9e0cba	-0.07717271
66	0xbd9172db	-0.07101985
67	0xbd2f5117	-0.042801943
68	0x3d1bda97	0.03805026
69	0xbce77374	-0.028253295
70	0x3c97a60b	0.018511793
71	0xbda27811	-0.07933057
72	0x3e1da973	0.15396671
73	0x3de4116f	0.11136138
74	0x3bcdb51c	0.0062776934
75	0xbdcd7232	-0.10031547
76	0xbe03e0e5	-0.12878759
77	0x3c5d5b6d	0.013510567
78	0xbdb3fcd5	-0.08788458
79	0x3dd797ea	0.10527022
80	0xba91d4e4	-0.0011126068
81	0xbcf6eca5	-0.030142138
82	0xbdc0e1f5	-0.09418098
83	0xbc2db573	-0.010602343
84	0x3cebaed9	0.028769897
85	0xbdd031f4	-0.10165778
86	0xbb9e33af	-0.0048279385
87	0xbd0c6c08	-0.034282714
88	0x3c386020	0.011253387
89	0xbde26a1f	-0.11055397
90	0xbdf98560	-0.121836424
91	0x3d97ef5c	0.07418701
92	0x3d7830be	0.06059336
93	0xbd43b8b4	-0.04778357
94	0xbd4d1f54	-0.050078705
95	0xbe2fd31b	-0.17170374
96	0xbcffb640	-0.031214833
97	0xbd16634c	-0.03671579
98	0xbda5a764	-0.08088568
99	0x3d4d77a4	0.050162926
100	0x3daabff0	0.083373904
101	0x3ce526ad	0.027972544
102	0xbd037ebf	-0.032103296
103	0x3d8002da	0.06250544
104	0x3c5a87f1	0.013338075
105	0x3db58d96	0.08864896
106	0x3d934f50	0.07192862
107	0x3d343c8f	0.044003066
108	0xbdcd37a1	-0.10020376
109	0xbdd00db8	-0.10158867
110	0xbe06867a	-0.13137236
111	0x3d5eb397	0.05437049
112	0x3d850e9f	0.064969294
113	0xbd79b588	-0.060964137
114	0xbe087f58	-0.13329828
115	0x3d869898	0.06572074
116	0x3de7a92a	0.11311562
117	0x3d97a392	0.074042454
118	0xbcc781cd	-0.024353886
119	0x3d63dfa4	0.055633202
120	0xbc8b493a	-0.01700269
121	0xbd24cadd	-0.040232528
122	0xbddaf6db	-0.10691615
123	0x3d9ef9c5	0.077624835
124	0x3c839c5c	0.016065769
125	0x3d13c661	0.03607786
126	0x3bc1752e	0.0059038615
127	0x3d0039a1	0.03130496
128	0x3b7d6c7a	0.0038669393
129	0x3d6c17cd	0.057639886
130	0xbd7b3895	-0.061333258
131	0x3d98f903	0.0746937
132	0xbdfd4536	-0.123667166
133	0x3ba8713e	0.0051404526
134	0x3d1811e5	0.03712644
135	0xbdbf0bd1	-0.09328426
136	0xbd91de5c	-0.0712249
137	0xbdc4fe94	-0.096188694
138	0x3e0208db	0.1269869
139	0x3c99e006	0.01878358
140	0x3de30028	0.11084014
141	0x3cc3925b	0.023873499
142	0xbdaa2c2c	-0.08309206
143	0xbd83806c	-0.06420979
144	0x3dded247	0.10879951
145	0xbdb2fe24	-0.0873988
146	0xbcb277bf	-0.021785615
147	0xbdfe4162	-0.124148145
148	0x3db5f138	0.088838995
149	0x3c88233a	0.01661836
150	0xbdc2a35f	-0.09503817
151	0xbe02cfce	-0.12774584
152	0xbd84d0ae	-0.06485115
153	0x3db8f8ee	0.090318546
154	0x3d393896	0.04521998
155	0x3c9cac4b	0.019125124
156	0xbd3f265d	-0.046667445
157	0xbd051614	-0.03249176
158	0x3d189936	0.03725549
159	0x3dacb8f3	0.08433714
160	0x3d7afc5c	0.061275825
161	0xbccfe733	-0.025378799
162	0xbce49f6d	-0.027908051
163	0xbd9147ec	-0.07093796
164	0xbd86c15f	-0.06579851
165	0xbcca9073	-0.024727082
166	0xbd22c4e8	-0.039738566
167	0x3d969faa	0.07354672
168	0xbcfff064	-0.031242557
169	0xbdc1534f	-0.09439718
170	0x3dbf9da8	0.093562424
171	0x3dcc922e	0.09988819
172	0x3c396775	0.01131617
173	0xbcf10e5d	-0.029425794
174	0x3de0bd37	0.1097359
175	0x3d7a4f5d	0.061110843
176	0x3da279d8	0.07933396
177	0x3c5ac4d4	0.013352592
178	0x3d7073cc	0.058704183
179	0xbce92c00	-0.028463364
180	0x3e071c02	0.13194278
181	0x3d34dbad	0.04415481
182	0x3df03c09	0.11730201
183	0xbd6e387b	-0.058159333
184	0x3dd12cee	0.10213648
185	0x3d3f6f2f	0.046736892
186	0xbdfa4533	-0.1222023
187	0xbddbff77	-0.107420854
188	0xbde4e90b	-0.11177262
189	0xbca5314b	-0.020165106
190	0xbcae9211	-0.021309884
191	0xbd57043a	-0.052494265
192	0x3d857e6d	0.065182544
193	0x3db6a087	0.08917337
194	0x3b95f3d4	0.0045761857
195	0xbdf4a757	-0.1194598
196	0xbd65007a	-0.055908658
197	0x3cd2dee0	0.02574104
198	0x3c9ae55f	0.0189082
199	0xbd8b49e9	-0.068012066
200	0x3d181c72	0.037136503
201	0xbc208735	-0.009797861
202	0x3d15c1e8	0.036561877
203	0x3d78c001	0.060729984
204	0xbdbf707f	-0.09347629
205	0x3d33aa88	0.043863803
206	0xbba54ed7	-0.005044799
207	0x3d46dfb7	0.048553195
208	0x3a3c6e82	0.0007188098
209	0xbe0e71b1	-0.13910557
210	0xbd69f72c	-0.057120487
211	0xbe00dbc0	-0.12583828
212	0x3dab813e	0.0837426
213	0xbc0dba1d	-0.00865033
214	0x3d9bb9f6	0.076038286
215	0xbbe54ec8	-0.006997917
216	0xbc336069	-0.010948279
217	0xbd822d6d	-0.063563205
218	0x3d57256f	0.052525934
219	0x3e0abe56	0.1354917
220	0xbdc2c764	-0.09510687
221	0xbdc0342e	-0.093849525
222	0xba9a7ab2	-0.0011785834
223	0x3c3cdf47	0.011527843
224	0x3d8c2f17	0.06844919
225	0xbd72332d	-0.059130836
226	0x3d8d42cd	0.06897507
227	0x3d8f4d31	0.06997145
228	0xbe0ed669	-0.13948978
229	0x3d89323a	0.06699033
230	0x3d9dac10	0.07698834
231	0x3c923016	0.017845195
232	0xbdac1cef	-0.08403956
233	0xbd3f72a1	-0.046740178
234	0x3d3b1c40	0.04568124
235	0x3da204d4	0.07911077
236	0xbdc0ecd5	-0.09420172
237	0xbd9dae3b	-0.076992474
238	0xbd11e39b	-0.035617452
239	0xbcae1df5	-0.021254519
240	0x3bc84368	0.006111551
241	0x3d1a2830	0.037635982
242	0xbd8b33e4	-0.06797007
243	0x3d2803ef	0.041019376
244	0xbc11f33a	-0.008908087
245	0xbdb1d250	-0.08682692
246	0x3d8ab67d	0.06773088
247	0x37cfb380	2.475991e-05
248	0x3de7bd7b	0.113154374
249	0x3df813d9	0.12113161
250	0x3c1e0dae	0.009646816
251	0x3e185269	0.14875187
252	0x3db165ab	0.0866197
253	0xbc49f860	-0.012327284
254	0x3dda6b0a	0.10664947
255	0x3da8e258	0.08246297

0.model_cnn.layer3.0.bias f4 [64]
0	0xba7e5ce9	-0.0009703176
1	0x39747b65	0.00023315621
2	0xba9147fc	-0.0011084075
3	0xb8eb7478	-0.00011227367
4	0x39a97327	0.00032319987
5	0xbad09fd5	-0.0015916774
6	0xb990f3a1	-0.00027647338
7	0xb90ddf74	-0.0001353005
8	0x39443dc8	0.00018715032
9	0x3a12f761	0.00056063203
10	0xba9fdc94	-0.0012196475
11	0xba3e9878	-0.00072706444
12	0x39679cfb	0.00022088356
13	0x38e54df6	0.00010934092
14	0x3844b45e	4.689802e-05
15	0xba7caaae	-0.00096384704
16	0x39c656a4	0.00037830055
17	0xb96c59ba	-0.0002254014
18	0x39f509e8	0.00046737422
19	0x3900e2f4	0.00012291578
20	0xba51de7a	-0.0008005869
21	0x37928ee0	1.7471088e-05
22	0xba1d1772	-0.00059925683
23	0xba1e64de	-0.0006042252
24	0x38bdb97c	9.0467714e-05
25	0xb84a8f8f	-4.8294252e-05
26	0xb71156b0	-8.662857e-06
27	0xbacca6f2	-0.0015613718
28	0xb9dd4e70	-0.00042210845
29	0x3a502a56	0.0007940879
30	0x3ab16a7c	0.0013535763
31	0x38875056	6.4522654e-05
32	0x39b359b4	0.00034208375
33	0x39a556f0	0.00031536026
34	0xba9da0b8	-0.0012026047
35	0x3b2b6f30	0.0026158802
36	0x3a655f91	0.0008749897
37	0x37eb1f8c	2.8028873e-05
38	0x37d2a0c0	2.5108806e-05
39	0xbad9055e	-0.0016557386
40	0xba59ff11	-0.0008315901
41	0xb933148a	-0.00017078422
42	0x398b1f00	0.00026535243
43	0x375ec9d4	1.3279223e-05
44	0xbac2db13	-0.0014866315
45	0xb92c99b4	-0.00016460457
46	0xba5bd307	-0.00083856325
47	0xb8edbe39	-0.000113364724
48	0xb8d3ed3e	-0.00010105454
49	0xbb3e6e2e	-0.0029057371
50	0x388d86e1	6.748527e-05
51	0x39eeff4c	0.00045585108
52	0x38bb3a3c	8.927702e-05
53	0xb9a3f997	-0.00031275742
54	0x3bf9b239	0.0076201227
55	0x399d87b3	0.00030046477
56	0xb8de28c8	-0.00010593381
57	0xb9e5073a	-0.00043683668
58	0xb8b4416e	-8.595256e-05
59	0x3b23bb21	0.0024983364
60	0xb9a0f23c	-0.00030698057
61	0x3a589d78	0.0008263211
62	0xb92867d1	-0.00016060403
63	0xba708531	-0.00091751205

0.model_cnn.layer3.1.weight f4 [64]
0	0x3f889069	1.066907
1	0x3f743810	0.95398045
2	0x3f836835	1.0266176
3	0x3f7439ff	0.95400995
4	0x3f729a4d	0.94766694
5	0x3f819a51	1.0125219
6	0x3f70bdba	0.940395
7	0x3f742948	0.9537549
8	0x3f70e069	0.9409242
9	0x3f7b0d8f	0.98067564
10	0x3f6ac0bc	0.9170034
11	0x3f813560	1.0094414
12	0x3f83844a	1.0274746
13	0x3f845262	1.0337641
14	0x3f849c3d	1.036018
15	0x3f7c8ee2	0.9865552
16	0x3f78052e	0.96882904
17	0x3f80ed3d	1.0072399
18	0x3f8d5ef6	1.1044605
19	0x3f57edfe	0.8434752
20	0x3f717bf0	0.9432974
21	0x3f7c88cc	0.98646235
22	0x3f802c7d	1.0013577
23	0x3f7855f6	0.97006166
24	0x3f739785	0.95153075
25	0x3f7ad26d	0.97977334
26	0x3f8536af	1.0407313
27	0x3f85aca6	1.0443313
28	0x3f8115a6	1.0084732
29	0x3f7c8e20	0.98654366
30	0x3f88cdac	1.0687766
31	0x3f7255e6	0.9466232
32	0x3f855e78	1.0419455
33	0x3f7d385e	0.98914135
34	0x3f70c0e3	0.9404432
35	0x3f809b7c	1.004745
36	0x3f76d9a4	0.96425843
37	0x3f7364c3	0.95075625
38	0x3f76aa45	0.9635356
39	0x3f8185d2	1.0118964
40	0x3f867874	1.0505509
41	0x3f80e3ac	1.006948
42	0x3f759a48	0.9593854
43	0x3f74c53d	0.9561346
44	0x3f84caed	1.0374428
45	0x3f8246c3	1.0177845
46	0x3f840c24	1.0316205
47	0x3f7a5cc6	0.9779781
48	0x3f6fb5c9	0.9363676
49	0x3f8f8c4c	1.121469
50	0x3f710481	0.941475
51	0x3f6e0e75	0.9299081
52	0x3f6c851e	0.9239062
53	0x3f7356c6	0.9505428
54	0x3f7ff587	0.9998402
55	0x3f827649	1.0192348
56	0x3f814013	1.0097679
57	0x3f83b7a1	1.0290414
58	0x3f7f88c0	0.9981804
59	0x3f8783d6	1.0587108
60	0x3f836719	1.0265838
61	0x3f70ce35	0.94064647
62	0x3f84f0a7	1.0385941
63	0x3f8002a0	1.0000801

0.model_cnn.layer3.1.bias f4 [64]
0	0xbc712950	-0.014719322
1	0xbdb2aa8e	-0.08723937
2	0xbe82a2e8	-0.25514913
3	0xbe059b16	-0.13047442
4	0xbdee3f97	-0.116332226
5	0xbccf57b0	-0.025310367
6	0xbe3296ff	-0.17440413
7	0xbe4e52b9	-0.20148744
8	0xbd4a68c6	-0.049416326
9	0xbe2214fb	-0.15828316
10	0xbe0a991f	-0.13534974
11	0x3d183024	0.037155285
12	0xbe5582b9	-0.20850648
13	0xbe15799e	-0.14597175
14	0xbc9c9acf	-0.019116787
15	0xbe0642ec	-0.13111466
16	0x3ced8a38	0.028996572
17	0x3c4dcbf3	0.012560832
18	0x3d9234dd	0.07138989
19	0xbe56bbec	-0.20970124
20	0xbe3b611a	-0.1829876
21	0xbdf2ce62	-0.11855771
22	0xbe46aed9	-0.19402637
23	0xbde2fea0	-0.11083722
24	0xbdba7276	-0.09103863
25	0xbd81e0c1	-0.063416965
26	0xbbbca00b	-0.0057563833
27	0xbd8db5d3	-0.06919446
28	0xbe49d441	-0.19709875
29	0xbcaf40ab	-0.02139314
30	0xbe3626cc	-0.17788237
31	0xbdc4b996	-0.0960571
32	0xbe1277f9	-0.14303578
33	0xbe148d74	-0.14507085
34	0xbdd44cd3	-0.103662156
35	0x3ca2f115	0.019890347
36	0xbe0e0e10	-0.13872552
37	0xbe4e2f7a	-0.20135298
38	0xbe5a5e71	-0.21325089
39	0x3d7dff00	0.062010765
40	0xbcb42ea7	-0.021994902
41	0x3d27224d	0.040804196
42	0xbbd31562	-0.006441758
43	0xbe068894	-0.13138038
44	0xbbd18714	-0.0063942764
45	0xbe057ff5	-0.13037093
46	0x3c9ceb7d	0.019155258
47	0xbe5e1801	-0.21688844
48	0xbd6c4c79	-0.057690118
49	0xbe4a2300	-0.19739914
50	0xbdf41f5f	-0.11920046
51	0xbe20f214	-0.15717345
52	0xbe072dc1	-0.13201047
53	0xbe17bd81	-0.14818384
54	0xbdd4249f	-0.103585474
55	0xbe0ce60e	-0.13759634
56	0xbe323f0e	-0.17406866
57	0xbe3e5513	-0.1858714
58	0xbe32a602	-0.1744614
59	0x3d04bc57	0.032406177
60	0xbd65afa3	-0.056075703
61	0xbb051575	-0.002030698
62	0xbe055218	-0.13019598
63	0xbdc650fa	-0.09683414

0.model_cnn.layer3.1.running_mean f4 [64]
0	0xbf930365	-1.1485411
1	0xbe2b9afe	-0.16758344
2	0x3defcdec	0.11709198
3	0x3d8169ce	0.06319009
4	0xbe475573	-0.1946619
5	0xbf6872fd	-0.9080046
6	0x3e2a06fb	0.16604225
7	0x3f7770d5	0.96656543
8	0xbc5360b9	-0.012901478
9	0x3f065b7e	0.52483356
10	0x3e958cbe	0.2920894
11	0xbfe04a6e	-1.7522714
12	0x3e256538	0.16151893
13	0x3dc1a68a	0.09455593
14	0x3d932055	0.07183901
15	0x3f2adc7a	0.6674267
16	0xbf6c1528	-0.9221978
17	0xbfda2410	-1.7042255
18	0xc013c497	-2.308874
19	0x3cbb8fdf	0.022895752
20	0x3f4ffc5e	0.81244457
21	0xbe0d0988	-0.13773167
22	0x3fce344a	1.6109707
23	0x3e238ebd	0.15972419
24	0xbe32cacc	-0.17460173
25	0xbf01dab0	-0.50724316
26	0xbeff9ca2	-0.4992419
27	0xbe8edee4	-0.27904427
28	0x3f08ab76	0.5338663
29	0xbf57d7b3	-0.84313506
30	0xbe8574b3	-0.26065597
31	0xbf1bbe1d	-0.60836965
32	0xbd8e51ef	-0.06949221
33	0xbeb140d8	-0.34619784
34	0xbe190495	-0.14943154
35	0xbf8aab7e	-1.0833585
36	0xbf3c1840	-0.734745
37	0x3ec3a1e7	0.3820946
38	0x3f2e7943	0.6815378
39	0xbfd3c799	-1.6545287
40	0xbf9a70fb	-1.2065729
41	0xc007f70c	-2.1244535
42	0xbeae4b7f	-0.34041974
43	0x3efdad12	0.49546105
44	0xbf188f3b	-0.5959355
45	0x3ec56cb5	0.385595
46	0xbfd9b9bb	-1.7009805
47	0x3ee0f5b2	0.4393745
48	0xbf0c5745	-0.5482066
49	0x3e91657e	0.28397745
50	0x3e877698	0.26457667
51	0x3f29c7a7	0.6632027
52	0x3da6a780	0.08137417
53	0x3f839fc9	1.0283138
54	0xbe8463ef	-0.25857493
55	0x3e9fe8da	0.3123234
56	0x3e34afc7	0.17645179
57	0x3f396465	0.72418815
58	0x3e06a78a	0.13149849
59	0xbf982018	-1.1884794
60	0xbf7e9526	-0.9944633
61	0xbee3012b	-0.4433683
62	0x3f6dc073	0.9287178
63	0xbf20bbf1	-0.62786776

0.model_cnn.layer3.1.running_var f4 [64]
0	0x3eff7d8e	0.49900478
1	0x3ea19308	0.31557488
2	0x3e82410f	0.2544026
3	0x3ef48f3d	0.47765532
4	0x3ea7d5ff	0.32780454
5	0x3ecf5387	0.40493414
6	0x3e90db2b	0.28292212
7	0x3e96b9dc	0.29438674
8	0x3e6aeb28	0.22941267
9	0x3e8b23a6	0.27175635
10	0x3e569737	0.20956121
11	0x3f652490	0.89508915
12	0x3e5d2a9b	0.21598284
13	0x3ee0668b	0.43828234
14	0x3e87cfb8	0.26525664
15	0x3e983cf9	0.29734018
16	0x3f0dabf0	0.5534048
17	0x3e9dd9e5	0.30830303
18	0x3fb376b3	1.4020599
19	0x3e5c85a2	0.21535352
20	0x3efae574	0.49003184
21	0x3e74f923	0.23923163
22	0x3ebca0d0	0.3684144
23	0x3e9ffc3d	0.3124713
24	0x3e73e35e	0.23817202
25	0x3e71ed31	0.23625638
26	0x3e8a72a8	0.270406
27	0x3ebeb068	0.37243962
28	0x3ed405d8	0.41410708
29	0x3ee06595	0.438275
30	0x3e968a3b	0.29402336
31	0x3e99d2af	0.3004355
32	0x3e97d0fa	0.29651624
33	0x3e2d79d9	0.16941012
34	0x3ea51a1a	0.32246476
35	0x3ef7e07a	0.4841345
36	0x3e8499f4	0.25898707
37	0x3e37caf9	0.17948522
38	0x3e50e2a4	0.20398957
39	0x3f8b6f2e	1.0893304
40	0x3ed0939d	0.4073762
41	0x3f3299ff	0.6976623
42	0x3ebba7c0	0.3665142
43	0x3e8ddb03	0.27706155
44	0x3e9eb00a	0.30993682
45	0x3e5e7fec	0.21728486
46	0x3f209260	0.6272335
47	0x3e987d45	0.29783073
48	0x3e619d95	0.22032769
49	0x3e636d19	0.22209586
50	0x3ee89d0e	0.45432323
51	0x3e87041b	0.2637032
52	0x3e4ebff5	0.20190413
53	0x3ea4d855	0.32196298
54	0x3e8de496	0.2771346
55	0x3ea846db	0.32866558
56	0x3e9adb0d	0.30245247
57	0x3ea78913	0.32721767
58	0x3e86294a	0.26203376
59	0x3f1a3f8a	0.602532
60	0x3e697672	0.2279909
61	0x3ee56d86	0.44810122
62	0x3e84f857	0.25970718
63	0x3e7bbb58	0.24583185

0.model_cnn.layer4.0.weight f4 [128, 64, 3]
0	0xbd1bc314	-0.038027838
1	0xbddb1787	-0.10697847
2	0x3d1f7404	0.038929
3	0xbb79857e	-0.0038073952
4	0x3d2df7ae	0.042472534
5	0xbcd8f99d	-0.026486212
6	0x3cb6f0d1	0.022331627
7	0x3b7fc7b8	0.0039028954
8	0xbd7071db	-0.05870233
9	0xbc2829fe	-0.010263918
10	0x3c89e324	0.016831942
11	0x3dce460a	0.10071953
12	0xbd16670b	-0.036719363
13	0xbcbe881b	-0.02325826
14	0x3d00ab35	0.031413276
15	0xbd8b16eb	-0.06791481
16	0xbd10bb07	-0.035334613
17	0xbcd36ade	-0.025807794
18	0xbcb11e8a	-0.021621007
19	0xbb9fb871	-0.004874282
20	0x3d59b1e3	0.05314816
21	0xbda1c123	-0.07898166
22	0x3d5ddf98	0.054168314
23	0xbca91e05	-0.020644197
24	0x3cc24e4a	0.023718972
25	0xbcd66a7b	-0.02617382
26	0xbd3e8e6b	-0.04652254
27	0xbd70a39d	-0.058749784
28	0xbd9e03af	-0.07715546
29	0x3ce0c5c8	0.02743806
30	0x3d7f3b62	0.06231249
31	0x3d101f85	0.03518631
32	0x3c0fb52d	0.008771223
33	0xbc6f4655	-0.014604171
34	0xbdd06579	-0.101756044
35	0xbcfac350	-0.03061071
36	0xbb5cd542	-0.0033696447
37	0xbcb61f76	-0.022231799
38	0x3cb5bbb4	0.02218423
39	0x3d6d4216	0.057924353
40	0xbd003b66	-0.031306647
41	0xbd34e5e0	-0.04416454
42	0xbcae9385	-0.021310577
43	0xbb393406	-0.0028259768
44	0xbd8b7e15	-0.068111576
45	0xbbc30234	-0.0059511904
46	0xbc0e2caf	-0.008677646
47	0x3d5ca41e	0.05386745
48	0xbdaa2bfd	-0.08309171
49	0xbd92bfc4	-0.07165483
50	0xbc9ba7fa	-0.019000996
51	0xbd7ea2c7	-0.062166955
52	0x3d4b0950	0.049569428
53	0x3d21025b	0.039308887
54	0xbdb3740b	-0.08762368
55	0x3c7b8c7f	0.015353321
56	0xbb0cd958	-0.0021491852
57	0x3d1df360	0.03856218
58	0x3d20252e	0.039097957
59	0x3da1ba9d	0.07896922
60	0x3d1daf23	0.0384971
61	0x3ce20ecf	0.027594952
62	0x3d5f3e48	0.054502755
63	0x3c0313e0	0.008000344
64	0x3c9a1d85	0.018812904
65	0xbd0d4272	-0.034487195
66	0x3c77560f	0.015096202
67	0xbd530132	-0.05151481
68	0xbcae4b27	-0.02127607
69	0x3db7bd6d	0.08971677
70	0x3bd87a02	0.0066063413
71	0x3d3d18e9	0.046166334
72	0x3d940924	0.07228306
73	0xbd5ea260	-0.05435407
74	0x3df6fa86	0.12059502
75	0xbc8f75a7	-0.017512156
76	0x3db2cd4d	0.08730564
77	0x3b8f166e	0.0043666875
78	0x3d13a7aa	0.03604857
79	0x3d211393	0.039325308
80	0x3b50bfa8	0.0031852517
81	0xbd6c61b0	-0.05771035
82	0xbc2b8007	-0.010467536
83	0x3d9b8b2e	0.07594906
84	0x3bb123bd	0.0054058717
85	0x3da4dbf4	0.08049765
86	0xbaa144d2	-0.0012303835
87	0xbd31737a	-0.043323018
88	0x3baee511	0.0053373654
89	0xbcdfc688	-0.027316347
90	0x3a25bafd	0.0006322114
91	0x3d96b3e7	0.073585324
92	0x3da39745	0.07987837
93	0xbd81b04e	-0.063324556
94	0xbb87f206	-0.0041487245
95	0xbd174265	-0.036928553
96	0xbd49ba8b	-0.049250167
97	0x3bcf3be7	0.0063242796
98	0xbde6e1ba	-0.11273523
99	0x3c48929e	0.0122419875
100	0xbb86e119	-0.004116189
101	0x3d9d4284	0.076787025
102	0xbd1fb1f4	-0.03898807
103	0xbcd012b3	-0.025399541
104	0x3c7cf882	0.015440108
105	0xbd6e9125	-0.05824389
106	0x3c72f231	0.014828251
107	0xbdb77343	-0.08957531
108	0x3d09ce36	0.033643924
109	0xbb6a9b72	-0.003579822
110	0x3d2e3501	0.042531017
111	0x3c2d8683	0.010591152
112	0xbbeee370	-0.0072902963
113	0x3d59c228	0.053163677
114	0xbcdbe432	-0.02684221
115	0x3bd08d54	0.006364504
116	0xbb92a7dc	-0.004475577
117	0xbc85eecb	-0.016349217
118	0xbbb64157	-0.0055619883
119	0xbd751c8c	-0.059841678
120	0xbc80f239	-0.0157405
121	0xbbf92a97	-0.007603954
122	0x3d291d4a	0.041287698
123	0xbd9637d2	-0.07334866
124	0xbd3e506a	-0.046463408
125	0xbcb4ed21	-0.022085728
126	0x3d1b1b66	0.037867926
127	0xbd81d2fc	-0.0633907
128	0x3d9a26e5	0.0752695
129	0x3cf5778f	0.029964237
130	0xbd5cf7ca	-0.053947248
131	0xbab1c239	-0.0013561911
132	0xbd144199	-0.03619537
133	0x3d7159de	0.058923595
134	0xbc34b14f	-0.011028602
135	0x3d79c8fa	0.06098268
136	0xbcf813df	-0.030282913
137	0x3c4ea19e	0.012611775
138	0x3dbcb1aa	0.09213574
139	0xbd8b7aa7	-0.068105035
140	0x3df4f6bc	0.11961123
141	0xbb8604f3	-0.0040899455
142	0xbc2d51ec	-0.010578614
143	0x3d871c01	0.06597138
144	0xbc99145a	-0.018686462
145	0x3d9a0c62	0.07521893
146	0xbd29bd73	-0.04144044
147	0xbd253b1c	-0.040339574
148	0x3d54de67	0.051969912
149	0x3b7ac961	0.0038267004
150	0xbd61cf43	-0.0551293
151	0xbd53a700	-0.051672935
152	0xbd5b9753	-0.05361111
153	0xbab77cf9	-0.0013999037
154	0xbd16211b	-0.036652666
155	0x3c1728b4	0.009226013
156	0x3d392dde	0.045209758
157	0xbd85a2a0	-0.06525159
158	0x3cf354c7	0.02970351
159	0xbda78b1c	-0.0818083
160	0xbd69241e	-0.05691921
161	0xbd9d401e	-0.07678245
162	0x3c98c334	0.018647768
163	0x3b36cb32	0.002789211
164	0xbd2749de	-0.04084193
165	0x3cb05a9a	0.021527577
166	0xbd656e11	-0.05601317
167	0xbda1f9e8	-0.07908994
168	0xbd279406	-0.04091265
169	0xbcdb2cee	-0.026754823
170	0x3ba50406	0.00503588
171	0x3d6e095f	0.058114406
172	0xbd4cdc30	-0.050014675
173	0xbdf89ee2	-0.121396795
174	0xbd40f03b	-0.0471041
175	0x3c7b435c	0.015335884
176	0x3d91e329	0.071234055
177	0x3b669870	0.0035186075
178	0xbd785752	-0.06063015
179	0xbde7eee0	-0.11324859
180	0x3dfaec32	0.12252082
181	0x3d7f4086	0.062317394
182	0x3e2bd63b	0.16780941
183	0x3a8b0dae	0.0010608935
184	0xbaa06566	-0.001223725
185	0x3bdc45e9	0.006722201
186	0xbdfd797f	-0.12376689
187	0xbde709d1	-0.11281169
188	0xbdd424a9	-0.10358555
189	0xbbc3902a	-0.0059681134
190	0xbdc96836	-0.0983433
191	0xbd5bffd6	-0.05371078
192	0x3d09f469	0.033680353
193	0xbd8e6644	-0.06953099
194	0x3cf8b96b	0.030361852
195	0x3d9ef2a1	0.077611215
196	0x3cc800a5	0.02441437
197	0x3d8e7aac	0.069569916
198	0xbd32991d	-0.04360305
199	0x3d01d480	0.031696796
200	0x3cf259f8	0.029583916
201	0x3ceb558e	0.02872732
202	0x3d4cf6fc	0.05004023
203	0xbd38a561	-0.045079593
204	0x3d3e862b	0.04651467
205	0xbd5c1869	-0.053734217
206	0x3c145239	0.0090528065
207	0x3e09f243	0.13471322
208	0x3e1edcff	0.15513991
209	0x3e2ce715	0.16885026
210	0xbdbdf17f	-0.09274577
211	0x3cf73bb7	0.030179841
212	0xbba5e6c3	-0.0050629093
213	0xbd5e6071	-0.054291192
214	0xbd90298d	-0.07039175
215	0x3c833a6a	0.016019065
216	0xbb8e0055	-0.0043335357
217	0xbd3dc590	-0.04633099
218	0x3dbf4242	0.093388095
219	0xbb07576d	-0.0020651475
220	0xbd4ef00c	-0.050521895
221	0xbdb1b982	-0.08677961
222	0x3d0d3fc1	0.03448463
223	0x3d33485e	0.043770187
224	0x3d3bb4cd	0.045826722
225	0xbda99f86	-0.0828238
226	0xbde18092	-0.11010851
227	0xbe17fe51	-0.14843108
228	0x3c9cfb7c	0.019162886
229	0x3c1d74ff	0.009610414
230	0x3c9002f1	0.017579528
231	0x3d4e951a	0.050435163
232	0x3d442747	0.04788902
233	0x3d9e4a71	0.07729042
234	0xbd1cdde4	-0.03829755
235	0xbd49cb62	-0.049266227
236	0xbd87768e	-0.066144094
237	0xbd0d319e	-0.034471147
238	0xbd04e83f	-0.03244805
239	0xbd97d62c	-0.07413897
240	0x3dce17bb	0.1006312
241	0x3d8b91fe	0.06814955
242	0x3cc843c8	0.024446383
243	0x3dd6fc02	0.104972854
244	0x3c9e81c9	0.019348996
245	0x3d098448	0.03357342
246	0xbd859146	-0.06521849
247	0xbd9ca1b2	-0.076480284
248	0xbddb8fe6	-0.10720806
249	0x3d2d23f8	0.04227063
250	0xbd57b06c	-0.052658483
251	0xbd7ffbba	-0.062495925
252	0xbd6009ea	-0.054696955
253	0xbd7de55b	-0.06198631
254	0xbd0bdc22	-0.034145482
255	0xbc439ed4	-0.011939723

0.model_cnn.layer4.0.bias f4 [128]
0	0xb91cfacf	-0.00014970753
1	0xb800be00	-3.069453e-05
2	0x3a0f3d98	0.0005464195
3	0x37ce6ef3	2.4608778e-05
4	0x358a8b90	1.0322419e-06
5	0x397ff2cf	0.00024409148
6	0x38c53386	9.403289e-05
7	0xb9a7837d	-0.0003195069
8	0xb9f08eca	-0.00045882753
9	0xb834678e	-4.3011787e-05
10	0xb759d3fb	-1.29835635e-05
11	0x3a3ebbf2	0.0007275931
12	0x397aa3bc	0.00023902854
13	0x3916fbd3	0.00014398927
14	0xb8a825a3	-8.017875e-05
15	0xb8cea0c8	-9.852793e-05
16	0xb848436a	-4.77465e-05
17	0x392a2be5	0.00016228815
18	0x38fe9435	0.000121392695
19	0x38319d33	4.234649e-05
20	0x3829c4d8	4.0476065e-05
21	0x38b4f678	8.628977e-05
22	0x39a1d93d	0.00030870168
23	0xb844b4d2	-4.6898444e-05
24	0x378493af	1.5804397e-05
25	0x395f82c6	0.00021315654
26	0x3994d6f8	0.00028388924
27	0xb760ed70	-1.3406723e-05
28	0x37c6ac5f	2.3683706e-05
29	0xb8aff46d	-8.390178e-05
30	0x389aba68	7.378013e-05
31	0xb69968b0	-4.5719426e-06
32	0x38f55f40	0.00011700252
33	0x38eca132	0.00011283382
34	0xb7b21639	-2.1229602e-05
35	0x397f3f16	0.00024342196
36	0x3a10fbf0	0.00055307057
37	0x39e7b004	0.00044190895
38	0x3885bc58	6.377016e-05
39	0xb84b3f6b	-4.8458034e-05
40	0x3a0b5c61	0.0005316195
41	0x379c1a63	1.8608936e-05
42	0x39ba360c	0.00035516953
43	0xba0cfc2e	-0.0005378154
44	0xba930e7e	-0.0011219529
45	0x38883be0	6.496138e-05
46	0x3842cf42	4.644623e-05
47	0x393261a2	0.00017011774
48	0x3882c40e	6.235401e-05
49	0x3a015c92	0.00049347535
50	0xb803b72f	-3.1403437e-05
51	0xb78a95cf	-1.6520642e-05
52	0x390c59a4	0.00013384834
53	0x360e6384	2.1217575e-06
54	0xb9167cb7	-0.00014351575
55	0x38f37d28	0.00011610455
56	0x36ddd408	6.610997e-06
57	0xb8a72020	-7.969164e-05
58	0xb8c1df50	-9.244552e-05
59	0x3989d91e	0.0002629244
60	0x38a338d2	7.783029e-05
61	0x3913f133	0.00014108866
62	0xb95733fa	-0.0002052336
63	0xb8a70b3a	-7.965272e-05
64	0x38850635	6.34309e-05
65	0x3932e35a	0.00017060098
66	0xb90db998	-0.00013515947
67	0x39005e78	0.00012242224
68	0x3980d661	0.00024573787
69	0x37eb354f	2.8039007e-05
70	0xb93bd487	-0.00017912882
71	0x3705a3ba	7.965538e-06
72	0x38a100a7	7.6772e-05
73	0x39818c6c	0.0002470942
74	0xb902c49d	-0.0001247101
75	0xb7c724e2	-2.3739824e-05
76	0x39200ae0	0.0001526284
77	0xb8ad8131	-8.2733466e-05
78	0x36b4a09a	5.3831145e-06
79	0x3a136992	0.0005623336
80	0xb9b9e949	-0.0003545976
81	0xb8c4418e	-9.358219e-05
82	0xb8af651c	-8.363483e-05
83	0xb88f31fc	-6.828082e-05
84	0x38d75c01	0.00010269136
85	0xb8ccbbaa	-9.762433e-05
86	0x39cfe8bf	0.00039655526
87	0x39ed8cd3	0.00045309085
88	0x38612928	5.368251e-05
89	0xb8d22939	-0.00010021259
90	0xb9314ef0	-0.00016909442
91	0x37c6ffa4	2.3722481e-05
92	0xb8e4f19a	-0.00010916889
93	0xb94de59a	-0.00019635857
94	0xba131a18	-0.0005611493
95	0x391ffb1c	0.00015256967
96	0xb8ff4a33	-0.00012173168
97	0x3a2aa6f4	0.00065098633
98	0xb61b2420	-2.3117827e-06
99	0x3781fbb8	1.5495214e-05
100	0x38d34a0a	0.00010075055
101	0x383a9a62	4.4489636e-05
102	0x39f14f3e	0.00046026142
103	0xb80a395e	-3.295519e-05
104	0x3953c8b0	0.0002019729
105	0x3886a661	6.4206084e-05
106	0x38932fa7	7.018382e-05
107	0xb801bf66	-3.093425e-05
108	0x3882d720	6.238953e-05
109	0x3886974a	6.417798e-05
110	0xb984a1a8	-0.00025297445
111	0xb74c5f1f	-1.2181495e-05
112	0x39ac1aff	0.0003282651
113	0x3915389c	0.00014230836
114	0x36148190	2.2129134e-06
115	0x39fdaba8	0.00048383814
116	0x39bc4dfc	0.00035916257
117	0xb98e6932	-0.00027162727
118	0xb94a2c55	-0.00019280736
119	0xb8556a2c	-5.0882038e-05
120	0xb78461cc	-1.5781166e-05
121	0xb8c782d4	-9.513428e-05
122	0xb92cdcc2	-0.00016485437
123	0x37583fa4	1.2889421e-05
124	0x39d69ed4	0.00040935597
125	0xb9994d7e	-0.0002924017
126	0xb9680f00	-0.00022130832
127	0x36ac0b80	5.127338e-06

0.model_cnn.layer4.1.weight f4 [128]
0	0x3f7befa7	0.98412555
1	0x3f82ed52	1.0228674
2	0x3f830797	1.0236691
3	0x3f6fdabe	0.9369315
4	0x3f612a5a	0.8795525
5	0x3f8a7d73	1.0819534
6	0x3f838200	1.0274048
7	0x3f7655a1	0.9622441
8	0x3f817c4c	1.0116057
9	0x3f8e39e4	1.1111417
10	0x3f7c1696	0.98471963
11	0x3f81713c	1.0112681
12	0x3f8131f1	1.0093366
13	0x3f83c96d	1.0295845
14	0x3f7a1df7	0.9770197
15	0x3f71258b	0.9419791
16	0x3f872ec9	1.0561153
17	0x3f71a935	0.94398814
18	0x3f733208	0.94998217
19	0x3f7b1dc5	0.980923
20	0x3f7cc666	0.9874023
21	0x3f8682e0	1.050869
22	0x3f7c310c	0.9851234
23	0x3f81999d	1.0125004
24	0x3f78ceaa	0.97190344
25	0x3f815481	1.0103914
26	0x3f80d0a7	1.0063676
27	0x3f81f2e5	1.015225
28	0x3f7ab10b	0.97926396
29	0x3f7329b8	0.9498553
30	0x3f8635f1	1.0485212
31	0x3f86277c	1.04808
32	0x3f85a573	1.0441116
33	0x3f800fc2	1.0004809
34	0x3f75ec91	0.96064097
35	0x3f73037e	0.94927204
36	0x3f7c1c0b	0.9848029
37	0x3f8885e5	1.0665861
38	0x3f7d7e3b	0.9902074
39	0x3f7c73a6	0.98613966
40	0x3f807546	1.0035789
41	0x3f8bb101	1.0913392
42	0x3f888be2	1.0667689
43	0x3f76b849	0.96374947
44	0x3f87806f	1.058607
45	0x3f6bf8ae	0.9217633
46	0x3f68b3d5	0.908994
47	0x3f7eab4b	0.9948012
48	0x3f75da27	0.96036
49	0x3f80229d	1.0010563
50	0x3f677218	0.9040847
51	0x3f7a59b7	0.97793144
52	0x3f8344e9	1.0255405
53	0x3f72794a	0.9471632
54	0x3f846360	1.0342827
55	0x3f81b6b9	1.0133888
56	0x3f7f0aa7	0.9962563
57	0x3f7cf620	0.98813057
58	0x3f8385cc	1.0275207
59	0x3f787411	0.97052103
60	0x3f82a84c	1.020761
61	0x3f86067e	1.0470731
62	0x3f834a3a	1.0257027
63	0x3f78cc51	0.9718676
64	0x3f7be704	0.98399377
65	0x3f77531f	0.9661121
66	0x3f81a1c1	1.0127488
67	0x3f6cc699	0.92490536
68	0x3f846b92	1.0345328
69	0x3f81682f	1.0109919
70	0x3f7fd7ac	0.99938464
71	0x3f852aaa	1.0403645
72	0x3f7270f7	0.9470362
73	0x3f7ef3d0	0.9959078
74	0x3f7897c5	0.9710658
75	0x3f74ba32	0.9559661
76	0x3f6cb661	0.9246579
77	0x3f839233	1.0278991
78	0x3f81c1ad	1.013723
79	0x3f865cfc	1.0497127
80	0x3f792ae6	0.9733108
81	0x3f776794	0.9664242
82	0x3f7c3dd7	0.9853186
83	0x3f706ffb	0.9392087
84	0x3f8b2220	1.0869789
85	0x3f806907	1.0032052
86	0x3f8195e9	1.0123874
87	0x3f8499af	1.03594
88	0x3f86d29f	1.0533026
89	0x3f894a22	1.0725749
90	0x3f81d429	1.0142871
91	0x3f7f9993	0.9984371
92	0x3f83f559	1.0309249
93	0x3f80c7ab	1.0060934
94	0x3f86af9f	1.0522345
95	0x3f776273	0.96634597
96	0x3f8976b2	1.0739348
97	0x3f7b468f	0.9815454
98	0x3f7d3490	0.9890833
99	0x3f824bb1	1.0179349
100	0x3f6e3a6b	0.9305789
101	0x3f7aef4c	0.9802139
102	0x3f86185b	1.0476183
103	0x3f7f5085	0.9973224
104	0x3f7a80e4	0.9785292
105	0x3f87824b	1.0586637
106	0x3f8365bb	1.0265421
107	0x3f7f719b	0.99782723
108	0x3f8a4ac3	1.0804065
109	0x3f6ef651	0.933446
110	0x3f74aa95	0.9557279
111	0x3f74d1fd	0.95632917
112	0x3f814f83	1.010239
113	0x3f7bc114	0.9834149
114	0x3f7e2e20	0.9928913
115	0x3f826c24	1.0189252
116	0x3f84020a	1.0313122
117	0x3f83aaa9	1.0286456
118	0x3f87d009	1.0610362
119	0x3f8344e5	1.02554
120	0x3f80dfd7	1.006831
121	0x3f7f2139	0.9966007
122	0x3f7a2524	0.9771292
123	0x3f80c706	1.0060737
124	0x3f80e5b6	1.0070102
125	0x3f8bc646	1.0919883
126	0x3f815bc8	1.0106134
127	0x3f6298f9	0.8851467
