checkpoint/DA/s_0_1_t3/cnn_features_1d_0925-180509/61-0.9968-best_model.pth (torch, 944127 bytes, 30 tensors)

0.model_cnn.layer1.0.weight f4 [16, 1, 15]
0	0x3e4458c8	0.19174492
1	0x3e17a3f4	0.14808637
2	0x3d050400	0.032474518
3	0xbe779d53	-0.24181108
4	0xbcfc6e9e	-0.030814465
5	0xbc8a1fca	-0.016860861
6	0xbe6a63a1	-0.22889568
7	0xbe04bd19	-0.1296276
8	0x3ce48fd6	0.027900618
9	0xbdd4a0e9	-0.10382254
10	0x3d43e3a1	0.047824506
11	0x3e5917fb	0.21200554
12	0xbd740451	-0.05957443
13	0xbe8308d4	-0.25592673
14	0x3dcbaa0d	0.09944544
15	0x3e2f121e	0.17096755
16	0x3e3e72ee	0.1859853
17	0xbe2823e7	-0.16419946
18	0x3b9ac677	0.004723366
19	0xbdfe6886	-0.1242228
20	0xbe811041	-0.25207713
21	0x3ddc315d	0.10751603
22	0x3e63c43f	0.2224283
23	0xbe87a5ad	-0.26493588
24	0x3d858e5c	0.065212935
25	0xbe9a8cf0	-0.30185652
26	0xbe26aea1	-0.16277553
27	0xbd421eb6	-0.04739257
28	0xbe837e9b	-0.2568253
29	0x3dddfb4d	0.108389474
30	0x3ea47456	0.32120007
31	0x3e2e4f94	0.17022544
32	0x3e06fb01	0.13181688
33	0x3e1d517d	0.15363117
34	0xbd7f4011	-0.062316958
35	0xbb7cd8c6	-0.0038581355
36	0x3dd5ad20	0.104334116
37	0xbd5865fa	-0.052831627
38	0xbd7e258a	-0.06204752
39	0xbe7ab58c	-0.24483317
40	0x3e34995b	0.17636625
41	0xbe806eea	-0.2508462
42	0x3e30a06a	0.17248693
43	0x3d83e2b0	0.064397216
44	0xbe6ce968	-0.23135912
45	0xbe7f53a3	-0.24934249
46	0xbe3f7c1b	-0.18699686
47	0xbd31e5dd	-0.043432105
48	0xbe0fb2ba	-0.14033023
49	0xbe6cc909	-0.23123564
50	0xbb7d14ee	-0.0038617211
51	0x3e3f38c4	0.18673998
52	0xbe773d0f	-0.24144386
53	0xbdc3f360	-0.095679045
54	0xbcc9634e	-0.024583485
55	0xbe04e0e1	-0.1297641
56	0x3d657a1c	0.056024656
57	0xbda27d4e	-0.07934056
58	0xbdc89205	-0.09793476
59	0x3e8fe886	0.2810709
60	0xbd679649	-0.056539807
61	0x3dc96833	0.098343275
62	0x3e9368d3	0.28790912
63	0xbe2f0b9b	-0.17094271
64	0xbd92936b	-0.07157024
65	0x3d9b8df1	0.075954325
66	0x3e3fe573	0.18739872
67	0x3e9574dc	0.2919072
68	0xbe3e670d	-0.18593998
69	0xbd4f176f	-0.050559457
70	0x3df97696	0.121808216
71	0xbd80accd	-0.06282959
72	0x3e08da51	0.13364531
73	0xbda80351	-0.082037576
74	0xbca51595	-0.020151893
75	0x3e81bf10	0.25341082
76	0x3e0b5aa9	0.13608803
77	0xbccc81d4	-0.02496425
78	0x3e771fbc	0.241332
79	0x3e15f48b	0.14644067
80	0x3e5e4d58	0.21709192
81	0x3be21ebe	0.0069006374
82	0x3e588f9f	0.21148537
83	0xbcfa40b3	-0.03054843
84	0xbe13797e	-0.14401814
85	0xbdb50456	-0.08838718
86	0xbe43d2ac	-0.19123334
87	0x3e4fbf74	0.20287877
88	0xbe37a4c5	-0.17933948
89	0xbe99e79b	-0.30059513
90	0xbddfe59f	-0.109324686
91	0xbe39b991	-0.18137194
92	0x3c111340	0.008854687
93	0x3e4b126a	0.19831243
94	0x3dda91ef	0.10672366
95	0x3d517864	0.051140204
96	0x3e6f583a	0.233735
97	0xbe202075	-0.15637381
98	0x3e222f45	0.15838344
99	0xbe637b7c	-0.22215074
100	0xbe421ac2	-0.1895552
101	0xbe18ceef	-0.14922689
102	0xbe962bee	-0.2933039
103	0x3e178575	0.14797004
104	0xbc980674	-0.018557765
105	0xbe0d1c81	-0.13780405
106	0x3e060b68	0.13090289
107	0xbe7e1d96	-0.24815974
108	0x3c0bd49d	0.008534578
109	0xbe739029	-0.23785461
110	0x3d071017	0.03297433
111	0x3cd76be3	0.026296562
112	0x3e0c898d	0.13724346
113	0xbda17394	-0.07883373
114	0x3c53ab89	0.012919315
115	0x3e686748	0.22695649
116	0xbe79b874	-0.2438677
117	0x3d170064	0.036865607
118	0x3d8f9752	0.07011284
119	0xbdf94d80	-0.12172985
120	0xbe440cfb	-0.19145577
121	0xbe1eca9b	-0.15506975
122	0x3d117c58	0.035518974
123	0xbe36a9cd	-0.17838211
124	0x3e411a99	0.18857802
125	0xbb9df1be	-0.0048200777
126	0xbe1b77dd	-0.15182443
127	0xbd3f6a99	-0.04673252
128	0xbe31ab8e	-0.17350599
129	0x3e3cea5f	0.1844878
130	0x3e3760a0	0.17907953
131	0xbce02b0c	-0.027364276
132	0xbe017144	-0.12640864
133	0xbe037f15	-0.12841447
134	0xbe5e4cf7	-0.21709047
135	0x3d39ea43	0.045389425
136	0x3e00a42f	0.12562631
137	0xbdeb99e1	-0.115039594
138	0xbc07e88d	-0.0082951905
139	0xbe33c232	-0.17554548
140	0xbdc1c014	-0.09460464
141	0x3e5eb50f	0.21748756
142	0xbd67390e	-0.056450896
143	0x3e0d0f83	0.13775449
144	0xbdfed77c	-0.12443444
145	0xbd86a990	-0.0657531
146	0x3de768f3	0.11299314
147	0xbe6cd06d	-0.23126383
148	0x3e004f71	0.12530304
149	0xbe8089ea	-0.2510522
150	0xbe2e8a3d	-0.17044921
151	0x3e559ee4	0.20861393
152	0xbdfa53c6	-0.1222301
153	0x3e32d299	0.17463149
154	0x3dc1ee74	0.094693094
155	0x3dc9f1a2	0.09860541
156	0xbde7125f	-0.11282801
157	0x3e6f23b2	0.2335346
158	0x3db099c2	0.08623077
159	0x3d474ef5	0.048659284
160	0x3e86b162	0.26307207
161	0xbd640fc0	-0.055679083
162	0xba8d3445	-0.0010773024
163	0x3e809043	0.25110063
164	0xbe60da2f	-0.2195823
165	0x3d3ae94a	0.045632638
166	0x3e6b7f06	0.22997674
167	0xbe895dee	-0.26829475
168	0xbe02e8a5	-0.1278406
169	0xbd49585e	-0.04915654
170	0xbcf21e6b	-0.02955552
171	0xbdf3b6c4	-0.11900094
172	0xbe11faea	-0.14255872
173	0xbe82d80d	-0.2555546
174	0x3cbb5ec8	0.022872344
175	0x3e84aeff	0.2591476
176	0xbda9e336	-0.0829529
177	0x3ddd88b6	0.10817091
178	0x3d5e2abb	0.05423997
179	0xbc7af4e4	-0.015317176
180	0xbd3e8b8e	-0.04651981
181	0xbe06f617	-0.13179813
182	0x3e4829f4	0.19547254
183	0x3e7241e4	0.23657948
184	0xbdf147b7	-0.11781257
185	0xbb4ac2ea	-0.0030938932
186	0xbe61a3fa	-0.22035208
187	0xbe3992f2	-0.18122461
188	0x3de3025b	0.11084434
189	0x3e43e92e	0.1913192
190	0x3e25180a	0.16122451
191	0x3dd80927	0.10548621
192	0xbe08f460	-0.13374472
193	0xbea0b077	-0.31384632
194	0xbd00985d	-0.031395305
195	0xbd06c7e0	-0.03290546
196	0x3d83c68d	0.06434355
197	0x3d745f0a	0.05966095
198	0x3c47a1da	0.0121845845
199	0x3e363e41	0.17797185
200	0x3e281b98	0.16416776
201	0xbe829016	-0.25500554
202	0x3e8151a0	0.25257587
203	0x3c1382b6	0.009003332
204	0x3e78b54b	0.24287908
205	0x3d603a5c	0.054743156
206	0xbe2169ec	-0.15763062
207	0xbe3ed541	-0.18636037
208	0xbdddada7	-0.10824137
209	0x3cf08344	0.029359467
210	0xbe3c0b38	-0.18363655
211	0x3db7bacd	0.08971176
212	0xbd2a3c69	-0.041561518
213	0x3d948c5f	0.07253336
214	0x3d6f0d70	0.058362424
215	0x3cd9a9e9	0.026570277
216	0xbdaa8284	-0.08325675
217	0xbce39120	-0.027779162
218	0x3d3d11b3	0.046159457
219	0xbe179cb5	-0.14805873
220	0xbe7251f0	-0.23664069
221	0x3dbe1a26	0.09282331
222	0xbe0919ca	-0.13388744
223	0xbe95fffe	-0.2929687
224	0x3e1db76e	0.15402004
225	0xbde029f7	-0.10945504
226	0x3e0b3342	0.13593772
227	0xbd4e4f72	-0.050368734
228	0xbe0fba64	-0.14035946
229	0x3e6d3986	0.23166475
230	0xbd1200b7	-0.035645213
231	0x3cfaf156	0.030632656
232	0x3e1e1ea5	0.15441377
233	0xbe28e783	-0.16494565
234	0x3daf2631	0.08552206
235	0x3dfd0a45	0.123554744
236	0xbd05c510	-0.032658637
237	0x3e79acb3	0.24382286
238	0xbe0757c5	-0.13217075
239	0x3e09eb10	0.13468575

0.model_cnn.layer1.0.bias f4 [16]
0	0xbabb6081	-0.0014295728
1	0x3c22ef0a	0.009944687
2	0xbbaf39ea	-0.00534748
3	0x3b9aa837	0.00471976
4	0x3a005804	0.0004895928
5	0xbab86e6e	-0.0014070997
6	0x3b116a77	0.0022188702
7	0xb8fb95e4	-0.00011996532
8	0xbb474311	-0.0030404965
9	0x3c2fa0b9	0.010719472
10	0x3b88af07	0.0041712555
11	0xba0dfc4b	-0.0005416318
12	0xbb7cee67	-0.0038594247
13	0x3b7981c7	0.0038071738
14	0xbb102830	-0.002199661
15	0xbbf43bb6	-0.007453407

0.model_cnn.layer1.1.weight f4 [16]
0	0x3f6ade7b	0.9174573
1	0x3f7baaeb	0.98307675
2	0x3f8287a9	1.019765
3	0x3f761a07	0.96133465
4	0x3f788790	0.9708185
5	0x3f7b6732	0.9820434
6	0x3f83a833	1.0285705
7	0x3f716b25	0.94304115
8	0x3f83fc18	1.0311308
9	0x3f8d1566	1.1022155
10	0x3f8a3f09	1.0800487
11	0x3f6dbaa5	0.9286292
12	0x3f83b14d	1.0288483
13	0x3f824fe9	1.0180637
14	0x3f6f1c45	0.9340251
15	0x3f8369c3	1.0266651

0.model_cnn.layer1.1.bias f4 [16]
0	0xbcd394ac	-0.025827728
1	0x3c3d50ac	0.011554878
2	0x3d7233c0	0.059131384
3	0xbcefbf79	-0.029266106
4	0x3c458b2d	0.012057108
5	0xbde7457d	-0.11292551
6	0x3c0cd9cd	0.00859685
7	0x3c16feda	0.009216035
8	0xbd900ad2	-0.07033314
9	0x3e13cbb0	0.1443317
10	0x3d70059b	0.058599096
11	0xbdd24e73	-0.10268869
12	0x3d9c7d1a	0.07641049
13	0xbad94da8	-0.001657893
14	0xbd8cdf41	-0.0687852
15	0xbd2d2235	-0.04226895

0.model_cnn.layer1.1.running_mean f4 [16]
0	0xba9711bc	-0.0011525671
1	0x3bebfe95	0.0072019794
2	0xbb8c4e58	-0.0042818002
3	0x3b2ba346	0.0026189848
4	0x3a98fc56	0.0011671882
5	0xba42076f	-0.00074016204
6	0x3a42d442	0.00074321416
7	0xb88fab01	-6.850623e-05
8	0xbad53d2c	-0.0016268841
9	0x3c4095dd	0.01175448
10	0x3a97ae24	0.0011572284
11	0xb9bf5532	-0.00036493834
12	0xbb6079f8	-0.0034252387
13	0x3b840c91	0.0040298183
14	0xbaf6d10f	-0.0018830615
15	0xbc099609	-0.008397588

0.model_cnn.layer1.1.running_var f4 [16]
0	0x3f03f011	0.5153819
1	0x3e9828e8	0.2971871
2	0x3e96ef81	0.29479602
3	0x3ee88a14	0.45417845
4	0x3eaa7997	0.3329589
5	0x3efddc67	0.49582216
6	0x3eb09fde	0.3449697
7	0x3e5bb73f	0.21456622
8	0x3e4c284b	0.19937246
9	0x3dbd04ad	0.092294075
10	0x3e3a4cbe	0.18193337
11	0x3e9a888b	0.301823
12	0x3e5d3630	0.21602702
13	0x3e411677	0.18856226
14	0x3ec56e66	0.3856079
15	0x3dc0f9f3	0.09422674

0.model_cnn.layer2.0.weight f4 [32, 16, 3]
0	0x3dc42882	0.09578039
1	0xbdfd00e2	-0.12353684
2	0xbdee2f84	-0.11630157
3	0x3ab53640	0.0013825372
4	0xbd83a44b	-0.06427821
5	0xbd5e5492	-0.05427987
6	0x3d808139	0.06274647
7	0xbd3f5209	-0.046709094
8	0x3da9b350	0.08286154
9	0x3d9ef969	0.07762415
10	0x3cfe7f4e	0.031066563
11	0x3dcc5021	0.09976221
12	0x3df410c5	0.11917261
13	0xbd293f28	-0.041319996
14	0x3d55da29	0.052210007
15	0x3dbd958e	0.09257041
16	0x3dc8778e	0.09788428
17	0xbd3ca2f8	-0.046053857
18	0xbbd63fc8	-0.006538365
19	0x3e1d8ca0	0.15385675
20	0x39ea089c	0.00044638372
21	0xbcdcf1fb	-0.026970854
22	0x3d124229	0.035707626
23	0xbde360e0	-0.11102462
24	0x3d6709bc	0.056405768
25	0x3e0ba9aa	0.1363894
26	0x3a6551e8	0.0008747862
27	0x3de6c9fe	0.11268996
28	0x3dd06323	0.10175159
29	0xbd6cdc2a	-0.057827152
30	0x3e4779b8	0.19480026
31	0x3e42985a	0.1900343
32	0x3db379d4	0.08763471
33	0xbc46456d	-0.012101513
34	0xbdcb74b0	-0.09934366
35	0x3b3d3f36	0.0028876788
36	0x3d6e9fbc	0.058257803
37	0xbd787994	-0.06066282
38	0xbd91299f	-0.07088017
39	0x3c833244	0.01601518
40	0x3db567cf	0.088576905
41	0x3d777fdc	0.06042467
42	0x3d87715d	0.06613419
43	0x3cc71f74	0.02430699
44	0xbdd11baf	-0.10210358
45	0xbe16e4d5	-0.1473573
46	0x3dfea17f	0.12433147
47	0x3ce19d03	0.02754069
48	0x3d900402	0.070320144
49	0xbc9e3d05	-0.019316206
50	0x3d48e4d3	0.04904635
51	0x3d332765	0.04373874
52	0xbd9e7289	-0.077366896
53	0xbd04c527	-0.03241458
54	0x3cef7b7c	0.029233687
55	0xbd7a3348	-0.06108406
56	0xbd26779f	-0.040641423
57	0xbdd3ee14	-0.10348144
58	0xbc86eed1	-0.016471298
59	0xba9d4a97	-0.0012000379
60	0xbd8dc324	-0.06921986
61	0x3ded24b9	0.1157927
62	0xbdff222c	-0.1245769
63	0xbd9d3a0a	-0.07677086
64	0xbded24a8	-0.11579257
65	0xbe3a56eb	-0.18197219
66	0xbd86ddf5	-0.06585304
67	0x3d33713d	0.043809164
68	0x3e19410f	0.14966224
69	0x3d2b1d36	0.041775905
70	0xbdab44ec	-0.08362755
71	0xbdef09bb	-0.11671778
72	0x3de3dba8	0.111258805
73	0x3e09a59f	0.13442086
74	0x3dce0157	0.10058849
75	0x3ca40892	0.020023618
76	0xbb9054f0	-0.0044046566
77	0xbd616f95	-0.055038054
78	0xbddbce02	-0.10732652
79	0xbdd72377	-0.10504811
80	0x3dbb6fa1	0.09152151
81	0x3e045607	0.12923442
82	0x3c87ed2b	0.016592583
83	0xbce2f8d2	-0.027706537
84	0x3cf7d6cb	0.030253788
85	0x3e205283	0.15656476
86	0x3e0f7060	0.14007711
87	0x3c3d4f8c	0.01155461
88	0x3e06d3c7	0.13166724
89	0x3e14ca1f	0.14530228
90	0xbda5a351	-0.08087791
91	0x3ca168ea	0.019703347
92	0xbdc2d1bc	-0.0951266
93	0x3a036359	0.00050120574
94	0xbdf17f5f	-0.11791872
95	0xbc7bd848	-0.01537139
96	0x3dabfffa	0.08398433
97	0xbc3edb37	-0.011648945
98	0x3b200215	0.0024415303
99	0xbd940ec6	-0.0722938
100	0xbd89466d	-0.06702886
101	0x3d4083c0	0.047000647
102	0xbd975bf4	-0.073905855
103	0x3d395d97	0.04525527
104	0xbd8a8020	-0.06762719
105	0x3d2cb131	0.04216117
106	0x3d97fe00	0.074214935
107	0xbd83188f	-0.064011686
108	0x3d8d7a23	0.06908061
109	0xbe299c2c	-0.16563481
110	0x3de40a73	0.111348055
111	0x3d9b1ca1	0.0757382
112	0x3e02ed8a	0.12785926
113	0xbe106ce0	-0.14104033
114	0xbe0abbd0	-0.13548207
115	0xbcdfecec	-0.027334653
116	0xbdfb3026	-0.12265043
117	0xbdffb874	-0.124863535
118	0xbdd366cd	-0.10322342
119	0xbdf44099	-0.119263835
120	0x3d3570f1	0.044297162
121	0x3c2a780e	0.0104046
122	0xbd80387c	-0.062607735
123	0xbdee48b6	-0.11634962
124	0x3e0811be	0.13288018
125	0xbe773b93	-0.2414382
126	0xbe00dc03	-0.12583928
127	0x3da313f2	0.07962789
128	0xbd9b7ae6	-0.075918004
129	0xbdb8bdb9	-0.09020562
130	0xbd7967e5	-0.060890097
131	0xbd59090e	-0.05298715
132	0x3d519e16	0.051176153
133	0xbdd01bb1	-0.10161532
134	0xbe061b25	-0.13096292
135	0x3e22b66b	0.158899
136	0xbd0d5b7b	-0.03451107
137	0x3e196aee	0.14982197
138	0xbd29b264	-0.041429892
139	0xbd975410	-0.073890805
140	0xbde3f99b	-0.11131593
141	0x3dbad1b5	0.0912203
142	0x3cd1c3ea	0.025606114
143	0x3e0259f7	0.12729631
144	0xbe091c79	-0.13389768
145	0xbd9b28ff	-0.07576179
146	0x3d919669	0.071087666
147	0x3ca7614a	0.020432133
148	0xbd8db731	-0.069197066
149	0xbd8d72a9	-0.06906635
150	0x3d9a4fac	0.075347275
151	0x3d97633c	0.07391974
152	0x3ddab13f	0.10678338
153	0xbddb85b1	-0.10718859
154	0x3dbd1372	0.092322245
155	0xbd30ac49	-0.043133054
156	0x3d3d1bb7	0.04616901
157	0xbd0ccf13	-0.03437717
158	0xbdf9d9ed	-0.12199769
159	0xbdc159fd	-0.09440992
160	0xbe02a87e	-0.12759587
161	0x3db31238	0.08743709
162	0x3d644cd3	0.055737328
163	0x3cb37f55	0.021911303
164	0xbe0176a1	-0.1264291
165	0xbd0dc650	-0.034612954
166	0xbda3833d	-0.07984016
167	0x3d18e26c	0.037325308
168	0xbc6790ea	-0.014133671
169	0xbd5f6b87	-0.054545905
170	0xbe2fc4e0	-0.17164946
171	0xbe09b789	-0.1344892
172	0xbe372f69	-0.1788918
173	0xbdc0e72d	-0.09419093
174	0x3cad9b8c	0.021192335
175	0xbe3558a8	-0.17709601
176	0xbc25aa04	-0.010111336
177	0xbd222861	-0.03958929
178	0x3dae0992	0.08497919
179	0x3d0bcdb5	0.034131724
180	0x3d8099bf	0.06279325
181	0xbcf51101	-0.029915335
182	0xbd80f1db	-0.0629613
183	0xbe2334bb	-0.15938084
184	0xbe0bd91d	-0.13657041
185	0x3d92fd27	0.07177191
186	0xbd7224f9	-0.05911729
187	0x3d82a796	0.06379621
188	0x3dca1ee2	0.09869172
189	0xbe6552e0	-0.22394896
190	0x3d0bcf42	0.034133203
191	0xbddb03ea	-0.10694106
192	0x3df2cd7c	0.11855599
193	0x3de257e8	0.11051923
194	0x3bd01330	0.0063499436
195	0xbcd50338	-0.026002511
196	0xbc722d1d	-0.014781264
197	0x3bcfcb5d	0.0063413815
198	0xbdddedda	-0.10836382
199	0xbe04d214	-0.12970763
200	0x3bee8274	0.007278735
201	0x3ddc049c	0.10743067
202	0xbe0a3b5a	-0.13499203
203	0x3dae6904	0.08516124
204	0x3e27f854	0.16403323
205	0xbd2901db	-0.041261535
206	0xbdd0d6a9	-0.10197193
207	0x3e06f710	0.13180184
208	0x3e1e10ed	0.15436144
209	0xbc184f82	-0.0092963
210	0x3d9a910d	0.075471975
211	0x3d506ee3	0.050887
212	0x3bda0bbf	0.0066542323
213	0x3db52c87	0.088463835
214	0xbe423922	-0.18967107
215	0xbddeec01	-0.10884858
216	0xbdf4b956	-0.119494125
217	0xbd32c2c4	-0.043642774
218	0xbd943450	-0.0723654
219	0x3d2fbcdc	0.04290472
220	0x3e14ad8b	0.14519326
221	0xbc8a32d3	-0.016869938
222	0x3d5db21c	0.054124936
223	0xbe021bac	-0.12705868
224	0xbe637e33	-0.2221611
225	0xbd76177f	-0.060081
226	0x3c7ee25b	0.015556897
227	0xbda7e8b1	-0.08198679
228	0xbe38b542	-0.18037894
229	0x3c426042	0.01186377
230	0x3d1f571a	0.038901426
231	0x3d6e0282	0.05810786
232	0xbe1fc644	-0.15602976
233	0x3c9b4632	0.01895437
234	0xbdc2426d	-0.09485326
235	0x3dc2737b	0.094946824
236	0xbd482ed2	-0.048872776
237	0xbd0f1d1a	-0.034939863
238	0xbca1f516	-0.019770186
239	0x3d386d96	0.045026384
240	0xbd96e0a6	-0.07367067
241	0x3d079048	0.03309658
242	0xbd2473e2	-0.040149577
243	0x3d23f089	0.040024314
244	0x3d4bc279	0.04974601
245	0xbe170548	-0.14748108
246	0xbd85a9a7	-0.06526499
247	0xbd622692	-0.055212565
248	0x3da69457	0.08133762
249	0xbded854b	-0.11597689
250	0xbd874219	-0.06604404
251	0xbd81ca45	-0.06337408
252	0x3e07d2dd	0.13264032
253	0xbdf98603	-0.12183764
254	0x3e084a53	0.13309602
255	0x3b31be99	0.0027121662

0.model_cnn.layer2.0.bias f4 [32]
0	0xba91eff3	-0.0011134133
1	0x3a1774f4	0.000577762
2	0xbb915ee5	-0.004436361
3	0x3a4b9876	0.0007766554
4	0x3ab0688e	0.0013458894
5	0x3b86bffa	0.004112241
6	0x3a50154c	0.0007937744
7	0xba34f15f	-0.0006902422
8	0xb95f4929	-0.00021294192
9	0xbba35a17	-0.004985105
10	0xbb314016	-0.0027046255
11	0x39424078	0.00018525298
12	0x3b33fc8f	0.002746377
13	0x3a8e9cc4	0.001088046
14	0x3918cd40	0.00014572311
15	0x3b2808db	0.0025640044
16	0xbb3b7a0f	-0.0028606688
17	0xbad7a77a	-0.001645311
18	0x3b43a0fb	0.002985059
19	0xb9cfe8e2	-0.00039655628
20	0xba8b3a67	-0.0010622264
21	0x3b2d0e52	0.002640624
22	0x39dcbd1b	0.00042102564
23	0x3ab3ce88	0.0013718167
24	0xbba303a0	-0.0049747974
25	0x3b07a054	0.0020694928
26	0x3a10a413	0.0005517613
27	0x3a90f4d9	0.0011059298
28	0xbadc8a1f	-0.0016825831
29	0x3b96cc55	0.004601995
30	0xbb64e845	-0.0034928482
31	0xba866ab5	-0.001025519

0.model_cnn.layer2.1.weight f4 [32]
0	0x3f78329e	0.96952236
1	0x3f85ae8d	1.0443894
2	0x3f881487	1.0631264
3	0x3f7433be	0.9539145
4	0x3f83d4bc	1.0299296
5	0x3f6dc248	0.92874575
6	0x3f71a896	0.94397867
7	0x3f810ec3	1.008263
8	0x3f7c2458	0.98492956
9	0x3f6ec78c	0.93273234
10	0x3f775e32	0.96628106
11	0x3f7618af	0.96131414
12	0x3f762083	0.9614336
13	0x3f7cba1f	0.987215
14	0x3f7a8b70	0.97869015
15	0x3f8507f3	1.0393051
16	0x3f79d402	0.97589123
17	0x3f7e6865	0.99378043
18	0x3f92153b	1.1412729
19	0x3f83a78f	1.028551
20	0x3f72c5eb	0.9483325
21	0x3f7eae72	0.9948493
22	0x3f815c44	1.0106282
23	0x3f6fddb6	0.9369768
24	0x3f833b96	1.0252559
25	0x3f82766c	1.019239
26	0x3f7912cb	0.972943
27	0x3f7e9768	0.9944978
28	0x3f68b761	0.90904814
29	0x3f7bf864	0.9842589
30	0x3f89c4c4	1.0763173
31	0x3f7d58df	0.9896373

0.model_cnn.layer2.1.bias f4 [32]
0	0xbe31ac7f	-0.17350958
1	0xbdc81ba5	-0.09770898
2	0x3d5ccd6b	0.05390684
3	0xbbe8fdaf	-0.0071103196
4	0xbd3607b0	-0.044440925
5	0xbd64f9a5	-0.055902142
6	0xbd7537e2	-0.059867747
7	0xbdc2941d	-0.095009066
8	0xbce6ef4b	-0.028190276
9	0xbcabbdc2	-0.020964507
10	0xbe6cc254	-0.23121005
11	0xbe466977	-0.19376169
12	0xbe288116	-0.16455492
13	0x3d269de2	0.040677913
14	0xbdfe5557	-0.12418621
15	0xbcae6c4c	-0.021291874
16	0xbdae46d6	-0.08509605
17	0xbcf209c1	-0.029545667
18	0x3e2585a1	0.16164257
19	0xbe65027d	-0.2236423
20	0xbd9fd7c6	-0.078048274
21	0xbd108efe	-0.035292618
22	0xbdc6c6e7	-0.09705906
23	0xbd064290	-0.032778323
24	0xbdb1f936	-0.08690111
25	0xbd524c8e	-0.05134254
26	0xbe65e99d	-0.22452398
27	0xbd86d8d8	-0.065843284
28	0xbd6e6a5a	-0.058206894
29	0xbd29ea4b	-0.041483205
30	0x3d587aea	0.052851595
31	0xbcde5710	-0.027141124

0.model_cnn.layer2.1.running_mean f4 [32]
0	0x3ee514d5	0.44742456
1	0x3c5087c4	0.012727682
2	0xbedd68fa	-0.43244153
3	0xbf201efb	-0.6254727
4	0xbe479e8b	-0.19494073
5	0xbebb153c	-0.36539638
6	0xbe362848	-0.17788804
7	0xbe738000	-0.23779297
8	0xbea6d176	-0.3258168
9	0xbed4d49d	-0.4156846
10	0x3f016536	0.5054506
11	0x3e75a069	0.23986973
12	0x3e3f7ca3	0.18699889
13	0xbea6adf5	-0.32554594
14	0xbd86338d	-0.06552801
15	0xbd628cca	-0.05531005
16	0x3e210c63	0.15727381
17	0xbe3f8aaa	-0.1870524
18	0xbf2b9b20	-0.67033577
19	0x3f07b350	0.53007984
20	0xbe9d8480	-0.30765152
21	0xbe47d387	-0.19514285
22	0x3e491e91	0.19640566
23	0xbf266385	-0.64995605
24	0xbe1778b6	-0.14792141
25	0xbe0cf7da	-0.13766423
26	0x3e96cca6	0.2945301
27	0xbe7b8d2d	-0.24565573
28	0x3e28e875	0.16494925
29	0xbe5e60a0	-0.21716547
30	0xbde09199	-0.109652705
31	0xbee3eaac	-0.44514978

0.model_cnn.layer2.1.running_var f4 [32]
0	0x3e4da387	0.20081912
1	0x3e7fa99e	0.24967048
2	0x3e359665	0.17733152
3	0x3eb8a02a	0.36059695
4	0x3e49c8e5	0.19705541
5	0x3e95b995	0.2924315
6	0x3e23346e	0.15937969
7	0x3e22033c	0.15821546
8	0x3e664f8f	0.22491287
9	0x3e4ab9d5	0.19797452
10	0x3e702ab2	0.23453787
11	0x3e39fa0b	0.1816179
12	0x3df797ef	0.12089526
13	0x3e650135	0.22363742
14	0x3e635d61	0.2220359
15	0x3e124cbe	0.14287087
16	0x3e2a9db6	0.16661724
17	0x3e15b0a5	0.14618166
18	0x3e910606	0.28324908
19	0x3e8e0bf7	0.27743503
20	0x3e5311bf	0.20612238
21	0x3e8f8d1a	0.2803734
22	0x3dcb2774	0.099196345
23	0x3ecf67b9	0.40508822
24	0x3e30f9dc	0.17282814
25	0x3e0db564	0.13838726
26	0x3e607eb8	0.2192334
27	0x3e21b5c0	0.15791988
28	0x3e9124e9	0.28348473
29	0x3e547e6e	0.20751354
30	0x3dd93689	0.10606105
31	0x3e7839c7	0.2424079

0.model_cnn.layer3.0.weight f4 [64, 32, 3]
0	0xbd8fc018	-0.07019061
1	0xbc93f194	-0.01805953
2	0xbccfbb27	-0.025357796
3	0x3c0a5029	0.008441963
4	0xbdd9a219	-0.10626621
5	0x3d809980	0.06279278
6	0x3cac6617	0.021044774
7	0x3d4ff29a	0.050768472
8	0x3d149355	0.03627332
9	0xbc16cb43	-0.009203735
10	0xbc619d9a	-0.013770485
11	0xbdad816e	-0.084719524
12	0x3c1b1a1f	0.009466677
13	0xbd6cdf32	-0.057830043
14	0x3dd73378	0.10507864
15	0xbc485f2d	-0.012229723
16	0xbdc57557	-0.096415214
17	0x3a0d7eb6	0.00053976045
18	0x3d68acf7	0.056805577
19	0xbdb41b35	-0.08794252
20	0xbde04361	-0.109503515
21	0x3d1ba379	0.037997697
22	0xbdb6a82f	-0.08918797
23	0xbdb30a1b	-0.08742162
24	0x3d84044f	0.06446134
25	0x3e0d3302	0.13788989
26	0x3cfe1274	0.031014659
27	0x3dbc0b45	0.09181837
28	0xbdfd1aaa	-0.123586014
29	0xbe2d63d9	-0.1693262
30	0xbcfd2c7c	-0.030905
31	0x3cafdd82	0.021467928
32	0xbd3705ce	-0.04468327
33	0xbdb56d7f	-0.08858775
34	0x3d06dc3d	0.03292488
35	0x3b7c6ebc	0.0038518151
36	0x3d71b1d0	0.059007466
37	0x3db2a9b5	0.08723775
38	0xbd1fd850	-0.03902465
39	0xbda7c6d1	-0.08192218
40	0xbcae6dc9	-0.021292584
41	0xbd887081	-0.066620834
42	0xbd7b5e28	-0.06136909
43	0xbddd19a0	-0.10795903
44	0xbd4b91f7	-0.04969975
45	0xbe62d419	-0.22151221
46	0xbcba5a74	-0.02274821
47	0xbca322b7	-0.019914014
48	0x3d0338ba	0.03203652
49	0xbdf858a9	-0.121262856
50	0xbc9b0777	-0.018924458
51	0xbdcafd4e	-0.09911595
52	0xbcbb36d1	-0.022853287
53	0xbdc9957e	-0.098429665
54	0x3d7ebc81	0.06219149
55	0x3ce09c0d	0.02741816
56	0xbc5e883a	-0.013582284
57	0xbcec0547	-0.02881111
58	0x3dacd1f3	0.08438482
59	0x3d1bc046	0.038025163
60	0x3c6ade33	0.014335203
61	0x3cee069f	0.029055892
62	0xbcb7256c	-0.022356711
63	0xbda54d11	-0.0807134
64	0xbe14174e	-0.14462015
65	0xbd9f8f13	-0.07790961
66	0xbd9b077d	-0.07569788
67	0xbd3aff9d	-0.045653928
68	0x3d12ff6f	0.03588813
69	0xbc94f212	-0.018181834
70	0x3cc7d01b	0.024391225
71	0xbd9bf90a	-0.0761586
72	0x3e226562	0.15858987
73	0x3de8c3b3	0.11365452
74	0x3c2a2604	0.01038504
75	0xbdcbc7cb	-0.09950217
76	0xbe02f2b9	-0.12787904
77	0x3c4e84d4	0.012604911
78	0xbdaef716	-0.08543222
79	0x3dd96100	0.106142044
80	0x3a51e494	0.0008006778
81	0xbd016b11	-0.031596247
82	0xbdc39afb	-0.095510446
83	0xbc41e9c5	-0.01183552
84	0x3cb7811f	0.022400437
85	0xbdd44d91	-0.10366357
86	0xbbfa831b	-0.0076450235
87	0xbd0c5ad5	-0.03426631
88	0x3c3d2bea	0.011546114
89	0xbdd7b5c0	-0.10532713
90	0xbdeb132f	-0.11478268
91	0x3da124b0	0.07868326
92	0x3d7dbde5	0.061948676
93	0xbd40cd26	-0.047070645
94	0xbd3f6c27	-0.046734
95	0xbe30ad53	-0.17253618
96	0xbce28172	-0.027649615
97	0xbd279745	-0.040915746
98	0xbda7ad08	-0.081873
99	0x3d51fd2d	0.051266838
100	0x3db41f66	0.08795051
101	0x3d0d8bfe	0.034557335
102	0xbd123362	-0.035693534
103	0x3d65863b	0.056036215
104	0x3c3e858d	0.011628521
105	0x3db656ba	0.089032605
106	0x3d902715	0.07038704
107	0x3d430be2	0.047618754
108	0xbddb8051	-0.10717834
109	0xbdccc825	-0.09999112
110	0xbe0b4c1c	-0.13603252
111	0x3d667095	0.05625971
112	0x3d7551bb	0.059892397
113	0xbd78321f	-0.060594674
114	0xbe0745c7	-0.13210212
115	0x3d86d224	0.0658305
116	0x3df29ec6	0.1184669
117	0x3d86b179	0.06576819
118	0xbce15578	-0.027506575
119	0x3d4f6d22	0.050641187
120	0xbcb776ce	-0.022395518
121	0xbd33d21b	-0.043901544
122	0xbddebaca	-0.10875471
123	0x3da5396c	0.08067593
124	0x3c4e482c	0.012590449
125	0x3d0f55da	0.034993984
126	0x3b573f2e	0.0032844055
127	0x3d12ab10	0.03580767
128	0x3b80cd1b	0.0039307005
129	0x3d588cda	0.0528687
130	0xbd6a60dd	-0.057221282
131	0x3d8bd534	0.06827775
132	0xbdfade1f	-0.122493975
133	0x3be9b20f	0.007131822
134	0x3d3237f4	0.043510392
135	0xbdc31897	-0.095261745
136	0xbd9ff5f1	-0.078105815
137	0xbdd118b4	-0.1020979
138	0x3e078fc5	0.13238437
139	0x3bd243b0	0.0064167604
140	0x3de262de	0.11054014
141	0x3ce7e79b	0.02830868
142	0xbda54d51	-0.080713876
143	0xbd6ab285	-0.057299156
144	0x3dd0b28b	0.10190304
145	0xbda5c495	-0.08094136
146	0xbcf6c5fd	-0.030123705
147	0xbe017981	-0.12644006
148	0x3dae4e04	0.08510974
149	0x3c2fd1a7	0.010731137
150	0xbdcde2fa	-0.10053058
151	0xbe07de60	-0.13268423
152	0xbd8ce7d5	-0.06880156
153	0x3dba9133	0.09109726
154	0x3d4f48dd	0.050606597
155	0x3ca0992d	0.01960429
156	0xbd4d0f08	-0.050063163
157	0xbd150234	-0.036379054
158	0x3d0d5f36	0.03451463
159	0x3da0d7b3	0.07853641
160	0x3d82e041	0.06390429
161	0xbd0b3fe5	-0.03399648
162	0xbcc512ee	-0.024056878
163	0xbd94434e	-0.072394
164	0xbd81ac93	-0.06331744
165	0xbcba8ca0	-0.022772133
166	0xbd3b992d	-0.045800377
167	0x3d971992	0.07377924
168	0xbca5dfc9	-0.02024831
169	0xbdbdf2e1	-0.09274841
170	0x3dbadc5d	0.09124062
171	0x3dcfca01	0.10145951
172	0x3b89cc4f	0.0042052637
173	0xbcc5e43a	-0.024156678
174	0x3de421b5	0.111392416
175	0x3d7b3702	0.061331756
176	0x3da387c3	0.07984879
177	0x3c9105cd	0.017702961
178	0x3d82e1f1	0.06390751
179	0xbccc22e9	-0.02491899
180	0x3e068d3c	0.13139814
181	0x3d48fb10	0.049067557
182	0x3dedba68	0.1160782
183	0xbd5b64de	-0.05356299
184	0x3dd152fd	0.10220907
185	0x3d4a7332	0.049426265
186	0xbdfb35db	-0.122661315
187	0xbdda827b	-0.106694184
188	0xbddd60ec	-0.10809502
189	0xbc94d76a	-0.018169124
190	0xbcaece8d	-0.021338725
191	0xbd4f3c84	-0.05059482
192	0x3d6d27a3	0.05789913
193	0x3da68750	0.081312776
194	0xb972b814	-0.00023147493
195	0xbdecac4c	-0.115563005
196	0xbd6650cc	-0.056229398
197	0x3cf0d15e	0.029396709
198	0x3c985712	0.018596206
199	0xbd871c0b	-0.06597146
200	0x3d11a8be	0.035561316
201	0xbb69aafb	-0.003565489
202	0x3d0f2d94	0.034955576
203	0x3d57a75a	0.052649833
204	0xbdccf67a	-0.10007949
205	0x3d29e706	0.041480087
206	0xbc3eb3cd	-0.0116395475
207	0x3d417e05	0.047239322
208	0x3b8fa472	0.004383617
209	0xbe07d122	-0.13263372
210	0xbd5415af	-0.05177849
211	0xbdf859c0	-0.121264935
212	0x3da14fe5	0.07876567
213	0xbc3232a5	-0.010876332
214	0x3d9f172f	0.07768094
215	0xbbb18945	-0.005417975
216	0xbc31aa52	-0.01084383
217	0xbd857b10	-0.06517613
218	0x3d61efdc	0.05516039
219	0x3e0e07f7	0.13870226
220	0xbdbae386	-0.09125428
221	0xbdcebc2c	-0.10094485
222	0xba9d1eb7	-0.0011987303
223	0x3c45eb60	0.012080044
224	0x3d90ecf3	0.070764445
225	0xbd861532	-0.065470114
226	0x3d805b7a	0.06267448
227	0x3d6abb58	0.05730757
228	0xbe0ceb34	-0.13761598
229	0x3d8deaa3	0.06929519
230	0x3da6a2d7	0.08136528
231	0x3c14a15d	0.009071675
232	0xbda5a440	-0.08087969
233	0xbd2b93d9	-0.041889045
234	0x3d1d94dd	0.038472045
235	0x3d96de52	0.07366623
236	0xbdc35f85	-0.09539703
237	0xbda5b9d6	-0.08092086
238	0xbd1adde1	-0.037809256
239	0xbcd0f571	-0.02550766
240	0xbb11faaf	-0.0022274663
241	0x3d162ab2	0.03666181
242	0xbd88fa90	-0.06688416
243	0x3d038a35	0.032114226
244	0xbc57e120	-0.013176233
245	0xbdc30747	-0.095228724
246	0x3d8c588e	0.06852828
247	0xb9d3895d	-0.000403474
248	0x3ddad771	0.106856234
249	0x3df46c15	0.119346775
250	0x3c0a1f82	0.008430364
251	0x3e1cac20	0.15300035
252	0x3db1b857	0.08677738
253	0xbc594ba1	-0.01326266
254	0x3dce4755	0.10072199
255	0x3db0a60b	0.0862542

0.model_cnn.layer3.0.bias f4 [64]
0	0xb97522b1	-0.00023377944
1	0x39ec24a6	0.00045040733
2	0x3a04b4de	0.00050623517
3	0x3a888d0a	0.001041801
4	0x39d4f867	0.00040620865
5	0xba11aedb	-0.00055573665
6	0xb90e6956	-0.00013581416
7	0x391a27c9	0.00014701406
8	0xbba8d898	-0.005152773
9	0xba69f510	-0.0008924762
10	0x37ef2ca8	2.8511815e-05
11	0x3a509680	0.00079569966
12	0xb7e5259a	-2.7316437e-05
13	0x390b8fe4	0.00013309676
14	0x3a50f899	0.0007971614
15	0x389ead80	7.566344e-05
16	0xba40a6b9	-0.00073490624
17	0x39a618d2	0.0003168048
18	0xbb28fbf2	-0.0025784937
19	0xb9ebbbea	-0.000449627
20	0xb9493377	-0.00019188026
21	0xba86fe4b	-0.0010299174
22	0xbaaaa2dc	-0.0013018507
23	0x380afe8e	3.3138836e-05
24	0x393aca7e	0.00017813777
25	0x3b2ee6b7	0.002668781
26	0x3ab81d06	0.0014046736
27	0xba2612cf	-0.00063352
28	0x3a8ee29a	0.0010901273
29	0x3ab85c19	0.0014065533
30	0x3b2695b0	0.002541881
31	0xb991ae38	-0.00027786358
32	0x3b9e4345	0.0048297965
33	0xb903a7cc	-0.00012555643
34	0x3ad5b66d	0.0016304977
35	0x3925c232	0.0001580797
36	0x3ae8103b	0.0017705032
37	0xba171859	-0.0005763821
38	0xba564de1	-0.0008175057
39	0xbada08d2	-0.0016634709
40	0x3ace0e5a	0.001572083
41	0xba161b56	-0.0005726119
42	0x397f125a	0.00024325532
43	0x398bd8ec	0.00026673765
44	0xba74116a	-0.0009310456
45	0xb9ab5bd1	-0.0003268407
46	0xbab17365	-0.0013538419
47	0xb976f754	-0.00023552525
48	0x392dfea8	0.00016593433
49	0xb9aeead0	-0.00033362815
50	0xba2752e5	-0.00063828967
51	0xb8c9e267	-9.6265976e-05
52	0xb8b76820	-8.745515e-05
53	0x37e24c40	2.6976806e-05
54	0x3af6c55f	0.0018827132
55	0x3a8300d5	0.0009994755
56	0x383d1369	4.507919e-05
57	0xba4db986	-0.00078477745
58	0x39a81b42	0.00032063766
59	0xb93c3d8e	-0.00017952008
60	0xbac0107a	-0.0014653348
61	0x393251d6	0.00017005889
62	0x3b3f8424	0.002922305
63	0xb8d66d58	-0.00010224682

0.model_cnn.layer3.1.weight f4 [64]
0	0x3f88b0cf	1.0678958
1	0x3f728b7c	0.94744086
2	0x3f839d15	1.0282313
3	0x3f75a546	0.9595531
4	0x3f71f588	0.94515276
5	0x3f824287	1.0176553
6	0x3f71da3b	0.9447362
7	0x3f730c53	0.9494068
8	0x3f70b2f6	0.9402307
9	0x3f79ea9f	0.9762363
10	0x3f6a13f4	0.91436696
11	0x3f80fcb2	1.0077116
12	0x3f82d455	1.0221049
13	0x3f845e2d	1.034124
14	0x3f84d09a	1.037616
15	0x3f7c22c6	0.9849056
16	0x3f777709	0.9666601
17	0x3f816688	1.0109415
18	0x3f8d4430	1.1036434
19	0x3f569e2b	0.83835095
20	0x3f710245	0.9414409
21	0x3f7b9a16	0.9828199
22	0x3f7f6259	0.9975944
23	0x3f77c37c	0.9678266
24	0x3f72ad83	0.9479601
25	0x3f7a0826	0.97668684
26	0x3f855d25	1.041905
27	0x3f8706f2	1.0548995
28	0x3f820b29	1.0159656
29	0x3f7e4b1b	0.9933335
30	0x3f89370c	1.0719924
31	0x3f71f930	0.94520855
32	0x3f8522b2	1.0401213
33	0x3f7d9ee5	0.9907058
34	0x3f6f5ed4	0.9350407
35	0x3f7ffc56	0.9999441
36	0x3f76fc5d	0.96478826
37	0x3f73801f	0.9511737
38	0x3f772df9	0.96554524
39	0x3f812ed6	1.0092418
40	0x3f8633a8	1.0484514
41	0x3f80b5f5	1.0055529
42	0x3f759a1e	0.9593829
43	0x3f741db4	0.95357823
44	0x3f83c56e	1.0294626
45	0x3f8231c2	1.0171435
46	0x3f834a9d	1.0257145
47	0x3f7a1a33	0.97696227
48	0x3f6dfef0	0.9296713
49	0x3f90209e	1.1259954
50	0x3f7034ba	0.93830454
51	0x3f6de198	0.92922354
52	0x3f6d3900	0.926651
53	0x3f72e840	0.94885635
54	0x3f80279d	1.0012089
55	0x3f81e8d6	1.0149181
56	0x3f809814	1.004641
57	0x3f83d581	1.0299531
58	0x3f7f6773	0.99767226
59	0x3f87b60b	1.060243
60	0x3f838915	1.0276209
61	0x3f727487	0.94709057
62	0x3f84b9ab	1.0369161
63	0x3f8080f0	1.0039349

0.model_cnn.layer3.1.bias f4 [64]
0	0xbc80fdc0	-0.015745997
1	0xbdb68f4d	-0.08914051
2	0xbe85da91	-0.26143315
3	0xbe0459f2	-0.12924936
4	0xbdefef25	-0.11715535
5	0xbcc62a95	-0.024190227
6	0xbe2e9bd1	-0.17051627
7	0xbe5570a3	-0.20843749
8	0xbd5ed660	-0.054403663
9	0xbe2723a1	-0.16322185
10	0xbe0e1c42	-0.13877967
11	0x3d09fc15	0.03368767
12	0xbe5e8234	-0.21729356
13	0xbe158c1e	-0.14604232
14	0xbc8bc172	-0.017060015
15	0xbe0cacd1	-0.13737799
16	0x3cb6d0cd	0.02231636
17	0x3c8df006	0.017326366
18	0x3d90acbd	0.07064197
19	0xbe59e76a	-0.21279684
20	0xbe3fda03	-0.18735509
21	0xbdf7fddc	-0.12108967
22	0xbe460384	-0.19337279
23	0xbde7df68	-0.11321908
24	0xbdc8d6a6	-0.09806566
25	0xbd7fdb6e	-0.062465124
26	0xbbc2ae48	-0.005941186
27	0xbd942226	-0.07233076
28	0xbe45a6ae	-0.19301865
29	0xbcb0cda8	-0.02158244
30	0xbe3c92db	-0.18415396
31	0xbdca44f3	-0.09876432
32	0xbe19c6aa	-0.1501719
33	0xbe15f49a	-0.1464409
34	0xbdd4a641	-0.10383273
35	0x3cc348f8	0.023838505
36	0xbe072428	-0.13197386
37	0xbe51edb8	-0.20500839
38	0xbe55bb8b	-0.20872323
39	0x3d7abd2c	0.061215565
40	0xbce0df25	-0.027450154
41	0x3d1f438a	0.03888277
42	0xbb6ebb0d	-0.003642741
43	0xbe028b08	-0.12748349
44	0xbbd8d111	-0.0066167195
45	0xbe0ba0bd	-0.13635536
46	0x3caf3258	0.02138631
47	0xbe5ee230	-0.21765971
48	0xbd757533	-0.059926223
49	0xbe4d3d4d	-0.20042916
50	0xbdf524df	-0.11969923
51	0xbe25b0bb	-0.16180699
52	0xbe07fe37	-0.13280569
53	0xbe2000b0	-0.15625262
54	0xbdd413d1	-0.10355342
55	0xbe0e4a25	-0.13895471
56	0xbe361c79	-0.17784299
57	0xbe4a4f65	-0.19756849
58	0xbe31045b	-0.17286818
59	0x3d025e50	0.031828225
60	0xbd677aa8	-0.05651346
61	0xb91afd12	-0.0001478086
62	0xbe0887cc	-0.13333052
63	0xbdcce453	-0.10004487

0.model_cnn.layer3.1.running_mean f4 [64]
0	0xbf94f361	-1.1636773
1	0xbe524a0b	-0.20536058
2	0x3d521955	0.05129369
3	0x3db4e66e	0.088330135
4	0xbe50819f	-0.20361947
5	0xbf63a878	-0.8892894
6	0x3e192fe0	0.14959669
7	0x3f7abd8e	0.9794549
8	0xbd1a80c3	-0.037720453
9	0x3efb4d64	0.49082482
10	0x3e90cecc	0.28282773
11	0xbfe06d65	-1.7533385
12	0x3d26d0f0	0.040726602
13	0x3de0e08f	0.10980331
14	0x3ddbe966	0.107378766
15	0x3f2f31b8	0.6843524
16	0xbf72f1dc	-0.949003
17	0xbfdb88be	-1.7151105
18	0xc017f259	-2.3741667
19	0x3d64ece7	0.05588999
20	0x3f50729c	0.8142488
21	0xbe109702	-0.14120105
22	0x3fcc228f	1.5948046
23	0x3df45a04	0.119312316
24	0xbe2b539c	-0.16731113
25	0xbed020b1	-0.40649942
26	0xbf0c25bb	-0.5474507
27	0xbe207b13	-0.15671949
28	0x3f039a9d	0.51407796
29	0xbf4e8926	-0.8067802
30	0xbe80ef8b	-0.25182757
31	0xbf1b11eb	-0.60574216
32	0xbdc030fe	-0.093843445
33	0xbeb4bae3	-0.35298833
34	0xbe1e111b	-0.15436213
35	0xbf8b2dbb	-1.0873331
36	0xbf42c0b7	-0.7607531
37	0x3ec2e4b9	0.38065127
38	0x3f28299b	0.65688485
39	0xbfd5aa1d	-1.669254
40	0xbf9b8874	-1.2151017
41	0xc0062be7	-2.0964296
42	0xbea88f69	-0.32921913
43	0x3efc9612	0.49333245
44	0xbf1b070c	-0.6055763
45	0x3ec04bb6	0.37557763
46	0xbfdf324b	-1.7437223
47	0x3ec297fb	0.38006577
48	0xbef8d606	-0.48600787
49	0x3ebd80fe	0.37012476
50	0x3e2c43ac	0.1682269
51	0x3f27f666	0.6561035
52	0x3db93ed4	0.09045187
53	0x3f863eb6	1.0487888
54	0xbe8b934d	-0.2726082
55	0x3e97e323	0.2966548
56	0x3e04e6ca	0.12978664
57	0x3f31b232	0.6941253
58	0x3db1bb69	0.08678324
59	0xbf947158	-1.159709
60	0xbf7b4e79	-0.98166615
61	0xbebfa009	-0.37426785
62	0x3f608b82	0.8771287
63	0xbf20a957	-0.6275839

0.model_cnn.layer3.1.running_var f4 [64]
0	0x3eee521c	0.4654702
1	0x3e9b71f2	0.3036037
2	0x3e8301a5	0.25587192
3	0x3eff3ad9	0.49849585
4	0x3eab5fea	0.33471614
5	0x3ecc5e92	0.399159
6	0x3e968034	0.29394686
7	0x3e96a59e	0.2942323
8	0x3e73f559	0.23824061
9	0x3e8384b0	0.2568717
10	0x3e48ccb7	0.19609343
11	0x3f584180	0.84474945
12	0x3e82f531	0.2557769
13	0x3ee477a3	0.44622526
14	0x3e8956cb	0.2682403
15	0x3ea2426b	0.31691298
16	0x3f0b9ad8	0.5453315
17	0x3e95a592	0.29227883
18	0x3fa8d025	1.3188521
19	0x3e5eb0f3	0.21747188
20	0x3f02e10a	0.5112463
21	0x3e6f12e9	0.23347057
22	0x3ebf9414	0.37417662
23	0x3e8c91ea	0.27455074
24	0x3e719d45	0.2359515
25	0x3e78c165	0.24292524
26	0x3e8f5451	0.27994016
27	0x3eb91d3d	0.3615512
28	0x3ee76947	0.45197508
29	0x3ec19bdc	0.37814224
30	0x3ea28e93	0.317494
31	0x3e90ccae	0.28281158
32	0x3e8d3860	0.27582073
33	0x3e2987f3	0.16555767
34	0x3e9f8e7c	0.31163394
35	0x3f0968f9	0.536758
36	0x3e832ffd	0.2562255
37	0x3e44b7ff	0.19210814
38	0x3e46b518	0.1940502
39	0x3f88e62a	1.069524
40	0x3ec47790	0.3837247
41	0x3f1e3c0d	0.6181038
42	0x3eb539d9	0.35395697
43	0x3e88b1d9	0.26698187
44	0x3eadac28	0.33920407
45	0x3e736113	0.237675
46	0x3f11bb1b	0.56926125
47	0x3e917a0e	0.28413433
48	0x3e65c11a	0.22436944
49	0x3e68122e	0.22663185
50	0x3ed90d78	0.42393088
51	0x3e79f32f	0.24409173
52	0x3e46632a	0.19373766
53	0x3ea32db8	0.31870818
54	0x3e9fe081	0.3122597
55	0x3ea357db	0.31902966
56	0x3e8c7843	0.27435502
57	0x3ea908ce	0.3301453
58	0x3e878765	0.26470485
59	0x3f262608	0.6490178
60	0x3e639559	0.2222494
61	0x3ed4530b	0.41469607
62	0x3e71f0cd	0.23627014
63	0x3e85e9dc	0.26154983

0.model_cnn.layer4.0.weight f4 [128, 64, 3]
0	0xbd3da7de	-0.04630267
1	0xbde93d28	-0.11388618
2	0x3d0c4ee4	0.034254923
3	0xbb911a1d	-0.004428162
4	0x3d2e9986	0.04262688
5	0xbcc0b0e3	-0.023521846
6	0x3cc6a636	0.024249177
7	0x3baa9093	0.005205223
8	0xbd6a6863	-0.057228457
9	0xbada8ea6	-0.0016674593
10	0x3cb1a4df	0.021685062
11	0x3dda41a8	0.10657054
12	0xbd0afc74	-0.033932164
13	0xbc986e93	-0.018607413
14	0x3d0e84f3	0.03479476
15	0xbd9203ce	-0.07129632
16	0xbd219114	-0.039444998
17	0xbcf7604b	-0.030197283
18	0xbca627cc	-0.020282649
19	0xbb0403f9	-0.002014397
20	0x3d5dc8a6	0.05414643
21	0xbd9d7fae	-0.076903686
22	0x3d76262b	0.060094994
23	0xbcaa56ff	-0.020793436
24	0x3ca48877	0.020084603
25	0xbcae8596	-0.021303933
26	0xbd36f5df	-0.044668075
27	0xbd624133	-0.05523796
28	0xbd949040	-0.07254076
29	0x3cec6011	0.028854402
30	0x3d808489	0.06275279
31	0x3d1604ef	0.0366258
32	0x3c06a3bc	0.008217748
33	0xbc5fc5d9	-0.01365801
34	0xbdd45c48	-0.10369164
35	0xbcfddcef	-0.030989138
36	0x3b48662d	0.003057848
37	0xbc92812e	-0.017883863
38	0x3ccf9fd5	0.025344769
39	0x3d717905	0.058953304
40	0xbcea44f1	-0.028597327
41	0xbd2f7a25	-0.042841095
42	0xbca0de18	-0.019637153
43	0xba8e4630	-0.0010854658
44	0xbd893c85	-0.06700996
45	0xbab84ec9	-0.0014061566
46	0xbb910685	-0.004425826
47	0x3d743312	0.059619017
48	0xbdad8ad6	-0.084737465
49	0xbd9076f2	-0.07053937
50	0xbc8bf6fd	-0.017085547
51	0xbd876483	-0.06610968
52	0x3d427dba	0.047483183
53	0x3d1e712e	0.038682155
54	0xbdc5a01f	-0.09649681
55	0x3bd0b1a1	0.0063688313
56	0xbc01723d	-0.007900772
57	0x3d1d5f79	0.038421128
58	0x3d1f9283	0.038958084
59	0x3da6f062	0.08151318
60	0x3d33fef6	0.04394432
61	0x3cec0717	0.028811974
62	0x3d6e4d73	0.05817933
63	0x3c146451	0.00905712
64	0x3c89024c	0.016724728
65	0xbd044cd2	-0.032299824
66	0x3ca7ddb4	0.020491458
67	0xbd4563ca	-0.04819087
68	0xbc6c2273	-0.01441251
69	0x3db9a0ec	0.090638965
70	0x3c0cc65c	0.008592214
71	0x3d4b81bf	0.049684282
72	0x3d93983b	0.0720677
73	0xbd5171a0	-0.051133752
74	0x3e00a495	0.12562783
75	0xbc99c144	-0.018768914
76	0x3db4bc88	0.08825022
77	0x3c114377	0.0088661825
78	0x3d20d8ce	0.03926926
79	0x3d223699	0.03960285
80	0x3b1c5047	0.002385156
81	0xbd73a011	-0.059478823
82	0xbc5d1b76	-0.013495317
83	0x3d9cf504	0.076639205
84	0x3c321b63	0.010870787
85	0x3db105d8	0.08643693
86	0x3ba09f3a	0.004901794
87	0xbd535d12	-0.05160243
88	0x3b339cfc	0.0027406802
89	0xbce7f2a6	-0.028313946
90	0x3bd0d38a	0.0063728737
91	0x3d99529c	0.074864596
92	0x3dadff49	0.084959574
93	0xbd80c92a	-0.06288369
94	0x3a73334c	0.0009277358
95	0xbd0aeeea	-0.033919252
96	0xbd3ea1f6	-0.046541177
97	0x3c221968	0.009893753
98	0xbde785d5	-0.11304823
99	0x3c35fa00	0.011106968
100	0xbba209b4	-0.0049450044
101	0x3d9b9385	0.075964965
102	0xbd1d7301	-0.038439754
103	0xbcc1bd9e	-0.023649987
104	0x3c8d4c02	0.017248157
105	0xbd766878	-0.060158223
106	0x3c5b56a7	0.013387359
107	0xbdb9a110	-0.09063923
108	0x3d019947	0.031640317
109	0xbb3a0941	-0.0028386863
110	0x3d27c35d	0.040957797
111	0x3c5abea6	0.013351118
112	0xbbd00444	-0.0063481648
113	0x3d5ce5cd	0.053930093
114	0xbcccf009	-0.025016801
115	0x3bdce402	0.006741048
116	0xbbbebf18	-0.00582112
117	0xbc931c5b	-0.017957857
118	0xbbabfa15	-0.005248318
119	0xbd766b77	-0.06016108
120	0xbc9f700b	-0.019462606
121	0xbc573690	-0.013135567
122	0x3d27f111	0.041001383
123	0xbda0eb63	-0.078573965
124	0xbd496348	-0.049166948
125	0xbcd59253	-0.02607075
126	0x3d202b0f	0.039103564
127	0xbd7e9198	-0.062150568
128	0x3d982383	0.07428648
129	0x3d048649	0.032354627
130	0xbd5144ae	-0.05109089
131	0x3a9de827	0.0012047336
132	0xbd2332dd	-0.03984343
133	0x3d707d73	0.058713388
134	0xbc545dae	-0.012961788
135	0x3d7d3d97	0.061826315
136	0xbce88e83	-0.028388267
137	0x3c6d5fbc	0.014488157
138	0x3db8dca3	0.09026458
139	0xbd8c6036	-0.06854288
140	0x3df386fb	0.1189098
141	0xbb6246e9	-0.003452713
142	0xbbc782f0	-0.006088607
143	0x3d8e5f15	0.06951729
144	0xbc77ef5c	-0.015132751
145	0x3da1187d	0.07865999
146	0xbd2fc711	-0.042914454
147	0xbd1b2774	-0.037879422
148	0x3d4fdeb4	0.050749496
149	0x3b4dc2b0	0.003139656
150	0xbd55742f	-0.052112754
151	0xbd459215	-0.048235018
152	0xbd50863b	-0.050909262
153	0x3a895436	0.0010477367
154	0xbd054073	-0.032532167
155	0x3c1df6ec	0.00964139
156	0x3d42acd5	0.047528107
157	0xbd8994b7	-0.06717818
158	0x3cf23abb	0.02956902
159	0xbd9e42f6	-0.077276155
160	0xbd67e038	-0.056610316
161	0xbd92a30e	-0.071600065
162	0x3c7deaa2	0.015497835
163	0x3bb28b81	0.005448759
164	0xbd247b45	-0.04015662
165	0x3cb89f43	0.02253688
166	0xbd5d974a	-0.05409936
167	0xbd9d9708	-0.076948225
168	0xbd244e21	-0.040113572
169	0xbcc1cc45	-0.023656974
170	0x3bc2d706	0.005946043
171	0x3d7c7695	0.061636526
172	0xbd3dbc15	-0.046321947
173	0xbdf945a1	-0.12171484
174	0xbd3d2fc7	-0.046188142
175	0x3c8ca21e	0.017167147
176	0x3d92b962	0.07164265
177	0xbad33af3	-0.0016115591
178	0xbd812b0d	-0.063070394
179	0xbded41e7	-0.115848355
180	0x3deeabcb	0.11653861
181	0x3d842a1b	0.064533435
182	0x3e2e7143	0.17035393
183	0x3a1b729a	0.0005929858
184	0xbb210189	-0.0024567565
185	0x3b856c7b	0.00407177
186	0xbdfc30df	-0.12314009
187	0xbde02ff8	-0.10946649
188	0xbdd5588e	-0.10417281
189	0xbb9b9960	-0.0047485083
190	0xbdc7acb9	-0.09749741
191	0xbd5f8348	-0.05456856
192	0x3d03b94e	0.032159142
193	0xbd8454b6	-0.0646147
194	0x3d106690	0.03525406
195	0x3d9b3fd4	0.075805336
196	0x3ce78121	0.028259816
197	0x3d927a85	0.07152275
198	0xbd15b8c7	-0.03655317
199	0x3d0e1f37	0.034697738
200	0x3d18fe37	0.037351813
201	0x3cf7a2d5	0.030229012
202	0x3d569282	0.052385814
203	0xbd26c1c4	-0.040712133
204	0x3d2e06e6	0.042487048
205	0xbd5ec5e6	-0.05438795
206	0x3c3e51f4	0.011616219
207	0x3e07a3dc	0.13246101
208	0x3e213dae	0.15746185
209	0x3e30f99f	0.17282723
210	0xbdc050b3	-0.09390392
211	0x3ce4b6cd	0.027919197
212	0xbb63574e	-0.0034689489
213	0xbd55a02e	-0.052154712
214	0xbd90a8a4	-0.07063416
215	0x3c97e7f6	0.018543225
216	0xbad28d7b	-0.0016063893
217	0xbd45ae96	-0.0482622
218	0x3dc8365c	0.09775993
219	0x3b8ec900	0.004357457
220	0xbd46fb2d	-0.048579384
221	0xbdac488d	-0.084122755
222	0x3d18368a	0.037161388
223	0x3d42b66f	0.047537263
224	0x3d4ec591	0.050481383
225	0xbda6df1a	-0.08148022
226	0xbdde43b9	-0.10852761
227	0xbe1822d1	-0.14857031
228	0x3cb1b98e	0.021694925
229	0x3c3ff6bb	0.01171654
230	0x3cad8d1f	0.021185456
231	0x3d4b5f59	0.049651477
232	0x3d3c3e27	0.04595771
233	0x3d9a594f	0.075365655
234	0xbd1c52f6	-0.038165055
235	0xbd533ca4	-0.051571503
236	0xbd88de98	-0.066830814
237	0xbce60d92	-0.028082643
238	0xbcd67320	-0.026177943
239	0xbd9051f5	-0.07046882
240	0x3dcd5dda	0.100276664
241	0x3d92eb6a	0.07173808
242	0x3ce473ed	0.027887309
243	0x3dde6717	0.108595066
244	0x3c5922ad	0.013252896
245	0x3d310f3d	0.043227423
246	0xbd877f3d	-0.06616066
247	0xbd999efa	-0.075010255
248	0xbddbe9f7	-0.10737985
249	0x3d1a5e28	0.03768745
250	0xbd53cf8f	-0.051711615
251	0xbd7df7fc	-0.062004074
252	0xbd64df06	-0.055876754
253	0xbd729e37	-0.059232917
254	0xbd04b4bd	-0.032398928
255	0xbc57751e	-0.0131504815

0.model_cnn.layer4.0.bias f4 [128]
0	0xb9ca30ef	-0.000385649
1	0xba0053b6	-0.00048952864
2	0xba5f3ff1	-0.0008516303
3	0xb8f3087a	-0.00011588722
4	0x38702ff0	5.7265104e-05
5	0x395b716e	0.00020927723
6	0xba098509	-0.0005245959
7	0x39dc1b0a	0.00041981816
8	0x39539a4e	0.00020180011
9	0x37cad860	2.4181034e-05
10	0xb626b9fe	-2.484419e-06
11	0xba399ef2	-0.00070808746
12	0x3a087136	0.0005204858
13	0x39d3671a	0.00040321873
14	0xb9285659	-0.00016053896
15	0xb96cd10a	-0.00022584587
16	0xb9421b66	-0.00018511488
17	0x3a4624c8	0.00075585814
18	0x38faa4dc	0.000119516364
19	0x391988d5	0.00014642191
20	0x37821e0d	1.5511201e-05
21	0xba1eaf0e	-0.0006053307
22	0x390253f4	0.00012429041
23	0xb8bf8c99	-9.133778e-05
24	0x3929358f	0.00016137048
25	0x3960081a	0.00021365323
26	0x3a91a7a2	0.001111258
27	0xb964e6a8	-0.000218297
28	0x38d51450	0.00010160415
29	0xb9a2e4b2	-0.0003106944
30	0x394b38e2	0.00019380779
31	0x36f14141	7.1899562e-06
32	0xba3741ee	-0.000699072
33	0xba3ac61e	-0.00071248587
34	0x39af6c8f	0.00033459484
35	0xb90009a9	-0.0001221063
36	0x3a9d6717	0.0012008873
37	0xb99dc39e	-0.0003009112
38	0xb9d54176	-0.00040675298
39	0xb933429a	-0.00017095581
40	0x387cce36	6.027353e-05
41	0xba0aff96	-0.00053023675
42	0xb928fe76	-0.00016116523
43	0x3986baec	0.0002569774
44	0xb8d3ae11	-0.000100936864
45	0x39d33085	0.00040281206
46	0xb8baa4b4	-8.8998495e-05
47	0x3902d0ea	0.00012475593
48	0xb81af075	-3.6940404e-05
49	0x3987896c	0.00025851594
50	0xb9859b86	-0.0002548361
51	0xb952147f	-0.00020034796
52	0x3804dcfa	3.1677053e-05
53	0xb89f17de	-7.5861564e-05
54	0xb9c86c8a	-0.0003822784
55	0x3a3bb42e	0.0007160333
56	0xb8cb4428	-9.6924894e-05
57	0x39281919	0.00016031078
58	0xb879c663	-5.955099e-05
59	0x39a9502a	0.0003229392
60	0x388b18c0	6.6326465e-05
61	0xb922c263	-0.00015521939
62	0x3a43857b	0.000745855
63	0xb99a8596	-0.00029472698
64	0x39af6542	0.00033454044
65	0xb92aaa37	-0.00016275873
66	0xb9853e9a	-0.0002541438
67	0x389f3843	7.5921904e-05
68	0x38cc4886	9.7409866e-05
69	0xb8ec9d9a	-0.000112827125
70	0x39eb8d2e	0.0004492788
71	0xb6bb0180	-5.573209e-06
72	0xb9b5aafa	-0.00034650398
73	0xb89f1b68	-7.5868156e-05
74	0xb82ece03	-4.1676696e-05
75	0x399f56f7	0.00030391637
76	0xb8b0237a	-8.398942e-05
77	0xb9ab07c0	-0.00032621436
78	0xb9baeb1e	-0.0003565186
79	0xb9078099	-0.0001292251
80	0xb912620a	-0.00013960167
81	0x3961639e	0.00021494782
82	0xb93b7e7b	-0.00017880827
83	0x39c60857	0.00037771717
84	0x395e6392	0.00021208663
85	0x394fbb0b	0.00019810737
86	0x39c206e9	0.00037007712
87	0x39d1261f	0.0003989199
88	0x39d53e35	0.00040672874
89	0xb9e5aa20	-0.00043805037
90	0xb9724bb0	-0.00023107114
91	0x38b7fe77	8.773518e-05
92	0x3a55d161	0.0008156505
93	0xb9af7744	-0.0003346746
94	0xba252246	-0.00062993576
95	0xb98ca11e	-0.00026822923
96	0xb945eff1	-0.00018876769
97	0x3ad7f570	0.0016476344
98	0xb688e8c4	-4.0802133e-06
99	0x385e6772	5.3025266e-05
100	0xb9dedcc6	-0.0004250763
101	0xb7b75ad8	-2.1857602e-05
102	0xb75288b0	-1.25488e-05
103	0xba3c82be	-0.0007191113
104	0x3932fab6	0.000170688
105	0xb7fedc80	-3.0381838e-05
106	0x37c5f358	2.3597546e-05
107	0xb72e1a4e	-1.0377333e-05
108	0x395ab5aa	0.00020857775
109	0x3980da04	0.00024576497
110	0xba275307	-0.00063829165
111	0xb98ffe96	-0.00027464767
112	0x3a77c526	0.00094516797
113	0xb70f6e9b	-8.549217e-06
114	0xb7e0fea0	-2.682145e-05
115	0xba02669a	-0.0004974395
116	0xb9d6d2b9	-0.0004097426
117	0xbab17075	-0.0013537543
118	0x39cc44e4	0.0003896124
119	0x35b32600	1.3347599e-06
120	0x39d0abc7	0.00039800836
121	0xb91a7c54	-0.000147329
122	0x3812326b	3.4856068e-05
123	0x399e9eca	0.00030254415
124	0xb80376c0	-3.134343e-05
125	0x39348272	0.00017214732
126	0xb68111e0	-3.8465805e-06
127	0x39a56a5a	0.0003155049

0.model_cnn.layer4.1.weight f4 [128]
0	0x3f7bd80c	0.98376536
1	0x3f836a7a	1.0266869
2	0x3f828d58	1.0199385
3	0x3f6fa023	0.93603724
4	0x3f61e4b9	0.8823963
5	0x3f8a2c1c	1.0794711
6	0x3f83d058	1.0297956
7	0x3f758138	0.959003
8	0x3f823c06	1.0174568
9	0x3f8eee6e	1.1166513
10	0x3f7c1720	0.98472786
11	0x3f81a5ce	1.0128725
12	0x3f80ad06	1.0052803
13	0x3f83995c	1.0281177
14	0x3f7a6214	0.97805905
15	0x3f706c9d	0.9391573
16	0x3f86c784	1.0529637
17	0x3f72954a	0.9475905
18	0x3f72b8f2	0.94813454
19	0x3f7be4f4	0.9839623
20	0x3f7ce73c	0.98790336
21	0x3f864984	1.0491185
22	0x3f7bf229	0.9841638
23	0x3f8178b7	1.0114964
24	0x3f789f5b	0.9711816
25	0x3f8192bc	1.0122905
26	0x3f815b5a	1.0106003
27	0x3f8219ac	1.0164084
28	0x3f7a22a8	0.9770913
29	0x3f72842c	0.9473293
30	0x3f86243d	1.0479809
31	0x3f861369	1.0474674
32	0x3f860952	1.0471594
33	0x3f7ee744	0.99571633
34	0x3f764b1d	0.96208364
35	0x3f72235d	0.9458521
36	0x3f7d7a56	0.99014795
37	0x3f88a54b	1.0675443
38	0x3f7cfe28	0.9882531
39	0x3f7c10ce	0.9846314
40	0x3f7ff93d	0.9998968
41	0x3f8b8c8c	1.0902267
42	0x3f8894a2	1.0670359
43	0x3f76d115	0.96412784
44	0x3f87d0e4	1.0610623
45	0x3f6bacd8	0.92060614
46	0x3f6868b9	0.90784794
47	0x3f7f6119	0.99757534
48	0x3f76b9e8	0.9637742
49	0x3f8009fe	1.0003049
50	0x3f681b22	0.906664
51	0x3f7a3370	0.9773474
52	0x3f8339d4	1.0252023
53	0x3f727d5a	0.9472252
54	0x3f847919	1.0349456
55	0x3f815ca8	1.0106401
56	0x3f7f1158	0.9963584
57	0x3f7c3b77	0.98528236
58	0x3f82e3c8	1.0225763
59	0x3f780fca	0.9689909
60	0x3f82f836	1.0231998
61	0x3f85bf28	1.0448961
62	0x3f83664e	1.0265596
63	0x3f77ee39	0.96847874
64	0x3f7c6f4c	0.98607326
65	0x3f772458	0.9653983
66	0x3f81b25b	1.0132555
67	0x3f6c854e	0.92390907
68	0x3f841d21	1.032139
69	0x3f815571	1.01042
70	0x3f7e99a5	0.9945319
71	0x3f859782	1.0436862
72	0x3f72371d	0.94615346
73	0x3f7f0605	0.9961856
74	0x3f78de6f	0.97214407
75	0x3f74df6f	0.9565343
76	0x3f6c993c	0.9242132
77	0x3f8362b4	1.0264497
78	0x3f819d0d	1.0126053
79	0x3f86b623	1.0524334
80	0x3f793c54	0.9735768
81	0x3f7663fb	0.9624631
82	0x3f7c0d62	0.9845792
83	0x3f7076b1	0.9393111
84	0x3f8aca6c	1.0843024
85	0x3f801a7c	1.0008082
86	0x3f823caa	1.0174763
87	0x3f84dba8	1.0379534
88	0x3f87869e	1.0587957
89	0x3f890f71	1.0707837
90	0x3f820523	1.0157818
91	0x3f7ed759	0.99547344
92	0x3f83e1a1	1.0303231
93	0x3f8053fa	1.0025628
94	0x3f869d01	1.0516664
95	0x3f76e14b	0.9643752
96	0x3f89657f	1.0734099
97	0x3f7b5a8c	0.9818504
98	0x3f7ca3b2	0.9868728
99	0x3f824414	1.0177026
100	0x3f6d9fa7	0.92821735
101	0x3f7a13a4	0.9768622
102	0x3f85d394	1.0455194
103	0x3f800557	1.000163
104	0x3f7934a9	0.9734598
105	0x3f87424e	1.056711
106	0x3f834b0b	1.0257276
107	0x3f7e75a5	0.9939826
108	0x3f8a2f61	1.0795709
109	0x3f6e8ce8	0.93183756
110	0x3f74ee43	0.9567606
111	0x3f74ef7d	0.9567793
112	0x3f81c632	1.013861
113	0x3f7b3cb0	0.98139477
114	0x3f7da702	0.9908296
115	0x3f828ee4	1.0199857
116	0x3f841be2	1.0321009
117	0x3f834cc7	1.0257806
118	0x3f87eced	1.0619179
119	0x3f82eaf0	1.0227947
120	0x3f80e4c7	1.0069817
121	0x3f7ece3e	0.9953345
122	0x3f787152	0.97047913
123	0x3f8121eb	1.0088476
124	0x3f808982	1.0041964
125	0x3f8b89d8	1.0901442
126	0x3f80b35f	1.005474
127	0x3f6274c2	0.8845941
