checkpoint/DA/s_0_1_t3/cnn_features_1d_0925-195851/299-0.8997-best_model.pth (torch, 944127 bytes, 30 tensors)

0.model_cnn.layer1.0.weight f4 [16, 1, 15]
000000 9a 46 03 be 27 4b 8a bd 1e c1 79 bd 21 c8 ca bd
       -0.12819901 -0.067526154 -0.060975187 -0.09901453
000010 f9 13 5b be 69 3f 0c be a5 83 24 be 22 29 16 3e
       -0.21394338 -0.13696064 -0.16065843 0.14664128
000020 c1 26 90 be 96 30 25 3c 0d ae 8f bd 43 c7 d2 3c
       -0.28154567 0.010082385 -0.070156194 0.025729781
000030 75 04 c2 3d 19 e8 0e 3e 20 09 97 bd c3 8a 37 be
       0.09473506 0.13955726 -0.07374787 -0.17924027
000040 54 65 9b bd e3 d4 fb bd 6e a3 f6 bd 36 64 66 3e
       -0.07587686 -0.12296464 -0.120428905 0.22499165
000050 ef c5 b4 bd e0 d0 0a bd c8 ef 47 be 47 6b 8d 3d
       -0.08826815 -0.033890605 -0.19525063 0.06905227
000060 54 14 09 3e ff c3 dc bd 88 79 55 be 4d fc e7 3d
       0.13386661 -0.10779571 -0.20847142 0.113274194
000070 81 e8 d9 3d 57 7d 83 3d a1 8f 1c bd 0b 42 cf bd
       0.1064005 0.06420391 -0.038222913 -0.101200186
000080 6f 91 fa 3d 41 14 0c be 96 10 c4 bc 75 b2 4f 3d
       0.122347705 -0.13679601 -0.02393369 0.0507073
000090 c9 f4 88 bd 2e 43 59 3d 58 51 09 3e 41 a6 74 be
       -0.06687314 0.053042583 0.13409936 -0.23891546
0000a0 d6 67 4b 3e 13 58 ac bd a9 d5 21 be 36 a6 5f 3c
       0.19863829 -0.08415236 -0.15804161 0.013650468
0000b0 51 29 86 be d9 ff 3d bd 4b c4 cf bd 81 c8 ad bd
       -0.26203397 -0.046386573 -0.10144862 -0.08485509
0000c0 ac 0c 69 3e f5 79 34 3e ab 44 ad 3e 90 42 bf bd
       0.2275874 0.17624648 0.33841452 -0.09338868
0000d0 f8 b4 83 bc 3c 4e 0b 3c 06 c1 43 3e 02 ab 76 bc
       -0.016077504 0.008502539 0.19116601 -0.01505542
0000e0 e6 13 49 3c 47 bc 3c be a5 48 79 3e 5f 27 db 3d
       0.012272811 -0.18431197 0.24344118 0.10700869
0000f0 42 da a3 3e ff ce 99 3c 8f ba e2 3d c1 4f 9d bd
       0.32002455 0.018775461 0.110707395 -0.076812275
000100 0c 2c dd bb fc 1d ae 3d d4 b4 6b be 63 21 49 3e
       -0.0067496356 0.08501813 -0.23018199 0.19641642
000110 07 55 df bd d7 ec 1a 3d d7 9b ec 3d 66 bf 04 be
       -0.109048896 0.037823524 0.115531616 -0.12963638
000120 c0 2f 3e 3e 65 14 ab be 68 46 98 bd 08 92 90 bd
       0.18572903 -0.33413997 -0.07435304 -0.07059103
000130 dc 8e a3 3e 94 1d 7b 3c 05 79 91 bb be 90 c6 3d
       0.3194493 0.015326876 -0.0044394755 0.09695576
000140 aa 02 64 be 10 b8 2d be 4b e2 55 3d 04 8d 47 3e
       -0.22266641 -0.16964746 0.052217763 0.19487387
000150 8d 8c 14 3e be 53 fe bc 0e ef 66 3e e9 b0 1d be
       0.14506741 -0.03104579 0.2255213 -0.15399517
000160 14 d2 76 bd 58 d3 4b 3e 9c 57 a4 3e 6d b1 df 3d
       -0.06025894 0.1990484 0.3209809 0.10922513
000170 2a 77 1b 3d 0e 29 23 3e a3 76 dc bd be f8 25 be
       0.03795544 0.1593363 -0.10764816 -0.16208169
000180 0a b4 eb 3d fb 1e 48 bd e4 29 b5 bd ad 9a 31 3e
       0.11508949 -0.04885767 -0.08845881 0.1734416
000190 32 d3 0c bd dd d2 05 be 9f bc 69 3e c0 0b 84 3e
       -0.0343811 -0.13068719 0.2282586 0.25790215
0001a0 51 f4 c0 bd 59 36 e1 bd 5a 79 29 be e0 05 f3 bd
       -0.094216 -0.10996694 -0.16550198 -0.11866355
0001b0 ac 29 a7 3c 02 f0 6c 3e c7 5a 5a 3d 10 34 46 3e
       0.020405613 0.2313843 0.05330923 0.19355798
0001c0 88 4b 44 be 74 a9 12 3e 56 7d 68 3e 28 90 01 3e
       -0.19169438 0.14322454 0.22704062 0.12652647
0001d0 ad 08 3a be b9 6a d0 bd e7 20 08 be 04 47 96 3d
       -0.18167372 -0.10176606 -0.13293801 0.07337764
0001e0 fd ac 39 3e c4 0d 25 be 8c 45 ea bd a6 0f 22 bd
       0.18132396 -0.16118532 -0.11439046 -0.039565705
0001f0 9a c2 3b 3e 08 e6 5a be 5d 90 e8 bd cd fe 22 be
       0.18335953 -0.21376812 -0.1135566 -0.15917511
000200 7f c2 a1 be 06 bc 63 be 46 6e 63 3e 48 d4 0d be
       -0.315937 -0.22239694 0.22210035 -0.1385051
000210 d9 dc 16 3e 28 07 25 3e 7b 1c be be 21 7e 53 3e
       0.14732684 0.16116011 -0.37131104 0.20653583
000220 65 2f 0d be 47 35 5d 3e 71 f7 93 bd 2f 2f d9 3b
       -0.13787611 0.21602355 -0.0722493 0.006627939
000230 e5 2a 29 3e 4a 73 59 be 7b 5c a2 3d 4c 98 12 be
       0.16520269 -0.21235386 0.079277955 -0.14315909
000240 0f 61 1d be 80 b8 50 3e f4 d3 7e be b6 97 75 3e
       -0.15369056 0.20382881 -0.24885541 0.23983654
000250 35 07 5a be e5 3e dd bd c1 c3 40 be 82 9c f4 3d
       -0.21291812 -0.10803012 -0.18824674 0.11943914
000260 ff dd 15 3d a8 98 34 be aa 38 0e be 97 f1 91 bd
       0.036588665 -0.17636359 -0.13888803 -0.07126158
000270 b1 23 57 be 7f fc 40 3e 3f ec 3f 3d 2e 33 79 be
       -0.21009709 0.1884632 0.04685616 -0.2433593
000280 4e bc dc 3d e5 88 8d be 79 f5 9b 3d 4c 2b 89 3e
       0.10778104 -0.27643505 0.076151796 0.26790845
000290 42 7d 55 bc d7 38 57 3e 70 95 da bd 0b e8 70 3e
       -0.013030352 0.21017776 -0.10673034 0.23526017
0002a0 74 f3 20 3e e6 13 48 be 3f 44 75 3c 7f e3 64 be
       0.1571787 -0.1953884 0.014969884 -0.22352408
0002b0 76 17 75 be 38 d2 dd bd 5d 8d b2 bd d4 e5 df bd
       -0.23934731 -0.10831112 -0.08718369 -0.10932508
0002c0 b5 cd 80 be ca d0 32 be 26 4f 76 bd 2f cd 20 bb
       -0.25156942 -0.17462459 -0.060134076 -0.0024536361
0002d0 10 81 e8 b9 2e 29 5a 3e 1d f5 54 3e 8e 85 05 3e
       -0.00044346647 0.21304771 0.20796628 0.13039228
0002e0 a4 11 bd 3d 81 15 c2 3c 94 c4 da bd 09 b5 15 bc
       0.0923188 0.023691894 -0.106820256 -0.0091374
0002f0 6a ec 81 bd 15 fb 26 be 81 77 e5 bd d2 41 7c be
       -0.063439205 -0.16306718 -0.11204434 -0.24634483
000300 59 57 51 3d 79 b0 37 3e ac 98 35 be 5c fc ec 3d
       0.05110869 0.17938413 -0.17734021 0.11571571
000310 f6 41 36 3e d4 c6 30 be d1 28 62 be cc 48 d3 bd
       0.177986 -0.17263347 -0.22085883 -0.10316619
000320 62 77 25 3c e3 81 80 3e d8 03 5e 3e bf f1 7d bd
       0.010099264 0.25099096 0.21681154 -0.061998125
000330 f3 84 3b be f3 13 96 bd 46 dc 99 be d3 d3 a4 3c
       -0.18312435 -0.07328024 -0.30050868 0.020120537
000340 3d 79 f9 3d 61 0d 0c 3d 8e b3 ed 3b 8a 2f c6 be
       0.121813275 0.034192447 0.0072540706 -0.38708144
000350 3c 59 19 3d e2 22 b5 bd 30 9c b7 3b ac a7 21 3e
       0.037438616 -0.08844544 0.005603336 0.15786618
000360 31 75 5c 3d f9 a2 67 bd fb 52 aa 3c 65 2c eb bd
       0.0538227 -0.056551907 0.020791521 -0.11483077
000370 64 29 ee bd 2d d8 1f be 01 bb 2e bc 9e 4d 92 be
       -0.116289884 -0.15609808 -0.010664702 -0.28574842
000380 ea a6 4f 3e ac 5c 66 be 94 2b cb 3d 39 4a 21 3e
       0.20278516 -0.22496289 0.09920421 0.1575097
000390 95 15 65 3e 28 43 f6 3d e7 23 06 3e 74 26 c2 3c
       0.22371514 0.12024528 0.13099633 0.023699977
0003a0 e7 1e f9 3d b7 90 80 3e ce e2 4d be 92 fe 97 bd
       0.12164097 0.2511041 -0.2010605 -0.07421602
0003b0 b2 4b 8f 3d 18 07 83 3c a8 64 b7 bd db 35 77 bd
       0.069968596 0.015994594 -0.089547455 -0.060354095

0.model_cnn.layer1.0.bias f4 [16]
000000 c0 86 80 b8 74 6b 38 39 b1 93 95 38 b0 7f ac 39
       -6.128615e-05 0.00017587637 7.132383e-05 0.0003290153
000010 8c c9 b9 ba b3 12 d2 38 d4 05 16 b7 9a f5 9c 38
       -0.0014174446 0.00010017063 -8.942054e-06 7.4844065e-05
000020 b6 e1 07 b7 95 64 5c 38 a9 e3 3c 39 bd 81 57 38
       -8.0991795e-06 5.254576e-05 0.00018013887 5.1380823e-05
000030 8e e8 74 36 f8 9b 95 3b 1f 61 05 3a 8e 33 ab 38
       3.6494198e-06 0.004565712 0.00050880195 8.163518e-05

0.model_cnn.layer1.1.weight f4 [16]
000000 2b 25 81 3f a8 02 67 3f a0 d3 8a 3f 78 ea 77 3f
       1.0089468 0.9023843 1.0845833 0.96842146
000010 a9 f3 83 3f 27 a3 6c 3f 60 4b 66 3f 9c b2 65 3f
       1.0308734 0.9243645 0.89958763 0.8972566
000020 13 48 76 3f dc 3b 84 3f e8 07 92 3f 25 8d 64 3f
       0.96203727 1.0330768 1.1408663 0.8927787
000030 09 7a 7d 3f 18 b1 7e 3f b7 d2 8d 3f 39 2c 82 3f
       0.99014336 0.99488974 1.107993 1.0169746

0.model_cnn.layer1.1.bias f4 [16]
000000 ef 74 fd bb c4 f9 01 be 28 ad 31 3d 54 37 a1 bd
       -0.007734887 -0.12692934 0.043378025 -0.07871881
000010 4f 14 81 3c 00 0c a3 bd 31 7d 9e 3d e1 3a 8e be
       0.015756754 -0.07961273 0.07738722 -0.27779296
000020 13 30 c6 3d 81 73 7d 3e 57 35 32 3c 75 36 40 be
       0.09677138 0.24751092 0.010876975 -0.18770774
000030 f8 08 03 be 36 c4 90 3d eb 1d 54 bd 1b 05 e1 bd
       -0.1279639 0.07068674 -0.051786344 -0.10987302

0.model_cnn.layer1.1.running_mean f4 [16]
000000 7b 06 37 b8 6c 01 52 39 f4 d7 94 38 47 40 b9 39
       -4.3636635e-05 0.0002002769 7.097414e-05 0.0003533384
000010 b4 07 bf ba 26 cf bf 38 44 8d a9 b7 b8 75 f2 38
       -0.0014574439 9.146174e-05 -2.0212152e-05 0.00011561386
000020 f7 e6 83 b7 10 1a aa 37 86 75 49 39 c5 91 55 b7
       -1.5723968e-05 2.0277716e-05 0.00019212635 -1.2729729e-05
000030 7f 59 72 b8 e9 bb 95 3b 97 20 06 3a d8 16 7a 38
       -5.7780646e-05 0.00456952 0.00051165506 5.962592e-05

0.model_cnn.layer1.1.running_var f4 [16]
000000 92 92 64 3e 42 a2 a4 3e 56 41 c2 3d 78 b5 a2 3e
       0.22321537 0.32155043 0.09485118 0.31779075
000010 0a 9b 48 3e b9 a7 ce 3e 1e f3 f1 3e 1a 84 90 3e
       0.19590393 0.40362337 0.47255796 0.28225785
000020 4a c7 ea 3e f9 5d a1 3d 5f f0 36 3e 00 69 bc 3e
       0.4585517 0.07879252 0.17865132 0.3679886
000030 07 19 9f 3e bd 9b 5b 3e 06 17 70 3e 23 43 be 3e
       0.31073782 0.21446128 0.23446283 0.37160596

0.model_cnn.layer2.0.weight f4 [32, 16, 3]
000000 4d 1d 2c 3b 27 fe 2f be 48 f2 d7 bd e2 d0 b4 bd
       0.0026262582 -0.17186795 -0.10544258 -0.08828904
000010 07 c4 8a bd 72 15 f5 bd 2d f1 83 bc 0d 18 2a bd
       -0.067756705 -0.11966981 -0.016106213 -0.041526843
000020 1a 4f 51 be d9 91 ab bc 96 7e 88 be 37 85 00 be
       -0.20440331 -0.020943569 -0.26659077 -0.12550817
000030 43 14 51 3d e3 2d d3 3d 7e 02 ce 3d 77 94 32 bd
       0.051044714 0.103114866 0.10059069 -0.04359862
000040 01 e4 92 3d cc bd 9f 3d 6b 1f 85 3b 73 5c a1 bc
       0.071723945 0.07799873 0.004062583 -0.019697404
000050 af 17 1b 3e e0 60 fc 3d 26 c0 42 be 89 fb 56 bd
       0.15145753 0.12323165 -0.19018611 -0.052485976
000060 33 2d 9a bd 85 6d 17 be 4e 47 28 bd ee ab e6 3d
       -0.07528152 -0.14787872 -0.041083626 0.11263262
000070 7d c6 73 bd 02 61 67 bd b8 2e 2c bc 3f 92 dd 3d
       -0.059515465 -0.056489 -0.0105091855 0.1081891
000080 e3 56 0d be f5 61 cf 3d 43 6c 2a be 75 a1 d4 3d
       -0.13802676 0.10126106 -0.16642861 0.10382358
000090 9e c0 88 bd 43 c4 2f be a5 d7 ec bd 36 d1 aa 3d
       -0.06677364 -0.17164712 -0.115645684 0.08340685
0000a0 54 c1 13 3d ab 16 9b bd 74 0f 85 be 32 7e da 3d
       0.036073044 -0.07572683 -0.25988352 0.10668601
0000b0 df 83 05 be e0 7a 02 be 3a 1f b2 3d 4e db 26 3d
       -0.13038586 -0.12742186 0.08697362 0.04073649
0000c0 69 df 96 bc 2b db aa bd 5d bc 41 3d 9c b2 53 bb
       -0.018417077 -0.08342584 0.047298778 -0.0032302504
0000d0 39 e8 d8 3d 22 34 e4 bd da 0c 0b be 14 f2 01 bd
       0.10591168 -0.11142756 -0.13579121 -0.031725004
0000e0 8c 3f 18 3e 55 cd 9e bd 2d 0c 06 be 81 c5 e8 3c
       0.14867991 -0.07754008 -0.13090582 0.02841449
0000f0 8d f4 46 3c eb df 18 be c5 14 57 bc f2 c7 00 be
       0.012143266 -0.14929168 -0.01312751 -0.12576273
000100 eb 52 fa 3c 88 21 cc bb e2 1c d2 3d 19 8d 03 3d
       0.030557116 -0.006229583 0.10259415 0.032116983
000110 dd 62 16 be 36 51 bc 3c 5f e7 87 3d 55 3d 21 be
       -0.14686151 0.022987943 0.066359274 -0.15746053
000120 f8 e9 8d bd b7 1b c8 bd c2 9b b3 ba 90 21 86 3d
       -0.069293916 -0.09770911 -0.0013703036 0.0654937
000130 be cd 0d be f4 9a 1c 3e 3c 8f 9c 3d c7 0b 8b 3d
       -0.13848016 0.15293485 0.07644507 0.06789356
000140 b4 3d 33 3e 8f 3d 1d 3e 12 da ec 3c 71 30 0e bc
       0.17504007 0.15355514 0.028912578 -0.0086785415
000150 a5 d3 28 3c 3d ae 39 be dd cc ea 3c f0 dd aa bc
       0.010304366 -0.18132873 0.02866214 -0.020857781
000160 1b 72 64 be 57 f4 45 be 45 76 ce 3d b2 69 86 bc
       -0.22309153 -0.1933149 0.10081152 -0.016407821
000170 b4 6d a3 3c 0b ad a2 bc 48 83 22 3c af b7 28 3d
       0.019949771 -0.019857904 0.009918995 0.0411908
000180 ea 6f 60 be 9e cd 54 3d 5e de 7f 3d 03 87 ef bd
       -0.21917692 0.051953904 0.062467925 -0.11695673
000190 33 eb 14 bc c1 da 8d be 16 b2 e3 3c b2 53 00 bd
       -0.009089279 -0.27705958 0.027794879 -0.031329818
0001a0 32 08 22 3e e8 55 b5 bd 27 45 bc bd e8 ea 27 bc
       0.15823439 -0.08854276 -0.09192877 -0.010248877
0001b0 37 1c 2c be e3 5a 35 bd b0 bc 35 3e 03 33 35 be
       -0.16807638 -0.04427613 0.1774776 -0.1769524
0001c0 8c a3 5c be 8d b4 0b be 83 71 32 be 8f e6 8e bd
       -0.21546763 -0.13643093 -0.17426114 -0.06977569
0001d0 d2 fe b8 3c 3c 78 0e 3e 99 a4 c9 bd 94 85 ad 3c
       0.022582445 0.13913053 -0.09845848 0.02118186
0001e0 9f 1a 85 bd 80 7a f7 bc 0e 22 26 bd 99 93 29 3d
       -0.06499218 -0.03020978 -0.04055982 0.041400526
0001f0 0d d0 f9 3d 4e fb 03 3e 66 c4 54 be c9 42 3c be
       0.12197886 0.12888834 -0.20778045 -0.18384852
000200 4f 8a e6 bb 46 65 a4 3d a2 4b 14 bd 3a f5 d8 3b
       -0.0070355306 0.08027129 -0.03620494 0.00662103
000210 1e 9f a3 3d 6a 26 f6 ba 45 d8 d4 3c a8 07 0c be
       0.079893336 -0.0018779759 0.025982032 -0.13674796
000220 27 e7 34 bd 92 05 da bc 16 43 b6 bd 6b 6e 44 be
       -0.044165757 -0.026613984 -0.088995144 -0.19182746
000230 55 d8 f4 bd 08 1a 9e bd c9 94 d1 bd d4 1c d5 3d
       -0.119553246 -0.07719809 -0.10233457 0.10405889
000240 b8 5b 09 3e 5b ee d5 bd 62 26 d0 bd f4 c2 bf 3d
       0.13413894 -0.10445853 -0.10163571 0.09363356
000250 d0 a3 b1 3d 45 35 07 3e 38 1e 4e 3e fa d3 c0 bd
       0.08673823 0.13203914 0.20128715 -0.09415431
000260 ea c6 82 be 7a 63 06 be 08 60 80 3c de 0e 7a 3d
       -0.25542384 -0.13123885 0.015670791 0.061049335
000270 7f fb f2 3c 45 e1 1e be e4 9c e4 3c ed 9b 23 3d
       0.029660938 -0.15515621 0.027906843 0.039943624
000280 33 c4 ad bd 80 11 23 be 15 e2 64 be 87 49 be bb
       -0.08484688 -0.15924644 -0.22351868 -0.005807105
000290 42 f7 98 3d 9c dd 26 be 33 87 82 3b aa a1 4e bd
       0.07469036 -0.16295475 0.003983402 -0.050447144
0002a0 55 a3 c5 bd 75 72 e1 bd 18 d9 cc bd 25 94 79 bc
       -0.09650294 -0.11008159 -0.10002345 -0.015233074
0002b0 ba f7 e6 bd 16 db 14 be 7f 1d 12 be 80 f1 03 be
       -0.11277719 -0.145367 -0.14269064 -0.12885094
0002c0 52 b9 a4 3d 98 34 15 be 2c 41 0a bd 0f a8 02 be
       0.080431595 -0.14570844 -0.03375356 -0.12759422
0002d0 ae 2b 11 3b 88 d9 23 bd 0d a8 90 3d bf ab 29 3d
       0.002215128 -0.040002376 0.07063303 0.041423555
0002e0 71 ed b9 bd 45 5e 23 3e ea fe 07 be b6 ec e1 3d
       -0.090784915 0.1595393 -0.13280836 0.11031477
0002f0 a6 a0 b4 bd 20 ea b6 3d 81 20 25 bd 7a a2 30 be
       -0.08819704 0.089313745 -0.0403142 -0.1724948
000300 d1 73 d1 3c 13 78 00 be ae 3f 1e bb 53 18 05 bd
       0.02556792 -0.12545805 -0.0024146843 -0.0324939
000310 db 4e 2d be 6a 63 84 bd 3e bd 8a bd ef 56 fe 3d
       -0.16924612 -0.06464274 -0.06774376 0.12418925
000320 ca 42 b8 3d ba 42 0f 3e e4 ea 03 3d 27 d3 f1 3d
       0.08997114 0.13990298 0.03220643 0.11807852
000330 15 8d f9 bd 37 38 99 bd 4e ef 3a 3d 07 f9 3e be
       -0.121851124 -0.07481425 0.045638375 -0.18649684
000340 a5 4c ef bd fb fe d1 3c 30 94 89 bd 6e 1b 4d be
       -0.11684541 0.02563428 -0.06717718 -0.20029995
000350 cc 30 01 3e 30 60 09 3e 4e 7b 93 3d 5d ce a9 3d
       0.12616271 0.13415599 0.07201253 0.08291314
000360 86 74 36 3e 28 69 b1 bd 09 3c 60 ba ed 67 dd bc
       0.17817888 -0.08662635 -0.0008553868 -0.027027095
000370 c0 4d 22 be a2 3b a9 bd c5 ab d1 bd 22 ef 1d 3e
       -0.15849972 -0.08263327 -0.102378406 0.15423253
000380 7a 5d 1a 3e ea a5 14 3e 70 8c 53 bd 78 fe bd 3d
       0.15074721 0.14516416 -0.051647604 0.09277052
000390 98 69 f2 bd 87 6b 93 3d 93 d3 bd 3b fd 9b 7a bd
       -0.11836547 0.071982436 0.005793044 -0.06118392
0003a0 04 fb 18 bd e0 73 2c 3e ec f8 ad 3d c0 87 92 3c
       -0.037348762 0.16841078 0.08494744 0.017886996
0003b0 09 04 d7 bd 4d d5 61 bc 73 fe dc 3d fd 48 27 3d
       -0.104988165 -0.013783765 0.1079072 0.04084109
0003c0 07 d9 06 3e 2d 55 f8 3d 1e 8b 1d 3d 31 64 78 3d
       0.13168727 0.12125621 0.03846275 0.060642425
0003d0 9d 2d e2 3d 98 b2 c9 bd 39 f2 26 3e bc 67 4c 3e
       0.11043856 -0.09848517 0.16303338 0.19961447
0003e0 91 35 63 3e 3c e2 ea bd b9 0d 1a 3a 0c b6 05 3d
       0.22188403 -0.11468932 0.00058766786 0.032644317
0003f0 68 fe b7 3d 92 d8 44 3d ae 81 08 be 0d 0e f3 3d
       0.08984071 0.0480581 -0.13330719 0.11867914

0.model_cnn.layer2.0.bias f4 [32]
000000 8f 8e 24 39 79 4d 86 39 26 66 31 39 5c 67 d5 b8
       0.00015693366 0.00025616193 0.00016918089 -0.00010175884
000010 63 7c 85 38 a3 d3 a2 38 62 d4 89 38 d9 22 28 37
       6.365103e-05 7.7641824e-05 6.5722284e-05 1.0021694e-05
000020 96 e6 3c 39 b4 2d 16 39 c1 9c 43 37 b1 2c 1c b8
       0.00018014977 0.0001432214 1.1659403e-05 -3.723492e-05
000030 c8 a7 2e 3a 86 86 b5 b8 6a ae b1 38 f2 4a 0e b8
       0.00066625746 -8.6558095e-05 8.472505e-05 -3.3925236e-05
000040 5b 30 52 b6 50 25 74 38 b1 82 28 ba 6a cb b0 b7
       -3.1320585e-06 5.8208883e-05 -0.0006428166 -2.1075557e-05
000050 f5 de 3d 39 de 46 70 37 33 3b f7 38 95 c0 83 36
       0.00018107503 1.4321615e-05 0.000117889045 3.9265237e-06
000060 e4 4c 8d 3a 2d a7 23 b6 39 1e cf 37 5a 73 27 38
       0.0010780361 -2.4386202e-06 2.4690396e-05 3.9923332e-05
000070 e5 aa 50 38 d3 5a cf b7 1b 00 ad b7 2c 22 4f 38
       4.9750222e-05 -2.4718616e-05 -2.0623256e-05 4.938447e-05

0.model_cnn.layer2.1.weight f4 [32]
000000 6a b2 84 3f f8 0a 7d 3f 9f d8 86 3f f0 f8 7e 3f
       1.0366948 0.9884486 1.0534858 0.995986
000010 fc ee 6f 3f c7 a4 6d 3f d1 23 8e 3f 46 d6 64 3f
       0.93724036 0.92829555 1.110468 0.89389455
000020 cf d3 72 3f 15 f2 80 3f 7e eb 56 3f 22 71 77 3f
       0.94854444 1.0073878 0.8395308 0.96657
000030 7f 92 90 3f ed 7a 6d 3f c0 77 71 3f 71 1a 70 3f
       1.1294707 0.92765695 0.9432335 0.93790346
000040 c1 fa 66 3f d4 c0 7b 3f 41 d2 72 3f d1 31 76 3f
       0.9022637 0.9834111 0.9485207 0.96169764
000050 47 0e 85 3f 76 49 81 3f 30 43 7d 3f ee 56 8c 3f
       1.0394982 1.0100543 0.98930645 1.0964029
000060 69 92 87 3f ae 75 68 3f 95 9f 85 3f 4b 34 7e 3f
       1.0591556 0.90804565 1.0439326 0.9929854
000070 9d 27 81 3f 58 08 72 3f 40 4b 8b 3f 00 28 76 3f
       1.0090214 0.9454398 1.088234 0.96154785

0.model_cnn.layer2.1.bias f4 [32]
000000 20 2a 86 3d 63 1c 56 bd 13 eb 17 3c 9c 20 c9 bd
       0.065510035 -0.052273165 0.009272355 -0.09820673
000010 60 31 74 bd fe 0c 33 be e6 7c 2f bd 90 af 50 bd
       -0.0596174 -0.17485425 -0.04284372 -0.05094868
000020 82 87 ee bd be e1 08 3d 3d 26 b2 be e5 a4 a5 be
       -0.1164694 0.03341841 -0.34794798 -0.32352367
000030 39 e7 94 3c ee 06 4e be d7 1d ce bd 14 bc 52 be
       0.018176662 -0.20119831 -0.10064285 -0.20579559
000040 78 ec 02 bd 35 0f 8d be 26 54 b3 bd 14 fa 87 be
       -0.031963795 -0.27550665 -0.087562844 -0.26557982
000050 c6 55 c7 bd 92 cb 6e bd 7b 67 b8 bd 2c 51 c1 be
       -0.09733157 -0.05829961 -0.09004112 -0.37757242
000060 09 7d 5e 3d 7d ae 99 be 62 64 a0 3d e8 4c b9 3d
       0.05431846 -0.30015936 0.078316465 0.09047872
000070 60 7b 8d bd 7e 2e 35 be 47 46 30 bd e2 0f 6e 3d
       -0.069082975 -0.17693517 -0.04303577 0.058120616

0.model_cnn.layer2.1.running_mean f4 [32]
000000 3c ce 0f bf 8c 34 57 be 4e fc 26 bf e6 b5 2a bf
       -0.56174064 -0.21016139 -0.65228736 -0.66683805
000010 bf 70 dc 3a 08 87 3f 3f f3 b5 bc be 4e c8 f9 ba
       0.0016818269 0.74815416 -0.36857566 -0.0019056888
000020 1f e8 ae be 5a 50 2d bd cc f1 c8 3d 8d 59 b7 3e
       -0.3416147 -0.042312957 0.09811744 0.3581051
000030 15 e7 e1 be a6 8c b7 bd 93 d9 af be ad 3f 08 3f
       -0.44121614 -0.089623734 -0.34345683 0.5322216
000040 3b 5a 9b bd 9a c0 86 3e 0c 5e 7c be 08 ec f9 3d
       -0.075855695 0.26318818 -0.24645251 0.122032225
000050 89 39 d3 bd a4 08 4c be 99 e8 21 bd 57 06 4a 3e
       -0.10313708 -0.19925171 -0.039528463 0.19728981
000060 ea 75 59 be f9 f4 6b 3f 1f 5d cf bd ea 89 d0 be
       -0.21236387 0.92170674 -0.10125183 -0.4073022
000070 f9 e7 35 3e d1 9b 77 3c 04 84 e5 be 84 43 ab 3d
       0.17764272 0.015112833 -0.44827282 0.08362487

0.model_cnn.layer2.1.running_var f4 [32]
000000 11 41 c1 3e 58 62 32 3e d7 2c b2 3e 8f bb f3 3e
       0.37744954 0.17420328 0.34799835 0.47604033
000010 21 1e 9c 3e 9d f1 ec 3e d1 d9 a9 3e 67 bb 8c 3e
       0.30491737 0.46278086 0.33173993 0.27486727
000020 54 a7 5e 3e 48 aa 9a 3e 85 fe c4 3e 87 0c 76 3e
       0.21743518 0.3020804 0.38475433 0.24028216
000030 a2 34 55 3e 84 78 98 3e 79 be a8 3e 33 71 91 3e
       0.20820859 0.29779446 0.3295782 0.28406677
000040 ba 77 7e 3e 3d 43 64 3e 25 4d 77 3e ab 84 4e 3e
       0.2485036 0.22291274 0.24150522 0.20167796
000050 c4 53 81 3e 8a 21 a8 3e e6 41 af 3e 24 87 a5 3e
       0.2525922 0.32838088 0.34229964 0.32329667
000060 44 3e 1a 3e 25 62 e8 3e 0e a8 85 3e c3 30 5f 3e
       0.15062815 0.45387378 0.26104778 0.21795945
000070 1c 11 ca 3e a7 2b bc 3e ec 22 91 3e a6 5f 06 3e
       0.39466178 0.36752054 0.28346956 0.13122424

0.model_cnn.layer3.0.weight f4 [64, 32, 3]
000000 a8 1d 13 3e d8 e6 ff bc b2 0a 37 3e d9 9a 87 3c
       0.14366782 -0.031238005 0.17875174 0.01655333
000010 80 c0 10 3d ce 74 59 bd 6f fb a1 be ba 7f 3b be
       0.035339832 -0.05308991 -0.3163714 -0.18310443
000020 4c 60 c3 bc 18 ab e4 3c 89 42 b4 bc 0e 07 1d bd
       -0.023849629 0.027913615 -0.022004383 -0.038336806
000030 8e cf e7 bc b7 af 46 bd 28 9a 16 bd 59 ad 1d bd
       -0.028297212 -0.04850742 -0.03676811 -0.038495395
000040 1c 7e d8 3c eb 5d 49 3d 75 2b 12 be 1e 42 fb bd
       0.026427321 0.049161833 -0.1427439 -0.1226847
000050 6d 7d a9 bd eb 70 3f bd 4b 4d c3 3c a8 60 2f 3d
       -0.08275876 -0.046738546 0.023840567 0.042816788
000060 0a 09 11 3d c9 36 a5 3d 4b 43 f7 3c 40 c3 c2 bd
       0.03540901 0.0806709 0.030183455 -0.09509897
000070 ef fd 02 3d 79 37 bc bb 11 ab 79 3c df 8f c7 ba
       0.03198045 -0.0057439175 0.015238539 -0.0015225372
000080 4f 16 85 3d f4 7d 56 3d 72 bc d7 bd 92 68 01 be
       0.06498396 0.052366212 -0.1053399 -0.12637547
000090 68 f2 2a 3d f0 9a bc bc 85 d2 cd 3d 5c c0 47 bd
       0.041735083 -0.023023099 0.10049919 -0.048767433
0000a0 83 6d 1b bd 8c 7c f6 3b 19 79 5c 3d 2a 59 ad 3b
       -0.037946235 0.0075221714 0.053826425 0.00529017
0000b0 71 a5 9a bc a2 eb 8e bd 49 aa da bd a2 d1 28 be
       -0.018877717 -0.06978537 -0.106770106 -0.16486219
0000c0 76 2c df 3d 1f fc 8d 3d cc 54 cf 3d 1b ac b6 3d
       0.10897152 0.06932854 0.101235956 0.08919545
0000d0 5a 26 0c 3d 77 79 a6 3c 39 0e 4e 3d 20 f8 85 3d
       0.034216262 0.02032159 0.050306533 0.06541467
0000e0 d2 1d a7 3d d2 f0 17 be dc 30 32 3d 6c bf 39 bd
       0.08159985 -0.1483796 0.043503627 -0.04534857
0000f0 cb 26 38 be f1 48 00 be 19 c2 1a be b7 e4 fc 3c
       -0.17983548 -0.12527825 -0.15113105 0.030870778
000100 28 25 61 bb b8 18 a0 bd 7d d7 04 3d 6a 82 dd 3b
       -0.0034354422 -0.07817215 0.03243207 0.0067599313
000110 21 5d 12 3d 4b 5c c9 3d 5b 89 b2 3d ad 76 01 be
       0.035733346 0.098320566 0.08717605 -0.12642927
000120 86 38 1f bd d4 af c2 bd 5a a2 28 3d d5 ad 00 be
       -0.038872264 -0.09506193 0.041170456 -0.12566312
000130 95 3e 56 3d 58 67 90 3c 71 73 09 3e a0 d1 39 bd
       0.052305777 0.017627403 0.13422944 -0.04536593
000140 73 d9 ef 3d 07 25 e7 3d 72 52 9e bb 5d 82 79 bc
       0.11711397 0.11286359 -0.0048316056 -0.015228835
000150 11 40 f1 bd 2d 63 97 bb a6 50 c0 bd ab 68 c7 bc
       -0.11779798 -0.004619977 -0.093903825 -0.024341902
000160 82 16 63 3d f6 54 d9 bc d6 9d 66 3d 38 ba ae 3d
       0.055441387 -0.02652977 0.056302868 0.08531612
000170 53 d9 86 bd ef 2c 9f 3d ad f3 7e 3b bc 14 36 bd
       -0.0658442 0.07772242 0.0038902566 -0.044453368
000180 ad 10 cb 3d 26 b8 12 bd c3 f5 eb bd 91 aa ef bd
       0.0991529 -0.03582015 -0.11521485 -0.11702455
000190 78 c2 99 bc 5b 9d cf bd 5b 0b f3 3c b4 36 e5 3c
       -0.018769488 -0.10137435 0.0296685 0.027980186
0001a0 c1 30 18 3e f0 fd ba 3c 8b a5 5c 3d dc f0 9a 3d
       0.14862348 0.022826165 0.05386881 0.075654715
0001b0 eb 44 dc bd 37 68 fc 3c f2 9d 55 3d 0a 87 85 3c
       -0.107553326 0.030811412 0.05215258 0.016299743
0001c0 fd 39 e6 3c 5c bf c5 bd d0 3b 26 be 40 d5 8f bd
       0.028103823 -0.096556395 -0.16233754 -0.07023096
0001d0 30 95 b8 bc eb 6e 25 3e 36 27 8e bd 63 d8 0d bd
       -0.022532076 0.16155593 -0.06941073 -0.03463019
0001e0 1e f7 95 3d 26 9f f0 bd 27 dc e5 bc 74 8b 07 be
       0.073225245 -0.11749105 -0.028059078 -0.13236791
0001f0 c7 ad 9b bd 3e bf f4 bc 92 a3 24 bc ee bc 73 bd
       -0.07601505 -0.029876348 -0.010048764 -0.05950635
000200 08 a1 5d bc 76 ad e5 bd 84 45 68 bc f0 1c 1d bc
       -0.013527162 -0.11214726 -0.01417673 -0.009589419
000210 ef 54 72 be 06 e3 02 be b3 90 e0 bd b3 f7 05 bc
       -0.23665212 -0.12781915 -0.10965099 -0.008176732
000220 43 61 a9 3c 83 0b 09 3e 62 de 68 3c 7f 2c f1 bd
       0.02067626 0.13383298 0.014213176 -0.11776065
000230 9b ec 0f 3b ad f9 44 bd a9 79 9c 3d 23 48 86 bd
       0.0021961096 -0.048089672 0.07640392 -0.06556728
000240 54 64 20 bd 9d e7 35 be 1c 43 3d be 64 35 9d 3a
       -0.03915818 -0.17764135 -0.18482631 0.0011994061
000250 00 8c 44 3d ef e8 d5 3d 20 73 0e 3e 83 ad 9c bb
       0.047985077 0.10444819 0.13911104 -0.0047814264
000260 a4 ed ac 3b 13 99 9e 3d 00 f4 93 3c 5c ff 3a bc
       0.0052773524 0.0774404 0.018060684 -0.0114134215
000270 d2 20 40 3d 20 36 e6 bd 36 ea 58 3e 4e a4 18 be
       0.0469063 -0.11240792 0.21183094 -0.14906427
000280 1d 6d ab bd e0 58 04 bd 59 70 1f 3b 14 cc 91 bc
       -0.08370421 -0.03231132 0.002432844 -0.017797507
000290 de de 29 bd 4c 11 16 be 6e ce 75 bd 0b d2 2f 3d
       -0.04147231 -0.14655036 -0.06001132 0.042924922
0002a0 3f 26 ba 3c c4 7e a4 bc f6 c8 96 bb 93 b0 aa bc
       0.022723315 -0.020079978 -0.004601593 -0.02083615
0002b0 3e 5f dd bc db 96 12 bd d5 3d 23 be 61 c6 48 be
       -0.027022954 -0.0357884 -0.15941556 -0.19606926
0002c0 0b 78 08 be b7 2a 98 bd a1 25 be ba 7e 5e 65 bb
       -0.13327043 -0.07430022 -0.0014507064 -0.0034998949
0002d0 8d 84 80 bd ad 67 cc bc 41 7b ac bc 53 2d 85 bc
       -0.06275282 -0.02495178 -0.021054866 -0.016256964
0002e0 7b ed 9e bd d8 f5 e8 bd d5 86 21 be 6f 06 53 3d
       -0.077601396 -0.11375016 -0.1577409 0.051519807
0002f0 05 0b be 3c e4 7c 3c be 42 9b 1b be 5f 7e 04 be
       0.023198614 -0.18407017 -0.15195945 -0.12938832
000300 2e 38 5d bd f5 6e 15 3d e4 cd a6 bc 85 f5 05 3d
       -0.054008655 0.03648277 -0.020361848 0.03270485
000310 99 6e 61 bd 50 50 90 bd 3d 3a 5d 3d b4 fc e4 3c
       -0.055037115 -0.070465684 0.05401062 0.02795253
000320 d2 c3 b9 3d a6 3d 13 bc fa 1b 42 3d 25 de 16 bb
       0.09070553 -0.008986866 0.04738996 -0.0023020592
000330 dc c5 be 3b 6b 3f 57 bd ee 2d 58 be 91 d4 b5 bd
       0.0058219265 -0.052550714 -0.21111271 -0.088784344
000340 60 b5 22 bc 17 8b a4 3d 70 47 36 bd 9e e7 d8 bd
       -0.0099309385 0.08034342 -0.04450172 -0.105910525
000350 f5 ec 97 3c f4 69 cc 3c c4 80 f7 bc 60 22 34 bd
       0.018545607 0.024952866 -0.030212767 -0.043978095
000360 1d 71 7c bc 7d 57 96 3d ea ec 3e be aa 8c c6 bc
       -0.015407828 0.07340906 -0.18645063 -0.024236996
000370 52 05 db bd 6e 34 90 be ac ce f5 3c 73 b7 20 bd
       -0.10694374 -0.28165 0.030005775 -0.03923745
000380 e0 96 12 3d 6d 4f 9d bd 86 7d 3e bd 33 ac 8d 3d
       0.035788417 -0.07681165 -0.046506427 0.0691761
000390 ef e3 a1 bd 19 7d 48 3c 80 60 2b bc fd 9e 24 3e
       -0.07904803 0.012236857 -0.010460019 0.16076274
0003a0 c5 be a1 bc 3b 1b 1b bd 39 b2 eb bd ce 66 5b bc
       -0.019744286 -0.037867766 -0.11508603 -0.01339121
0003b0 a0 6b 4c 3d 55 84 9c 3d 4a 55 2d be 18 f2 2a bd
       0.049907327 0.07642428 -0.16927066 -0.041734785
0003c0 3a 5b 21 be 53 78 ba bd 8e 61 4a 3d 2a 77 25 3d
       -0.15757456 -0.09104981 0.04940944 0.040396847
0003d0 83 60 65 bd 67 7e ed 3c d8 a5 25 3c 0a f6 41 bd
       -0.056000244 0.028990937 0.010110341 -0.04735378
0003e0 43 98 c7 bd 4e 7f 81 3d 80 75 47 be 06 20 6b 3c
       -0.097458385 0.063231096 -0.19478416 0.014350897
0003f0 39 97 c8 bc 4c c5 0e be f4 9d 03 bd 95 00 c5 3d
       -0.024486171 -0.1394245 -0.032133058 0.09619252

0.model_cnn.layer3.0.bias f4 [64]
000000 97 0d 85 b7 3e 4e e1 37 05 2c ef 37 88 9e 0d 37
       -1.5861164e-05 2.6858525e-05 2.8511518e-05 8.441166e-06
000010 d9 4a 09 b7 65 60 35 b8 3a c8 f1 b7 a2 4f 30 38
       -8.183263e-06 -4.3243537e-05 -2.8822677e-05 4.2035834e-05
000020 fc 50 08 37 10 c7 5e b6 b0 ed 1b b8 23 3d 41 b7
       8.125087e-06 -3.3196447e-06 -3.7176243e-05 -1.1517931e-05
000030 58 66 ef 37 f2 a9 f7 37 fe 45 4b 37 d2 e2 42 35
       2.8538678e-05 2.9523831e-05 1.2116039e-05 7.26007e-07
000040 28 ba 23 b7 38 5b eb 35 9c 28 92 b7 b6 22 b4 b6
       -9.7589e-06 1.7535413e-06 -1.7423466e-05 -5.368459e-06
000050 70 83 26 b6 0b 10 05 b7 99 e4 31 37 27 ca 03 38
       -2.4812434e-06 -7.931153e-06 1.0603247e-05 3.1421103e-05
000060 da 54 88 38 35 72 a1 b8 45 a1 88 38 d0 d5 3f 36
       6.50079e-05 -7.698351e-05 6.515024e-05 2.8585673e-06
000070 19 a0 0d 36 fa db ac b6 13 81 58 36 33 5f 09 38
       2.1103826e-06 -5.151608e-06 3.226164e-06 3.2752007e-05
000080 08 fe 0f 38 b3 22 42 38 60 a0 b7 37 a3 83 f4 35
       3.4330442e-05 4.628552e-05 2.188998e-05 1.8217728e-06
000090 7f 36 d8 38 d9 c5 58 b8 ad 61 03 37 a5 04 8b 36
       0.00010309833 -5.1682673e-05 7.83095e-06 4.1430635e-06
0000a0 86 32 4a b7 c6 2c b7 b7 53 80 09 37 4e 44 dd 37
       -1.2051902e-05 -2.183615e-05 8.195714e-06 2.637706e-05
0000b0 91 41 c6 b7 6c a9 cd 37 d0 e4 51 37 19 a7 c4 37
       -2.3633971e-05 2.4516798e-05 1.2510645e-05 2.3442832e-05
0000c0 19 71 87 37 9f 8b 83 b8 59 af 16 37 01 62 cb 37
       1.614592e-05 -6.272573e-05 8.981523e-06 2.4245122e-05
0000d0 05 77 49 b6 09 ae ca b6 64 2c 30 36 4c 12 92 b7
       -3.0020612e-06 -6.0403295e-06 2.6251882e-06 -1.7413076e-05
0000e0 7b c5 0e 37 af 54 e6 37 8a 25 79 b7 d9 0c ac 37
       8.509839e-06 2.745757e-05 -1.4850297e-05 2.050998e-05
0000f0 e7 4d 3b b4 35 57 0f 35 43 f6 55 37 4e c0 2f b9
       -1.7444073e-07 5.3398554e-07 1.2753127e-05 -0.0001676094

0.model_cnn.layer3.1.weight f4 [64]
000000 1e 99 78 3f a6 d4 89 3f a1 48 80 3f 21 37 8a 3f
       0.9710864 1.076802 1.0022165 1.0798074
000010 94 89 71 3f 6a 39 6a 3f 08 dd 58 3f 0e 47 81 3f
       0.9435055 0.91493857 0.84712267 1.0099809
000020 e6 09 75 3f e6 f8 63 3f 27 b3 82 3f 83 bc 73 3f
       0.9571823 0.89051664 1.0210923 0.9520952
000030 b2 86 85 3f ab 92 71 3f 4c 5b 88 3f be 2d 50 3f
       1.0431731 0.9436442 1.0652862 0.813198
000040 3b 5b 69 3f fb d0 6d 3f 8b 3f 85 3f a9 67 6e 3f
       0.9115483 0.92897004 1.0410017 0.9312692
000050 51 d7 67 3f 62 a0 7d 3f 36 31 7d 3f b1 36 81 3f
       0.9056292 0.9907285 0.98903215 1.0094815
000060 59 93 80 3f 35 33 76 3f fd c1 84 3f 5c c3 76 3f
       1.0044967 0.96171886 1.03717 0.96391845
000070 ac 49 76 3f af d5 5d 3f 48 e9 8e 3f 04 38 80 3f
       0.96206164 0.8665418 1.1164942 1.0017095
000080 50 e1 6b 3f 98 99 84 3f a2 b8 75 3f a9 3e 62 3f
       0.92140675 1.0359373 0.9598485 0.8837686
000090 56 2e 84 3f 83 b3 76 3f be c6 66 3f 2c 32 83 3f
       1.0326641 0.96367663 0.90147007 1.0249686
0000a0 5c bb 75 3f 7f e6 67 3f 8a 9d 5f 3f 0d 08 8a 3f
       0.9598901 0.90586084 0.8734976 1.0783707
0000b0 fb 75 85 3f 9b 96 7a 3f a5 38 80 3f 7f 10 70 3f
       1.042663 0.97886056 1.0017287 0.9377517
0000c0 02 16 81 3f e1 63 82 3f b4 64 82 3f 38 78 82 3f
       1.0084841 1.0186731 1.0186982 1.0192938
0000d0 0a c5 63 3f 27 7a 86 3f 1f 9d 6c 3f b0 ff 83 3f
       0.8897253 1.0506028 0.9242725 1.0312405
0000e0 d3 c3 79 3f 32 6d 8f 3f 82 1e 87 3f 0b b1 5f 3f
       0.9756443 1.1205199 1.0556185 0.8737952
0000f0 88 fe 76 3f d1 85 58 3f 69 d3 76 3f 6f 07 82 3f
       0.96482134 0.8457919 0.96416336 1.0158519

0.model_cnn.layer3.1.bias f4 [64]
000000 3e 7d c7 bd 43 cd ae 3d 2e f4 fb 3c 65 b9 db be
       -0.09740685 0.08535244 0.030756082 -0.42914882
000010 c8 31 ae be 3c 92 57 be ad c0 1b be f5 ea 63 be
       -0.34022355 -0.21051878 -0.15210219 -0.22257598
000020 95 63 fa bd d7 03 9d be 68 38 36 be 36 78 0c be
       -0.12226025 -0.30666992 -0.17794955 -0.13717732
000030 8b 9f bf 3b df d6 aa be 38 5a 1d be f6 1d da be
       0.0058478764 -0.3336706 -0.15366447 -0.42600983
000040 5b 4c 2e be 3e a2 8b be 00 91 a0 bd ed 70 d4 be
       -0.17021315 -0.27272218 -0.078401566 -0.41492406
000050 01 aa 15 be d4 30 73 be 82 4b 59 be f9 8b a1 3c
       -0.14615633 -0.23749095 -0.2122021 0.019720064
000060 44 be 32 be 7c b3 93 be e5 1f ac ba 32 a5 2c be
       -0.17455393 -0.28847873 -0.0013132064 -0.16859892
000070 27 0d 1e bd 02 2e 82 be d0 12 0a bc c8 14 af 3c
       -0.03858676 -0.25425726 -0.008427337 0.021372214
000080 47 c7 10 be 5e e0 3c be 27 bf 1f 3b a9 6d b6 be
       -0.14138518 -0.18444964 0.002437541 -0.3563054
000090 4b 34 4d 3d 0d af a1 bd 94 b2 b9 be 10 28 61 be
       0.0500987 -0.078947164 -0.36269057 -0.21987939
0000a0 2d 09 2f be 0a eb 7f be 7a 1e 9e bd b3 93 61 be
       -0.17093344 -0.24992004 -0.07720657 -0.22028999
0000b0 45 6b ce bd 6c 45 9a be 5a 39 4b be 0a 67 4c be
       -0.10079054 -0.3013109 -0.19846097 -0.19961181
0000c0 f5 2c 5f be f6 8e d2 bd 95 58 30 3a a3 18 c6 bd
       -0.21794493 -0.10281174 0.0006727067 -0.09672668
0000d0 f5 4d b7 be f4 9b 8c be b6 75 1f bd 37 eb 9b be
       -0.35801664 -0.27462733 -0.038930617 -0.30452892
0000e0 37 e6 70 be 60 58 78 be 98 d4 ab be 66 6d 24 be
       -0.2352532 -0.24252462 -0.33560634 -0.16057357
0000f0 b2 82 f1 be 09 3e e4 be 46 1f 54 be ad 84 9c be
       -0.47170025 -0.4457858 -0.20715055 -0.30569974

0.model_cnn.layer3.1.running_mean f4 [64]
000000 99 6d a9 be 8c 38 dc bf a1 99 e6 bf a9 55 9a be
       -0.3309143 -1.7204757 -1.8015634 -0.3014348
000010 dc 18 a6 3f a0 81 bb bf e8 44 8d be 26 6a 6b 3e
       1.2976336 -1.4648933 -0.27591634 0.22989711
000020 e7 99 be be 1c f9 77 3f 95 e6 94 bf 08 62 81 3d
       -0.37226793 0.96864486 -1.1632868 0.06317526
000030 cc 61 fa bf 2c 17 8d 3e e9 ba 43 bf f0 35 33 3f
       -1.9561095 0.2755674 -0.7645708 0.7000418
000040 dd 03 f9 bd 43 26 9f 3f 4e 7c a6 be c4 9c 36 3f
       -0.1215894 1.2433552 -0.32516712 0.71332955
000050 63 06 3b bf 8e 23 99 bf 90 89 1f bf 4e 5d 93 bf
       -0.7305662 -1.1963975 -0.6231928 -1.1512849
000060 2b a5 4a 3f 7c 20 16 3f 46 13 67 bf 6b 55 ed 3e
       0.79158276 0.5864332 -0.90263784 0.4635423
000070 4a 0c b1 bf 07 69 f8 bb e4 d4 02 c0 3e f4 4d bf
       -1.3831875 -0.0075808796 -2.0442438 -0.8045081
000080 0e bd c6 3d a6 52 34 bf 74 20 a2 be 1f a8 7b 3f
       0.09704028 -0.7043861 -0.31665385 0.9830341
000090 b6 fc 13 c0 e3 ff e5 be 72 0d 46 bd 76 7a 0a be
       -2.3122993 -0.4492179 -0.048352666 -0.13523278
0000a0 20 c3 04 bf ce 41 ae bd 9c b7 66 bf fc 0d 34 3f
       -0.5186024 -0.08508645 -0.90123916 0.7033384
0000b0 c0 2d 18 3f 26 52 b2 bd 3f ec ff be 53 27 7c 3f
       0.5944481 -0.08707075 -0.4998493 0.98497504
0000c0 3d e6 9d bf 4c 96 55 bf 3e 0e bd bf 98 e1 1f 3e
       -1.2335888 -0.8343246 -1.4769971 0.15613401
0000d0 41 28 59 3f 2f a7 dc bc d1 a8 a6 bf 80 e5 07 3d
       0.8482705 -0.026935188 -1.3020269 0.033177853
0000e0 8f b4 27 bf 53 b2 89 bf 44 81 41 3e 3a 2e a0 3e
       -0.65509886 -1.0757545 0.18896967 0.31285268
0000f0 e1 22 bd 3e 69 dc 01 be e0 3e 24 be b5 81 17 bf
       0.36940673 -0.12681736 -0.1603961 -0.5918229

0.model_cnn.layer3.1.running_var f4 [64]
000000 e9 49 e0 3e 63 89 8d 3f a6 4e 94 3f 0c 36 15 3f
       0.4380639 1.1057552 1.1586502 0.58285594
000010 87 e0 84 3f 23 d7 d6 3e cd 96 1e 3f b3 d6 0f 3f
       1.038102 0.4196101 0.61948854 0.5618698
000020 16 b8 86 3f 34 c8 45 3f 32 aa 1d 3f 50 db eb 3e
       1.0524929 0.7725861 0.6158782 0.4606576
000030 c5 f2 47 3f af fc 5d 3f 41 90 f7 3e 70 2d 0d 3f
       0.7810481 0.8671369 0.48352244 0.5514746
000040 36 34 08 3f cf 7d 8e 3f a6 a0 53 3f bb 19 1b 3f
       0.5320467 1.1132144 0.82667005 0.60586137
000050 08 61 1f 3f 8a 99 05 3f 7b 2b 06 3f 84 27 87 3f
       0.6225743 0.52187407 0.52410096 1.0558934
000060 b9 14 08 3f 94 66 1b 3f 99 28 6e 3f 30 57 16 3f
       0.5315662 0.60703397 0.930307 0.5872679
000070 59 a2 82 3f 90 60 23 3f 8b 3b 3f 3f ee 53 a7 3f
       1.0205795 0.6381922 0.7470023 1.3072488
000080 ad 92 20 3f f3 23 22 3f 30 5a 5f 3f fa d9 62 3f
       0.6272381 0.63336104 0.8724699 0.88613856
000090 cd 49 8f 3f 80 71 13 3f e8 61 2d 3f 2a 12 0e 3f
       1.1194397 0.5759506 0.6772752 0.55496466
0000a0 f8 6c 81 3f 80 57 33 3f b5 25 57 3f 74 2f e0 3e
       1.011138 0.7005539 0.8404191 0.43786204
0000b0 dd 52 80 3f f3 58 10 3f 59 c0 f5 3e 08 50 5b 3f
       1.0025288 0.56385726 0.47998312 0.85668993
0000c0 76 1a ee 3e cd 19 24 3f 19 bc 72 3f e9 14 0f 3f
       0.46504563 0.6410187 0.94818264 0.5589128
0000d0 fb c3 47 3f e5 00 02 3f 21 18 77 3f 07 43 cf 3e
       0.7803342 0.50782615 0.9652119 0.40480825
0000e0 00 dc 1a 3f c4 99 1c 3f a5 7b 82 3e 16 cc e0 3e
       0.60491943 0.6117213 0.25484958 0.43905705
0000f0 a0 40 00 3f 4e 3a 37 3f 0a 29 1b 3f 0a b1 e9 3e
       0.5009861 0.7157334 0.60609496 0.45642883

0.model_cnn.layer4.0.weight f4 [128, 64, 3]
000000 e4 aa b1 3d 0b d5 01 3e 22 67 23 3d 3a 7f 5e 3d
       0.08675173 0.12678926 0.039893277 0.05432055
000010 36 be 07 3e 40 d3 f0 3d 4c 37 8c 3d 15 10 e4 3b
       0.13256153 0.11759043 0.068464845 0.006959925
000020 78 c9 08 3d c3 0d b3 3c 65 18 ed 3c c9 ee 16 3d
       0.03339526 0.021857148 0.028942296 0.036848817
000030 bd 38 99 3d 75 07 cd 3d e1 36 75 3d 1c 6f a6 bc
       0.07481525 0.10011188 0.05986679 -0.020316653
000040 68 fc 0e 3d 2f f5 8d 3d bb 2c ac bc 62 9b c7 bc
       0.034908682 0.06931531 -0.021017423 -0.024366084
000050 98 38 a0 3d 5d 42 3a bd a8 8f 5e bc 9d 5d 93 3d
       0.078232944 -0.045473445 -0.013584055 0.0719559
000060 63 9f 1c 3d b2 16 19 bd 2f 1f a4 3a 12 49 c7 3b
       0.03823794 -0.03737516 0.00125215 0.0060817087
000070 2b b5 0a 3d 05 a7 bc bd 94 f6 6b 3c 45 1b 48 3c
       0.03386418 -0.09211544 0.0144020505 0.012213533
000080 41 01 91 3d 15 74 77 bd 6c 48 1e 3d 88 2f 58 bd
       0.07080317 -0.06041344 0.038643286 -0.052779704
000090 ac ba 08 3e 1d 58 fd 3c ef 07 23 3e 6a fe c5 3c
       0.1335246 0.030925805 0.15920995 0.024169166
0000a0 b0 a4 02 be 42 d2 c1 bd fc b4 00 bd f9 d0 66 3c
       -0.12758136 -0.094639316 -0.0314226 0.014087909
0000b0 af 0f 83 bd 27 6a cd 3c 86 e1 2e 3c 51 36 51 3d
       -0.06399476 0.025075031 0.010673886 0.05107719
0000c0 9d c4 32 3d 22 3d 94 3c ea 64 c7 bd 28 92 df 3d
       0.043644536 0.018095557 -0.09736045 0.10916549
0000d0 82 4a cc bb e0 ae 12 3d f0 ad 2f 3c c0 3b 74 bd
       -0.006234468 0.035811305 0.010722622 -0.059627295
0000e0 59 ba 2e bd 49 a0 fa 3d 49 b9 ce 3d ff c0 56 3d
       -0.042658184 0.12237603 0.10093934 0.05243015
0000f0 f4 97 04 3e de 20 c8 3d 20 47 e3 3d 8d b4 44 3d
       0.1294859 0.09771894 0.110975504 0.04802375
000100 57 91 f2 3d cf 1c c5 bb c1 75 ec 3b 85 94 a7 bd
       0.118441276 -0.006015397 0.007216186 -0.08182625
000110 f0 26 29 bd 29 9e bf 3d 19 ad d4 3d a2 39 2c 3d
       -0.0412969 0.093563385 0.10384578 0.04204715
000120 01 a5 61 3d a5 cd 14 3d d3 80 e5 3d d3 66 dd bd
       0.055089 0.03632893 0.11206212 -0.10810628
000130 82 ff be bd 40 89 70 bd 68 39 39 3d 0b 0e 30 3d
       -0.09326078 -0.05872464 0.045220762 0.042982142
000140 7b 06 c9 3d 4d 3c 78 3d 75 46 13 3e 77 81 fa 3d
       0.09815689 0.060604382 0.14382346 0.12231725
000150 a9 4b 56 3c ae cc 03 3d 75 37 d9 3d 1c a7 9d bd
       0.013079562 0.03217762 0.10606281 -0.07697889
000160 c7 bc c2 bd 88 01 94 bd 72 4f 14 3e e5 86 bb 3d
       -0.09508663 -0.072268546 0.14483431 0.091565885
000170 04 70 92 3d e5 86 74 3d 20 1f a5 3d dc f2 dd bc
       0.071502715 0.059698958 0.08062577 -0.027093343
000180 57 62 da bc cf 4b fa bc eb 21 c7 bd e5 f7 e9 3c
       -0.02665822 -0.030553726 -0.09723266 0.028560588
000190 19 74 c7 3d f9 83 15 bd 11 e3 f7 3d 07 19 84 3c
       0.09738941 -0.036502812 0.12103856 0.016125215
0001a0 4f 47 d6 3d e3 72 41 bd b4 21 ce bc 64 74 e3 ba
       0.1046282 -0.047228705 -0.025162555 -0.0017353413
0001b0 f9 a0 06 3e 48 45 2c 3e dc c1 04 3e 31 e7 16 bd
       0.13147344 0.16823304 0.12964576 -0.036841575
0001c0 be 0e 1c bd c2 91 fa bb e3 4d c3 3d 25 15 30 3d
       -0.038099997 -0.00764677 0.0953634 0.042988915
0001d0 1f 54 02 bc ea 4a d9 bc 1a b7 22 3d af b0 23 3d
       -0.007954626 -0.02652498 0.0397254 0.03996342
0001e0 84 85 7d bd 0e 04 a9 bd 80 1e 01 b9 86 ab 65 bd
       -0.06189491 -0.082527265 -0.00012313761 -0.05607178
0001f0 c6 d3 29 bd 9d a3 e9 bc 86 ba 89 3b a0 44 1a 3e
       -0.04146173 -0.0285204 0.0042031435 0.15065241
000200 a7 7b 8c bd 2d 5e 1f bc 44 14 0e be 6b 40 1a bd
       -0.06859522 -0.009727043 -0.13874918 -0.03765909
000210 c4 af 57 3d 96 39 49 3d 64 9f 98 bd 59 fd 0e bd
       0.052657858 0.049127184 -0.07452276 -0.03490958
000220 67 70 f6 3d e0 40 27 3e 17 53 0f 3d c9 67 8e bc
       0.12033158 0.16333342 0.03499135 -0.017383473
000230 96 e7 3d 3d dc 84 46 3d ea f2 9a bd d4 1d a6 bb
       0.046363436 0.04846655 -0.075658634 -0.0050694738
000240 83 ea 8c bc c2 af 86 3d 14 d9 8b 3b 2c f1 ed 3c
       -0.017201668 0.06576492 0.004267821 0.029045664
000250 c2 f2 8f bc 41 44 57 bc b5 e0 de 3d d1 c1 ad 3d
       -0.01757181 -0.013138832 0.10882703 0.08484233
000260 56 22 e2 3d ff a3 5f bd 85 76 b2 bd 34 11 bd 3b
       0.11041705 -0.05459976 -0.08714012 0.005769873
000270 09 e5 56 3d 17 01 54 3d 96 95 f7 3b 0c f0 af 3d
       0.05246452 0.05175885 0.007555674 0.08590707
000280 55 7c ab bc c3 4d 6e 3d d6 29 7f 3d 56 3d 16 3d
       -0.02093331 0.058179628 0.062295757 0.03667959
000290 c4 20 7f bc 72 a2 64 3c ed ae 8a 3c 28 78 c6 bc
       -0.015571777 0.013954746 0.016929114 -0.024227217
0002a0 9e 0a 08 be e7 9f 5c bd ff 0a e4 bc 64 66 21 3d
       -0.132853 -0.053863432 -0.027837275 0.039404288
0002b0 bf 5c 70 3d 0e a0 0b 3e a6 a2 1b be 03 b0 c9 bd
       0.0586822 0.13635275 -0.15198764 -0.09848025
0002c0 20 76 c2 3a 3b 81 33 bd c2 79 dc 3c 77 3f 14 3c
       0.0014836229 -0.043824416 0.026913527 0.009048334
0002d0 f5 a0 c9 3d 18 f6 7d 3d 4a 89 6e bb ae 16 33 3d
       0.09845153 0.06200227 -0.0036397749 0.0437228
0002e0 ce 32 ad bd 7b 8b ed bd b9 04 2d 3d 36 02 39 3d
       -0.08456956 -0.115988694 0.042240832 0.045168124
0002f0 76 6a b5 3b 02 a5 a6 bd 73 e9 89 bd 5f 22 a0 bd
       0.005536373 -0.081369415 -0.0673398 -0.07819056
000300 ec 1b 66 3d 77 b1 11 bc 5f 54 97 3b ae c2 13 bd
       0.056178972 -0.008892409 0.004618212 -0.036074333
000310 cd 39 df bc af 5d 76 3d 24 30 a9 3d f4 60 b6 3c
       -0.027249241 0.060147937 0.08261135 0.022263028
000320 c6 7f 52 3d cb 36 09 bb 85 b9 8f 3d 7e b2 69 3d
       0.051391385 -0.00209372 0.07017807 0.05705499
000330 9e 3e 24 bd a3 23 0c 3d 86 08 ea 3c 40 85 8c 3d
       -0.04009878 0.034213673 0.028568517 0.06861353
000340 8a a4 44 3d 27 10 c9 3d e7 c9 18 bd b1 1c a5 bb
       0.04800848 0.09817534 -0.037301924 -0.0050388207
000350 6e 94 52 bc 8f a9 16 bd 7f c2 36 bd 6c 76 dd 3b
       -0.012852771 -0.036782797 -0.04461908 0.0067585018
000360 39 d3 1f 3e 08 e7 11 3e 0d 50 c5 3c 94 5b 6b bd
       0.15607919 0.14248288 0.024086023 -0.057460383
000370 f2 c1 1c bc 11 97 a6 bd 0f 65 2c 3c 58 d4 d4 bc
       -0.009567725 -0.081342824 0.010522141 -0.02598016
000380 26 8d ad bd 1d 62 0f 3c f0 d2 16 3d e8 92 7a bc
       -0.084741876 0.008751419 0.03682226 -0.015293814
000390 ab 35 8a 3d 45 12 c9 3d ed 23 1f 3e 71 7b b1 bd
       0.067485176 0.09817938 0.15541048 -0.08666123
0003a0 38 c4 e0 bc 40 43 a3 bc 55 d2 ae bc d5 b6 c5 bb
       -0.027437314 -0.019929528 -0.021340529 -0.006033758
0003b0 da 1c c7 bc 0c 9f 41 3d 24 64 45 bd c5 99 99 bd
       -0.02430575 0.04727082 -0.048191205 -0.07500032
0003c0 eb 63 b0 bc a8 01 21 bd 89 da 98 bd bb 82 a0 bc
       -0.02153202 -0.03930822 -0.07463557 -0.019593587
0003d0 9a 09 4e 3d 0e 8d a5 3d 38 8d 93 3d 1f 4f da 3d
       0.050302126 0.08083545 0.0720467 0.106596224
0003e0 0b 2e 15 3e 75 b6 d7 ba cd a3 a7 bd 2f bf 51 bd
       0.14568345 -0.0016457575 -0.081855394 -0.051207718
0003f0 a1 22 1f 3d a9 26 2e 3c a0 c9 1f 3d 50 01 f3 3d
       0.038851384 0.0106293345 0.039010644 0.11865485

0.model_cnn.layer4.0.bias f4 [128]
000000 d9 7f 1d 37 c4 69 ac 36 ff 4e b1 b5 ca be 00 b7
       9.387696e-06 5.138312e-06 -1.3210519e-06 -7.673816e-06
000010 97 a0 2e 36 36 f6 ed b6 69 fc 5a 37 21 1c c4 b4
       2.6021496e-06 -7.091813e-06 1.3052581e-05 -3.652831e-07
000020 a3 3e ca 35 13 99 0b 37 0d 22 2e 36 3c 93 01 37
       1.5068402e-06 8.320686e-06 2.594784e-06 7.72328e-06
000030 d6 be 5b b6 3b f3 3d b7 63 07 a8 36 45 6e 9d 35
       -3.2744624e-06 -1.1321909e-05 5.00765e-06 1.1729504e-06
000040 8f ad 58 38 7c 85 19 b5 8b d6 fa 34 87 e4 07 b6
       5.1660052e-05 -5.7191187e-07 4.672223e-07 -2.0249588e-06
000050 6f e4 05 b6 35 18 10 b7 06 fe 1d 34 61 d8 a8 b4
       -1.995151e-06 -8.588705e-06 1.4714178e-07 -3.1449875e-07
000060 cb c1 66 36 3d f3 c6 b5 b7 f2 01 b6 f2 dd f4 b6
       3.4385473e-06 -1.4822941e-06 -1.9363777e-06 -7.2976045e-06
000070 83 d2 53 37 f9 aa 4c 36 c1 0e 0f b7 e9 9f 15 b3
       1.2625594e-05 3.0497888e-06 -8.526899e-06 -3.4837203e-08
000080 60 14 7a 37 bd e9 23 b7 16 dd 40 b6 fd 24 89 b6
       1.4905905e-05 -9.7699785e-06 -2.8738918e-06 -4.087224e-06
000090 08 49 7a 37 c6 85 ef b6 a3 fd 11 b7 1f af 0e b6
       1.4918165e-05 -7.1383283e-06 -8.701728e-06 -2.1261583e-06
0000a0 f0 e8 7c b6 ff 56 b8 b7 e4 38 a3 37 8a b5 59 36
       -3.7686514e-06 -2.197502e-05 1.9457606e-05 3.244119e-06
0000b0 71 65 84 34 bc 23 92 b3 b6 5a 0b b6 3f 37 4e 36
       2.4660724e-07 -6.805155e-08 -2.0765415e-06 3.072855e-06
0000c0 2b 83 f1 b5 58 3a a1 b6 c9 ab 43 34 4a 19 8b b7
       -1.7994074e-06 -4.804966e-06 1.8223285e-07 -1.6581867e-05
0000d0 df d3 5a 36 0e ca 85 35 92 80 ac b6 93 31 1e 37
       3.2607857e-06 9.968078e-07 -5.140967e-06 9.429076e-06
0000e0 71 21 43 b5 59 9f 8a 33 cc b0 13 b5 aa bd 42 b7
       -7.2691824e-07 6.455111e-08 -5.501904e-07 -1.1607461e-05
0000f0 54 27 02 b6 d6 62 25 b6 55 dd 89 36 91 f5 cb b4
       -1.9394402e-06 -2.4644446e-06 4.1086846e-06 -3.799037e-07
000100 80 a2 27 b6 cf 22 7f 36 0f 47 5a b6 00 e6 8e 36
       -2.4979527e-06 3.8018222e-06 -3.2525893e-06 4.2587053e-06
000110 d0 c2 9c b6 cd 2f ff b4 d0 dd 64 35 ac 29 ef 36
       -4.6718415e-06 -4.753223e-07 8.52594e-07 7.1276063e-06
000120 46 b6 60 34 2c 29 38 37 81 df 5e b6 fd 71 ee 35
       2.0927936e-07 1.0976841e-05 -3.3210674e-06 1.7765557e-06
000130 ff ff 73 b5 d6 ad 7c b6 80 cb 04 b5 cf c2 c2 b5
       -9.089708e-07 -3.7652112e-06 -4.9469963e-07 -1.4510823e-06
000140 6b 80 a6 35 f7 a7 99 b6 f0 24 d8 37 c6 40 c6 34
       1.2405338e-06 -4.579309e-06 2.5766407e-05 3.6927503e-07
000150 d0 5b 0f 34 fb 1f 64 b6 f7 45 b8 b4 5c 65 24 36
       1.3351314e-07 -3.3993263e-06 -3.4323577e-07 2.4496903e-06
000160 b8 91 48 35 9e 29 11 36 dc 59 17 b4 25 b6 16 b7
       7.4717855e-07 2.1630908e-06 -1.4095662e-07 -8.9831055e-06
000170 49 1b 1c 36 5f 94 dc b7 af 12 2a 36 73 d1 c6 b6
       2.3261694e-06 -2.6295134e-05 2.534285e-06 -5.925243e-06
000180 86 2c d6 35 d5 c1 36 b5 e5 ee 9c 37 be e9 06 36
       1.59572e-06 -6.8082346e-07 1.8707893e-05 2.0103612e-06
000190 6e 53 ad b6 d7 51 0c b5 55 64 9f b7 bd 17 8c 36
       -5.1655143e-06 -5.2273157e-07 -1.9000998e-05 4.1750886e-06
0001a0 e9 52 32 b7 cc db eb b6 0a bc b0 b6 52 3e 5e 36
       -1.0628931e-05 -7.0291335e-06 -5.2670994e-06 3.3116853e-06
0001b0 55 f7 63 b7 58 1f fa b7 d8 c9 5d 37 89 53 92 b5
       -1.3587841e-05 -2.9816918e-05 1.3219622e-05 -1.090216e-06
0001c0 f4 0a 8c 36 bb e0 9c 37 f6 ae 85 b4 59 bb 0a 38
       4.1736002e-06 1.8701297e-05 -2.490048e-07 3.3076245e-05
0001d0 a6 fc e1 b6 c0 7d 0f 36 65 50 d2 35 9d 1b 2e 36
       -6.7349347e-06 2.1381857e-06 1.5669617e-06 2.5944094e-06
0001e0 91 8a 20 37 20 cf 4f 32 c2 b4 8c 37 8c 04 81 37
       9.569006e-06 1.2096081e-08 1.6773472e-05 1.5380116e-05
0001f0 8d 20 82 b7 e4 fb 88 b5 37 aa 9b 37 2a b6 ce b6
       -1.5512365e-05 -1.02061e-06 1.8556702e-05 -6.160485e-06

0.model_cnn.layer4.1.weight f4 [128]
000000 82 11 84 3f 9b 20 6b 3f e1 46 70 3f 4e 0b 82 3f
       1.0317843 0.91846627 0.9385815 1.01597
000010 51 d6 73 3f cd 16 5c 3f 97 66 83 3f 9f 9d 56 3f
       0.95248896 0.8597229 1.0265683 0.8383426
000020 e3 fb 85 3f fc 7f 55 3f 8d 06 71 3f 61 6c 80 3f
       1.0467495 0.83398414 0.9415062 1.0033075
000030 30 95 6b 3f b4 52 69 3f 7c c6 81 3f 12 64 83 3f
       0.9202452 0.9114182 1.0138698 1.0264914
000040 b6 04 8c 3f db 43 7e 3f af 40 7e 3f ad de 7a 3f
       1.0938938 0.9932229 0.9931745 0.97996026
000050 5d 0b 67 3f de 64 70 3f 80 3c 5b 3f 1e 87 82 3f
       0.90251714 0.9390391 0.8563919 1.0197484
000060 10 22 79 3f d7 a2 74 3f 47 95 66 3f 6f ed 7e 3f
       0.973176 0.95560974 0.9007153 0.99581045
000070 fa 23 80 3f bd 5e 7d 3f 1d 2f 71 3f 34 36 73 3f
       1.0010979 0.98972684 0.94212514 0.9500458
000080 4a ba 6a 3f b7 0f 7a 3f a2 6f 60 3f 7f 6c 84 3f
       0.91690505 0.9768023 0.8767034 1.034561
000090 d7 a0 77 3f d6 5a 81 3f eb 93 80 3f 8e 03 7b 3f
       0.967298 1.0105846 1.0045141 0.980523
0000a0 ae bc 47 3f bb fd 7b 3f cd d0 6e 3f 8b 3b 73 3f
       0.7802228 0.98434037 0.93287355 0.9501273
0000b0 77 64 6a 3f e7 05 41 3f b3 62 52 3f 2a 26 4e 3f
       0.9155955 0.7539963 0.82181853 0.80526984
0000c0 a5 ac 85 3f 19 14 4e 3f 15 c3 8e 3f 53 dc 64 3f
       1.0443312 0.80499417 1.1153284 0.8939869
0000d0 06 fc 73 3f 02 ec 70 3f e8 cf 67 3f 89 60 7e 3f
       0.9530643 0.9411012 0.90551615 0.9936605
0000e0 86 eb 66 3f a6 2b 6b 3f ef f7 79 3f 51 5e 74 3f
       0.9020313 0.9186348 0.9764394 0.95456415
0000f0 c8 1c 66 3f 09 20 7d 3f 3d 49 67 3f bc 93 63 3f
       0.89887667 0.98877007 0.9034613 0.888973
000100 28 16 54 3f 7f 01 75 3f 32 74 7c 3f 27 b2 83 3f
       0.8284631 0.9570541 0.986148 1.0288743
000110 89 1d 75 3f 55 c0 84 3f 80 0b 2e 3f 86 c1 86 3f
       0.9574819 1.0371195 0.679863 1.0527809
000120 6d 51 64 3f 0a 4d 81 3f 65 b7 82 3f 22 3b 7b 3f
       0.89186746 1.0101635 1.0212218 0.98137105
000130 41 c7 73 3f cb ed 7b 3f 71 d5 7f 3f 92 07 33 3f
       0.9522591 0.9840972 0.9993506 0.69933426
000140 ff 5f 31 3f 7b 73 6a 3f 5c d6 84 3f 0d d6 61 3f
       0.69287103 0.9158246 1.0377917 0.8821724
000150 e9 8a 83 3f de d5 3b 3f 85 69 7e 3f 18 20 6e 3f
       1.0276767 0.7337321 0.9937976 0.9301772
000160 4e e9 8f 3f ca 49 6d 3f 52 ba 6a 3f 22 b2 6b 3f
       1.1243074 0.9269072 0.9169055 0.92068684
000170 73 62 83 3f 9f a3 82 3f b3 78 78 3f 3e b5 42 3f
       1.0264419 1.0206183 0.9705917 0.76057804
000180 b7 2c 77 3f b8 d7 7f 3f 45 17 72 3f be d6 82 3f
       0.96552604 0.99938536 0.94566756 1.0221784
000190 d1 75 69 3f c9 34 6c 3f 52 19 84 3f 8e 43 39 3f
       0.911954 0.92268044 1.0320227 0.72368705
0001a0 a3 c0 80 3f f9 dd 7c 3f ce d4 88 3f 91 08 1e 3f
       1.0058788 0.98776203 1.0689943 0.6173182
0001b0 8f b9 75 3f 06 9c 86 3f 93 9e 82 3f 4a a6 5e 3f
       0.95986265 1.0516365 1.0204643 0.86972487
0001c0 8a b1 72 3f 9c 63 83 3f 63 ba 82 3f 77 a1 82 3f
       0.94802153 1.0264773 1.0213131 1.0205525
0001d0 59 47 85 3f 63 45 6c 3f 26 b8 85 3f 44 be 7c 3f
       1.0412399 0.92293376 1.0446823 0.9872782
0001e0 db 64 35 3f 31 42 6f 3f be 2c 57 3f 8e b4 73 3f
       0.7085702 0.93460375 0.84052646 0.9519738
0001f0 95 ec 66 3f 99 48 83 3f 46 51 67 3f c4 24 72 3f
       0.90204746 1.025653 0.9035839 0.9458735
