checkpoint/DA/s_0_1_t3/cnn_features_1d_0925-195851/50-0.8835-best_model.pth (torch, 944127 bytes, 30 tensors)

0.model_cnn.layer1.0.weight f4 [16, 1, 15]
000000 a7 93 e1 bd 05 cb 8d bd 37 21 97 bd 58 8e cd bd
       -0.110144906 -0.069234885 -0.07379382 -0.100369155
000010 25 46 5b be f3 f5 e1 bd 66 28 20 be 58 71 0f 3e
       -0.21413477 -0.11033239 -0.15640411 0.14008081
000020 0a 23 77 be f9 60 8a 3c 1a 6f 89 bd 8c c9 5a 3d
       -0.2413446 0.016891943 -0.06710644 0.053414866
000030 2a 91 88 3d bd ca c1 3d e4 89 f1 bc dd 55 26 be
       0.06668313 0.094624974 -0.029484697 -0.16243692
000040 d6 fe b3 bd 12 9b 0a be 5a b2 ef bd 68 5b 34 3e
       -0.087888405 -0.13535717 -0.1170394 0.17612994
000050 ce 42 8f bd b0 47 d6 bb 8f 50 35 be c5 96 66 3d
       -0.06995164 -0.0065393075 -0.17706512 0.05629613
000060 04 20 f7 3d 55 fa ab bd 49 88 4c be f2 d9 1b 3e
       0.12066653 -0.083973564 -0.19973864 0.15219858
000070 43 0a 8b 3d eb e7 06 3d 1b 5b 10 bd b1 25 b1 bd
       0.06789067 0.032936018 -0.035243135 -0.08649767
000080 8e 6e d4 3d f6 56 06 be e6 89 88 bc 3b f9 14 3d
       0.10372649 -0.1311911 -0.016667318 0.036370497
000090 50 6b ad bd 38 04 90 3c 6b 9a ed 3d 2b 3f 62 be
       -0.08467734 0.017580137 0.116017185 -0.22094409
0000a0 6b 9f 35 3e 73 a0 ac bd 43 f4 18 be 12 1b 9d 3b
       0.17736594 -0.08429041 -0.14936928 0.004794487
0000b0 e4 41 77 be ca 0f 2b bd 60 8d cf bd 3b 8e a2 bd
       -0.24146229 -0.041763104 -0.10134387 -0.079372846
0000c0 5b 63 5e 3e 21 6c 2b 3e 55 7f 93 3e 96 26 9e bd
       0.21717589 0.16740467 0.28808084 -0.077222034
0000d0 57 17 3c 3b ca 8b 82 bc eb 61 41 3e 6d 55 84 bc
       0.0028700435 -0.015935797 0.18885009 -0.016154015
0000e0 46 39 d4 3a 79 5a 3a be 39 0d 81 3e 85 c7 80 3c
       0.0016191385 -0.18198575 0.252054 0.015720138
0000f0 f6 d0 91 3e 06 ed a1 3c 3a 17 db 3d 64 b7 9c bd
       0.28479737 0.019766342 0.106977895 -0.076521665
000100 43 14 47 bb 39 21 8c 3d 35 b5 67 be f8 57 4f 3e
       -0.0030377067 0.06842274 -0.22627719 0.20248401
000110 c7 7d fc bd 28 a1 62 3d aa 2e 02 3e 70 0d f9 bd
       -0.123286776 0.05532947 0.12713113 -0.12160766
000120 0b ca 54 3e 4c 44 8e be da 26 5b bd 1a 80 f2 bc
       0.20780198 -0.2778648 -0.05350385 -0.0296021
000130 10 00 89 3e 0a 21 ac 3c 7a df cb 3c 70 58 ee 3d
       0.2675786 0.021011848 0.024886835 0.11637962
000140 1f e9 5f be ae 68 36 be ef e5 00 3d 31 cc 05 3e
       -0.21866272 -0.1781337 0.03146928 0.13066174
000150 61 e6 05 3e 20 0d a1 bc 25 50 6b 3e 4d 45 2f be
       0.13076164 -0.019659579 0.22979791 -0.1711628
000160 d6 95 9b bd 79 29 22 3e d9 49 8d 3e 44 b9 c0 3d
       -0.07596938 0.15836133 0.27595404 0.094103366
000170 0f a8 8e 3d fe 4a 4f 3e a7 67 a1 bd 23 a9 24 be
       0.069656484 0.20243451 -0.07881098 -0.16080146
000180 ab b2 cb 3d c3 c3 0e bd 6d c0 b0 bd c4 78 38 3e
       0.099461876 -0.03485466 -0.08630452 0.18014818
000190 66 72 ae 3b d1 97 06 be ac cc 46 3e 7e 67 4d 3e
       0.005323696 -0.13143851 0.19414014 0.2005901
0001a0 05 d3 da bd 9c 75 9c bd e3 dc 05 be f8 6b a6 bd
       -0.1068478 -0.0763962 -0.13072543 -0.08126062
0001b0 34 18 32 3d 13 85 57 3e a3 e2 5a 3d 22 4e 62 3e
       0.043480113 0.21046858 0.053438794 0.22100118
0001c0 0c be 2f be 31 92 15 3e 83 cb 5e 3e 9f bf f5 3d
       -0.17162341 0.14606549 0.21757321 0.119994394
0001d0 33 bd 44 be 11 e4 77 bd 71 75 b2 bd ba 53 c8 3d
       -0.19212799 -0.060520235 -0.087138064 0.097815946
0001e0 7a 1d 47 3e 01 ac 19 be 64 e5 c7 bd 0a 27 3c bd
       0.19444838 -0.1500702 -0.0976055 -0.045935668
0001f0 f7 42 4e 3e a3 2f 57 be 85 d7 22 be e2 94 2d be
       0.20142733 -0.21014266 -0.15902527 -0.16951326
000200 8b b3 8f be 14 34 55 be e1 90 60 3e 13 1e 0e be
       -0.28066668 -0.20820647 0.21930267 -0.1387866
000210 f2 fe 09 3e bb a0 3d 3e b3 35 97 be ca 7d 45 3e
       0.1347616 0.18518345 -0.29533157 0.19286266
000220 1e 0e db bd 7e 96 4d 3e c7 d1 96 bd 1b 55 b3 3c
       -0.10696052 0.2007694 -0.073642306 0.021891167
000230 a3 1c 14 3e b3 11 39 be b2 a2 1e 3d 46 36 11 be
       0.14464049 -0.18073158 0.038729377 -0.1418086
000240 6a ac 0c be 39 0b 28 3e 0f 6f 82 be 90 cc 64 3e
       -0.13737646 0.16410531 -0.25475356 0.2234366
000250 ce 93 6d be 49 23 14 be db 8e 27 be 7a c9 ea 3d
       -0.23200914 -0.14466585 -0.16363089 0.1146421
000260 b7 76 14 3d 98 d1 2a be 7a 13 29 be 68 a6 a7 bd
       0.036246028 -0.16681516 -0.16511336 -0.08186036
000270 f6 e7 4a be 51 d9 1e 3e c1 b0 85 3d f4 92 82 be
       -0.19815049 0.15512587 0.06527854 -0.2550274
000280 ad f7 77 3d 28 83 81 be 89 98 8a 3d d8 b2 82 3e
       0.060538936 -0.25295377 0.06767375 0.25527072
000290 ea 9b 8d 3c fc 43 47 3e f2 b3 c7 bd 8a e9 64 3e
       0.01728626 0.19459528 -0.09751119 0.22354713
0002a0 1c 12 28 3e 64 a5 4d be 67 0c ce bc 04 37 51 be
       0.16413158 -0.20082623 -0.025152398 -0.20431143
0002b0 5e 7d 76 be 8c 26 c9 bd 72 6d 98 bd 84 91 08 be
       -0.24071261 -0.09821805 -0.0744275 -0.1333676
0002c0 fd f1 6a be 56 ed 09 be b5 f1 12 bd dc 91 43 bc
       -0.22943874 -0.13469443 -0.03587504 -0.011936631
0002d0 88 d0 5b bc 4e e5 43 3e 20 36 53 3e 8b 56 11 3e
       -0.013416417 0.19130442 0.20626116 0.1419317
0002e0 a9 8c bf 3d a8 10 22 3d b1 29 a9 bd 4c f3 a3 bc
       0.09353001 0.039566666 -0.08259905 -0.020013474
0002f0 c3 0d 3a bd 72 4c 30 be 7e 6d ad bd 26 9e 66 be
       -0.04542328 -0.17216662 -0.084681496 -0.22521266
000300 95 49 4b 3c ad 45 1c 3e ae fd 0d be 6d 14 be 3d
       0.01240768 0.15260954 -0.13866302 0.0928124
000310 24 a5 2c 3e e2 5d 3e be 8a 45 74 be ab a8 ee bd
       0.16859871 -0.18590501 -0.23854652 -0.116532646
000320 da 56 13 bb dd 66 53 3e 95 c3 4b 3e 43 a0 8f bd
       -0.0022482187 0.20644708 0.19898827 -0.07012989
000330 95 60 28 be c8 b2 03 bd 46 19 8d be ed 90 f0 bb
       -0.16443093 -0.03215292 -0.27558345 -0.0073414952
000340 65 01 c3 3d 4d e9 87 3d 09 b2 79 bc 84 dd ad be
       0.0952175 0.066362955 -0.015240201 -0.33958066
000350 83 8f 6d 3b d6 e2 00 be 89 00 25 3c 86 32 08 3e
       0.003624887 -0.12586531 0.010070928 0.13300523
000360 a9 a3 6a 3d 8e f6 77 bd 5c b4 2c 3c 6f 1d 09 be
       0.057284985 -0.060537867 0.010541048 -0.13390134
000370 2b 42 01 be da bd 15 be 17 22 73 bc cc b0 6c be
       -0.12622897 -0.14623204 -0.014839671 -0.23114318
000380 d7 10 59 3e fc 72 51 be 18 30 c3 3d a7 fc 29 3e
       0.2119783 -0.2045402 0.095306575 0.16600285
000390 31 91 5d 3e 53 e5 e0 3d 64 b2 10 3e ca 6b 13 3d
       0.21637417 0.1098124 0.1413055 0.035991468
0003a0 4f 6a b6 3d 8b 92 67 3e 05 1b 30 be 79 57 a7 bd
       0.089069955 0.22614495 -0.17197807 -0.08170981
0003b0 d0 a9 14 3d ef 3f ef 3b 2e dc 91 bd c4 ff 65 bd
       0.03629476 0.0073013227 -0.07122074 -0.05615212

0.model_cnn.layer1.0.bias f4 [16]
000000 14 34 f2 b8 ea 30 c8 b9 31 63 15 3b 18 f9 d9 b8
       -0.000115491595 -0.00038183416 0.0022794718 -0.00010393764
000010 21 de f9 ba e8 72 1e bb ea 6d 08 bb 98 84 1a 3a
       -0.0019063392 -0.0024177376 -0.0020817467 0.0005894392
000020 0f 6c 27 bb ed 79 8b ba 85 de 5e ba c8 2a ba 39
       -0.0025546586 -0.0010641195 -0.0008501786 0.0003550856
000030 21 33 3d bb dc 2b 03 3a 26 b6 f6 39 d8 e9 2e 3b
       -0.0028869587 0.0005003789 0.00047056488 0.0026689675

0.model_cnn.layer1.1.weight f4 [16]
000000 6f 44 83 3f 54 96 71 3f 41 68 88 3f f5 0b 78 3f
       1.0255259 0.9437001 1.0656816 0.96893245
000010 be 64 81 3f 22 fd 70 3f d4 ea 68 3f 20 ac 6d 3f
       1.0108869 0.9413625 0.9098332 0.92840767
000020 b5 7f 7b 3f 80 f5 83 3f 6c b0 8d 3f cd 58 77 3f
       0.9824174 1.0309296 1.1069465 0.96619874
000030 d9 6e 83 3f ef db 79 3f 9e c7 88 3f ec 29 81 3f
       1.0268203 0.9760122 1.0685918 1.0090919

0.model_cnn.layer1.1.bias f4 [16]
000000 b7 3c 9a 3c aa 62 fa bc bf c1 ad 3d a5 ab ec bc
       0.01882778 -0.030564625 0.0848422 -0.02889044
000010 8c d2 eb bc 2a 07 17 bd 22 df 89 3d 32 a4 00 be
       -0.02878692 -0.036872067 0.06732012 -0.12562636
000020 59 5f c1 3c a4 36 02 3e 34 6d a8 3c b4 45 a7 bd
       0.023605036 0.12716156 0.020559885 -0.08167592
000030 3d 5c f7 bc 5c 6c 7a 3c 8a a1 06 3c a0 92 9c bd
       -0.03019535 0.015284624 0.008217225 -0.07645154

0.model_cnn.layer1.1.running_mean f4 [16]
000000 a2 1c 14 b9 f5 d8 2a ba 4c f8 36 3b 8a eb 2d b9
       -0.00014125046 -0.00065173145 0.0027918993 -0.00016586311
000010 80 2e cb ba 3f ad ee ba eb 4b f8 ba eb 04 36 b9
       -0.0015501529 -0.001820959 -0.0018943524 -0.00017358705
000020 ee 8d e6 ba e1 73 16 ba ad 43 16 bb cd 8f c2 39
       -0.0017589906 -0.0005739313 -0.0022928522 0.00037109703
000030 11 bf 62 bb 6e 7c b3 37 c7 13 9d 3a 8f 79 d6 3a
       -0.0034598748 2.1396405e-05 0.0011984044 0.0016363132

0.model_cnn.layer1.1.running_var f4 [16]
000000 89 91 2f 3e 5e 58 92 3e 7d 06 a3 3d 40 3c 87 3e
       0.17145361 0.28583044 0.07960222 0.26413155
000010 2a b1 17 3e 11 70 b5 3e 0f b7 cf 3e a2 06 87 3e
       0.14813676 0.35437062 0.4056935 0.26372248
000020 30 d4 da 3e 5e 04 d9 3d 1a a7 32 3e 76 c9 b0 3e
       0.4274001 0.10596536 0.17446557 0.34528702
000030 2a e9 7d 3e b4 c3 50 3e 2c f2 54 3e 74 db 9b 3e
       0.24795976 0.20387155 0.20795506 0.30440867

0.model_cnn.layer2.0.weight f4 [32, 16, 3]
000000 51 f5 15 bd 06 10 f3 bd 0b f8 23 be 4b ce d7 bd
       -0.036610905 -0.118682906 -0.1601259 -0.10537394
000010 d2 e4 af bd df e0 ca bd 47 32 89 3c 4d f8 72 3c
       -0.08588566 -0.09906172 0.016747607 0.014829707
000020 74 06 13 be c9 3a a8 bc 64 b3 4c be b8 b4 0b be
       -0.1435793 -0.020535843 -0.19990307 -0.13643157
000030 75 b5 d3 3c 1d 89 9e 3d d5 88 a5 3d 10 bc 97 bd
       0.025843361 0.07740996 0.08082739 -0.07408917
000040 f0 3a 66 bc e3 b8 93 3d 27 3c 0e 3c 6c 0c 88 3a
       -0.014052138 0.07212999 0.008681334 0.0010379679
000050 9b 29 c4 3d 19 50 e4 3d 5a 56 11 be 56 7b fa bc
       0.09578248 0.1114809 -0.14193097 -0.03057639
000060 4b ec 45 bd 51 e0 fa bd 77 cd 4d bd 75 2d b1 3d
       -0.04832105 -0.12249816 -0.050244775 0.08651248
000070 2d 27 5c bd b5 e7 50 bd 85 06 f9 3c 3a 9b bc 3d
       -0.0537483 -0.051002223 0.030398617 0.092092946
000080 8d c8 af bd 08 08 ba 3d 1d da 2d be 6b 13 2a 3d
       -0.08583174 0.09083563 -0.16977735 0.041522425
000090 7c 0d b8 bd c3 c0 25 be bf 3b 70 bd 9a b2 c5 3d
       -0.08986947 -0.16186814 -0.05865073 0.09653206
0000a0 c3 dd fd 3c ae d9 61 bd 7f ac 40 be f9 cd 1b 3e
       0.030989533 -0.055139236 -0.18815802 0.15215291
0000b0 63 ea 69 bd 30 04 16 be a6 94 b8 3d 5f 02 4f 3d
       -0.057108294 -0.14650035 0.090127274 0.05053937
0000c0 3e f6 4d bd 42 62 8e bd 00 6e 05 3d 8e c5 9c 3c
       -0.050283663 -0.06952335 0.032575607 0.01913717
0000d0 a1 20 b2 3d 59 1e a1 bd 2e 2b 02 be b2 81 55 bd
       0.0869763 -0.078671165 -0.12711784 -0.05212564
0000e0 9f 8a 11 3e 50 f4 8d bd 94 86 b6 bd 7b 18 57 3d
       0.14213036 -0.069313645 -0.089123875 0.05251358
0000f0 fe eb 5c bb 07 cd cf bd c4 96 17 bd 34 14 b9 bd
       -0.0033709998 -0.10146528 -0.037009016 -0.090370566
000100 5a 47 e1 3c 3c f3 e7 bb 27 a7 87 3d ca b9 a3 3d
       0.027499843 -0.0070785563 0.06623679 0.07994421
000110 ab 4f ed bd 91 d9 ee 3b 59 41 d0 3d 3a 94 ca bd
       -0.11587461 0.0072891195 0.10168714 -0.09891553
000120 8b 90 84 bd ac 2c 6c bd c4 91 f2 bc 3f 4d 4d 3c
       -0.06472882 -0.05765979 -0.029610522 0.012530624
000130 5c cb d8 bd 68 47 00 3e 56 c2 a7 3d eb d3 5f 3d
       -0.10585663 0.1252724 0.081913635 0.05464546
000140 5d 11 15 3e 48 7b 8b 3d d2 f8 1c 3c 8d 50 12 bc
       0.14557405 0.068106234 0.009580808 -0.008930338
000150 e0 da 18 3d 01 6f 2b be e2 10 2a 3d 68 f4 16 bd
       0.03731811 -0.16741563 0.041520007 -0.036854178
000160 ec 27 3c be 8b e8 3d be f7 42 00 3e d0 d3 21 bd
       -0.18374604 -0.1854574 0.12525545 -0.03950864
000170 a5 5c 88 3b cf cb 2b 3d f9 1e 8d 3c 08 15 94 3c
       0.0041614347 0.041942414 0.017226683 0.018076435
000180 6b 16 63 be f8 91 91 bb a8 4b 50 3d 99 33 8f bd
       -0.2217652 -0.0044424497 0.0508534 -0.06992263
000190 b3 53 87 3c 0c 5d 4f be ba 31 01 3d b8 f6 91 bd
       0.016519403 -0.20250338 0.031541564 -0.07127136
0001a0 52 d9 cf 3d 53 bc ed bd f5 cb 9b bd 36 e7 8b bc
       0.101488724 -0.116081856 -0.07607261 -0.017078023
0001b0 81 00 19 be 49 a1 57 bd d4 79 2a 3e a3 8e 15 be
       -0.14941598 -0.052644048 0.16648036 -0.14605193
0001c0 52 1a 14 be 1a 9f b8 bd 1e 58 0a be 75 8a b4 bd
       -0.14463165 -0.09014721 -0.13510177 -0.08815471
0001d0 01 26 a6 3d bf 57 0e 3e 3b 77 41 bd 30 23 50 3c
       0.081127174 0.1390066 -0.047232848 0.012703702
0001e0 d3 78 69 bd 09 d6 1a bd 0a 5e 39 bd f5 2d 3c 3d
       -0.056999993 -0.037801776 -0.0452557 0.045942266
0001f0 9b 8f 1e 3e 90 b4 dc 3d 20 4d 4c be 3a a3 30 be
       0.15484469 0.10776627 -0.19951296 -0.17249766
000200 ed 93 39 bd 13 d1 78 3d 05 c0 2c bd d8 68 75 bb
       -0.04530709 0.060746264 -0.04217531 -0.0037446525
000210 49 ca a8 3d 17 aa 85 bc 28 36 70 3c 55 4a bc bd
       0.08241708 -0.016316457 0.014661349 -0.09193865
000220 bb f4 1e bd 1b a1 9b bc bf 17 ad bd 63 a2 1f be
       -0.038807612 -0.01899772 -0.08451795 -0.1558929
000230 04 ef a7 bd 50 86 84 bd 69 da 93 bd 8f 5d c4 3d
       -0.081998855 -0.064709306 -0.07219393 0.095881574
000240 24 d2 14 3e fd 1b 03 be 78 b4 e0 bd 22 10 33 3e
       0.14533287 -0.12803645 -0.10971922 0.17486623
000250 c4 6d a2 3d b9 a4 c5 3d 39 fd 14 3e f1 13 c7 bd
       0.079310924 0.09650559 0.14549722 -0.097206004
000260 e3 0f 6b be 7d a5 d7 bd bb 1b 9f 3c 3b 12 0b 3d
       -0.22955279 -0.10529611 0.019422403 0.033952933
000270 60 66 28 3d 13 ba e1 bd ed e0 9b 3c 57 c6 56 3d
       0.041113257 -0.11021819 0.019028151 0.052435245
000280 22 50 7c bd a6 c2 12 be 35 76 06 be 69 db 11 3d
       -0.061599858 -0.14332065 -0.1313103 0.035609636
000290 7b 82 82 3d 0a c1 0b be 42 ff 56 3c 03 34 8a bd
       0.063725434 -0.13647857 0.013122382 -0.06748202
0002a0 b4 1d c4 bd dd f9 c6 bd 40 8f eb bd 27 87 f4 bb
       -0.09575978 -0.097156264 -0.11501932 -0.0074624005
0002b0 1f 8d 92 bd 40 14 a1 bd c6 d6 00 be 5a 78 fb bd
       -0.07155823 -0.078651905 -0.1258193 -0.122788146
0002c0 83 22 a3 3d fb 7a d9 bd a7 9f 5f bd c5 07 ee bd
       0.07965567 -0.1061916 -0.054595616 -0.11622576
0002d0 9c 9f 2f 3d 32 c8 13 bd 77 5d 8d 3d 9d a2 eb 3c
       0.042876825 -0.036079593 0.06902593 0.028764063
0002e0 b7 67 e9 bd 85 2e 17 3e fd 41 15 be 99 97 bd 3d
       -0.11396735 0.1476384 -0.14575954 0.092574306
0002f0 49 9a 50 bd da 1b c7 3d 4b 7c f0 bb b0 22 ef bd
       -0.050928388 0.09722109 -0.0073390356 -0.11676538
000300 89 8c 77 3d eb 94 c6 bd 1f b3 8f 3d 6e 7c f9 bb
       0.06043676 -0.096963726 0.070165865 -0.00761371
000310 8b eb 1c be d9 22 83 bd 21 fa 8b bd b4 a4 d4 3d
       -0.15324228 -0.06403131 -0.06834818 0.10382977
000320 2d 79 7e 3d fb e6 b6 3d 6d 93 32 3d 28 6e e0 3d
       0.06212728 0.08930775 0.043597627 0.10958511
000330 67 7c 14 be d0 7d a7 bc ab 09 b3 3d 1b 87 1c be
       -0.1450058 -0.020445734 0.087420784 -0.15285914
000340 d4 8b d6 bd a6 7a 08 3d 1c e2 a3 bd df ee 37 be
       -0.10475889 0.03332009 -0.08002111 -0.17962216
000350 de e2 f6 3d e1 71 c0 3d 5b 0e a5 3d ea e5 c8 3d
       0.1205499 0.09396721 0.08059379 0.098094776
000360 43 2d 29 3e 7f 46 56 bd 99 37 0b 3c 1a 1f 71 bd
       0.16521172 -0.052313324 0.008497142 -0.05886755
000370 9f a7 04 be 01 0e 56 bd c9 91 4c bd d1 5b 25 3e
       -0.12954567 -0.05225945 -0.04994372 0.16148306
000380 f4 0e dc 3d 07 40 0e 3e 2f 26 0f bd 80 94 a4 3d
       0.107450396 0.13891612 -0.034948524 0.080361366
000390 32 07 ce bd 81 b0 80 3d ee 23 85 bb b2 9b 10 3c
       -0.10059966 0.062836654 -0.004063121 0.008826183
0003a0 f9 cc 6b bc 9b 3b 13 3e bf 94 c1 3d 7a 71 3a 39
       -0.014392131 0.14378206 0.09452199 0.00017780616
0003b0 95 9d ac bd f0 a5 64 bb e5 64 a7 3d 7e 7a 15 3c
       -0.08428494 -0.0034888946 0.08173541 0.009123443
0003c0 08 93 da 3d e3 7b 0a 3e 89 eb b5 3c be 58 51 3d
       0.10672575 0.13523822 0.022207038 0.05111002
0003d0 25 fb f7 3d 8f bb 13 be 3d f8 0b 3e 51 4a 17 3e
       0.12108449 -0.14427017 0.13668914 0.14774443
0003e0 6b 70 4a 3e 94 e7 df bd e0 12 b3 bb 07 78 f7 bb
       0.19769447 -0.10932842 -0.0054648966 -0.00755215
0003f0 04 3e a4 3d 94 43 c9 bc 77 74 01 be 56 f9 e7 3d
       0.08019641 -0.024568357 -0.12642084 0.11326854

0.model_cnn.layer2.0.bias f4 [32]
000000 44 a2 1b ba 83 f9 46 39 83 b3 b4 3a 87 5c e8 39
       -0.000593696 0.00018975702 0.0013786409 0.00044319427
000010 6e 85 b6 3a a4 c2 73 b9 d6 60 c9 b9 57 3a 8d 3a
       0.0013925263 -0.00023246795 -0.00038409856 0.0010774833
000020 ad 82 69 3a 92 1d d6 37 25 4f 34 39 52 e9 fd 3a
       0.0008907717 2.5524558e-05 0.00017195621 0.0019371903
000030 e4 01 e4 3b d3 e8 1a ba 4c 8d d3 b9 d3 5d 8d b9
       0.006958233 -0.00059093273 -0.0004035033 -0.0002696352
000040 45 7b f3 ba ac 3f 7a 3a e9 11 3e 3a d3 6a b9 b6
       -0.0018576166 0.0009546231 0.00072505936 -5.5258656e-06
000050 f2 5f dc b9 dc ae af ba 88 b8 c8 b8 b0 d6 6d 3c
       -0.00042033155 -0.0013403553 -9.571115e-05 0.0145165175
000060 ca 14 a5 b9 36 02 4d 3a 90 63 a4 39 03 1e af 3a
       -0.00031486741 0.0007820459 0.00031354697 0.0013360385
000070 3e 9e d0 38 55 a1 74 38 8f 2c 09 39 7f ea fb 3a
       9.947688e-05 5.8324385e-05 0.00013081938 0.0019219666

0.model_cnn.layer2.1.weight f4 [32]
000000 9b 0a 83 3f 34 1a 81 3f 26 b6 87 3f 94 88 7f 3f
       1.0237612 1.0086122 1.0602462 0.99817777
000010 42 65 76 3f 29 fe 78 3f ff 8f 89 3f 07 68 6f 3f
       0.9624826 0.9726282 1.0747069 0.9351811
000020 23 03 78 3f 47 64 81 3f ad 90 68 3f ab b3 7d 3f
       0.96879786 1.0108727 0.9084576 0.99102277
000030 44 7b 8d 3f 06 64 73 3f 9c 6e 7c 3f 48 18 75 3f
       1.1053243 0.950745 0.98606277 0.95740175
000040 31 74 74 3f 8f af 82 3f 1d 5f 79 3f d7 e9 7a 3f
       0.95489794 1.0209826 0.97410756 0.9801306
000050 fc 44 81 3f 1e bd 82 3f b0 8a 80 3f 37 43 86 3f
       1.0099177 1.0213964 1.0042324 1.0489262
000060 bc 1e 85 3f 2e e9 76 3f 70 4a 81 3f cd e1 82 3f
       1.0400004 0.96449554 1.0100842 1.0225159
000070 af 8e 84 3f 41 48 7b 3f 50 2d 85 3f 6a 51 7d 3f
       1.0356044 0.98157126 1.0404453 0.98952353

0.model_cnn.layer2.1.bias f4 [32]
000000 a2 86 d7 3c 4a c6 2f bd 68 bd 05 3c eb ea 77 bd
       0.026309315 -0.042913713 0.008162834 -0.06052677
000010 32 6d 52 bd d9 c5 94 bd 8c 3e 80 bb d7 12 84 bb
       -0.051373668 -0.07264299 -0.003913706 -0.004030566
000020 03 4b b3 bd c6 4c ed bc ef d6 17 be 6c cb 36 be
       -0.08754542 -0.028967272 -0.14828084 -0.17851037
000030 10 a6 f5 3c 9a 50 a0 bd e0 22 ef bc e0 16 e0 bd
       0.029986411 -0.078278735 -0.029191434 -0.10941863
000040 9d 97 e0 bc 29 d0 0c be fd d8 39 bd d2 90 14 be
       -0.027416045 -0.13751282 -0.04537295 -0.1450837
000050 33 07 8b bd 00 65 5b 3c 90 b7 88 bd 99 2d 1a be
       -0.067884825 0.0133907795 -0.06675637 -0.15056457
000060 f1 c9 ea bb dd 75 fa bd 53 6b 8d 3d f8 ff 66 3d
       -0.0071651866 -0.12229512 0.06905236 0.056396455
000070 75 67 70 bd 9a 2f c9 bd 2f b4 bc bc 8c 90 0f 3d
       -0.058692414 -0.098235324 -0.023035137 0.03504996

0.model_cnn.layer2.1.running_mean f4 [32]
000000 4a a0 00 bf 1a 1c 24 be fc ea 15 bf f2 bd f6 be
       -0.5024458 -0.16026345 -0.5856168 -0.48191792
000010 ee b5 15 3e 50 0b 13 3f 1e 78 b6 be 83 e4 4a bd
       0.14620182 0.57439137 -0.35638517 -0.049534332
000020 ee af 6f be 26 ed 92 bc a1 aa 07 3e 04 2f 7b 3e
       -0.23406956 -0.017935347 0.13248684 0.24529654
000030 17 0f a6 be a5 b2 98 bc d8 b7 98 be 07 26 bb 3e
       -0.32433388 -0.018639872 -0.29827762 0.3655245
000040 5d 70 13 bd 02 77 19 3e ef e5 9d be 65 83 2a 3e
       -0.03599583 0.14986804 -0.30839488 0.16651686
000050 a9 1d 0c be aa b3 1f be a4 12 f1 3c 6b 97 14 3e
       -0.1368319 -0.1559588 0.029427834 0.14510886
000060 b2 9f 4c be c6 b3 1d 3f a3 f2 82 bd ee 16 60 be
       -0.19982794 0.6160244 -0.063939355 -0.21883747
000070 f4 37 cf 3d f7 45 4f 3d d3 c8 8e be f6 52 18 bc
       0.10118094 0.050603833 -0.27887592 -0.009297123

0.model_cnn.layer2.1.running_var f4 [32]
000000 9d 1e 7f 3e a2 14 b2 3d 30 eb 91 3e 9a 5d 96 3e
       0.24914022 0.08695342 0.28499746 0.29368287
000010 4d 9e 40 3e 6f 42 ac 3e 22 20 84 3e e9 7a 3a 3e
       0.18810387 0.33644435 0.25805765 0.18210949
000020 19 c6 1c 3e ec c3 44 3e 80 6b 9d 3e 74 15 1e 3e
       0.15309943 0.19215363 0.30746078 0.15437871
000030 4e bc 12 3e c1 6e 60 3e e8 b9 54 3e 66 f2 36 3e
       0.14329645 0.2191725 0.20774043 0.17865905
000040 3c 7c f1 3d f3 0e 1e 3e f4 c9 36 3e bd be 05 3e
       0.11791274 0.1543539 0.17850477 0.13061042
000050 e2 a2 3a 3e da 18 62 3e 53 37 65 3e 5d 9f 42 3e
       0.18226197 0.22079793 0.22384386 0.19006105
000060 99 a1 05 3e ff a0 8a 3e 00 81 0a 3e a0 17 02 3e
       0.13049926 0.27075955 0.13525772 0.12704325
000070 09 de 90 3e d5 48 6a 3e 1f 34 61 3e d2 5f a4 3d
       0.282944 0.22879346 0.21992539 0.08026089

0.model_cnn.layer3.0.weight f4 [64, 32, 3]
000000 09 c7 b7 3d ad 84 95 bd 0e 0c 0b 3e 59 28 c5 3c
       0.0897351 -0.073006965 0.13578817 0.02406709
000010 4c ce 63 3d a8 c9 4e bc 58 22 51 be 9b 78 10 be
       0.055616662 -0.012621321 -0.20423257 -0.14108507
000020 31 cc a5 bc 72 8c 2b 3d f3 76 87 3a 99 3d a6 bc
       -0.020238968 0.041881986 0.0010335132 -0.020293044
000030 4c 8c d1 3b fa 4a 68 bd 52 d6 d0 bc 3f d6 84 bd
       0.0063948985 -0.05671213 -0.02549282 -0.06486177
000040 1f f7 07 3d d1 45 2e 3d 85 5d ae bd f9 5c 57 bd
       0.033194657 0.04254705 -0.08513931 -0.0525789
000050 7e 79 7a bd 0a 66 5b bc 93 fb 91 3c 54 7e 83 3d
       -0.06115102 -0.013391027 0.017820155 0.064205796
000060 d3 c4 00 3d eb dd 9c 3d f1 b9 9b 3c bb 84 f9 bd
       0.031437706 0.07659515 0.019009562 -0.121835195
000070 44 6b 54 3d f5 7d d4 bc 6e 01 41 3c 27 1b 27 bc
       0.05186011 -0.025938967 0.011780126 -0.010199345
000080 2b c2 7e 3d 21 22 21 3d 80 23 7e bd 5d f2 da bd
       0.06219689 0.03933919 -0.062045574 -0.106907584
000090 31 ce 1f bd 3f b3 76 bd 0c f7 b8 3d 7f 4e 69 bd
       -0.039015 -0.060229536 0.090314955 -0.056959625
0000a0 b2 0d 04 bd ce db d3 3c 69 bc ae 3c 24 a9 07 bd
       -0.032239623 0.025861647 0.021330075 -0.03312029
0000b0 c0 0f 21 bc 4b f1 3b bd 88 87 c9 bd ad 20 a3 bd
       -0.009830415 -0.04588441 -0.09840304 -0.07965217
0000c0 2d db 87 3d ae 6b 7c 3d 08 da 8e 3d 32 e4 b6 3d
       0.06633601 0.06162613 0.0697518 0.089302436
0000d0 66 4b 29 3d 53 09 a8 3c 83 11 0e 3c ec 77 87 3d
       0.04133167 0.020512259 0.008671167 0.0661467
0000e0 f9 94 5c 3d c0 3f 02 be 17 bc 60 3d 2a 47 26 bd
       0.05385301 -0.12719631 0.054866876 -0.04059521
0000f0 f6 5f db bd b7 b8 b2 bd b7 a1 d5 bd 1d 42 28 3c
       -0.107116625 -0.08726638 -0.10431235 0.010269669
000100 bf 3a 30 bc ef 2f a5 bd 4c 70 0f 3c 45 ed 89 3c
       -0.010756194 -0.08065783 0.008754801 0.016836772
000110 5c ff 1e 3d 04 da 86 3d 63 fd b4 3d 4a 96 ce bd
       0.03881775 0.06584552 0.08837392 -0.10087259
000120 a7 a8 f6 bc e2 23 80 bd ac 96 25 3d b9 1c cd bd
       -0.030109717 -0.06256844 0.040426895 -0.10015244
000130 17 a1 84 3d b5 98 4d 3d ca cb e3 3d 54 1c 3b bd
       0.06476038 0.05019446 0.11122854 -0.045681313
000140 b6 34 dd 3d 2a b2 85 3d 96 6d 58 bc 3c 71 24 bd
       0.108010694 0.06528123 -0.013209721 -0.04014705
000150 ae 99 d6 bd 89 2a 80 3c b8 f2 73 bd 4a 55 65 bd
       -0.10478531 0.015645282 -0.059557647 -0.05598954
000160 42 0c 36 3d b0 22 8a bd 93 18 e8 3c ed cf c5 3c
       0.044445284 -0.06744897 0.02833203 0.024146998
000170 53 0f 89 bd ba 8e ca 3d e5 cc f4 bc 97 17 2c bc
       -0.06692376 0.09890504 -0.029882858 -0.010503671
000180 74 11 06 3d 88 58 79 bd 87 49 c7 bd 83 4f 88 bd
       0.03273149 -0.060875446 -0.09730821 -0.06655791
000190 6f 25 1d 3d 24 93 c4 bc 70 a2 1e 3d 9e 89 81 3d
       0.038365778 -0.023995943 0.03872913 0.063250765
0001a0 9f c2 ee 3d 15 cd 8a 3b 5f 31 4f 3d e7 0d 34 3d
       0.11658215 0.0042358735 0.050584193 0.04395857
0001b0 72 b3 ef bd 83 c3 37 3d 48 16 1e 3d e8 93 16 3d
       -0.11704148 0.04486419 0.038595468 0.03676215
0001c0 29 ac 54 3d aa 43 c1 bd 32 50 e8 bd e8 69 d4 3b
       0.051921997 -0.09436734 -0.11343421 0.0064823516
0001d0 81 54 d1 bc eb 42 e8 3d d3 31 b3 bd 2b 33 0f bd
       -0.02555299 0.113408886 -0.087497376 -0.034960907
0001e0 d7 b9 cc 3d cd ba f4 bd c3 c9 87 bd bd c4 9e bd
       0.09996384 -0.11949692 -0.0663028 -0.077523686
0001f0 59 ce bd bd 7a d9 e2 bc 19 c0 64 3c 0a 4a 86 bd
       -0.09267873 -0.027691592 0.013961815 -0.065570906
000200 13 9b f0 bc d5 a1 95 bd a5 fe d5 ba a1 00 31 bd
       -0.02937082 -0.07306258 -0.00163265 -0.04321349
000210 20 ea 42 be 00 07 ec bd f3 bd b7 bd 09 e6 7a 3c
       -0.19034624 -0.11524773 -0.08971777 0.015313634
000220 39 12 92 bc 4e d6 f8 3d e3 01 4a 3d f5 1c 11 be
       -0.017830955 0.121502504 0.049318206 -0.14171202
000230 cd c0 db bc 74 72 85 bc 0d 66 cb 3d c5 b6 6f bd
       -0.026825333 -0.016289927 0.09931574 -0.058523912
000240 5a a0 dc bb b8 8f 04 be 16 10 e4 bd 61 8a c0 bc
       -0.0067329826 -0.1294545 -0.11135881 -0.023503484
000250 82 0e 25 3d 64 46 ca 3d 69 65 b7 3d e8 2d ad 3c
       0.04029704 0.09876707 0.08954889 0.021140054
000260 01 33 5b 3c e5 ed cb 3d 51 14 e3 3b a0 79 32 3c
       0.0133788595 0.09957484 0.006929912 0.0108932555
000270 56 57 c0 3c a7 ae b4 bd 88 9c 14 3e 59 41 29 be
       0.023479145 -0.08822375 0.14512837 -0.16528834
000280 43 98 db bd aa b4 37 bd 92 55 4f 3c ba 36 46 bd
       -0.10722401 -0.04485003 0.012654679 -0.048392035
000290 79 1e 02 bd c8 52 97 bd b3 53 09 bd ff 82 5e 3d
       -0.031767342 -0.07388836 -0.033527087 0.054324146
0002a0 61 d2 2a 3d c4 30 11 bc 39 fa d6 bc 5a 95 01 bc
       0.04170454 -0.008861724 -0.026242362 -0.007909143
0002b0 0f 49 36 3b a4 66 04 bd f0 3c 09 be 7d 06 fe bd
       0.0027814542 -0.03232445 -0.13402152 -0.12403581
0002c0 73 3b 9e bd d0 76 a6 bc 85 70 46 bd e0 7c 23 bd
       -0.07726183 -0.020320326 -0.04844715 -0.039914012
0002d0 16 8c 8b bd df 94 65 3b 14 f8 8b bc 88 3a 8e bb
       -0.06813829 0.003503136 -0.017086066 -0.0043404736
0002e0 22 cb 8f bd ba f1 b7 bd 20 9c b0 bd 8d cd 65 3d
       -0.070211664 -0.089816526 -0.086235285 0.05610423
0002f0 e9 a2 74 bc dd d0 d4 bd ad 11 fc bd e1 b7 9d bc
       -0.014931419 -0.103914 -0.12308059 -0.01925272
000300 4f 53 ba bd 97 c8 73 bb e4 fc 9d bd 25 93 41 3d
       -0.09097921 -0.0037198418 -0.07714251 0.04725947
000310 62 fb 28 bd a5 d2 83 bd d0 65 d4 3d 55 73 94 3d
       -0.041255362 -0.06436662 0.10370982 0.0724856
000320 7d 82 93 3d 5f 1b 13 bd 01 2b 05 3d a3 dd 39 3b
       0.07202623 -0.035914775 0.032511715 0.0028360866
000330 94 e9 86 bc 8f 85 42 bd a2 f1 1d be 52 72 bd bd
       -0.0164688 -0.047490653 -0.15424207 -0.092503205
000340 e6 db 0c 3b 95 dd 50 3d 23 18 c3 bd 65 89 cd bd
       0.0021493374 0.050992567 -0.09526088 -0.100359716
000350 65 3a 29 bd d2 65 b4 bb 47 ef 9d bc 3a a0 d6 bc
       -0.041315455 -0.005505302 -0.019279135 -0.026199449
000360 ca 0d 36 bd bc b5 27 3d ab 23 1f be 25 ba 03 bd
       -0.044446744 0.0409448 -0.1554095 -0.032159943
000370 85 bd 0b be 36 15 44 be 66 03 1d 3d 52 6d 4e bd
       -0.13646515 -0.19148716 0.03833332 -0.050397225
000380 57 6f 53 3d 06 a2 6f bd c4 49 a5 bd 33 d0 9c 3d
       0.051619854 -0.058504127 -0.0807071 0.07656898
000390 2e 42 8e bd 00 53 33 3c c7 47 2c 3b ff ee c0 3d
       -0.069462165 0.010945082 0.00262879 0.09420585
0003a0 93 9b 2f bd 7e cc a3 bc f7 9e 21 bd d8 71 71 bd
       -0.042872977 -0.01999497 -0.03945824 -0.05894646
0003b0 01 b3 b3 3a 13 40 11 3d d5 c5 0c be 9f 7c 91 bd
       0.0013709964 0.035461497 -0.13747342 -0.07103848
0003c0 52 56 fc bd 1f 26 b2 bd a8 75 f3 3c 90 e1 b9 3b
       -0.12321152 -0.08698677 0.029719189 0.005672641
0003d0 77 e6 3a bd 2c 18 61 3b 93 df 17 3c 4b 4a 87 bd
       -0.045629945 0.0034346683 0.009269613 -0.06605967
0003e0 d2 16 77 bd 01 07 40 3d 92 72 0a be 03 39 47 3d
       -0.060324498 0.04688168 -0.13520268 0.048638355
0003f0 8e 3a e9 b9 db 1c b4 bd c2 79 45 bd a7 f2 24 3d
       -0.0004448485 -0.08794566 -0.04821182 0.040270474

0.model_cnn.layer3.0.bias f4 [64]
000000 3a 45 f6 b9 e0 d0 dd 39 39 b7 19 3a 02 52 44 38
       -0.00046972354 0.0004230803 0.0005863789 4.6806417e-05
000010 92 88 be b8 56 d9 95 39 0a ef 9d b6 d3 5b 95 39
       -9.085344e-05 0.00028581423 -4.7067924e-06 0.0002848791
000020 50 0e 0c b9 f5 34 3f b9 a4 23 53 ba a6 9d 9c b8
       -0.00013356772 -0.00018234907 -0.0008054322 -7.468024e-05
000030 1a 18 35 ba 57 89 1e b9 25 7e 30 b9 b0 5f b8 37
       -0.00069081935 -0.00015119217 -0.0001683166 2.1979067e-05
000040 15 76 9d 39 f2 c5 53 39 58 93 27 b8 b9 4b 3c 38
       0.00030033352 0.00020196268 -3.9953127e-05 4.4893215e-05
000050 98 f9 d3 b8 54 cd f4 39 21 84 ac b8 f0 cf 60 3a
       -0.000101077545 0.00046692288 -8.22621e-05 0.0008575907
000060 fe 37 06 39 08 72 95 39 0f b2 9b 39 e8 71 ad b8
       0.00012800095 0.00028504455 0.00029696568 -8.2704995e-05
000070 46 2d 89 b8 74 36 d2 38 1a 47 4d b9 1a e7 e3 b8
       -6.541102e-05 0.00010023723 -0.00019576811 -0.000108672495
000080 bf ae 0d 39 19 7b 28 ba b0 c1 09 ba db 3b e3 b8
       0.00013511906 -0.00064270344 -0.0005254997 -0.000108353524
000090 10 05 eb 38 fb a1 08 39 b8 d9 34 38 74 4c ad b8
       0.00011206616 0.00013030313 4.311811e-05 -8.263523e-05
0000a0 93 7b 6c 3a 7c da cc 38 0e 4a 5f 39 2a 7c 03 ba
       0.00090210995 9.768174e-05 0.00021294525 -0.00050157553
0000b0 c9 65 59 3a e3 d3 1e b7 fa 27 88 38 31 52 8c 39
       0.000829306 -9.466868e-06 6.4924316e-05 0.00026764118
0000c0 fe 84 a1 b9 f8 14 e7 b9 4a d7 d4 b8 cf 51 4d ba
       -0.000308074 -0.00044075376 -0.000101490485 -0.000783232
0000d0 c2 83 d3 36 c9 89 19 38 1a 61 fc 38 35 14 4a b9
       6.3036287e-06 3.6606365e-05 0.00012034383 -0.00019271749
0000e0 0d be ae b9 c2 33 11 3a b2 c4 ae 39 a6 d9 08 3a
       -0.00033329465 0.00055390236 0.00033334416 0.00052204204
0000f0 44 74 95 37 f2 48 f3 b7 55 82 e2 39 37 97 1c ba
       1.7816325e-05 -2.9001825e-05 0.00043203184 -0.00059734605

0.model_cnn.layer3.1.weight f4 [64]
000000 30 f0 7e 3f 93 e0 85 3f 0c 99 82 3f c0 4e 82 3f
       0.9958525 1.045916 1.0202956 1.0180283
000010 c7 af 79 3f c1 ac 74 3f b3 90 65 3f 8b d5 81 3f
       0.9753384 0.955761 0.8967392 1.0143293
000020 15 b0 7b 3f e6 8f 6d 3f 34 99 84 3f 54 cb 81 3f
       0.98315555 0.92797697 1.0359254 1.0140176
000030 77 2a 83 3f b9 bd 7d 3f 05 4a 86 3f ae 00 68 3f
       1.0247334 0.9911762 1.0491339 0.9062604
000040 51 08 78 3f 0b 88 77 3f 99 5e 82 3f 6a b2 76 3f
       0.9688769 0.9669196 1.0185119 0.9636599
000050 9d 08 72 3f 8c b7 7b 3f 28 f7 78 3f 9a 21 84 3f
       0.9454439 0.98326945 0.9725213 1.0322754
000060 72 49 81 3f 41 f4 7c 3f 67 b9 87 3f 82 ce 7d 3f
       1.0100539 0.988102 1.0603455 0.9914323
000070 8f c1 7c 3f d1 2d 75 3f 85 c5 88 3f 1c 65 80 3f
       0.98732847 0.95773035 1.0685278 1.0030856
000080 b8 d4 72 3f eb 2a 81 3f cf ca 7f 3f 6b bc 6e 3f
       0.94855833 1.0091223 0.99918836 0.93256253
000090 0e 24 86 3f 35 d3 7f 3f 56 18 77 3f 52 2a 7e 3f
       1.0479753 0.9993165 0.9652151 0.99283326
0000a0 87 68 7b 3f ef 66 74 3f 16 fa 7e 3f c3 5b 8c 3f
       0.9820637 0.95469564 0.9960035 1.0965503
0000b0 2c 51 85 3f aa 70 80 3f d8 c8 7f 3f fe fa 77 3f
       1.0415397 1.0034382 0.9991584 0.9686736
0000c0 5a ea 83 3f fd a1 80 3f 62 6e 83 3f bb 1e 86 3f
       1.0305893 1.0049435 1.0268061 1.0478128
0000d0 6a 16 71 3f d3 40 80 3f bd cf 7c 3f 6a 16 81 3f
       0.94174826 1.0019783 0.98754483 1.0084965
0000e0 69 71 7e 3f a1 f7 83 3f a4 b2 82 3f bf 41 71 3f
       0.993918 1.0309945 1.0210767 0.94240946
0000f0 37 aa 7b 3f ad 12 6d 3f 54 46 80 3f 2b f1 81 3f
       0.983066 0.9260662 1.0021462 1.0151724

0.model_cnn.layer3.1.bias f4 [64]
000000 32 2a 5d bb 8f e6 80 3d 44 7f 2e 3d bb a2 11 be
       -0.0033747074 0.062939756 0.04260184 -0.14222233
000010 7b 2e 1e be 7b b7 7c bd 7e ea f9 bd 62 85 e5 bd
       -0.15447418 -0.061698418 -0.12202929 -0.112070814
000020 fb 2d cb bc 95 20 ef bd b0 ac d2 bd b3 fc 45 bd
       -0.024802199 -0.116761364 -0.10286844 -0.048336696
000030 03 65 bb 3c ef d8 0b be 21 20 91 bd a7 ee 39 be
       0.022875315 -0.13656972 -0.07086206 -0.18157445
000040 de 6c 9e bd de 86 02 be ae 07 53 bd 1b e0 4f be
       -0.077356085 -0.1274676 -0.051520996 -0.20300333
000050 ac e1 bb bd 45 38 ec bd 1a d6 04 be 8a b5 f1 3c
       -0.09173903 -0.1153417 -0.12972298 0.02950551
000060 d4 3e c5 bd de 7a d3 bd da 5a 22 bd 4a 9a c1 bd
       -0.09631124 -0.103261694 -0.039637424 -0.094532564
000070 92 87 4b bc 3e 6c c9 bd 51 4d d9 3c 51 f5 a8 b8
       -0.012422459 -0.09835099 0.026526125 -8.056558e-05
000080 b6 c2 a8 bd 6f 65 b5 bd 95 ca 87 3c 18 07 1f be
       -0.08240263 -0.088572375 0.01657609 -0.1553005
000090 33 95 84 3d bc f3 2d 3c f7 4f 53 be ec 98 9f bd
       0.0647377 0.010617193 -0.20635973 -0.077928394
0000a0 53 6f 8b bd 37 26 11 be 86 9a a6 bc ea 0c 14 be
       -0.06808343 -0.14174734 -0.020337354 -0.14458051
0000b0 57 1e e7 bc 5e 40 03 be c7 db f3 bd 50 5d 31 bd
       -0.02821271 -0.12817523 -0.119071536 -0.04330188
0000c0 25 48 5e bd a0 03 7d bd 04 f7 13 3d fb f6 bd bc
       -0.05426802 -0.061771035 0.036124244 -0.023189059
0000d0 4f cb 2f be 4a 44 04 be 59 c7 5e bc e0 82 19 be
       -0.171674 -0.12916675 -0.013597333 -0.14991331
0000e0 f6 59 b8 bd fb bb 41 be 9b e8 32 be 9c fd df bd
       -0.09001534 -0.18919365 -0.17471544 -0.10937044
0000f0 4f e4 52 be 6a f7 1f be 9d 54 ed bd 47 49 2a be
       -0.20594905 -0.15621725 -0.11588404 -0.16629516

0.model_cnn.layer3.1.running_mean f4 [64]
000000 73 eb 8b be fb 8e 9b bf a8 07 cb bf 15 09 93 be
       -0.2732807 -1.2153009 -1.5861712 -0.28717867
000010 7b 1f 72 3f ca e5 8e bf e0 1a 49 bd 5a 50 3e 3e
       0.94579285 -1.1163876 -0.049097896 0.18585339
000020 fb 2e 31 be 6e 1e 0b 3f 58 21 d8 be 0a a0 e8 3c
       -0.17303078 0.54343307 -0.4221294 0.028396625
000030 81 22 ac bf 60 75 62 3e 5a 0d 36 bf 80 e2 a2 3d
       -1.344803 0.22115088 -0.7111412 0.07953358
000040 08 2f e6 3e 37 26 5a 3f eb eb a2 3d 71 bc 42 3f
       0.44957757 0.8521456 0.07955154 0.7606879
000050 47 9b 69 be d6 d8 0f bf 7c 6c c4 be e9 28 6f bf
       -0.2281314 -0.5619024 -0.38364017 -0.934218
000060 29 12 13 3f d0 7b f3 3e bf af 31 bf 33 f4 01 3f
       0.57449585 0.475554 -0.6940879 0.50763243
000070 fb fd 6b bf 47 91 06 3e 3e dd b1 bf ce 22 44 bf
       -0.9218442 0.13141356 -1.3895643 -0.7661561
000080 dc a5 2c be 35 65 10 bf eb 26 84 be 60 e9 4e 3f
       -0.16860145 -0.5640443 -0.25810942 0.8082485
000090 56 c1 d8 bf 9d 8b 3a be 4e 34 ce 3d de 4c 74 be
       -1.6934001 -0.1821732 0.1006857 -0.23857448
0000a0 c1 b0 1a be 45 76 38 bd f4 ea 08 bf 87 11 06 3f
       -0.15106489 -0.045034666 -0.5348351 0.52370495
0000b0 37 38 42 3e 40 5b 1e be 3d 24 1d bf 06 44 4d 3f
       0.18966757 -0.15464497 -0.6138342 0.8018192
0000c0 38 47 4b bf c3 3d 12 bf eb c6 7d bf 78 29 49 3e
       -0.79405546 -0.5712549 -0.9913165 0.19644725
0000d0 39 fd 42 3f 04 a9 ea 3d 07 31 4b bf 1e c7 88 3e
       0.7616764 0.114580184 -0.79371685 0.26714414
0000e0 70 00 ed be ad cb 8c be 24 b0 43 3e 74 b2 b9 3e
       -0.46289396 -0.27499142 0.19110161 0.3626896
0000f0 63 b9 3c 3f 91 ca 45 3d af f6 62 3e f8 15 22 bf
       0.7372038 0.048288886 0.22164415 -0.6331477

0.model_cnn.layer3.1.running_var f4 [64]
000000 1c a9 67 3e cf e6 f5 3e 83 c7 4a 3f bb 5f a4 3e
       0.22623104 0.48027655 0.7921068 0.32104287
000010 66 af 07 3f 28 be 5e 3e 89 f2 c1 3e ca 81 8a 3e
       0.5300201 0.21752226 0.37880352 0.27052146
000020 1e 74 0e 3f f0 6e c0 3e 6b d7 a9 3e 02 bc a6 3e
       0.5564593 0.3758464 0.33172163 0.32565314
000030 c5 13 a6 3e 14 b5 c2 3e 75 53 7a 3e c4 ee a7 3e
       0.32436958 0.38028777 0.24445899 0.3279935
000040 f6 25 b0 3e 25 91 07 3f 66 e8 10 3f 46 0f ca 3e
       0.34403962 0.5295585 0.5660461 0.39464778
000050 ab 2b cb 3e 09 bd 5f 3e c8 d1 b2 3e ad b5 04 3f
       0.39681754 0.21849455 0.34925675 0.51839715
000060 54 1e 79 3e e4 29 af 3e 20 bd d6 3e 28 1f a1 3e
       0.24327976 0.34211648 0.41941166 0.31469083
000070 06 20 05 3f a7 b5 ba 3e ed 0a 9e 3e 03 44 18 3f
       0.5200199 0.36466715 0.3086771 0.5947878
000080 74 84 91 3e 39 2d a6 3e 13 f3 15 3f f0 3f 27 3f
       0.28421366 0.32456377 0.58574027 0.65331936
000090 3d 45 19 3f 8a 27 56 3e 8a ae cc 3e 8f bc a6 3e
       0.59871274 0.2091352 0.39976913 0.32565734
0000a0 06 a4 eb 3e c2 b5 98 3e 69 30 e0 3e 84 e3 6d 3e
       0.46023577 0.2982617 0.43786934 0.23231322
0000b0 3c 4b bc 3e b0 76 bb 3e 26 48 94 3e 4b fd 02 3f
       0.3677615 0.3661399 0.28961295 0.51167744
0000c0 ce d1 3b 3e 27 c1 99 3e 68 80 d4 3e 4c 46 ab 3e
       0.18341753 0.30030176 0.41504216 0.3345207
0000d0 83 95 b8 3e 59 ef 9f 3e 6a 3d b7 3e 77 73 61 3e
       0.36051568 0.31237295 0.35789043 0.22016703
0000e0 d2 b8 a1 3e de 47 89 3e a1 03 3f 3e b4 c7 8d 3e
       0.3158632 0.26812643 0.18653728 0.27691424
0000f0 d8 7f e1 3e 83 55 d4 3e 78 7e 8e 3e 6f 67 38 3e
       0.4404285 0.4147149 0.27830863 0.18008207

0.model_cnn.layer4.0.weight f4 [128, 64, 3]
000000 45 4c 71 3d ec 9a bb 3d 5d e4 16 3b bf 18 50 3b
       0.058910627 0.091604084 0.0023024299 0.003175303
000010 ce 1f 9d 3d 8c 81 48 3d 9b 72 32 3d be 68 47 bc
       0.07672082 0.04895167 0.043566328 -0.012170969
000020 b8 91 87 3b 42 30 5d 3d 3a 7c 93 3d b3 33 0f 3d
       0.004137244 0.0540011 0.07201429 0.034961414
000030 9f 12 bd 3d b9 a4 c8 3d df f0 32 3d 88 3f 0b bd
       0.09232067 0.09797043 0.043686744 -0.033996135
000040 85 75 66 3c 66 e6 64 3d 97 3b 4c bc a2 80 d3 bc
       0.014066105 0.055883788 -0.012465379 -0.025818173
000050 5f 72 88 3d de 22 9c bc 4c 0e 92 3b ec bd 7d 3d
       0.066624396 -0.019059595 0.0044572707 0.0619487
000060 36 e2 5a 3d c1 ab fb bb 2d 4d 10 3d 64 02 29 3c
       0.053438388 -0.007680387 0.03522985 0.010315511
000070 32 56 4e 3d 5b 58 5c bd 6e 96 58 b9 0f 19 a1 3c
       0.05037517 -0.0537952 -0.00020655405 0.01966527
000080 03 ae 4c 3d a5 62 41 bd f3 39 94 3c 1c 6c b1 bc
       0.049970638 -0.047213215 0.018094039 -0.021657996
000090 ac c1 9e 3d 21 74 99 bc c2 f3 f1 3d f2 28 45 3d
       0.07751784 -0.018732132 0.11814071 0.04813475
0000a0 01 3a ad bd c4 4c 4a bd 66 6d 7d bd 82 13 16 3d
       -0.08458329 -0.049389616 -0.06187191 0.036639698
0000b0 18 73 86 bd 2e 91 89 3c 58 ae 09 bd 68 0c 80 3d
       -0.06564921 0.01679286 -0.033613533 0.06252366
0000c0 30 f4 4f 3c b5 4e 95 3c 42 41 83 bd d3 64 fe 3d
       0.012692496 0.018226007 -0.06408931 0.124215744
0000d0 cf 8b 01 3c a3 0f cd 3c b4 17 02 3d 20 b5 03 bd
       0.007906868 0.02503187 0.031760886 -0.032155156
0000e0 8c e7 b6 bb 5e 73 bd 3d 59 b4 93 3d 55 b1 00 3d
       -0.0055818018 0.0925052 0.07212133 0.031419117
0000f0 36 52 7e 3d 5b 13 03 3d fc ee d2 3d 4a 2c 9f 3c
       0.06209012 0.03200088 0.10299489 0.019430298
000100 d4 b5 01 3e fc bd 5c 3c c9 e8 d0 3c 76 72 54 bd
       0.12667018 0.01347303 0.025501626 -0.05186697
000110 00 5a 2d 3c 9b fd 83 3d dd be 86 3d 93 18 0b 3a
       0.01058054 0.06444856 0.06579373 0.0005306091
000120 f0 e1 9f 3d eb b4 16 3d bd 5b fe 3d 26 41 92 bd
       0.07806766 0.03679363 0.124198414 -0.07141332
000130 c6 8e 6a bd 54 44 c3 bc a6 a3 16 3d 9e a9 24 3b
       -0.057265066 -0.023836292 0.03677716 0.0025125514
000140 93 e6 7f 3d 5a 78 9b 3d ce 00 e0 3d 54 64 f3 3d
       0.062475752 0.075913146 0.109376535 0.118843704
000150 f4 30 f0 3a bc 38 a0 3c a5 be e6 3d 26 c6 1c bd
       0.0018325136 0.019558303 0.11266831 -0.038274907
000160 58 6c 5a bd 8c c6 80 bd c7 a1 d0 3d c7 5f e5 3c
       -0.05332598 -0.0628787 0.101871066 0.027999772
000170 7e a7 c3 3b 25 30 4b 3d 22 75 74 3d bf 2f 33 bd
       0.0059708944 0.04960646 0.05968202 -0.043746706
000180 ac b7 ea 3c de 15 8c 3c d6 02 97 bc 92 41 46 3d
       0.028652035 0.01710027 -0.01843397 0.048402376
000190 9b b6 bd 3d 68 b2 5a bc 71 d4 82 3d 11 17 12 bd
       0.09263345 -0.013348199 0.06388176 -0.03566653
0001a0 dc 66 78 3d fe 81 d7 bc 5c 92 f4 bb 73 fc 85 bc
       0.06064497 -0.026307102 -0.0074637365 -0.016355729
0001b0 f5 f5 c2 3d 8f c0 ff 3d 8b 1c bf 3d d0 cb cd bc
       0.09519569 0.124878995 0.09331616 -0.0251216
0001c0 a8 52 da bc 28 19 0b 3c fe 05 93 3d da 02 da 3c
       -0.026650742 0.008489884 0.07178877 0.026612688
0001d0 e9 85 1f 3c 6b a0 f5 3a 13 4c 51 3d 86 5d 77 3d
       0.0097365165 0.0018739825 0.05109794 0.060391925
0001e0 e3 8d 1a bd 9f 90 8a bd 28 28 41 3d df bd b0 bc
       -0.03773297 -0.067658655 0.047157437 -0.021574913
0001f0 d7 e7 33 bc f8 13 55 3b d7 6f 66 38 d2 81 0f 3e
       -0.010980568 0.0032513123 5.4940432e-05 0.14014366
000200 e5 23 8d bd 4c 1e b9 3c a0 71 f2 bd b5 b6 e7 b9
       -0.06891612 0.022597454 -0.118380785 -0.0004419588
000210 48 b6 41 3d e7 27 8b 3d 85 8a 4f bd 38 26 12 bb
       0.047292978 0.0679472 -0.050669212 -0.0022300612
000220 a1 3a f9 3d 55 2e 05 3e a2 a8 f3 3c 71 6a 74 3b
       0.12169386 0.13005956 0.029743496 0.003729489
000230 82 f1 7e 3d cf 90 0b 3d 1b 03 91 bd 3c 9b cb 3c
       0.06224204 0.034073647 -0.070806704 0.024854295
000240 51 ff 9e bc a5 68 9a 3d ca df 73 3c a8 28 21 3d
       -0.019408854 0.075394906 0.014884898 0.039345413
000250 16 09 91 3b bf a7 6e 3c 19 9e a9 3d b1 27 6e 3d
       0.004426132 0.014566361 0.08282108 0.05814332
000260 d8 37 9e 3d 44 53 0c 3b b7 96 60 bd 90 da 3d 3d
       0.07725495 0.0021411935 -0.054831233 0.046351016
000270 c5 47 16 3d 9a 22 37 3d 8b c3 2c 3d 7f 32 98 3d
       0.03668954 0.044710733 0.04217867 0.07431506
000280 48 eb 0d bd 01 87 87 3d 44 12 00 3d dc 42 e4 3a
       -0.03464821 0.06617547 0.03126742 0.0017414945
000290 44 c6 3c bd ac 89 32 bd 6f 71 6d 3c 40 3f 14 3c
       -0.04608752 -0.043588325 0.014492377 0.009048283
0002a0 05 07 b9 bd 0a a5 8e bc 68 49 75 3b b3 c5 92 bc
       -0.09034542 -0.017412681 0.0037427787 -0.017916536
0002b0 9b 7c 2d 3d 8b 43 83 3d 97 6e c4 bd 5f 53 9f bd
       0.04235516 0.06409367 -0.09591406 -0.07779574
0002c0 ab 8b db 3c e9 84 02 bd d8 90 40 3b 89 e8 6a 3d
       0.026799997 -0.031865034 0.0029383209 0.05735067
0002d0 6e 6d 90 3d 39 58 3a 3d ef 9a ff 3b 4a 6c 4c 3d
       0.07052122 0.045494292 0.007800452 0.04990796
0002e0 73 8e 4f bd f2 87 9d bd 26 58 16 3d 82 91 04 3d
       -0.05067296 -0.07691945 0.03670516 0.03236533
0002f0 ed 54 f0 bb 38 0b 5d bd cb 5a f4 bc 2e 21 ab bc
       -0.0073343427 -0.053965777 -0.02982845 -0.020889845
000300 08 af 67 3d 09 c8 95 3b 24 20 8f 3c 7b 45 44 bd
       0.056563407 0.004570965 0.01747138 -0.047917824
000310 a1 bd b0 bc 27 d7 4e 3d a7 7d 9e 3d 49 85 49 3c
       -0.021574797 0.050498154 0.0773881 0.012299844
000320 08 a0 2f 3c 3d 19 81 bd 05 60 53 3c 3d 2d 1f bc
       0.010719307 -0.06303642 0.012901311 -0.0097153755
000330 47 e4 f9 bc f2 29 2e 3d 70 9e 6e 3d e5 74 1a 3d
       -0.030504359 0.04252047 0.058256567 0.037709136
000340 23 65 2d 3d 04 43 ca 3d aa dc 3a bd f1 db 8c 3c
       0.04233278 0.098760635 -0.045620598 0.01719472
000350 f2 c9 73 3c 71 4e 39 bc ce fa 0f bd 0f 5e 5c 3b
       0.0148796905 -0.011310206 -0.035151295 0.00336254
000360 39 cf b0 3d 24 94 ed 3d 45 ea c4 3a 1c f7 1e bb
       0.086332746 0.11600521 0.0015023431 -0.0024256175
000370 e9 55 81 3d 26 9e 2a bd 1e d8 3e bd cc bb fe bc
       0.06315214 -0.04165473 -0.046592824 -0.031095408
000380 3e f1 a5 bd 32 49 d5 bc da 10 84 bb b9 14 2e bd
       -0.08102654 -0.026035879 -0.004030329 -0.04250023
000390 31 ee a7 3c 8b 95 ac 3d d1 44 08 3e b7 27 47 bd
       0.02049932 0.084269606 0.13307501 -0.04862186
0003a0 3d fe 80 3b 19 a9 22 bc 58 25 b8 bc e6 38 28 bc
       0.0039365576 -0.009928011 -0.022478744 -0.010267472
0003b0 d5 0a 09 bc a6 e6 8e 3d 24 58 e5 bc 46 6b 01 bd
       -0.008364399 0.069775864 -0.02799613 -0.031596445
0003c0 ee 12 73 3c 62 99 e3 3b 8b 41 52 bc e9 ed 7a bb
       0.014836056 0.006945775 -0.0128330095 -0.0038288778
0003d0 b3 01 72 3d 52 02 af 3d 8d 0c b5 3b c9 5f 4d 3d
       0.05908365 0.085453644 0.005525178 0.050140176
0003e0 98 b0 bf 3d b4 ee e7 bc 70 b4 56 bd e4 40 33 bd
       0.093598545 -0.028312065 -0.052418172 -0.043763056
0003f0 d3 c6 70 3d 3d 84 1e 3d da 76 73 3d e8 38 90 3d
       0.058783364 0.03870033 0.059439518 0.07042104

0.model_cnn.layer4.0.bias f4 [128]
000000 0e ad cf b7 b7 9c a7 38 36 40 45 38 3f e9 8b 37
       -2.4756908e-05 7.992371e-05 4.702826e-05 1.6678705e-05
000010 4c 68 fb b6 4f 21 45 37 9c 1b e8 b8 aa 35 d7 38
       -7.4925247e-06 1.174987e-05 -0.00011067765 0.000102619946
000020 52 f3 29 b9 8e fc a9 36 be e1 1a 39 c8 8d 0c ba
       -0.0001620774 5.0659937e-06 0.0001477068 -0.0005361703
000030 d9 1c b9 39 85 50 5f b9 19 4d 3b 39 1a 03 5a b8
       0.00035307443 -0.00021296933 0.00017862431 -5.197814e-05
000040 6d 79 97 37 ce 84 54 39 73 7d 34 ba c3 44 31 b7
       1.8057146e-05 0.00020267369 -0.00068851485 -1.0566032e-05
000050 fe 6e 6b 38 d4 e8 cb b7 94 86 96 36 10 a9 01 b8
       5.6131736e-05 -2.4307905e-05 4.4860153e-06 -3.091345e-05
000060 5b 89 b8 b7 4a 32 98 b8 aa fc 49 b8 b8 cc 4a b9
       -2.199847e-05 -7.257292e-05 -4.8157446e-05 -0.00019340485
000070 a5 36 4e 39 ab ee 34 39 0a b0 9a b8 53 a9 6c 38
       0.00019666048 0.00017255048 -7.376082e-05 5.642448e-05
000080 25 22 e9 b8 e7 54 93 b9 b7 f0 d6 b7 8e 6d da 38
       -0.00011116666 -0.00028101282 -2.562288e-05 0.00010415456
000090 b0 9c fe b7 47 93 ec b8 83 dc ef b8 b0 7a 88 b8
       -3.0352123e-05 -0.000112807895 -0.000114374816 -6.507838e-05
0000a0 3f e0 b4 37 ce 78 99 38 7e e4 ba b8 ba 16 14 b7
       2.1562095e-05 7.31811e-05 -8.911731e-05 -8.826779e-06
0000b0 01 03 d8 b7 8c f5 2c b7 3a e5 39 b8 2c 1c 84 b8
       -2.5750605e-05 -1.030917e-05 -4.432092e-05 -6.299498e-05
0000c0 c6 64 3e 39 44 ee 9f b8 93 7d 92 b7 96 bf c7 38
       0.00018157353 -7.626091e-05 -1.7463031e-05 9.524745e-05
0000d0 9d bf b7 b8 34 7c c6 38 8c 12 8a b9 03 48 21 39
       -8.761811e-05 9.4645104e-05 -0.0002633523 0.00015380983
0000e0 5a 46 80 37 68 54 a4 b8 d8 d3 f0 37 84 98 47 38
       1.5291549e-05 -7.835851e-05 2.8708877e-05 4.758734e-05
0000f0 2b 5f c4 b8 eb 86 3f 37 35 ca a2 b9 55 ac d3 37
       -9.363735e-05 1.14159e-05 -0.00031049704 2.5233408e-05
000100 ff f8 9f b8 94 5f 13 b9 e4 8a 8d 39 42 af a0 38
       -7.62809e-05 -0.00014054618 0.00026997097 7.662039e-05
000110 50 eb 2e 39 79 ef 77 b8 7e 22 de 37 ed 68 83 38
       0.00016681594 -5.9112415e-05 2.6480524e-05 6.266111e-05
000120 0c e5 53 b9 4a a0 0f 38 f4 eb 74 38 64 2e b3 39
       -0.00020207855 3.4243138e-05 5.839388e-05 0.00034176104
000130 c1 76 69 b9 40 fb ae b9 85 93 1e b8 ef cf 65 b8
       -0.00022264851 -0.00033375062 -3.7807524e-05 -5.4791508e-05
000140 4c 6b 18 38 65 b2 8f b7 a3 af 84 39 ff db 54 37
       3.6339552e-05 -1.713e-05 0.00025307862 1.26874065e-05
000150 1a 00 0b b8 71 04 4f 37 7d 93 43 b7 9d 07 9d b7
       -3.3140277e-05 1.2339196e-05 -1.16572455e-05 -1.8719404e-05
000160 a1 09 a3 b8 96 49 40 b8 e7 4a a8 38 d8 aa 3c b9
       -7.774239e-05 -4.58449e-05 8.024816e-05 -0.00017992721
000170 c0 70 fd 37 8c c0 b2 b9 cc d3 15 b7 9c b5 1c 38
       3.0212454e-05 -0.00034094264 -8.930405e-06 3.7362435e-05
000180 c8 4d 1a b8 41 6c 07 b8 2d b8 5b b8 8e f2 88 39
       -3.67889e-05 -3.2287327e-05 -5.2385196e-05 0.0002612066
000190 7b 3e 2a b8 de c9 20 b9 6c e2 0a b9 81 e8 03 37
       -4.0589348e-05 -0.0001533399 -0.00013245054 7.8623425e-06
0001a0 c1 29 84 37 ac 29 03 b9 ff 40 1e b9 53 2e 6d 36
       1.575507e-05 -0.00012508658 -0.00015092267 3.5342716e-06
0001b0 4e dd 4f 38 2e 12 e2 38 23 e5 66 b9 7a 91 0b b8
       4.9558752e-05 0.00010779906 -0.0002201987 -3.3275668e-05
0001c0 48 d6 5f 39 44 65 33 b9 cc 07 05 39 3a 8d c1 b9
       0.00021346763 -0.00017108495 0.00012686773 -0.0003691705
0001d0 27 d1 3c 39 3d fe 1a 39 36 61 c4 b8 a9 a4 d1 b7
       0.00018006992 0.00014781296 -9.364115e-05 -2.4991417e-05
0001e0 30 d4 ef 34 40 b5 20 b6 b0 3c 92 37 f8 bf e7 38
       4.4671606e-07 -2.394736e-06 1.7432816e-05 0.00011050695
0001f0 12 80 9c 38 52 7e 02 b8 34 09 bd b8 42 3b 13 b8
       7.4625146e-05 -3.111206e-05 -9.0139365e-05 -3.510272e-05
