checkpoint/DA/s_0_1_t3/cnn_features_1d_0925-195851/51-0.9515-best_model.pth (torch, 944127 bytes, 30 tensors)

0.model_cnn.layer1.0.weight f4 [16, 1, 15]
-0.11506416 -0.06760111 -0.065002844 -0.10050895 -0.22162414 -0.11041465 -0.15239303 0.14088283
-0.23940533 0.016352767 -0.06598427 0.058821794 0.067363635 0.08977822 -0.032760266 -0.16185421
-0.08435356 -0.13173755 -0.122501284 0.17676312 -0.06766544 -0.011180166 -0.1780912 0.0586226
0.123292975 -0.084969305 -0.19613469 0.15566209 0.06893793 0.032273464 -0.03555247 -0.09235216
0.105264276 -0.1276542 -0.018627876 0.03413427 -0.07937433 0.018436262 0.11425221 -0.21959822
0.18255891 -0.084625095 -0.1469884 0.0069072903 -0.24376296 -0.03686357 -0.09881711 -0.08605053
0.21301304 0.16993777 0.28708678 -0.08424481 -0.00010472446 -0.014222546 0.18723474 -0.023497038
-0.002082399 -0.18037213 0.25495166 0.016600585 0.28647652 0.016529674 0.10273622 -0.075144835
-0.0012558929 0.06607795 -0.22661208 0.20402095 -0.12300619 0.053707827 0.12511837 -0.12228149
0.21076193 -0.27818188 -0.05477824 -0.02580652 0.27243614 0.02184574 0.026934052 0.11781195
-0.21972178 -0.18139638 0.032858398 0.12947643 0.12882747 -0.022416666 0.2292449 -0.16506821
-0.07603219 0.15307134 0.28122723 0.10040903 0.07221528 0.20331778 -0.07509861 -0.15973558
0.09797072 -0.03447203 -0.0849929 0.17847835 0.0065703103 -0.12579028 0.19624433 0.1966065
-0.10046987 -0.08120288 -0.124398574 -0.08023627 0.03199499 0.20990743 0.061671507 0.21635005
-0.17580955 0.14912109 0.22069013 0.119651265 -0.18892531 -0.060358997 -0.087599985 0.10452795
0.1975022 -0.14723788 -0.097899586 -0.045036327 0.20317043 -0.21406525 -0.16133231 -0.1702449
-0.27982715 -0.21194276 0.21582806 -0.13186644 0.13957126 0.18006948 -0.29680884 0.18858063
-0.112118736 0.20553146 -0.071242176 0.017081322 0.14682208 -0.17504744 0.03690995 -0.14124617
-0.13537389 0.16272205 -0.25818786 0.2263981 -0.22832066 -0.14543003 -0.16136423 0.11930523
0.03567748 -0.16700281 -0.16347557 -0.079799496 -0.19976461 0.15572485 0.06680658 -0.25713587
0.058931768 -0.25311226 0.06674349 0.2528715 0.014229881 0.1896975 -0.10024994 0.22950257
0.16430125 -0.2036144 -0.019992743 -0.20255688 -0.24325202 -0.097044654 -0.07141666 -0.13225052
-0.22583686 -0.1333035 -0.038165007 -0.013303962 -0.018935988 0.18916744 0.20699699 0.13747463
0.0902073 0.03938244 -0.08696091 -0.022224361 -0.041340377 -0.1703152 -0.09336556 -0.2256323
0.019272612 0.15522048 -0.14257027 0.09160028 0.17558292 -0.18171747 -0.23977803 -0.115884654
0.0026331763 0.20965396 0.19554135 -0.068609826 -0.15568134 -0.032411806 -0.2789679 -0.0039417227
0.0985269 0.06344382 -0.012598369 -0.33876386 0.006917728 -0.120923385 0.013114053 0.13689382
0.06350729 -0.05808674 0.014737171 -0.13384584 -0.12627248 -0.14436364 -0.015454674 -0.23583946
0.21031538 -0.20257911 0.09056694 0.16603354 0.22266912 0.11067182 0.13874932 0.038522206
0.093838595 0.22321214 -0.17578036 -0.07536833 0.03721905 0.004010956 -0.065558106 -0.05136661
00000000: c2a6 ebbd 7372 8abd 3620 85bd a3d7 cdbd
00000010: 70f1 62be 1321 e2bd eb0c 1cbe 9743 103e
00000020: ac26 75be 3df6 853c c322 87bd 1fef 703d
00000030: f2f5 893d a5dd b73d a12f 06bd 1cbd 25be
00000040: 8fc1 acbd 35e6 06be f4e1 fabd 6401 353e
00000050: 2e94 8abd 042d 37bc 8a5d 36be 401e 703d
00000060: 0781 fc3d 6304 aebd 88d7 48be e265 1f3e
00000070: 542f 8d3d 2e31 043d 779f 11bd 2123 bdbd
00000080: cc94 d73d c8b7 02be 7d99 98bc 60d0 0b3d
00000090: 028f a2bd a507 973c 10fd e93d 5bde 60be
000000a0: b9f0 3a3e ec4f adbd 2184 16be 8d56 e23b
000000b0: ff9c 79be 41fe 16bd a060 cabd 433b b0bd
000000c0: 1720 5a3e 2b04 2e3e 0afd 923e 8b88 acbd
000000d0: 849f dbb8 ae05 69bc 77ba 3f3e dc7c c0bc
000000e0: dc78 08bb 79b3 38be 0689 823e f3fd 873c
000000f0: 0dad 923e 3d69 873c 5e67 d23d 89e5 99bd
00000100: c69c a4ba e053 873d ff0c 68be deea 503e
00000110: abea fbbd bdfc 5b3d 081f 003e b86e fabd
00000120: fad1 573e db6d 8ebe 265f 60bd 3268 d3bc
00000130: c07c 8b3e d6f5 b23c cda4 dc3c 6447 f13d
00000140: bffe 60be f9bf 39be 8796 063d 7895 043e
00000150: 59eb 033e 28a3 b7bc 2dbf 6a3e a407 29be
00000160: c4b6 9bbd bcbe 1c3e 04fd 8f3e 40a3 cd3d
00000170: 9be5 933d 8932 503e 4dcd 99bd b991 23be
00000180: dfa4 c83d 8b32 0dbd c210 aebd 07c3 363e
00000190: c24b d73b 2bcf 00be 46f4 483e 3753 493e
000001a0: 26c3 cdbd b24d a6bd aec4 febd ea52 a4bd
000001b0: 2e0d 033d f9f1 563e 439b 7c3d de8a 5d3e
000001c0: 6b07 34be 33b3 183e 98fc 613e b90b f53d
000001d0: a375 41be ff3a 77bd 9f67 b3bd c012 d63d
000001e0: 043e 4a3e 87c5 16be 947f c8bd 0378 38bd
000001f0: e90b 503e ec33 5bbe 4c34 25be ae54 2ebe
00000200: 8145 8fbe 8607 59be 0802 5d3e ff07 07be
00000210: c5eb 0e3e 2264 383e 54f7 97be 481b 413e
00000220: 829e e5bd d776 523e 6be7 91bd 21ee 8b3c
00000230: 8758 163e a33f 33be e32e 173d d6a2 10be
00000240: 749f 0abe 9ca0 263e 3331 84be e7d4 673e
00000250: e4cc 69be 9ceb 14be aa3c 25be 4d56 f43d
00000260: 8d22 123d c902 2bbe 2466 27be eb6d a3bd
00000270: 188f 4cbe 5676 1f3e e3d1 883d 50a7 83be
00000280: 7062 713d ee97 81be d0b0 883d 6078 813e
00000290: 7224 693c 1040 423e d74f cdbd b902 6b3e
000002a0: 963e 283e 4b80 50be d2c7 a3bc 126b 4fbe
000002b0: 0f17 79be 59bf c6bd e642 92bd ae6c 07be
000002c0: c741 67be b680 08be e952 1cbd dcf8 59bc
000002d0: a51f 9bbc 1cb5 413e 05f7 533e 26c6 0c3e
000002e0: 9bbe b83d 7b4f 213d 9018 b2bd dd0f b6bc
000002f0: 8754 29bd 1c67 2ebe 7136 bfbd 270c 67be
00000300: 99e1 9d3c 1ef2 1e3e f1fd 11be ed98 bb3d
00000310: 02cc 333e 2514 3abe 5f88 75be ef54 edbd
00000320: 5e91 2c3b 87af 563e fe3b 483e 4f83 8cbd
00000330: ee6a 1fbe 3ec2 04bd e1d4 8ebe 9129 81bb
00000340: 79c8 c93d d5ee 813d 6469 4ebc 7572 adbe
00000350: 1cae e23b aea6 f7bd 53dc 563c e52d 0c3e
00000360: 1c10 823d 5dec 6dbd 2d74 713c e20e 09be
00000370: 934d 01be 10d4 13be 9a35 7dbc e67f 71be
00000380: ea5c 573e e670 4fbe 297b b93d b204 2a3e
00000390: 6003 643e e8a7 e23d 4d14 0e3e 76c9 1d3d
000003a0: 732e c03d b991 643e c4ff 33be b65a 9abd
000003b0: 0173 183d 566e 833b 5443 86bd cb65 52bd

0.model_cnn.layer1.0.bias f4 [16]
-2.9139028e-05 0.003134143 -0.001750761 -0.0015716355 -0.00988399 0.0020570876 0.004189411 -0.0013165614
0.0006847907 0.002765556 0.0013040876 0.00068442133 0.0020495108 0.0016801037 -0.0011939472 0.001032491
00000000: 966f f4b7 3266 4d3b ca79 e5ba 56ff cdba
00000010: 75f0 21bc 34d0 063b 5447 893b 7890 acba
00000020: 8783 333a 553e 353b ebed aa3a bd6a 333a
00000030: 1651 063b ed36 dc3a 387e 9cba a654 873a

0.model_cnn.layer1.1.weight f4 [16]
1.0233 0.9481645 1.0710495 0.9711286 1.0116038 0.94366133 0.9111063 0.9374124
0.98049325 1.0262533 1.1044075 0.964426 1.0239043 0.9734939 1.0664953 1.0108305
00000000: 7ffb 823f e9ba 723f 2618 893f e29b 783f
00000010: 3c7c 813f ca93 713f 433e 693f 42fa 6f3f
00000020: 9b01 7b3f 455c 833f 3a5d 8d3f 9fe4 763f
00000030: 4c0f 833f e536 793f eb82 883f e562 813f

0.model_cnn.layer1.1.bias f4 [16]
0.015877865 -0.02787264 0.08381376 -0.028082948 -0.026350927 -0.03225993 0.061184704 -0.120019265
0.023414046 0.12671673 0.017345948 -0.08595292 -0.032791074 0.0019667184 -0.00032208746 -0.07675573
00000000: 4c12 823c 2a55 e4bc 8ca6 ab3d 360e e6bc
00000010: e6dd d7bc fd22 04bd d09c 7a3d a9cc f5bd
00000020: d0ce bf3c 08c2 013e 1719 8e3c 1608 b0bd
00000030: ef4f 06bd 0fe4 003b d9dd a8b9 1c32 9dbd

0.model_cnn.layer1.1.running_mean f4 [16]
8.067758e-05 0.0023079184 -0.0005363569 -0.0016681649 -0.0056114327 0.00112308 0.0028503875 -0.0005179953
-0.0006510298 0.002157511 0.0011007814 0.001237501 0.0014553042 0.0015159769 -0.0007430431 0.0024082297
00000000: 7231 a938 7240 173b 4d9a 0cba 53a6 daba
00000010: 1ce0 b7bb 5034 933a 91cd 3a3b 13ca 07ba
00000020: dfa9 2aba 0765 0d3b 1848 903a a533 a23a
00000030: e8bf be3a beb3 c63a c7c8 42ba 64d3 1d3b

0.model_cnn.layer1.1.running_var f4 [16]
0.18058929 0.28383043 0.082915954 0.26602423 0.15143871 0.35744178 0.40730938 0.26829487
0.4376294 0.10793054 0.17896345 0.3570954 0.25779927 0.20707966 0.21377723 0.30389923
00000000: 66ec 383e 3952 913e d7cf a93d 5434 883e
00000010: c012 1b3e 9c02 b73e db8a d03e f25d 893e
00000020: f610 e03e b00a dd3d 3242 373e 35d5 b63e
00000030: 44fe 833e b10c 543e 6be8 5a3e ae98 9b3e

0.model_cnn.layer2.0.weight f4 [32, 16, 3]
-0.035287373 -0.12409805 -0.16010138 -0.10803818 -0.08529748 -0.10036035 0.01943916 0.016534815
-0.14117149 -0.019650804 -0.2011267 -0.13317282 0.028970776 0.07928609 0.08660801 -0.067322
-0.009124204 0.07224375 0.009175472 0.007381042 0.101904385 0.111280076 -0.1405382 -0.028123397
-0.05469681 -0.12224139 -0.047183644 0.08749088 -0.052630957 -0.040716995 0.030874306 0.0949766
-0.089103065 0.09340822 -0.1679515 0.04771939 -0.08856733 -0.15812282 -0.056934852 0.09742465
0.04052087 -0.055254426 -0.18399829 0.15131968 -0.050255854 -0.14279339 0.0909533 0.05163053
-0.04724054 -0.06864794 0.031411473 0.014565446 0.084250554 -0.07737702 -0.119739145 -0.04594929
0.14803967 -0.07243919 -0.08978866 0.056618366 0.00053858664 -0.10144947 -0.039431907 -0.090096414
0.029282397 -0.0063989866 0.06729405 0.07939619 -0.10801318 0.0050489674 0.103437185 -0.09342378
-0.0625541 -0.059243876 -0.026121868 0.020212503 -0.10278736 0.12757958 0.08045217 0.05360891
0.15190594 0.07175405 0.014441539 -0.005167022 0.04010675 -0.16787906 0.047282394 -0.03647854
-0.17909995 -0.17770003 0.13209848 -0.03135763 0.0113217635 0.04704258 0.017011289 0.017836658
-0.22794288 -0.0073063974 0.054482486 -0.06560377 0.018807529 -0.2096209 0.024510454 -0.08079488
0.09654905 -0.116667606 -0.07982377 -0.021696404 -0.15645911 -0.058981527 0.16281559 -0.15048832
-0.1426365 -0.09235157 -0.13717796 -0.09265302 0.07587781 0.13917533 -0.05212467 0.0058067907
-0.059445046 -0.04334023 -0.045274217 0.03939565 0.146425 0.10147569 -0.19881387 -0.17587803
-0.04261991 0.055053458 -0.050107162 -0.01147829 0.07501215 -0.023369366 0.0069293682 -0.09215123
-0.04440896 -0.022391582 -0.088766724 -0.16284466 -0.09234545 -0.07225603 -0.0777026 0.094120346
0.15225872 -0.120950565 -0.104521625 0.17748933 0.083749875 0.09904831 0.14917381 -0.09704412
-0.2330912 -0.113913506 0.013380434 0.033088554 0.040593795 -0.11817854 0.016919877 0.04968655
-0.06015663 -0.14527617 -0.13785222 0.030841103 0.059665486 -0.14189242 0.011443315 -0.06835055
-0.090941325 -0.09460785 -0.11037457 -0.0044841017 -0.07878144 -0.07946694 -0.11955612 -0.11549142
0.08260796 -0.098064 -0.051341455 -0.113126405 0.040715106 -0.042166963 0.061019912 0.028653331
-0.11087365 0.14962606 -0.14379916 0.08953173 -0.049120586 0.096365795 -0.012209616 -0.12374202
0.060320288 -0.096120216 0.07036504 -0.011531027 -0.15198238 -0.061380263 -0.063628465 0.108130276
0.06226279 0.08948444 0.04586122 0.11047822 -0.14231588 -0.019097023 0.08823078 -0.15041648
-0.1059823 0.032477807 -0.080076 -0.17564054 0.12249629 0.09424587 0.08186528 0.099438325
0.16570115 -0.044882886 0.009649648 -0.058844138 -0.12584192 -0.052178085 -0.04752786 0.16584006
0.10908045 0.14119966 -0.030879445 0.08496403 -0.100279145 0.06700254 -0.00057707215 0.013155333
-0.009986048 0.14333922 0.100576274 0.004186592 -0.08063667 -0.0024074304 0.07906703 0.010967969
0.111402534 0.13621335 0.024758378 0.054180562 0.12407146 -0.14267217 0.14056928 0.14795408
0.19739217 -0.10415683 -0.007032982 -0.0035650656 0.084347494 -0.020476889 -0.12699778 0.11113404
00000000: 7e89 10bd 1e27 febd 9ef1 23be 1f43 ddbd
00000010: 72b0 aebd ba89 cdbd e03e 9f3c 0574 873c
00000020: 428f 10be b9fa a0bc 28f4 4dbe 755e 08be
00000030: 1f54 ed3c bf60 a23d 8a5f b13d 1ee0 89bd
00000040: af7d 15bc 88f4 933d b854 163c abdc f13b
00000050: 3fb3 d03d cfe6 e33d 3fe9 0fbe 0a63 e6bc
00000060: c309 60bd b259 fabd a343 41bd 6b2e b33d
00000070: 8f93 57bd ddc6 26bd 1dec fc3c 1783 c23d
00000080: ab7b b6bd cf4c bf3d 7afb 2bbe 6875 433d
00000090: ca62 b5bd f3ea 21be 8534 69bd 9386 c73d
000000a0: 36f9 253d 7752 62bd 0c6a 3cbe 8cf3 1a3e
000000b0: 15d9 4dbd 6e38 12be b945 ba3d 897a 533d
000000c0: 4c7f 41bd 4b97 8cbd 51a9 003d e9a3 6e3c
000000d0: 8e8b ac3d d877 9ebd cc39 f5bd 5335 3cbd
000000e0: b697 173e ff5a 94bd 1ee3 b7bd a9e8 673d
000000f0: f02f 0d3a bdc4 cfbd 5a83 21bd 7884 b8bd
00000100: a3e1 ef3c 97ae d1bb 76d1 893d 789a a23d
00000110: 0436 ddbd cf71 a53b e0d6 d33d f754 bfbd
00000120: 5d1c 80bd b5a9 72bd 87fd d5bc b194 a53c
00000130: 2e82 d2bd 39a4 023e 1bc4 a43d 0495 5b3d
00000140: 3b8d 1b3e caf3 923d 349c 6c3c 1f50 a9bb
00000150: fa46 243d 7de8 2bbe 2fab 413d 866a 15bd
00000160: fa65 37be fff6 35be d344 073e dc70 00bd
00000170: eb7e 393c b8af 403d 425b 8b3c 2f1e 923c
00000180: dc69 69be 816a efbb 0729 5f3d 455b 86bd
00000190: 3f12 9a3c dca6 56be 26ca c83c c977 a5bd
000001a0: 82bb c53d 6def eebd a57a a3bd a8bc b1bc
000001b0: d136 20be 9d96 71bd 21b9 263e 9c19 1abe
000001c0: 4d0f 12be d222 bdbd 6178 0cbe dec0 bdbd
000001d0: d365 9b3d fa83 0e3e ae80 55bd e446 be3b
000001e0: a67c 73bd 8685 31bd 7571 39bd 555d 213d
000001f0: 6ff0 153e 7dd2 cf3d dd95 4bbe 5f19 34be
00000200: 3792 2ebd bc7f 613d 2b3d 4dbd 700f 3cbc
00000210: f89f 993d 1d71 bfbc c10f e33b c9b9 bcbd
00000220: 2be6 35bd 8d6e b7bc 54cb b5bd c0c0 26be
00000230: 9c1f bdbd f8fa 93bd 8a22 9fbd 2bc2 c03d
00000240: b6e9 1b3e eeb4 f7bd 6f0f d6bd c3bf 353e
00000250: 0e85 ab3d d7d9 ca3d 05c1 183e 11bf c6bd
00000260: 76af 6ebe 7c4b e9bd 9c39 5b3c dd87 073d
00000270: ae45 263d 9707 f2bd 8e9b 8a3c 2084 4b3d
00000280: cc66 76bd 47c3 14be 2229 0dbe 7ba6 fc3c
00000290: cc63 743d 3f4c 11be be7c 3b3c 60fb 8bbd
000002a0: 723f babd c3c1 c1bd 100c e2bd 5fef 92bb
000002b0: 2a58 a1bd 90bf a2bd d7d9 f4bd c486 ecbd
000002c0: 5d2e a93d c7d5 c8bd 6b4b 52bd d1ae e7bd
000002d0: e2c4 263d 44b7 2cbd 04f0 793d 64ba ea3c
000002e0: b911 e3bd 9337 193e 1640 13be 695c b73d
000002f0: ab32 49bd 6e5b c53d d70a 48bc 756c fdbd
00000300: 6812 773d adda c4bd 8c1b 903d a2ec 3cbc
00000310: 45a1 1bbe df69 7bbd a44f 82bd 6873 dd3d
00000320: 4407 7f3d 9e43 b73d fad8 3b3d 6842 e23d
00000330: 41bb 11be 5c71 9cbc 57b2 b43d c706 1abe
00000340: 400d d9bd 7307 053d e3fe a3bd 1ddb 33be
00000350: 56df fa3d fb03 c13d fca8 a73d 52a6 cb3d
00000360: 90ad 293e 1ed7 37bd 8f19 1e3c 8d06 71bd
00000370: b4dc 00be b0b8 55bd 93ac 42bd fad1 293e
00000380: 9265 df3d a596 103e e4f6 fcbc 9f01 ae3d
00000390: 275f cdbd a138 893d a846 17ba 7789 573c
000003a0: 859c 23bc 84c7 123e effa cd3d ae2f 893b
000003b0: d724 a5bd fbc5 1dbb e5ed a13d ffb2 333c
000003c0: 0327 e43d 837b 0b3e 15d2 ca3c 70ec 5d3d
000003d0: 2d19 fe3d a718 12be 65f1 0f3e 4681 173e
000003e0: 2c21 4a3e 2d50 d5bd ee74 e6bb e0a3 69bb
000003f0: 61be ac3d 26bf a7bc b50b 02be 3e9a e33d

0.model_cnn.layer2.0.bias f4 [32]
-0.0013620848 0.0011094251 0.0021486005 0.00057839655 -0.0018172105 0.00042984402 -0.00123255 0.017785102
0.0010771619 -0.0027422034 -0.00057303876 0.00097443524 0.008961536 -0.0010600643 0.001573714 8.181232e-05
-0.004302075 0.0009158319 0.0017351191 -0.00010018476 -0.002267221 0.00655264 -0.00020810329 0.014438984
0.00057301146 0.0016189052 3.7164406e-05 0.0015925532 -0.0012595298 -0.012427054 0.00359157 -0.0034962748
00000000: fb87 b2ba 216a 913a 89cf 0c3b 899f 173a
00000010: 772f eeba b05c e139 848d a1ba 10b2 913c
00000020: 8e2f 8d3a 8ab6 33bb fb37 16ba 3e71 7f3a
00000030: 68d3 123c dbf1 8aba 1445 ce3a a892 ab38
00000040: 6cf8 8cbb 7014 703a f06c e33a 491a d2b8
00000050: a895 14bb 87b7 d63b 4d36 5ab9 7d91 6c3c
00000060: 2636 163a 7231 d43a fae0 1b38 38bd d03a
00000070: cf16 a5ba d89a 4bbc 8c60 6b3b c221 65bb

0.model_cnn.layer2.1.weight f4 [32]
1.0186644 1.0093215 1.0562378 1.0002888 0.96663624 0.9715648 1.074659 0.9381948
0.9668048 1.0149266 0.9083516 0.9944243 1.1048055 0.9507943 0.980274 0.9589413
0.95141613 1.0195535 0.97013223 0.98113436 1.0103321 1.0216235 1.0074131 1.0516322
1.0386325 0.9663079 1.0068398 1.0217474 1.0257756 0.98160857 1.0447464 0.989508
00000000: 9863 823f 7231 813f cd32 873f 7709 803f
00000010: 7975 773f 79b8 783f 6d8e 893f 892d 703f
00000020: 8580 773f 1de9 813f bb89 683f 9792 7e3f
00000030: 446a 8d3f 4167 733f 3df3 7a3f 2d7d 753f
00000040: 0290 733f bb80 823f 965a 783f 9f2b 7b3f
00000050: 9052 813f 8fc4 823f eaf2 803f e29b 863f
00000060: e9f1 843f f45f 773f 20e0 803f 9ec8 823f
00000070: 9d4c 833f b34a 7b3f 40ba 853f 6550 7d3f

0.model_cnn.layer2.1.bias f4 [32]
0.025434403 -0.049792156 0.011577074 -0.059491374 -0.046196427 -0.075514734 -0.004288324 -0.0016613135
-0.09458012 -0.03366586 -0.14818904 -0.17840901 0.028348412 -0.07784016 -0.03413415 -0.11138382
-0.030873707 -0.13873206 -0.049868196 -0.14670749 -0.065526254 0.0116923945 -0.066503964 -0.15458483
-0.010146573 -0.12039115 0.062343013 0.048517954 -0.062927336 -0.10493553 -0.022912754 0.031189999
00000000: cf5b d03c dcf2 4bbd c5ad 3d3c 3aad 73bd
00000010: 7738 3dbd 78a7 9abd 1285 8cbb 6ec0 d9ba
00000020: 39b3 c1bd 36e5 09bd debe 17be dab0 36be
00000030: ee3a e83c a96a 9fbd 40d0 0bbd 331d e4bd
00000040: dbea fcbc c70f 0ebe 9842 4cbd 7d3a 16be
00000050: a132 86bd 7591 3f3c 3b33 88bd 7c4b 1ebe
00000060: d03d 26bc a38f f6bd 635b 7f3d c3ba 463d
00000070: 0ce0 80bd 70e8 d6bd 87b3 bbbc 2b82 ff3c

0.model_cnn.layer2.1.running_mean f4 [32]
-0.48104307 -0.12818861 -0.64312726 -0.48062006 0.167906 0.5953926 -0.34957904 -0.0005381325
-0.20695223 0.014199598 0.124962136 0.26312333 -0.28638378 -0.01131007 -0.27881402 0.38208526
0.024079101 0.14130618 -0.26032555 0.17373283 -0.13541812 -0.14113288 0.02363739 0.17227572
-0.1954126 0.6287439 -0.022816697 -0.19870414 0.10109976 0.02783006 -0.27434283 -0.018052418
00000000: 474b f6be e043 03be fda3 24bf d513 f6be
00000010: 8def 2b3e a66b 183f 06fc b2be 7611 0dba
00000020: 49eb 53be 6ea5 683c 26ec ff3d 1ab8 863e
00000030: e5a0 92be df4d 39bc b6c0 8ebe aea0 c33e
00000040: 8941 c53c 91b2 103e 6449 85be 05e7 313e
00000050: 0cab 0abe 2385 10be 33a3 c13c 0c69 303e
00000060: 3e1a 48be 5cf5 203f 15ea babc 1979 4bbe
00000070: 640d cf3d defb e33c aa76 8cbe aae2 93bc

0.model_cnn.layer2.1.running_var f4 [32]
0.23574938 0.07925425 0.29089066 0.28183764 0.18962398 0.3359666 0.2515751 0.17813939
0.15220463 0.19301869 0.30849743 0.15155919 0.14045057 0.22353107 0.22128583 0.18239115
0.115342066 0.1508389 0.17083217 0.12879036 0.18263972 0.21246032 0.22052775 0.19543464
0.12872446 0.26252702 0.13691407 0.12743518 0.27707806 0.22103377 0.21801238 0.08496087
00000000: 4968 713e 0d50 a23d 9fef 943e 064d 903e
00000010: ca2c 423e d003 ac3e 74ce 803e 2c6a 363e
00000020: 88db 1b3e b1a6 453e 60f3 9d3e 5532 1b3e
00000030: 46d2 0f3e 54e5 643e c198 623e bfc4 3a3e
00000040: 7638 ec3d 8375 1a3e a1ee 2e3e 9fe1 033e
00000050: e805 3b3e 338f 593e 07d2 613e 0520 483e
00000060: 58d0 033e f169 863e 3433 0c3e 5e7e 023e
00000070: 2ddd 8d3e ad56 623e a33e 5f3e f7ff ad3d

0.model_cnn.layer3.0.weight f4 [64, 32, 3]
0.08875145 -0.07701288 0.1349652 0.023787763 0.05712554 -0.01366403 -0.20015566 -0.14243403
-0.018508535 0.04387596 0.0004894087 -0.021116208 0.007106392 -0.057931326 -0.025903761 -0.06593915
0.034194108 0.042348094 -0.08528271 -0.0527645 -0.057480086 -0.011819497 0.017396273 0.066765815
0.030932982 0.072029285 0.018180186 -0.12519553 0.0489023 -0.028448856 0.013940405 -0.009574599
0.06313817 0.039861087 -0.06311513 -0.10817299 -0.047073044 -0.06390181 0.0894463 -0.056748696
-0.033451688 0.025445634 0.02108965 -0.034471408 -0.012694875 -0.044175826 -0.09849499 -0.0771161
0.06388074 0.060182497 0.065602146 0.09348577 0.04768406 0.020962123 0.002898075 0.062839925
0.05300724 -0.12627356 0.05522805 -0.038353823 -0.108762644 -0.08785275 -0.10602348 0.01860001
-0.0068763765 -0.07863964 0.012002071 0.01823517 0.041546974 0.06636241 0.090151906 -0.10087655
-0.034799848 -0.05951287 0.037683193 -0.10040783 0.06488461 0.050457854 0.10623838 -0.048816867
0.10571841 0.06553435 -0.021164298 -0.0449747 -0.10347651 0.018394332 -0.05668681 -0.055473153
0.047655355 -0.06874879 0.035189196 0.032483365 -0.06467091 0.09898151 -0.032895043 -0.0061572716
0.03614149 -0.06090928 -0.0905341 -0.06837899 0.038106028 -0.026924869 0.03382435 0.059851926
0.11766698 0.006503689 0.058215402 0.044932693 -0.12012435 0.04488841 0.03101961 0.03132489
0.04472398 -0.10248475 -0.109138936 0.006502406 -0.020286892 0.119018964 -0.08723285 -0.03167251
0.10299017 -0.11376371 -0.06458902 -0.07931926 -0.092502 -0.033296138 0.0104077365 -0.06831975
-0.03168106 -0.07437826 -0.00525145 -0.044931974 -0.18617308 -0.11603738 -0.087275475 0.015132034
-0.01672206 0.118941665 0.04283695 -0.14428751 -0.030228566 -0.016714288 0.097131744 -0.061751015
-0.010597552 -0.12962317 -0.108018026 -0.023902468 0.03957199 0.090321146 0.09134652 0.02514312
0.019260779 0.10324035 0.006352675 0.00890768 0.020772584 -0.09708388 0.14368482 -0.16271578
-0.1002043 -0.054406304 0.015501362 -0.049248524 -0.029391462 -0.07616556 -0.034556627 0.047465183
0.036805134 -0.01325834 -0.029705474 -0.006660146 0.004487307 -0.03733126 -0.13572991 -0.1309687
-0.0755439 -0.018838137 -0.04852071 -0.035438523 -0.06568597 0.0003121703 -0.026774025 -0.0108077945
-0.073283605 -0.09595098 -0.091060385 0.05682786 -0.022678312 -0.10122171 -0.12921803 -0.022810563
-0.08526339 -0.00012434414 -0.07039516 0.046799578 -0.04046662 -0.06638652 0.10210784 0.071834244
0.075658605 -0.032699175 0.040902823 0.006115722 -0.016449135 -0.048306048 -0.15843852 -0.09934835
-0.005330249 0.04384996 -0.08918902 -0.09974324 -0.040256813 -0.0051154345 -0.020710612 -0.026025588
-0.03855642 0.04689561 -0.15002368 -0.03196527 -0.13438769 -0.19087407 0.032583233 -0.054835748
0.05010457 -0.061955914 -0.08341523 0.077255376 -0.06507785 0.01372904 0.0049335123 0.09175176
-0.04073486 -0.02272295 -0.040164728 -0.05580418 0.0033911078 0.033823602 -0.14138007 -0.07307939
-0.12871683 -0.09066216 0.026587743 0.0010954285 -0.049479324 -0.0035276364 0.010489344 -0.062453393
-0.057684414 0.043477878 -0.13913547 0.04378169 -0.001069934 -0.09020271 -0.04165801 0.04025166
00000000: 52c3 b53d eeb8 9dbd 5134 0a3e 8ede c23c
00000010: 78fc 693d 18df 5fbc 9bf5 4cbe 3ada 11be
00000020: 369f 97bc 47b7 333d a94b 003a e6fb acbc
00000030: bddc e83b 6649 6dbd 2034 d4bc 1b0b 87bd
00000040: 1f0f 0c3d 3275 2d3d b4a8 aebd 971f 58bd
00000050: 3d70 6bbd 90a6 41bc a182 8e3c 84bc 883d
00000060: 2a67 fd3c 1784 933d 9dee 943c 4233 00be
00000070: c74d 483d 930d e9bc 4c66 643c c7de 1cbc
00000080: 964e 813d 6145 233d 8142 81bd cd89 ddbd
00000090: aacf 40bd f4de 82bd 9f2f b73d 5271 68bd
000000a0: a304 09bd 5d73 d03c 34c4 ac3c e431 0dbd
000000b0: 2afe 4fbc b6f1 34bd beb7 c9bd 0cef 9dbd
000000c0: e8d3 823d ec81 763d 6b5a 863d 7875 bf3d
000000d0: 5c50 433d c2b8 ab3c a1ed 3d3b 38b2 803d
000000e0: 1f1e 593d db4d 01be cf36 623d e618 1dbd
000000f0: f3be debd 25ec b3bd d722 d9bd 0c5f 983c
00000100: 3a53 e1bb d20d a1bd 56a4 443c ec61 953c
00000110: 292d 2a3d 04e9 873d 90a1 b83d 5d98 cebd
00000120: 498a 0ebd c4c3 73bd b159 1a3d 9fa2 cdbd
00000130: 39e2 843d e5ac 4e3d 8293 d93d 32f4 47bd
00000140: e582 d83d e036 863d c060 adbc 6437 38bd
00000150: 7eeb d3bd b6af 963c 6e30 68bd d137 63bd
00000160: 4332 433d 2acc 8cbd 8c22 103d 470d 053d
00000170: 2f72 84bd d1b6 ca3d f4bc 06bd f0c2 c9bb
00000180: 1909 143d 027c 79bd f169 b9bd 490a 8cbd
00000190: 1115 1c3d 8b91 dcbc 678b 0a3d 4b27 753d
000001a0: 63fb f03d e61c d53b 4673 6e3d 580b 383d
000001b0: c103 f6bd e9dc 373d d61c fe3c 874e 003d
000001c0: 7e30 373d 86e3 d1bd 3c84 dfbd 2312 d53b
000001d0: b230 a6bc 37c0 f33d 23a7 b2bd 09bb 01bd
000001e0: 83ec d23d f3fc e8bd 4047 84bd 2372 a2bd
000001f0: b071 bdbd 8861 08bd 3685 2a3c 3aeb 8bbd
00000200: 00c4 01bd a153 98bd 5b14 acbb 970a 38bd
00000210: 28a4 3ebe 02a5 edbd 7cbd b2bd 5aec 773c
00000220: b4fc 88bc b097 f33d cc75 2f3d 1bc0 13be
00000230: e6a1 f7bc 67ec 88bc 02ed c63d a2ee 7cbd
00000240: 5ba1 2dbc f0bb 04be 8e38 ddbd 1ccf c3bc
00000250: 3d16 223d 4bfa b83d e213 bb3d f2f8 cd3c
00000260: c8c8 9d3c ad6f d33d 1a2a d03b 85f1 113c
00000270: 442b aa3c ead3 c6bd 1d22 133e f79e 26be
00000280: e937 cdbd 25d9 5ebd 6df9 7d3c d2b8 49bd
00000290: 5dc6 f0bc b0fc 9bbd 408b 0dbd da6a 423d
000002a0: fbc0 163d 8239 59bc e558 f3bc 5b3d dabb
000002b0: 420a 933b aae8 18bd c8fc 0abe a91c 06be
000002c0: c3b6 9abd 7052 9abc a7bd 46bd fc27 11bd
000002d0: 5e86 86bd caaa a339 3355 dbbc 2d13 31bc
000002e0: b715 96bd f381 c4bd de7d babd 55c4 683d
000002f0: dec7 b9bc 544d cfbd bb51 04be 38dd babc
00000300: 929e aebd 6062 02b9 562b 90bd eab0 3f3d
00000310: 54c0 25bd a8f5 87bd ea1d d13d d51d 933d
00000320: e6f2 9a3d 92ef 05bd b889 273d 6566 c83b
00000330: 56c0 86bc 90dc 45bd b53d 22be 2677 cbbd
00000340: 5fa9 aebb 049c 333d bca8 b6bd 2f46 ccbd
00000350: 54e4 24bd 609f a7bb 4da9 a9bc 9d33 d5bc
00000360: 56ed 1dbd 9c15 403d cf9f 19be 04ee 02bd
00000370: ed9c 09be 7e74 43be ff75 053d 739b 60bd
00000380: 733a 4d3d 7cc5 7dbd 9bd5 aabd 1138 9e3d
00000390: 8947 85bd c4ef 603c 4da9 a13b 59e8 bb3d
000003a0: 99d9 26bd 7b25 babc c583 24bd ed92 64bd
000003b0: 593d 5e3b 9e8a 0a3d f0c5 10be a6aa 95bd
000003c0: 58ce 03be 15ad b9bd 8ace d93c 7b94 8f3a
000003d0: d5aa 4abd eb2f 67bb 7fdb 2b3c 21cf 7fbd
000003e0: 7e46 6cbd dc15 323d 8779 0ebe 6e54 333d
000003f0: 073d 8cba 33bc b8bd 97a1 2abd edde 243d

0.model_cnn.layer3.0.bias f4 [64]
-0.0001432708 -0.0004962225 9.4382594e-05 -0.00023113511 0.00036132365 0.00069360394 -1.2018685e-05 0.00022088658
0.00019388639 -0.0011032133 -0.0005036521 0.00037643636 0.0036235475 0.00028423473 0.00045566753 -5.1800307e-06
-0.00026242557 -0.0006707352 3.8922848e-05 -0.00012406282 5.523391e-06 -0.0001812628 -3.700979e-05 -0.0003421571
-0.0010072219 -4.892955e-05 -6.68553e-05 -0.0006003927 -1.9887113e-05 -2.2054443e-05 0.00067748217 4.1501764e-05
0.00039043592 -0.000109197616 -0.0004036978 0.00033352966 0.00043364646 0.0008315162 0.00036661094 -0.00027528167
0.0004207598 0.0003528675 8.908735e-05 0.0015628111 -0.00086844736 -0.000616129 -2.3162385e-05 -0.00026253867
-0.00044890697 -0.0012155664 -0.000915787 -8.454565e-05 1.7085262e-05 -2.1692793e-05 0.0005037428 -0.0010023281
0.00013095992 8.230408e-05 -0.00026026185 0.00033385257 0.00029315343 -0.0002874768 0.0011975258 0.0003209707
00000000: f63a 16b9 ee14 02ba 45ef c538 dc5c 72b9
00000010: 0a70 bd39 f9d2 353a dca3 49b7 ca9d 6739
00000020: fb4d 4b39 b299 90ba 8507 04ba 6f5c c539
00000030: 0a79 6d3b 5705 9539 a9e6 ee39 20d0 adb6
00000040: 2a96 89b9 47d4 2fba 1741 2338 dc16 02b9
00000050: 9155 b936 5d11 3eb9 f63a 1bb8 8c63 b3b9
00000060: c204 84ba b439 4db8 aa34 8cb8 ac63 1dba
00000070: 40d3 a6b7 8e01 b9b7 0f99 313a 2e12 2e38
00000080: 6cb3 cc39 0601 e5b8 67a7 d3b9 98dd ae39
00000090: 0b5b e339 1cfa 593a b035 c039 ae53 90b9
000000a0: 6d99 dc39 1301 b939 68d4 ba38 3dd7 cc3a
000000b0: 84a8 63ba b883 21ba d84c c2b7 58a5 89b9
000000c0: 465b ebb9 a453 9fba 6d11 70ba 1a4e b1b8
000000d0: 5252 8f37 ebf8 b5b7 9b0d 043a 8d60 83ba
000000e0: 4952 0939 ab9a ac38 c173 88b9 ef08 af39
000000f0: 63b2 9939 7cb8 96b9 4cf6 9c3a f547 a839

0.model_cnn.layer3.1.weight f4 [64]
0.9945192 1.0474687 1.0190395 1.0196371 0.9762348 0.95270264 0.89905506 1.0217308
0.97835153 0.9286764 1.0317029 1.0138993 1.020379 0.99046266 1.048672 0.905841
0.9697332 0.9664002 1.014384 0.96036935 0.9455968 0.97226244 0.9734657 1.0317901
1.0125656 0.98999494 1.0604266 0.997889 0.9874094 0.95342106 1.0729902 1.005769
0.9504388 1.0061231 1.0022386 0.93311894 1.0439255 1.0047423 0.9609796 0.9934515
0.97488225 0.9517175 0.9951968 1.0942918 1.0426568 1.0030363 1.0015498 0.97093225
1.0336224 1.00462 1.0236981 1.0458045 0.94088703 1.0051371 0.98392916 1.0039265
0.99326444 1.0292176 1.016656 0.9383549 0.98648477 0.92351395 0.99327403 1.0154761
00000000: cf98 7e3f 7413 863f e36f 823f 7883 823f
00000010: 86ea 793f 52e4 733f 7928 663f 13c8 823f
00000020: 3f75 7a3f bdbd 6d3f d70e 843f 74c7 813f
00000030: c79b 823f f68e 7d3f e23a 863f 32e5 673f
00000040: 6f40 783f 0166 773f 56d7 813f c4da 753f
00000050: a212 723f 31e6 783f 0c35 793f b311 843f
00000060: c09b 813f 4f70 7d3f 0fbc 873f a775 7f3f
00000070: ddc6 7c3f 6713 743f be57 893f 0abd 803f
00000080: f54f 733f a4c8 803f 5b49 803f e2e0 6e3f
00000090: 5a9f 853f 659b 803f c202 763f d652 7e3f
000000a0: e291 793f c2a3 733f 38c5 7e3f c111 8c3f
000000b0: c775 853f 7e63 803f c932 803f 048f 783f
000000c0: bd4d 843f 6397 803f 8a08 833f ecdc 853f
000000d0: f9dd 703f 55a8 803f c8e2 7b3f aa80 803f
000000e0: 9446 7e3f 67bd 833f c921 823f 0738 703f
000000f0: 448a 7c3f 696b 6c3f 3547 7e3f 1ffb 813f

0.model_cnn.layer3.1.bias f4 [64]
-0.0042843167 0.063656 0.0407057 -0.14492467 -0.1595723 -0.06397864 -0.12251951 -0.11405092
-0.028022315 -0.12501283 -0.10597465 -0.04625691 0.021529544 -0.14408913 -0.068753324 -0.18569688
-0.0789703 -0.13423958 -0.053837895 -0.21466005 -0.093815945 -0.12442587 -0.13359497 0.03091864
-0.096561685 -0.10127169 -0.037528582 -0.09696236 -0.0066893506 -0.10477507 0.029843796 0.0016422375
-0.08308898 -0.09593555 0.021432286 -0.15966614 0.06370562 0.004637989 -0.21230742 -0.07922529
-0.07403313 -0.14109357 -0.021563796 -0.1415787 -0.026976986 -0.13192093 -0.12089291 -0.042694308
-0.05279479 -0.06285826 0.03412591 -0.024868792 -0.17589673 -0.13134246 -0.017442439 -0.15196836
-0.09422982 -0.1904709 -0.18237822 -0.111049056 -0.2047997 -0.16110128 -0.117178276 -0.16683081
00000000: 7463 8cbb 145e 823d 05bb 263d 2267 14be
00000010: ec66 23be 3c07 83bd 82eb fabd 8793 e9bd
00000020: 0e8f e5bc 5d03 00be 3d09 d9bd e377 3dbd
00000030: ba5e b03c 1a8c 13be 8bce 8cbd 5327 3ebe
00000040: 2ebb a1bd 1a76 09be 2085 5cbd d8cf 5bbe
00000050: 9322 c0bd fed2 febd 1fcd 08be 1649 fd3c
00000060: 22c2 c5bd 8867 cfbd 92b7 19bd 3494 c6bd
00000070: 5732 dbbb 5094 d6bd fa7a f43c 5940 d73a
00000080: 8e2a aabd dc79 c4bd c392 af3c 857f 23be
00000090: 1878 823d 46fa 973b 1e67 59be de40 a2bd
000000a0: af9e 97bd d57a 10be 8fa6 b0bc 02fa 10be
000000b0: d7fe dcbc 4816 07be b496 f7bd 3ae0 2ebd
000000c0: 5a3f 58bd d5bb 80bd 9cc7 0b3d a3b9 cbbc
000000d0: 461e 34be a37e 06be 72e3 8ebc 989d 1bbe
000000e0: 90fb c0bd ce0a 43be 5bc1 3abe b06d e3bd
000000f0: 03b7 51be bcf7 24be 2afb efbd b2d5 2abe

0.model_cnn.layer3.1.running_mean f4 [64]
-0.29093537 -1.2753018 -1.6226869 -0.22470468 0.958871 -1.1319844 -0.043102648 0.23970583
-0.11513302 0.55989903 -0.40432286 0.053254794 -1.4859645 0.26337448 -0.7049636 0.120479144
0.4844792 0.8961546 0.16103598 0.7731179 -0.15608993 -0.5686142 -0.32526976 -0.93927324
0.59550303 0.51226217 -0.6855095 0.52441883 -0.9022812 0.16255425 -1.4000905 -0.75076497
-0.13664822 -0.51801205 -0.2712748 0.83724785 -1.7891035 -0.19550833 0.1389424 -0.17449136
-0.08764432 -0.026291434 -0.50794804 0.47360286 0.23479912 -0.1272861 -0.59911096 0.8734325
-0.7746036 -0.56040245 -1.0636907 0.16840228 0.76099515 0.16027597 -0.8318182 0.1960102
-0.43512094 -0.32901505 0.2066233 0.34300888 0.7794921 0.084586784 0.25504234 -0.56969464
00000000: 7bf5 94be 173d a3bf 34b4 cfbf fc18 66be
00000010: 9278 753f dde4 90bf 678c 30bd 7275 753e
00000020: dcca ebbd 8b55 0f3f 6803 cfbe b321 5a3d
00000030: 1634 bebf 05d9 863e 7f78 34bf c5bd f63d
00000040: a80d f83e 636a 653f 9ee6 243e 0eeb 453f
00000050: 0ad6 1fbe b390 11bf c289 a6be 3674 70bf
00000060: e372 183f 9d23 033f 8d7d 2fbf 5040 063f
00000070: e7fb 66bf 9f74 263e 2a36 b3bf 2232 40bf
00000080: 83ed 0bbe 709c 04bf 88e4 8abe e055 563f
00000090: 5801 e5bf 5633 48be eb46 0e3e ddad 32be
000000a0: de7e b3bd 2261 d7bc e208 02bf 137c f23e
000000b0: 2e6f 703e 4a57 02be 565f 19bf 4699 5f3f
000000c0: 6c4c 46bf 8976 0fbf 0427 88bf a671 2c3e
000000d0: 94d0 423f 621f 243e 0af2 54bf e6b6 483e
000000e0: 2cc8 debe a974 a8be 0f95 533e dc9e af3e
000000f0: cb8c 473f d63b ad3d e994 823e 82d7 11bf

0.model_cnn.layer3.1.running_var f4 [64]
0.22578137 0.5773126 0.95241874 0.31109515 0.5000822 0.2318752 0.37920082 0.2762119
0.5647435 0.3784327 0.34595007 0.3295539 0.51358646 0.38523206 0.2281748 0.34883675
0.35765758 0.5491376 0.5471491 0.38997293 0.3824812 0.21142855 0.35986954 0.6147878
0.24495046 0.3653309 0.41939232 0.32763004 0.5444133 0.37286496 0.34413147 0.6234707
0.31275225 0.33726278 0.58278507 0.68779695 0.81852853 0.20562327 0.42013872 0.3179469
0.46316993 0.31576604 0.44937232 0.24485339 0.419938 0.3501148 0.27939457 0.5681656
0.18881364 0.32627305 0.5521359 0.3707861 0.39261943 0.3142924 0.4195739 0.24745777
0.3286135 0.27163485 0.18505765 0.29977125 0.46552205 0.4639133 0.32469252 0.18827577
00000000: 3b33 673e c2ca 133f b7d1 733f dd47 9f3e
00000010: 6305 003f b170 6d3e 9c26 c23e a56b 8d3e
00000020: 0893 103f eec1 c13e 5e20 b13e 4abb a83e
00000030: 677a 033f 233d c53e a8a6 693e bb9a b23e
00000040: e51e b73e 4894 0c3f f711 0c3f 88aa c73e
00000050: 93d4 c33e ba80 583e d240 b83e bc62 1d3f
00000060: 4bd4 7a3e a70c bb3e 97ba d63e 20bf a73e
00000070: ac5e 0b3f 28e8 be3e 0032 b03e c79b 1f3f
00000080: 1021 a03e b5ad ac3e 6731 153f 7613 303f
00000090: 168b 513f e88e 523e 6c1c d73e f0c9 a23e
000000a0: 9c24 ed3e 16ac a13e 2114 e63e d9ba 7a3e
000000b0: 1d02 d73e 3f42 b33e ce0c 8f3e 4d73 113f
000000c0: 5d58 413e 430d a73e c758 0d3f add7 bd3e
000000d0: 6a05 c93e efea a03e 64d2 d63e 9265 7d3e
000000e0: 0740 a83e b913 8b3e c17f 3d3e 9e7b 993e
000000f0: e858 ee3e 0b86 ed3e 193e a63e 5dcb 403e

0.model_cnn.layer4.0.weight f4 [128, 64, 3]
0.05784657 0.09486301 0.00040955335 0.0014045099 0.07645901 0.048942585 0.043111153 -0.012174708
0.0033948855 0.051579565 0.07050345 0.036711823 0.09269646 0.09824415 0.046164 -0.03565542
0.010923327 0.055307865 -0.008682582 -0.023807775 0.06441537 -0.016774688 0.008967445 0.06366132
0.051634025 -0.010592203 0.029972319 0.011160473 0.050033204 -0.052996032 0.004245335 0.020477904
0.052308377 -0.049432527 0.018535014 -0.023815345 0.075368285 -0.019903978 0.117098264 0.04804633
-0.085517906 -0.048902895 -0.06300905 0.03893745 -0.066437654 0.01814442 -0.032656062 0.064450786
0.012451547 0.018713066 -0.0635166 0.12302998 0.00752191 0.02363665 0.02931741 -0.030552326
-0.005402113 0.09151409 0.06829022 0.031637672 0.063756615 0.033090744 0.10484677 0.01960737
0.124912895 0.008317548 0.027358329 -0.05057068 0.014105443 0.06332655 0.065120354 -0.0006087518
0.08067215 0.039568193 0.12659946 -0.07141355 -0.056686804 -0.023262704 0.0359296 0.003654494
0.063744344 0.08187282 0.11169504 0.12311908 0.0035565302 0.021758933 0.11358859 -0.039989587
-0.053301495 -0.06277017 0.10223 0.03034662 0.0059587634 0.047387317 0.058824975 -0.04616713
0.026690008 0.014774941 -0.02457766 0.047194425 0.090432145 -0.015867172 0.060758684 -0.03353099
0.060538106 -0.027196245 -0.006777378 -0.017546024 0.09322773 0.12382707 0.09269201 -0.021114236
-0.023791991 0.009567528 0.0711986 0.026207736 0.011671256 -0.0007783466 0.049984176 0.059642263
-0.0393067 -0.068234846 0.046220604 -0.021622822 -0.0107495375 0.0013917111 -0.00094480935 0.13901855
-0.07168144 0.017040374 -0.120106675 -0.0037310263 0.045659937 0.066531986 -0.051736426 -0.0015138553
0.12143134 0.12952347 0.029031029 0.004224322 0.06265425 0.034074448 -0.07014929 0.024967607
-0.015610708 0.07421202 0.01849086 0.036838893 0.004628474 0.014605667 0.08232196 0.0576761
0.07809431 -0.0008590979 -0.056745082 0.040481325 0.036688846 0.043442864 0.040730443 0.070590295
-0.03628895 0.06390009 0.029267436 0.001451503 -0.04654059 -0.044726487 0.0111073945 0.0072244653
-0.09050787 -0.016925944 0.0030055977 -0.020673042 0.038722984 0.06094177 -0.096921206 -0.08016851
0.023066198 -0.030813372 0.004885375 0.05934965 0.06928266 0.04534329 0.008836629 0.048471536
-0.051494904 -0.07785294 0.031183053 0.030980125 -0.009042517 -0.054198164 -0.029327633 -0.020910932
0.060782153 0.0036168876 0.017294172 -0.050194 -0.022537438 0.048648532 0.07349168 0.009523077
0.009379206 -0.06119034 0.014279028 -0.006506449 -0.02690702 0.04733841 0.06088812 0.030178538
0.03578231 0.094059005 -0.0435254 0.011963446 0.011183205 -0.015690405 -0.03858506 -0.00027276654
0.08618892 0.11784138 -0.0006833908 -0.003406924 0.066812254 -0.03818634 -0.044949923 -0.0309076
-0.08314477 -0.025154397 0.0006970768 -0.04374101 0.012486009 0.078136474 0.1273027 -0.04621426
0.009762817 -0.0047583184 -0.022415038 -0.008368869 -0.010744483 0.07185021 -0.023286723 -0.030218149
0.016910145 0.009598295 -0.010904283 0.0015723633 0.062004015 0.08753934 0.009333646 0.04964334
0.093630135 -0.028433884 -0.050132513 -0.04139307 0.059071235 0.038047746 0.061246224 0.06896082
00000000: 86f0 6c3d 8a47 c23d 52b9 d639 8817 b83a
00000010: 8b96 9c3d 0578 483d 5295 303d 6d78 47bc
00000020: ba7c 5e3b 1845 533d 1d64 903d 235f 163d
00000030: a4d7 bd3d 3b34 c93d 7616 3d3d 6b0b 12bd
00000040: c1f7 323c 808a 623d 6341 0ebc 8608 c3bc
00000050: 35ec 833d 126b 89bc 31ec 123c de60 823d
00000060: 337e 533d eb8a 2dbc 8288 f53c 6bda 363c
00000070: 9eef 4c3d 5e12 59bd 731c 8b3b 47c1 a73c
00000080: 4f41 563d c379 4abd bed6 973c 6618 c3bc
00000090: b05a 9a3d ab0d a3bc 37d1 ef3d 3bcc 443d
000000a0: 0324 afbd 674e 48bd e40a 81bd e07c 1f3d
000000b0: 7710 88bd 9ba3 943c 5dc2 05bd c6fe 833d
000000c0: 9301 4c3c 254c 993c fe14 82bd 24f7 fb3d
000000d0: 5b7a f63b a6a1 c13c 112b f03c df48 fabc
000000e0: 3504 b1bb bd6b bb3d bedb 8b3d 8196 013d
000000f0: d492 823d 298a 073d e7b9 d63d a39f a03c
00000100: 55d2 ff3d 5346 083c 931e e03c 3423 4fbd
00000110: 841a 673c 5ab1 813d d25d 853d a494 1fba
00000120: 7137 a53d 4212 223d 4aa3 013e 4441 92bd
00000130: 6c30 68bd 6d91 bebc eb2a 133d 3c80 6f3b
00000140: 658c 823d f0ac a73d 5ec0 e43d db25 fc3d
00000150: ad14 693b ca3f b23c 22a1 e83d 1fcc 23bd
00000160: ab52 5abd a68d 80bd f65d d13d 7a99 f83c
00000170: bb41 c33b 3419 423d 75f2 703d bf19 3dbd
00000180: 01a5 da3c 9812 723c 1757 c9bc f14e 413d
00000190: 7d34 b93d dffb 81bc 19de 783d cb57 09bd
000001a0: cef6 773d a9ca debc c414 debb aebc 8fbc
000001b0: 2eee be3d 0c99 fd3d 4fd5 bd3d c3f7 acbc
000001c0: 6ce7 c2bc 1fc1 1c3c 92d0 913d 9bb1 d63c
000001d0: cc38 3f3c f509 4cba 35bc 4c3d 724b 743d
000001e0: 1000 21bd b6be 8bbd d151 3d3d 5822 b1bc
000001f0: d41e 30bc 136a b63a 15ad 77ba e15a 0e3e
00000200: b8cd 92bd 4198 8b3c 7dfa f5bd 3c84 74bb
00000210: ea05 3b3d ec41 883d 93e9 53bd 8e6c c6ba
00000220: ffb0 f83d cda1 043e 7bd2 ed3c 2e6c 8a3b
00000230: df50 803d a691 0b3d 6eaa 8fbd de88 cc3c
00000240: 0ec4 7fbc 79fc 973d 257a 973c 61e4 163d
00000250: 74aa 973b 9c4c 6f3c 6a98 a83d c63d 6c3d
00000260: e9ef 9f3d 1635 61ba 886d 68bd bfcf 253d
00000270: 0b47 163d 25f1 313d f7d4 263d a591 903d
00000280: b9a3 14bd 0dde 823d 43c2 ef3c 5c40 be3a
00000290: 58a1 3ebd 1f33 37bd cafb 353c 35bb ec3b
000002a0: 315c b9bd 47a8 8abc 90f9 443b 835a a9bc
000002b0: fe9b 1e3d 149e 793d a07e c6bd 632f a4bd
000002c0: 53f5 bc3c 536c fcbc 7f15 a03b 9e18 733d
000002d0: 11e4 8d3d e3b9 393d 82c7 103c 178a 463d
000002e0: 52ec 52bd 5d71 9fbd 9a73 ff3c 08ca fd3c
000002f0: 1127 14bc e5fe 5dbd 8140 f0bc 674d abbc
00000300: b5f6 783d 4e09 6d3b 82ac 8d3c 3998 4dbd
00000310: 6fa0 b8bc af43 473d ce82 963d ae06 1c3c
00000320: 3eab 193c b9a2 7abd 96f2 693c 0d34 d5bb
00000330: 1c6c dcbc ece5 413d d265 793d fb38 f73c
00000340: 7990 123d 02a2 c03d b147 32bd 5402 443c
00000350: c339 373c 2a89 80bc 5e0b 1ebd 1b02 8fb9
00000360: d183 b03d d256 f13d 9525 33ba b346 5fbb
00000370: ddd4 883d 4869 1cbd 691d 38bd ef31 fdbc
00000380: ce47 aabd 9810 cebc 08bc 363a c629 33bd
00000390: 1e92 4c3c 0406 a03d a45b 023e 2a4b 3dbd
000003a0: 39f4 1f3c abeb 9bbb be9f b7bc 951d 09bc
000003b0: a109 30bc 3426 933d ccc3 bebc 0d8c f7bc
000003c0: 2587 8a3c 2b42 1d3c e1a7 32bc c217 ce3a
000003d0: ecf7 7d3d d347 b33d 26ec 183c d156 4b3d
000003e0: 28c1 bf3d 2dee e8bc c057 4dbd c88b 29bd
000003f0: aef4 713d f4d7 1b3d 52dd 7a3d 553b 8d3d

0.model_cnn.layer4.0.bias f4 [128]
0.00016653036 8.9323825e-05 -0.00013699218 8.200511e-05 -1.4623873e-05 3.954659e-05 -0.00020665405 -2.2327698e-05
7.128665e-05 -6.8626077e-06 -0.00061798544 -0.00013994113 3.0419826e-05 -0.000112062764 -8.6311185e-05 -8.680351e-05
5.1623596e-05 0.00025499114 -0.00044412463 -7.180363e-05 -0.00026194548 -0.00013115621 -0.00015439863 6.3121675e-05
-0.00026580563 0.00016173825 -8.659176e-05 0.00016351035 0.00032596005 0.00012684039 0.000116813084 2.5541402e-05
-4.151216e-05 -3.0948446e-05 2.6426718e-05 -8.645413e-06 -0.00013476098 0.00014115372 -5.0913157e-05 6.971858e-05
-6.1770894e-05 -0.0001984706 -4.3280386e-05 -2.1397609e-05 -0.000111983965 -3.8338345e-05 -7.6227094e-05 -6.238399e-05
0.00044784602 -3.9250048e-05 -5.2514744e-05 -3.4782523e-05 8.817866e-05 -5.481016e-05 4.796242e-06 5.890439e-05
0.0001026365 -2.624554e-05 1.6966107e-05 5.6289788e-05 -0.00022824446 -0.00010977481 0.00032207367 -7.6155615e-05
-9.132302e-05 -8.8127344e-05 6.718758e-05 6.866577e-05 -0.00012690376 -6.031554e-06 9.6733165e-06 -9.630037e-05
-1.0140491e-05 0.00011185186 0.00012364783 -0.00010436939 -0.00013777617 -9.656264e-05 4.581752e-05 0.00021902798
-4.8688653e-06 -3.081989e-05 -7.0604365e-05 4.631523e-05 0.0003795535 -1.1322856e-05 -1.10186775e-05 7.878898e-05
1.1128577e-06 0.00023074643 -0.0001291364 -0.0001824618 -0.00026768507 -2.6009207e-05 0.0001630968 1.2284833e-05
6.570512e-05 0.00032372933 0.00016277202 -7.891492e-05 0.00022657789 -3.3717646e-05 -0.00013256236 -1.1680265e-05
0.00017079446 9.828597e-06 5.6010624e-05 6.207071e-06 5.83004e-05 5.544353e-05 -2.9592476e-05 1.4903586e-05
6.1428604e-05 -2.388514e-05 8.027426e-05 -4.5554363e-05 0.00014124095 1.94285e-05 6.190708e-05 3.690972e-05
-4.1401323e-05 -0.00013667185 0.00012494532 -6.167802e-07 1.7636281e-05 -1.6895963e-05 0.00027786932 -3.208552e-05
00000000: a79e 2e39 5d53 bb38 8fa5 0fb9 28fa ab38
00000010: 0e59 75b7 d4de 2538 46b1 58b9 5e4c bbb7
00000020: bb7f 9538 5a45 e6b6 4d00 22ba 29bd 12b9
00000030: 142e ff37 3d03 ebb8 f701 b5b8 480a b6b8
00000040: 6a86 5838 55b0 8539 66d9 e8b9 4895 96b8
00000050: ba55 89b9 fa86 09b9 11e6 21b9 3160 8438
00000060: d45b 8bb9 4898 2939 9998 b5b8 fa73 2b39
00000070: 9ee5 aa39 7500 0539 8cf9 f438 be41 d637
00000080: 581d 2eb8 a4ce 01b8 f2ae dd37 c40b 11b7
00000090: a04e 0db9 aa02 1439 968b 55b8 e135 9238
000000a0: ff8a 81b8 8c1c 50b9 f687 35b8 047f b3b7
000000b0: efd8 eab8 7ccd 20b8 1cdc 9fb8 26d4 82b8
000000c0: e0cc ea39 6ba0 24b8 4743 5cb8 73e3 11b8
000000d0: 8fec b838 f6e3 65b8 68ef a036 1b10 7738
000000e0: 8d3e d738 de29 dcb7 7052 8e37 b318 6c38
000000f0: e854 6fb9 e736 e6b8 ffdb a839 bcb5 9fb8
00000100: ac84 bfb8 02d1 b8b8 0fe7 8c38 a800 9038
00000110: 7811 05b9 a862 cab6 944a 2237 def4 c9b8
00000120: 1421 2ab7 0392 ea38 76a7 0139 e4e0 dab8
00000130: 0278 10b9 ac81 cab8 302c 4038 e0aa 6539
00000140: 3c5f a3b6 9b44 01b8 6e11 94b8 9942 4238
00000150: cffe c639 4cf7 3db7 dcdc 38b7 833b a538
00000160: 805d 9535 86f4 7139 ca68 07b9 3753 3fb9
00000170: 1558 8cb9 592e dab7 f704 2b39 f51a 4e37
00000180: 2bcb 8938 37ba a939 c8ad 2a39 207f a5b8
00000190: 8a95 6d39 0c6c 0db8 7000 0bb9 5bf6 43b7
000001a0: 4a17 3339 81e5 2437 f3ec 6a38 5546 d036
000001b0: 9487 7438 098c 6838 5c3d f8b7 6a0a 7a37
000001c0: 3bd3 8038 f35c c8b7 ea58 a838 a011 3fb8
000001d0: 141a 1439 63fa a237 1cd4 8138 83cf 1a38
000001e0: 55a6 2db8 924f 0fb9 c103 0339 d090 25b5
000001f0: a0f1 9337 cebb 8db7 fdae 9139 9193 06b8

0.model_cnn.layer4.1.weight f4 [128]
1.0670975 1.0009723 1.0134357 1.0501329 0.9885684 0.96481705 1.0443555 0.9658569
1.0461142 0.964326 1.0018384 1.0407836 0.9869353 0.99324924 1.0446104 1.0523001
1.0877063 1.0390196 1.0386201 1.005421 1.0140848 0.9766877 0.953368 1.0052662
1.0070837 0.9990159 0.9685202 1.058064 1.0444754 1.0301687 1.0131297 0.9982587
1.0071548 1.0275145 0.96577734 1.0656264 1.0027708 1.0482095 1.0325729 0.9811508
0.9321689 1.0288527 1.011465 0.99820197 0.97452784 0.8990976 0.94383603 0.96063095
1.0696115 0.94552726 1.0606737 0.97771454 1.0034935 0.98907983 0.98358774 1.0103093
0.945367 0.97684634 1.0078148 1.0110976 0.98571354 1.0267326 0.99654055 0.9838452
0.9564453 1.0178746 1.0253568 1.0580462 1.0272373 1.0270544 0.89460903 1.0681449
0.9920306 1.0433891 1.0561929 1.039988 1.0132271 1.0241559 1.0204922 0.89863664
0.8952566 0.9656059 1.0522894 0.9510102 1.0317131 0.913311 0.9863635 1.0009413
1.0959802 0.98262966 1.0048568 0.99860114 1.0556115 1.0416299 1.0125085 0.9282905
1.0017593 1.0185963 1.0067002 1.0408167 0.98546475 1.0085133 1.0276449 0.8834662
1.0220299 1.0031166 1.0526633 0.84369653 1.026477 1.034242 1.055728 0.981667
1.0262822 1.0204959 1.0166172 1.0529761 1.062341 0.9825106 1.0488515 1.0293684
0.87244093 1.0051581 0.96454704 1.0222155 0.95963484 1.02485 0.9747623 1.0184307
00000000: a796 883f dc1f 803f 43b8 813f c16a 863f
00000010: d212 7d3f 40fe 763f 71ad 853f 6642 773f
00000020: 12e7 853f 12de 763f 3e3c 803f 6638 853f
00000030: cba7 7c3f 9545 7e3f cbb5 853f c5b1 863f
00000040: f639 8b3f 98fe 843f 81f1 843f a3b1 803f
00000050: 88cd 813f 3508 7a3f ed0f 743f 90ac 803f
00000060: 1ee8 803f 82bf 7f3f f1f0 773f a46e 873f
00000070: 5fb1 853f 91dc 833f 3cae 813f e28d 7f3f
00000080: 73ea 803f 9885 833f 2f3d 773f 7266 883f
00000090: cb5a 803f bb2b 863f 592b 843f b32c 7b3f
000000a0: 9fa2 6e3f 72b1 833f af77 813f 2a8a 7f3f
000000b0: a87a 793f 432b 663f 3d9f 713f e9eb 753f
000000c0: 08e9 883f 130e 723f 28c4 873f 804b 7a3f
000000d0: 7a72 803f 5634 7d3f 68cc 7b3f d151 813f
000000e0: 9203 723f 9a12 7a3f 1300 813f a56b 813f
000000f0: b957 7c3f f96b 833f 481d 7f3f 47dd 7b3f
00000100: 99d9 743f b749 823f e43e 833f 0f6e 873f
00000110: 837c 833f 8576 833f 1905 653f f9b8 883f
00000120: b8f5 7d3f c68d 853f 5431 873f 541e 853f
00000130: 6db1 813f 8a17 833f 7d9f 823f 0d0d 663f
00000140: 892f 653f f331 773f 6bb1 863f 6875 733f
00000150: 2d0f 843f c0ce 693f 5182 7c3f d81e 803f
00000160: 1449 8c3f 9e8d 7b3f 269f 803f 53a4 7f3f
00000170: 471e 873f 2154 853f e199 813f 72a4 6d3f
00000180: a639 803f 5d61 823f 8ddb 803f 7b39 853f
00000190: 6b47 7c3f f716 813f de89 833f d72a 623f
000001a0: e0d1 823f 2066 803f acbd 863f 7ffc 573f
000001b0: 9963 833f 0b62 843f 1822 873f 874e 7b3f
000001c0: 375d 833f 9c9f 823f 8320 823f ecc7 863f
000001d0: cafa 873f d185 7b3f c440 863f 58c2 833f
000001e0: 4a58 5f3f 05a9 803f 8eec 763f f5d7 823f
000001f0: a1aa 753f 492e 833f 068a 793f f05b 823f

0.model_cnn.layer4.1.bias f4 [128]
-0.073120266 -0.09993347 -0.06533486 -0.04351306 -0.109705545 -0.13773134 -0.118639775 -0.07726004
-0.060379248 -0.051185835 -0.03429887 -0.054772 -0.096163504 -0.090493016 -0.09002701 -0.081888534
-0.091649756 -0.082279414 -0.08691494 -0.14110011 -0.044502076 -0.122616366 -0.13953757 -0.11422252
-0.12972857 -0.088065386 -0.105680384 -0.096166946 -0.10708145 -0.048850212 -0.08448314 -0.1109043
-0.04508225 -0.033936895 -0.089303754 -0.0883295 -0.0878803 -0.042534716 -0.11699182 -0.13664067
-0.08462696 -0.080744274 -0.12825757 -0.081571765 -0.09976195 -0.1281626 -0.10950423 -0.0644153
-0.06939931 -0.092072904 -0.1055845 -0.080687195 -0.042109426 -0.081483774 -0.11086558 -0.053124186
-0.10833606 -0.10240046 -0.0614197 -0.053134117 -0.10943822 -0.10055905 -0.044299573 -0.08880583
-0.071636185 -0.09861879 -0.071582474 -0.11671555 -0.056152 -0.06988815 -0.12532796 -0.12098539
-0.08670436 -0.054868825 -0.08335361 -0.047785316 -0.07133325 -0.079761274 -0.0875812 -0.14753573
-0.13140291 -0.13883083 -0.13013078 -0.146075 -0.123679996 -0.09912555 -0.12196783 -0.041870046
-0.13283804 -0.10909396 -0.082692906 -0.058732923 -0.063654214 -0.10560202 -0.09356792 -0.0816671
-0.14102082 -0.10899689 -0.047607377 -0.13440314 -0.112938255 -0.09039787 -0.055794127 -0.1344543
-0.10897148 -0.07908128 -0.077333055 -0.1625928 -0.07530452 -0.11407158 -0.12234036 -0.08904218
-0.0896773 -0.05501798 -0.061500918 -0.08104741 -0.06719285 -0.13770649 -0.08784677 -0.06260066
-0.1595638 -0.072123036 -0.058325585 -0.09451799 -0.12261796 -0.09202267 -0.11275408 -0.06793827
00000000: 14c0 95bd eba9 ccbd 48ce 85bd c03a 32bd
00000010: 4dad e0bd 7209 0dbe 69f9 f2bd 833a 9ebd
00000020: 3b50 77bd 3da8 51bd f97c 0cbd 9b58 60bd
00000030: 5ff1 c4bd 6754 b9bd 1560 b8bd 2db5 a7bd
00000040: deb2 bbbd 1c82 a8bd 7600 b2bd 8c7c 10be
00000050: cf47 36bd 4a1e fbbd f0e2 0ebe 7fed e9bd
00000060: 91d7 04be a05b b4bd f56e d8bd 2df3 c4bd
00000070: 854d dbbd 2917 48bd 7f05 adbd cb21 e3bd
00000080: 2aa8 38bd 6a01 0bbd e3e4 b6bd 19e6 b4bd
00000090: 96fa b3bd e238 2ebd 6899 efbd 88eb 0bbe
000000a0: e650 adbd 415d a5bd f455 03be 190f a7bd
000000b0: fe4f ccbd 0e3d 03be c143 e0bd 2bec 83bd
000000c0: 3a21 8ebd b890 bcbd b03c d8bd 543f a5bd
000000d0: ef7a 2cbd f7e0 a6bd 7e0d e3bd bf98 59bd
000000e0: 4cdf ddbd 55b7 d1bd 3993 7bbd 29a3 59bd
000000f0: 2521 e0bd e7f1 cdbd 7873 35bd d5df b5bd
00000100: feb5 92bd a6f8 c9bd d599 92bd 9008 efbd
00000110: a4ff 65bd 8521 8fbd f955 00be 30c7 f7bd
00000120: 0e92 b1bd 22be 60bd 4cb5 aabd 89ba 43bd
00000130: 2b17 92bd e159 a3bd c65d b3bd 9b13 17be
00000140: 7c8e 06be ab29 0ebe 0141 05be af94 15be
00000150: f04b fdbd 5602 cbbd 45ca f9bd ed7f 2bbd
00000160: b206 08be a76c dfbd e65a a9bd ef91 70bd
00000170: 245d 82bd df45 d8bd 8aa0 bfbd 1541 a7bd
00000180: c367 10be c339 dfbd f4ff 42bd faa0 09be
00000190: 2c4c e7bd 8522 b9bd 6288 64bd 63ae 09be
000001a0: 702c dfbd 5ef5 a1bd cb60 9ebd ba7e 26be
000001b0: 4239 9abd 5c9e e9bd 958d fabd bf5b b6bd
000001c0: bba8 b7bd 895a 61bd 63e8 7bbd 2ffc a5bd
000001d0: 689c 89bd ee02 0dbe 02e9 b3bd c634 80bd
000001e0: b164 23be 3eb5 93bd cfe6 6ebd a692 c1bd
000001f0: 201f fbbd 6276 bcbd 9ceb e6bd 3823 8bbd
