checkpoint/DA/s_0_1_t3/cnn_features_1d_0925-195851/52-0.9612-best_model.pth (torch, 944127 bytes, 30 tensors)

0.model_cnn.layer1.0.weight f4 [16, 1, 15]
-0.11631761 -0.06623954 -0.06217552 -0.10107999 -0.2228891 -0.10859003 -0.15166785 0.1390636
-0.24274671 0.015940662 -0.064777546 0.059909627 0.06679371 0.0889398 -0.030250264 -0.1573184
-0.08684061 -0.13974118 -0.12069309 0.18241969 -0.07612153 -0.019051107 -0.16972832 0.059990592
0.11984391 -0.08268837 -0.1941573 0.15055607 0.069816664 0.037908178 -0.035978075 -0.087962836
0.108116545 -0.12576678 -0.016962431 0.03687837 -0.08012642 0.020109786 0.11712674 -0.22255076
0.1785598 -0.08226679 -0.14653239 -0.00025504598 -0.24360889 -0.02824985 -0.09819111 -0.09261871
0.20938097 0.16880855 0.2857553 -0.08963372 -0.0051833005 -0.010690641 0.19164574 -0.02314402
-0.0015277092 -0.17762092 0.2565265 0.016571172 0.28502345 0.01836054 0.107556425 -0.0786572
-0.0037868067 0.07501892 -0.22394255 0.19687517 -0.12503989 0.058983922 0.12599804 -0.12762478
0.21473002 -0.2754336 -0.055829085 -0.023678306 0.2722519 0.023421595 0.031934734 0.11465026
-0.2234799 -0.17400718 0.03599529 0.1261031 0.12801686 -0.020040503 0.23171957 -0.16613832
-0.07624137 0.1547207 0.2819371 0.09565605 0.06755913 0.20297886 -0.078164905 -0.16263232
0.09716528 -0.039122585 -0.08991958 0.17814788 0.007422199 -0.12875092 0.19154999 0.20057663
-0.10216454 -0.08083115 -0.122124195 -0.08688121 0.023909679 0.21234031 0.06349008 0.20879321
-0.1795143 0.15374902 0.22423539 0.112645805 -0.19171903 -0.056269802 -0.08513549 0.10111563
0.19827023 -0.15289094 -0.09752697 -0.040345475 0.19943148 -0.21775107 -0.15421142 -0.16538888
-0.28344804 -0.21049057 0.22114293 -0.13343848 0.13567466 0.18688299 -0.29133946 0.19107178
-0.11423499 0.20549966 -0.06962961 0.013587583 0.14506188 -0.17472126 0.039189618 -0.14388132
-0.13735628 0.1677309 -0.2601381 0.22232085 -0.22651507 -0.13886708 -0.16205266 0.12405766
0.036623735 -0.16575453 -0.16241816 -0.07928686 -0.20024619 0.1574702 0.06675881 -0.25985894
0.061047815 -0.25039852 0.06422416 0.2506605 0.017898228 0.19328144 -0.104729 0.22541296
0.16693515 -0.20149143 -0.022961916 -0.2050325 -0.23971179 -0.09409863 -0.074340194 -0.13252668
-0.22435111 -0.13418864 -0.036231283 -0.008928146 -0.0143542895 0.19485404 0.20515645 0.14003092
0.09431502 0.03783511 -0.08648526 -0.017375108 -0.042533852 -0.17297123 -0.08780977 -0.22211878
0.01520524 0.15652859 -0.13876577 0.09713976 0.17751713 -0.18584102 -0.2388771 -0.1135144
-0.0026220419 0.20584297 0.19650522 -0.07295551 -0.16086711 -0.02677246 -0.27158052 -0.009114634
0.0979338 0.07069032 -0.015415028 -0.3393871 0.010665951 -0.11979339 0.011327272 0.13807148
0.06477041 -0.057510406 0.016561082 -0.13302612 -0.12636712 -0.14246555 -0.0133881215 -0.23729147
0.20948581 -0.2118423 0.085029624 0.16788396 0.22006086 0.105714336 0.13429508 0.036878657
0.09225484 0.2197337 -0.18020214 -0.07876923 0.03861507 0.0059850314 -0.07172343 -0.05853625
00000000: ed37 eebd 99a8 87bd c2ab 7ebd 0703 cfbd
00000010: 0a3d 64be 7364 debd d14e 1bbe b066 0e3e
00000020: 9892 78be fe95 823c 17aa 84bd cc63 753d
00000030: 24cb 883d 1226 b63d 67cf f7bc 1318 21be
00000040: 7dd9 b1bd 5018 0fbe f02d f7bd 3acc 3a3e
00000050: 9be5 9bbd 1111 9cbc 43cd 2dbe b2b8 753d
00000060: b970 f53d 8558 a9bd 2cd1 46be 5f2b 1a3e
00000070: 0afc 8e3d 9b45 1b3d bf5d 13bd dc25 b4bd
00000080: 356c dd3d 02c9 00be ccf4 8abc c60d 173d
00000090: 5219 a4bd 47bd a43c 25e0 ef3d 59e4 63be
000000a0: 61d8 363e 7e7b a8bd 960c 16be b1b7 85b9
000000b0: 9c74 79be 3b6c e7bc 6c18 c9bd e1ae bdbd
000000c0: f767 563e 26dc 2c3e 854e 923e e291 b7bd
000000d0: add8 a9bb cc27 2fbc c83e 443e 8798 bdbc
000000e0: 6a3d c8ba 42e2 35be 7157 833e 44c0 873c
000000f0: 98ee 913e d868 963c 8b46 dc3d 0717 a1bd
00000100: 132c 78bb 85a3 993d 3251 65be a599 493e
00000110: 750a 00be 2099 713d a105 013e 12b0 02be
00000120: 30e2 5b3e a205 8dbe 0aad 64bd 02f9 c1bc
00000130: 9a64 8b3e a5de bf3c ffcd 023d c1cd ea3d
00000140: ead7 64be f02e 32be cc6f 133d 2c21 013e
00000150: da16 033e fb2b a4bc e547 6d3e 2a20 2abe
00000160: 6f24 9cbd 1a6f 1e3e 0f5a 903e 52e7 c33d
00000170: 715c 8a3d b1d9 4f3e ec14 a0bd 1689 26be
00000180: 97fe c63d 013f 20bd c227 b8bd 666c 363e
00000190: eb35 f33b 48d7 03be ae25 443e f663 4d3e
000001a0: a43b d1bd cd8a a5bd 401c fabd c7ee b1bd
000001b0: 3bde c33c bd6f 593e 1607 823d e3cd 553e
000001c0: 99d2 37be 6270 1d3e f69d 653e d8b2 e63d
000001d0: fe51 44be 2a7b 66bd 845b aebd b615 cf3d
000001e0: 5a07 4b3e 718f 1cbe 38bc c7bd 4c41 25bd
000001f0: c437 4c3e 23fa 5ebe 99e9 1dbe b45b 29be
00000200: 1a20 91be d78a 57be 4b73 623e 19a4 08be
00000210: 4cee 0a3e 415e 3f3e 722a 95be 52a8 433e
00000220: 09f4 e9bd 816e 523e f899 8ebd 749e 5e3c
00000230: 1a8b 143e 21ea 32be 4b85 203d a055 13be
00000240: 20a7 0cbe a6c1 2b3e d230 85be 14a8 633e
00000250: 91f3 67be 2c33 0ebe 22f1 25be f111 fe3d
00000260: c502 163d 8ebb 29be f250 26be 2661 a2bd
00000270: 560d 4dbe de3f 213e d8b8 883d 3b0c 85be
00000280: 460d 7a3d 3c34 80be f587 833d 9356 803e
00000290: 4e9f 923c 92eb 453e 287c d6bd a8d2 663e
000002a0: 0cf1 2a3e c553 4ebe a11a bcbc 0af4 51be
000002b0: 0277 75be c8b6 c0bd ac3f 98bd 13b5 07be
000002c0: 4cbc 65be bf68 09be 4167 14bd 5c47 12bc
000002d0: 412e 6bbc d187 473e 8814 523e 4464 0f3e
000002e0: 3c28 c13d fdf8 1a3d 2f1f b1bd 3e56 8ebc
000002f0: fa37 2ebd 5f1f 31be 9cd5 b3bd 1b73 63be
00000300: 661f 793c 0849 203e 9d18 0ebe 36f1 c63d
00000310: 0dc7 353e 1c4d 3ebe 339c 74be 3d7a e8bd
00000320: 90d6 2bbb 80c8 523e aa38 493e b369 95bd
00000330: 59ba 24be eb51 dbbc 9a0c 8bbe 8c55 15bc
00000340: 8491 c83d 16c6 903d 508f 7cbc 25c4 adbe
00000350: 3ec0 2e3c 3d56 f5bd 0696 393c 9c62 0d3e
00000360: 59a6 843d 0890 6bbd 1bab 873c 0038 08be
00000370: 6266 01be 7de2 11be da59 5bbc 89fc 72be
00000380: 7383 563e 30ed 58be 0324 ae3d c6e9 2b3e
00000390: a257 613e c280 d83d a684 093e 130e 173d
000003a0: 1bf0 bc3d df01 613e e986 38be c351 a1bd
000003b0: d62a 1e3d 151e c43b bce3 92bd b5c3 6fbd

0.model_cnn.layer1.0.bias f4 [16]
-0.00021096687 0.0020264443 -0.009283033 -0.00080304104 -0.011163426 -0.00076691096 0.004305706 0.00093364925
6.974494e-05 0.0010951365 -0.0021256665 -0.00033497444 0.0029086238 0.00069974124 -0.00020487685 0.0030906517
00000000: fd36 5db9 18ce 043b dd17 18bc 2c83 52ba
00000010: cde6 36bc 860a 49ba e116 8d3b 24c0 743a
00000020: 0844 9238 af8a 8f3a c44e 0bbb 829f afb9
00000030: 9c9e 3e3b d76e 373a 36d4 56b9 888c 4a3b

0.model_cnn.layer1.1.weight f4 [16]
1.0309445 0.94623923 1.0745958 0.9681028 1.0145729 0.94109696 0.907753 0.9383839
0.9835003 1.0274731 1.1021959 0.9631786 1.0238247 0.974523 1.0607301 1.006034
00000000: fdf5 833f bc3c 723f 5b8c 893f 96d5 773f
00000010: 86dd 813f bbeb 703f 8062 683f ed39 703f
00000020: adc6 7b3f 3d84 833f c114 8d3f df92 763f
00000030: b00c 833f 577a 793f 01c6 873f b9c5 803f

0.model_cnn.layer1.1.bias f4 [16]
0.012219902 -0.027600544 0.07772734 -0.03279324 -0.01722103 -0.038917027 0.052926444 -0.11792332
0.029226268 0.12709187 0.008554656 -0.08268819 -0.03750723 0.0041258056 0.0014545711 -0.082811214
00000000: fc35 483c 891a e2bc 832f 9f3d 3452 06bd
00000010: 1e13 8dbc 7667 1fbd 66c9 583d c881 f1bd
00000020: ed6b ef3c 5f24 023e d428 0c3c 6d58 a9bd
00000030: 2ea1 19bd c431 873b 4fa7 be3a ed98 a9bd

0.model_cnn.layer1.1.running_mean f4 [16]
-9.850874e-05 0.0022477575 -0.008347167 -0.00081301335 -0.0116431825 5.3348722e-05 0.004514053 0.00032441842
0.00036393365 0.0013705159 -0.0017288018 -6.9542715e-05 0.0031151483 0.0010829481 -0.00043538178 0.0036679562
00000000: 7a96 ceb8 1d4f 133b 8ec2 08bc 6720 55ba
00000010: 0cc3 3ebc c1c2 5f38 9fea 933b b416 aa39
00000020: 59ce be39 e2a2 b33a f698 e2ba 76d7 91b8
00000030: 8427 4c3b b5f1 8d3a f443 e4b9 1862 703b

0.model_cnn.layer1.1.running_var f4 [16]
0.17531534 0.2815954 0.07988556 0.26764044 0.14477074 0.35629138 0.40789706 0.26830685
0.4390495 0.100463234 0.17178759 0.3398906 0.24833183 0.20947437 0.20459579 0.30326906
00000000: dd85 333e 462d 903e 0a9b a33d 2b08 893e
00000010: c83e 143e d36b b63e e2d7 d03e 845f 893e
00000020: 19cb e03e abbf cd3d 16e9 2f3e 2406 ae3e
00000030: b34a 7e3e 7380 563e 8f81 513e 1546 9b3e

0.model_cnn.layer2.0.weight f4 [32, 16, 3]
-0.038826417 -0.12569462 -0.15952381 -0.10348523 -0.08421849 -0.10081095 0.019249769 0.016848559
-0.14159389 -0.014793765 -0.19842233 -0.13845107 0.031757224 0.08142644 0.08747211 -0.06592109
-0.010242645 0.0724431 0.007939975 0.008611784 0.09929321 0.11465057 -0.1413501 -0.030480044
-0.055152703 -0.11869433 -0.05212851 0.08716645 -0.05212895 -0.040375948 0.028428718 0.0950914
-0.09485004 0.09306234 -0.1697723 0.04771696 -0.08690953 -0.1553142 -0.054366175 0.09787417
0.037054498 -0.058560096 -0.18174274 0.14862601 -0.04940677 -0.14277953 0.09422074 0.055344086
-0.049301952 -0.068953335 0.03547661 0.022061039 0.08584025 -0.0754357 -0.11802261 -0.046238255
0.1522724 -0.067230895 -0.08355989 0.059059277 0.0091586085 -0.09675501 -0.039807267 -0.08529471
0.032982636 -0.007059964 0.066270694 0.079039216 -0.103488214 0.008715713 0.10678702 -0.09053837
-0.061783236 -0.05285442 -0.026759371 0.023574293 -0.10355914 0.13094114 0.07891744 0.052216552
0.1512589 0.06917879 0.012557465 -0.0014643243 0.041076094 -0.16690584 0.053232398 -0.035375692
-0.1769454 -0.17926368 0.13641134 -0.030616023 0.010660791 0.050158832 0.02197961 0.021611376
-0.22666769 -0.006990205 0.058129273 -0.0659874 0.015424275 -0.20654082 0.026267847 -0.07546008
0.097260214 -0.11747122 -0.07321334 -0.016473807 -0.15436295 -0.0606504 0.16290312 -0.1492427
-0.1496764 -0.099042855 -0.14245573 -0.08941136 0.07854987 0.1400569 -0.05027094 0.010276272
-0.06647008 -0.03981532 -0.04738557 0.037063867 0.14638004 0.105898835 -0.20015052 -0.17205867
-0.041138694 0.053249937 -0.047193155 -0.008968732 0.076928645 -0.020366248 0.01387675 -0.09466452
-0.04229357 -0.01895256 -0.08305141 -0.16142447 -0.09261497 -0.066248275 -0.073178634 0.09352972
0.15052924 -0.120506585 -0.10271987 0.1733982 0.086709216 0.09619696 0.14011371 -0.10728049
-0.23072039 -0.11217856 0.01268364 0.028663913 0.039879978 -0.12645577 0.009617116 0.04644928
-0.06886576 -0.14497261 -0.12879898 0.03318356 0.053578418 -0.14069827 0.011621615 -0.073921755
-0.0856522 -0.09770381 -0.11771603 -0.010121693 -0.087710835 -0.08533695 -0.11909979 -0.11993841
0.08897466 -0.10423472 -0.05287733 -0.11743798 0.037680984 -0.04339805 0.059522837 0.029742368
-0.116545305 0.14441718 -0.14897667 0.09269805 -0.04847224 0.08867374 -0.015051843 -0.124178104
0.06401168 -0.09802846 0.061043892 -0.011444559 -0.1513071 -0.059557635 -0.06311224 0.10436271
0.05700511 0.08887998 0.040010303 0.110784926 -0.14508459 -0.021068662 0.08718734 -0.15281409
-0.10628571 0.035955247 -0.077845156 -0.18005103 0.12008806 0.09156912 0.07890636 0.100364044
0.16682956 -0.0518658 0.0065954425 -0.06129849 -0.13120726 -0.06425861 -0.051213376 0.16462196
0.10410606 0.13676111 -0.039913084 0.07746593 -0.105759025 0.060402818 -0.008470796 0.009530926
-0.008615688 0.1459633 0.096183084 -9.596838e-05 -0.08781611 -0.0025742163 0.07749098 0.0074173682
0.11267449 0.13749245 0.028616255 0.05599578 0.12914142 -0.13999969 0.13768852 0.14435068
0.19464068 -0.10165667 -0.0033634633 0.00034481366 0.08206245 -0.018573256 -0.12993315 0.1095855
00000000: 7308 1fbd 17b6 00be 365a 23be 10f0 d3bd
00000010: be7a acbd f975 cebd b1b1 9d3c fd05 8a3c
00000020: fdfd 10be 8c61 72bc 392f 4bbe 1ec6 0dbe
00000030: dd13 023d e8c2 a63d 9424 b33d a301 87bd
00000040: c4d0 27bc 0c5d 943d ab16 023c 7118 0d3c
00000050: 3d5a cb3d ebcd ea3d 15be 10be 49b1 f9bc
00000060: cde7 61bd 0316 f3bd b484 55bd 5384 b23d
00000070: 2a85 55bd 4061 25bd 58e3 e83c 48bf c23d
00000080: bd40 c2bd 7897 be3d cad8 2dbe dc72 433d
00000090: a0fd b1bd b00a 1fbe 11af 5ebd 4172 c83d
000000a0: 75c6 173d b6dc 6fbd c51a 3abe 6b31 183e
000000b0: c15e 4abd cc34 12be cef6 c03d 7bb0 623d
000000c0: d8f0 49bd 6837 8dbd ec4f 113d 5ab9 b43c
000000d0: 03cd af3d 087e 9abd d7b5 f1bd 5364 3dbd
000000e0: 4ced 1b3e 5ab0 89bd 7321 abbd 24e8 713d
000000f0: fd0d 163c 7e27 c6bd f20c 23bd feae aebd
00000100: cd18 073d 4557 e7bb eeb8 873d 50df a13d
00000110: a1f1 d3bd 5acc 0e3c 27b3 da3d 2e6c b9bd
00000120: 6b10 7dbd e07d 58bd 7836 dbbc e01e c13c
00000130: d016 d4bd 6f15 063e 779f a13d 06e1 553d
00000140: 9de3 1a3e 9cad 8d3d d3bd 4d3c 92ee bfba
00000150: 683f 283d 5de9 2abe 370a 5a3d 1ae6 10bd
00000160: 2d31 35be e690 37be 6aaf 0b3e 74ce fabc
00000170: 99aa 2e3c 5973 4d3d 950e b43c 570a b13c
00000180: 931b 68be 170e e5bb f618 6e3d 6724 87bd
00000190: 19b6 7c3c 707f 53be ab2f d73c d08a 9abd
000001a0: 5d30 c73d c094 f0bd e0f0 95bd 14f4 86bc
000001b0: 5211 1ebe 8e6c 78bd 13d0 263e 14d3 18be
000001c0: c544 19be fbd6 cabd eadf 11be 4e1d b7bd
000001d0: c1de a03d 136b 0f3e e7e8 4dbd cf5d 283c
000001e0: 7721 88bd 6415 23bd 5f17 42bd 48d0 173d
000001f0: a6e4 153e 7de1 d83d 42f4 4cbe 2630 30be
00000200: 0c81 28bd 9b1c 5a3d 9c4d 41bd 97f1 12bc
00000210: c48c 9d3d 1ed7 a6bc 4f5b 633c 79df c1bd
00000220: 063c 2dbd 6642 9bbc dc16 aabd 754c 25be
00000230: ebac bdbd 2dad 87bd aede 95bd 838c bf3d
00000240: 5624 1a3e 28cc f6bd cc5e d2bd 4c8f 313e
00000250: 9a94 b13d e902 c53d f879 0f3e e0b5 dbbd
00000260: f741 6cbe dfbd e5bd 0bcf 4f3c 95d0 ea3c
00000270: 3059 233d 9f7d 01be 1c91 1d3c 9a41 3e3d
00000280: 7e09 8dbd b373 14be e1e3 03be 7ceb 073d
00000290: 0b75 5b3d 3513 10be 9668 3e3c 4a64 97bd
000002a0: 6c6a afbd ef18 c8bd 1a15 f1bd 75d5 25bc
000002b0: bda1 b3bd 24c5 aebd 97ea f3bd 45a2 f5bd
000002c0: 5938 b63d 0379 d5bd e695 58bd 5383 f0bd
000002d0: 6057 1a3d 27c2 31bd 38ce 733d 44a6 f33c
000002e0: 4eaf eebd 19e2 133e 578d 18be 7ad8 bd3d
000002f0: d48a 46bd 949a b53d 019c 76bc 1751 febd
00000300: 8e18 833d 25c3 c8bd 2909 7a3d f681 3bbc
00000310: 40f0 1abe b5f2 73bd fd40 81bd 1ebc d53d
00000320: 317e 693d b506 b63d d8e1 233d 35e3 e23d
00000330: 0e91 14be 3098 acbc 478f b23d 4c7b 1cbe
00000340: 53ac d9bd cf45 133d 486d 9fbd 4c5f 38be
00000350: bbf0 f53d 9788 bb3d a899 a13d aa8b cd3d
00000360: 5ed5 2a3e 3c71 54bd 951e d83b 2014 7bbd
00000370: 325b 06be 059a 83bd 1ec5 51bd a992 283e
00000380: 8f35 d53d 1b0b 0c3e e77b 23bd 75a6 9e3d
00000390: 3098 d8bd f268 773d 18c9 0abc 9a27 1c3c
000003a0: d128 0dbc 6777 153e a3fb c43d a242 c9b8
000003b0: efd8 b3bd 2fb4 28bb 97b3 9e3d 650d f33b
000003c0: e2c1 e63d d2ca 0c3e a36c ea3c d55b 653d
000003d0: a63d 043e 145c 0fbe 38fe 0c3e aad0 133e
000003e0: e34f 473e 5f31 d0bd 8d6d 5cbb 1bc8 b439
000003f0: 5c10 a83d f126 98bc 320d 05be 5d6e e03d

0.model_cnn.layer2.0.bias f4 [32]
-0.00010506466 -0.0012981076 0.0020825411 -0.00037986075 0.00020542307 0.00014155364 0.00019090805 0.006332576
0.00054103637 -0.0026489482 0.00020567272 -0.0004981095 0.0070331106 -0.0022899874 0.0006376781 -0.00073034986
-0.0012054592 -0.0021967122 0.001114524 -0.0010108587 -0.0004571154 0.0030808845 -0.003601315 0.0023236154
0.00024934462 -0.00046657742 -0.0002545895 0.0020940613 0.00016289233 -0.0020700041 -0.0018250247 -0.022785947
00000000: 2956 dcb8 4325 aaba 3e7b 083b 0c28 c7b9
00000010: d666 5739 046e 1439 7d2e 4839 7f81 cf3b
00000020: 56d4 0d3a fa99 2dbb daa9 5739 9093 02ba
00000030: 0276 e63b 9d13 16bb da29 273a f374 3fba
00000040: 8000 9eba b7f6 0fbb 3815 923a ca7e 84ba
00000050: fea8 efb9 aae8 493b 0a04 6cbb cc47 183b
00000060: 78ba 8239 f69e f4b9 6d7a 85b9 853c 093b
00000070: 14ce 2a39 e8a8 07bb ab35 efba 98a9 babc

0.model_cnn.layer2.1.weight f4 [32]
1.0183675 1.0089465 1.0583168 0.9972493 0.96434975 0.9733788 1.075098 0.93821514
0.96400476 1.0093755 0.9084955 0.9968332 1.1072317 0.9483895 0.9756036 0.96222764
0.9513624 1.0168902 0.97416514 0.9807701 1.010443 1.0169505 1.0072439 1.0501666
1.0459524 0.9708707 1.0100416 1.019108 1.0220777 0.97921133 1.0388808 0.9895181
00000000: de59 823f 2925 813f ed76 873f bb4b 7f3f
00000010: a0df 763f 5a2f 793f d09c 893f de2e 703f
00000020: 04c9 763f 3733 813f 2993 683f 7630 7f3f
00000030: c5b9 8d3f a7c9 723f 28c1 793f 8d54 763f
00000040: 7c8c 733f 7529 823f e362 793f c013 7b3f
00000050: 3256 813f 6f2b 823f 5eed 803f dc6b 863f
00000060: c5e1 853f fb8a 783f 0b49 813f 2272 823f
00000070: 71d3 823f 98ad 7a3f 0cfa 843f 0f51 7d3f

0.model_cnn.layer2.1.bias f4 [32]
0.023640761 -0.058267727 0.010585824 -0.061073907 -0.044071924 -0.07220517 0.00040393943 0.008341322
-0.095611915 -0.033003706 -0.15223417 -0.1814238 0.021017594 -0.07595387 -0.036091413 -0.1109129
-0.029919313 -0.14302275 -0.04413284 -0.14848481 -0.060778826 0.0026821918 -0.06519523 -0.15519299
-0.008036376 -0.12646458 0.069877684 0.04934962 -0.06854097 -0.10281522 -0.02556988 0.029935217
00000000: 45aa c13c 24aa 6ebd 2a70 2d3c a228 7abd
00000010: c384 34bd 4ee0 93bd d5c7 d339 0aaa 083c
00000020: 2ed0 c3bd e52e 07bd 46e3 1bbe 29c7 39be
00000030: 172d ac3c b48d 9bbd 97d4 13bd 4d26 e3bd
00000040: 5919 f5bc 8e74 12be a3c4 34bd 670c 18be
00000050: 38f3 78bd b6c7 2f3b 1485 85bd e9ea 1ebe
00000060: 01ab 03bc ee7f 01be 081c 8f3d d422 4a3d
00000070: 355f 8cbd c990 d2bd ed77 d1bc b33a f53c

0.model_cnn.layer2.1.running_mean f4 [32]
-0.4621141 -0.085836284 -0.6369455 -0.5285412 0.13101238 0.60981405 -0.35776716 -0.03868014
-0.23380075 -0.021393552 0.12422047 0.27937436 -0.20778857 -0.031302553 -0.27264476 0.3613944
0.013179495 0.15034649 -0.29031754 0.16799062 -0.14065208 -0.12320634 0.00031932624 0.17734613
-0.12299625 0.6144778 -0.022984533 -0.20166002 0.12194986 0.052643392 -0.26104912 0.017140793
00000000: 389a ecbe efca afbd dc0e 23bf 7a4e 07bf
00000010: 1c28 063e c61c 1c3f 422d b7be 116f 1ebd
00000020: 7769 6fbe 8841 afbc 4d67 fe3d 280a 8f3e
00000030: 87c6 54be 1b37 00bd 1898 8bbe b008 b93e
00000040: cfee 573c 6ef4 193e 80a4 94be bc05 2c3e
00000050: 1907 10be 9b53 fcbd 3e6b a739 399a 353e
00000060: 75e5 fbbd 6b4e 1d3f 0f4a bcbc f77f 4ebe
00000070: d9c0 f93d 99a0 573d 3ba8 85be d96a 8c3c

0.model_cnn.layer2.1.running_var f4 [32]
0.22985023 0.08138957 0.28965527 0.30316487 0.18739061 0.33256555 0.254731 0.17941445
0.1608888 0.19687133 0.3072798 0.14599526 0.121189855 0.22396319 0.21526286 0.19268125
0.11768856 0.14782268 0.17399786 0.13558976 0.17508401 0.20934293 0.2265167 0.19073941
0.11446769 0.256529 0.13659376 0.12839022 0.2644481 0.21777861 0.21484901 0.08286532
00000000: dc5d 6b3e 93af a63d b24d 943e 6d38 9b3e
00000010: 53e3 3f3e 0846 aa3e 1a6c 823e 6cb8 373e
00000020: 09c0 243e a398 493e c753 9d3e c87f 153e
00000030: 6332 f83d 9b56 653e de6d 5c3e 3c4e 453e
00000040: b306 f13d d45e 173e 7f2c 323e 0bd8 0a3e
00000050: 3949 333e fe5d 563e fef3 673e 3151 433e
00000060: 096e ea3d c557 833e 3cdf 0b3e ba78 033e
00000070: be65 873e 5b01 5f3e 6101 5c3e 4bb5 a93d

0.model_cnn.layer3.0.weight f4 [64, 32, 3]
0.091740415 -0.07686594 0.13327698 0.030690739 0.056921184 -0.018826103 -0.2026312 -0.13925445
-0.018269174 0.043548647 -0.0028439863 -0.0133890975 0.009694375 -0.060049582 -0.02578278 -0.06489426
0.035654224 0.043499943 -0.08939561 -0.05396954 -0.059593696 -0.014140655 0.016597198 0.06350407
0.02775969 0.07008304 0.019109538 -0.12388378 0.047461286 -0.02627606 0.01521677 -0.0076484107
0.06553333 0.040453088 -0.06330785 -0.10734078 -0.04641442 -0.05949966 0.09193319 -0.057834636
-0.03269366 0.025496185 0.026575292 -0.032488603 -0.012084591 -0.04719761 -0.09526052 -0.07827848
0.06424529 0.061171107 0.06488148 0.09452835 0.049147353 0.025960775 0.000882487 0.06217017
0.05205235 -0.13069443 0.055089682 -0.04104015 -0.10973287 -0.08497008 -0.10520107 0.021413408
-0.0060071917 -0.076915555 0.010217167 0.019052347 0.040997267 0.06722841 0.094947234 -0.100674
-0.032826878 -0.055820137 0.04051505 -0.09904986 0.06503783 0.050788764 0.1084651 -0.04717926
0.10632124 0.06749767 -0.020112941 -0.044249017 -0.10444891 0.018318081 -0.057445753 -0.054694127
0.047298536 -0.06472986 0.037183907 0.031857755 -0.062041238 0.09834972 -0.028570512 -0.0045309365
0.033120267 -0.06342019 -0.09719268 -0.06878714 0.0470955 -0.026010549 0.033029813 0.0560662
0.115042984 0.0038692884 0.05453973 0.04731514 -0.119160734 0.047647424 0.035470612 0.032068457
0.042098355 -0.1060581 -0.106175356 0.008137233 -0.017370634 0.12169728 -0.08477634 -0.035355084
0.102050245 -0.11630417 -0.06241954 -0.08356529 -0.091595344 -0.0301703 0.010134771 -0.066990644
-0.03248079 -0.07899327 -0.007143355 -0.046350695 -0.18533386 -0.11444449 -0.087052874 0.012065943
-0.013752854 0.120540895 0.03810513 -0.14730924 -0.02773178 -0.017089784 0.096267566 -0.06402355
-0.0029622428 -0.1285815 -0.107538566 -0.021588672 0.037334744 0.09013806 0.096866064 0.026418332
0.014744705 0.10752246 0.012067044 0.0091601815 0.019903589 -0.09456693 0.14327201 -0.16562654
-0.100962274 -0.053006403 0.014571341 -0.042282704 -0.030279817 -0.081440404 -0.034842603 0.047726426
0.03606826 -0.01461534 -0.03077123 -0.006469304 0.003982503 -0.037815772 -0.13505708 -0.12543634
-0.06891869 -0.02203752 -0.043154545 -0.034029502 -0.06154176 0.0022657705 -0.026277311 -0.008688514
-0.0774327 -0.09666076 -0.09557809 0.05011272 -0.023853844 -0.102331534 -0.12439106 -0.023719413
-0.09052481 -0.002486676 -0.076964684 0.053208273 -0.036364343 -0.06379244 0.109442376 0.076668635
0.076902814 -0.032843996 0.035854265 0.0036898993 -0.017912485 -0.04687092 -0.15483984 -0.098507434
-0.0039998596 0.04626511 -0.09361401 -0.09950694 -0.04294106 -0.010592147 -0.020132756 -0.027761662
-0.034126926 0.042933132 -0.14890619 -0.030539684 -0.13596062 -0.19251451 0.03392159 -0.05042831
0.0519601 -0.06460718 -0.07993516 0.07336855 -0.06236498 0.014252164 0.005676032 0.093728304
-0.04403076 -0.02195977 -0.040854022 -0.062056012 0.0031205504 0.032511946 -0.13937773 -0.07197398
-0.12954319 -0.090045616 0.028985707 0.0032090687 -0.049888596 -0.00013690074 0.0071425526 -0.06555728
-0.062269606 0.044910192 -0.13796702 0.046246737 -0.0016472817 -0.085602775 -0.042360708 0.041303486
00000000: 66e2 bb3d e46b 9dbd c379 083e 256b fb3c
00000010: 3026 693d 3339 9abc 8e7e 4fbe b898 0ebe
00000020: 3ca9 95bc 1160 323d 2c62 3abb f25d 5bbc
00000030: 28d5 1e3c 8df6 75bd 6936 d3bc 48e7 84bd
00000040: 2a0a 123d ff2c 323d 0c15 b7bd 2a0f 5dbd
00000050: 8518 74bd 35ae 67bc d9f6 873c 6c0e 823d
00000060: 4a68 e33c b287 8f3d 9b8b 9c3c c7b6 fdbd
00000070: c466 423d e440 d7bc c24f 793c 859f fabb
00000080: 5736 863d 23b2 253d 8ca7 81bd 7cd5 dbbd
00000090: 0c1d 3ebd eab5 73bd 7847 bc3d 03e4 6cbd
000000a0: cae9 05bd 60dd d03c 6db4 d93c c512 05bd
000000b0: 73fe 45bc 4852 41bd f317 c3bd 7850 a0bd
000000c0: 0993 833d 8e8e 7a3d 95e0 843d 1498 c13d
000000d0: bc4e 493d b1ab d43c b356 673a 26a6 7e3d
000000e0: d834 553d c3d4 05be b8a5 613d b719 28bd
000000f0: a0bb e0bd cb04 aebd a973 d7bd 2c6b af3c
00000100: fad7 c4bb e785 9dbd e865 273c ab13 9c3c
00000110: c0ec 273d 0caf 893d b273 c23d 2c2e cebd
00000120: 7a75 06bd a8a3 64bd 1cf3 253d a7da cabd
00000130: 8e32 853d e107 503d f322 de3d 0a3f 41bd
00000140: f3be d93d 383c 8a3d e5c3 a4bc 753e 35bd
00000150: 4fe9 d5bd cd0f 963c 3d4c 6bbd f306 60bd
00000160: 1cbc 413d 1791 84bd 274e 183d 477d 023d
00000170: f41e 7ebd 946b c93d b50c eabc 4078 94bb
00000180: 1ea9 073d 72e2 81bd f50c c7bd 46e0 8cbd
00000190: 36e7 403d 1314 d5bc 454a 073d aca5 653d
000001a0: a89b eb3d e393 7d3b 0d65 5f3d 85cd 413d
000001b0: 8b0a f4bd f229 433d a249 113d 375a 033d
000001c0: 536f 2c3d fd34 d9bd 7772 d9bd 0752 053c
000001d0: dc4c 8ebc 6c3c f93d 389f adbd 7ed0 10bd
000001e0: b8ff d03d e130 eebd a2ab 7fbd 4724 abbd
000001f0: 5796 bbbd b427 f7bc 4f0c 263c 6432 89bd
00000200: 940a 05bd 39c7 a1bd ce12 eabb 3ada 3dbd
00000210: 29c8 3dbe df61 eabd c748 b2bd 3cb0 453c
00000220: a753 61bc 25de f63d 2014 1c3d 3cd8 16be
00000230: c22d e3bc e0ff 8bbc ee27 c53d c71e 83bd
00000240: 3022 42bb deaa 03be 2e3d dcbd bada b0bc
00000250: 51ec 183d 4e9a b83d b761 c63d 426b d83c
00000260: c693 713c bc34 dc3d dab4 453c 9614 163c
00000270: da0c a33c 4eac c1bd e6b5 123e 019a 29be
00000280: 4fc5 cebd 3e1d 59bd a2bc 6e3c a130 2dbd
00000290: 610d f8bc 3aca a6bd 1eb7 0ebd c97c 433d
000002a0: 50bc 133d 2e75 6fbc f213 fcbc 75fc d3bb
000002b0: a87f 823b b6e4 1abd 674c 0abe 6272 00be
000002c0: 3e25 8dbd 0788 b4bc d2c2 30bd 8562 0bbd
000002d0: 3613 7cbd 527d 143b 8443 d7bc 455a 0ebc
000002e0: 0995 9ebd 14f6 c5bd 72be c3bd ff42 4d3d
000002f0: 2369 c3bc 3293 d1bd bdc0 febd 374f c2bc
00000300: 1265 b9bd 80f7 22bb a99f 9dbd ebf0 593d
00000310: c7f2 14bd 9ca5 82bd 5323 e03d 7204 9d3d
00000320: 397f 9d3d 6d87 06bd ecdb 123d 3dd2 713b
00000330: 34bd 92bc b9fb 3fbd 568e 1ebe 44be c9bd
00000340: 4111 83bb 7c80 3d3d b4b8 bfbd 4bca cbbd
00000350: f7e2 2fbd af8a 2dbc 73ed a4bc 6d6c e3bc
00000360: adc8 0bbd a7da 2f3d dd7a 18be 5c2e fabc
00000370: 4339 0bbe 8622 45be 5df1 0a3d ea8d 4ebd
00000380: 1dd4 543d c550 84bd 0cb5 a3bd 4042 963d
00000390: 6c72 7fbd e981 693c 02fe b93b a0f4 bf3d
000003a0: 9959 34bd fae4 b3bc 8c56 27bd 722e 7ebd
000003b0: 2682 4c3b 3f2b 053d 09b9 0ebe 1867 93bd
000003c0: f8a6 04be d669 b8bd 6f73 ed3c 3d4f 523b
000003d0: fc57 4cbd 038d 0fb9 130c ea3b e542 86bd
000003e0: 6a0e 7fbd c0f3 373d 3a47 0dbe 386d 3d3d
000003f0: 9ae9 d7ba 8250 afbd 6c82 2dbd d82d 293d

0.model_cnn.layer3.0.bias f4 [64]
3.1456642e-05 0.0003886025 -1.9207928e-05 -0.00016817686 0.00032157754 -0.00027402584 -6.8672657e-06 -0.0002852217
-0.00011845783 -0.00022071041 -8.926799e-05 -0.0007417344 -0.00034463836 -0.00017674876 1.244693e-05 -0.00014459604
0.00023262721 0.000111919224 -0.00011031237 0.00017575275 -0.0001959377 0.00012141754 7.477308e-05 -5.6526642e-05
0.00022862453 -0.0002665525 0.00050449173 -0.0004951953 0.00011926714 -0.00021600061 -0.0005124684 -0.00012620965
6.916011e-05 0.0016982397 1.7323351e-05 -3.634905e-05 -0.00020914673 -0.000106715765 -2.646742e-05 3.6298316e-05
0.001601426 0.000152142 0.00019345437 0.00013012844 -0.00010435087 6.162956e-05 6.1480954e-05 0.00023327906
-0.00011971136 0.00039991463 2.4570523e-05 0.00029646163 9.4115465e-05 8.899801e-05 -9.6302436e-05 -0.000186036
-6.1387746e-06 2.6308137e-05 -0.00032350543 0.0014799841 -4.1670544e-05 -0.00013538446 0.00018551959 -0.0003425035
00000000: 50f0 0338 58bd cb39 b620 a1b7 a258 30b9
00000010: 6899 a839 20ab 8fb9 5d6d e6b6 cf89 95b9
00000020: 906c f8b8 806e 67b9 6335 bbb8 f470 42ba
00000030: 94b0 b4b9 a255 39b9 28d3 5037 b49e 17b9
00000040: 64ed 7339 2db6 ea38 8157 e7b8 454a 3839
00000050: a074 4db9 8ca1 fe38 7ecf 9c38 0517 6db8
00000060: eeba 6f39 12c0 8bb9 de3f 043a fecf 01ba
00000070: 0f1f fa38 397e 62b9 2c57 06ba 2557 04b9
00000080: 0d0a 9138 7897 de3a 9d51 9137 7f75 18b8
00000090: 664e 5bb9 97cc dfb8 5a06 deb7 053f 1838
000000a0: f1e6 d13a 4f88 1f39 03da 4a39 1673 0839
000000b0: f2d6 dab8 1e3f 8138 56ef 8038 5f9c 7439
000000c0: 8c0d fbb8 a2ab d139 cc1c ce37 686e 9b39
000000d0: db5f c538 71a4 ba38 faf5 c9b8 a912 43b9
000000e0: acfb cdb6 4bb0 dc37 2a9c a9b9 07fc c13a
000000f0: 68c7 2eb8 fdf5 0db9 0988 4239 0b92 b3b9

0.model_cnn.layer3.1.weight f4 [64]
0.99995565 1.0488516 1.0171077 1.0237062 0.9781808 0.9531091 0.8985376 1.0149971
0.97990096 0.92848593 1.0295438 1.0155448 1.0218842 0.99582267 1.053337 0.9071506
0.9721875 0.9694508 1.0163941 0.96217287 0.9425818 0.97379094 0.97238785 1.0313516
1.0095704 0.9898701 1.0580095 0.9924458 0.9821143 0.95871127 1.0724516 1.0050334
0.95086205 1.0036651 1.0062532 0.9388933 1.0436119 1.0055728 0.9646389 0.99596924
0.9693624 0.95457256 0.99548614 1.0989323 1.0377132 0.9969614 1.0074321 0.9741482
1.0285571 1.0021226 1.0219146 1.0484576 0.9386859 1.0030077 0.9821211 1.0024523
0.9905522 1.022021 1.0157675 0.9401181 0.987125 0.9288109 0.99252063 1.0125288
00000000: 18fd 7f3f c540 863f 9630 823f ce08 833f
00000010: 0f6a 7a3f f5fe 733f 8f06 663f 6deb 813f
00000020: cada 7a3f 41b1 6d3f 17c8 833f 5ffd 813f
00000030: 1acd 823f 3cee 7e3f bfd3 863f 063b 683f
00000040: 48e1 783f ed2d 783f 3419 823f f650 763f
00000050: 0a4d 713f 5d4a 793f 69ee 783f 5403 843f
00000060: 9a39 813f 2068 7d3f db6c 873f ee10 7e3f
00000070: d86b 7b3f 1a6e 753f 1846 893f efa4 803f
00000080: b26b 733f 1978 803f e8cc 803f 505b 703f
00000090: 1395 853f 9cb6 803f 93f2 763f d7f7 7e3f
000000a0: 2228 783f de5e 743f 2ed8 7e3f d0a9 8c3f
000000b0: c9d3 843f dd38 7f3f 89f3 803f c761 793f
000000c0: c2a7 833f 8e45 803f 19ce 823f dc33 863f
000000d0: b84d 703f 8e62 803f 4a6c 7b3f 5b50 803f
000000e0: d494 7d3f 96d1 823f ab04 823f 94ab 703f
000000f0: 39b4 7c3f 8dc6 6d3f d515 7e3f 8b9a 813f

0.model_cnn.layer3.1.bias f4 [64]
-1.0536431e-05 0.06653187 0.03802712 -0.14224042 -0.15727085 -0.06478866 -0.11984296 -0.117080435
-0.030390827 -0.12337778 -0.10903862 -0.04820901 0.021639595 -0.13768867 -0.0611447 -0.18422423
-0.07580955 -0.13064215 -0.057179805 -0.20968181 -0.08861124 -0.12962654 -0.13537663 0.028607298
-0.09682915 -0.10448953 -0.038441 -0.10332534 -0.0132662915 -0.10544886 0.028891915 0.00057257025
-0.082281634 -0.10419334 0.02222077 -0.15799071 0.06316813 0.0102326665 -0.21270591 -0.0782688
-0.07810436 -0.13456483 -0.018363556 -0.14886169 -0.0273078 -0.13476123 -0.11167449 -0.04233251
-0.058294285 -0.05910339 0.031685933 -0.03438144 -0.17465806 -0.13478489 -0.020421263 -0.15065168
-0.09537309 -0.19327097 -0.18567096 -0.11388186 -0.20455293 -0.1579646 -0.1157841 -0.16379671
00000000: a0c5 30b7 dc41 883d 53c2 1b3d 79a7 11be
00000010: 9c0b 21be ebaf 84bd 3a70 f5bd dec7 efbd
00000020: 2ff6 f8bc 7dad fcbd a44f dfbd d076 45bd
00000030: 8545 b13c 42fe 0cbe dd72 7abd 47a5 3cbe
00000040: 0a42 9bbd 0ec7 05be 5f35 6abd d4b6 56be
00000050: cf79 b5bd d2bc 04be 2ca0 0abe da59 ea3c
00000060: 5d4e c6bd 9bfe d5bd 4f74 1dbd 3c9c d3bd
00000070: dc5a 59bc 92f5 d7bd bdae ec3c 8a18 163a
00000080: 4683 a8bd 5163 d5bd 5508 b63c 51c8 21be
00000090: 4b5e 813d eaa6 273c 94cf 59be 654b a0bd
000000a0: 2ef5 9fbd 5dcb 09be 2b6f 96bc 336f 18be
000000b0: 9bb4 dfbc d9fe 09be 98b5 e4bd db64 2dbd
000000c0: fdc5 6ebd 6516 72bd 1cc9 013d 8ed3 0cbd
000000d0: 90d9 32be 0d05 0abe 7e4a a7bc 6f44 1abe
000000e0: f752 c3bd d3e8 45be 8720 3ebe e53a e9bd
000000f0: 5376 51be 79c1 21be 3720 edbd 53ba 27be

0.model_cnn.layer3.1.running_mean f4 [64]
-0.25735915 -1.2608346 -1.6294544 -0.18103401 1.0000038 -1.0793371 -0.051192056 0.22486682
-0.101502866 0.54355186 -0.440124 0.10341832 -1.4875263 0.30241907 -0.7485387 0.14695793
0.4547324 0.9153225 0.24632746 0.77617925 -0.14335869 -0.5801189 -0.29951793 -0.87640435
0.5916718 0.52747554 -0.64786077 0.5127134 -0.83284694 0.23926651 -1.4563121 -0.7103216
-0.11973979 -0.5199454 -0.15888922 0.8705674 -1.7787826 -0.16974731 0.17653982 -0.16029826
-0.085077606 -0.011258037 -0.5849856 0.542622 0.26009768 -0.12405901 -0.6830552 0.8992225
-0.8967649 -0.6467878 -1.0250512 0.22218622 0.72658116 0.1552963 -0.84534466 0.10349161
-0.4430844 -0.48391393 0.18083245 0.41823822 0.79946643 0.080930084 0.23104697 -0.65502113
00000000: 94c4 83be 0763 a1bf f691 d0bf fb60 39be
00000010: 2000 803f b827 8abf c3ae 51bd 7d43 663e
00000020: bce0 cfbd 3726 0b3f ef57 e1be fccc d33d
00000030: 4367 bebf acd6 9a3e 3ba0 3fbf 247c 163e
00000040: afd2 e83e 9352 6a3f 443d 7c3e afb3 463f
00000050: 9fcc 12be ac82 14bf 6a5a 99be 095c 60bf
00000060: ce77 173f a308 073f 34da 25bf 2f41 033f
00000070: 7535 55bf 4802 753e 6f68 babf a3d7 35bf
00000080: 233a f5bd 241b 05bf dbb3 22be 81dd 5e3f
00000090: 26af e3bf 3dd2 2dbe dbc6 343e 3a25 24be
000000a0: 2b3d aebd a173 38bc 9ec1 15bf 47e9 0a3f
000000b0: 862b 853e a612 febd b5dc 2ebf 7233 663f
000000c0: 6292 65bf e393 25bf e134 83bf c984 633e
000000d0: 3901 3a3f fe05 1f3e 8268 58bf 69f3 d33d
000000e0: f5db e2be 91c3 f7be 242c 393e 5223 d63e
000000f0: d5a9 4c3f acbe a53d 9497 6c3e 77af 27bf

0.model_cnn.layer3.1.running_var f4 [64]
0.22474517 0.63594717 1.0157793 0.30787128 0.5374732 0.2344143 0.39287934 0.27393183
0.5881633 0.37726083 0.3843061 0.32581562 0.5458175 0.3721456 0.27323577 0.35578287
0.36971968 0.5899048 0.54290766 0.4067347 0.3931541 0.21068159 0.37028098 0.55260974
0.2592827 0.3859283 0.38081166 0.29657143 0.48654073 0.38702944 0.47208518 0.57454187
0.30444983 0.31516013 0.55686736 0.7268454 0.8792378 0.20597495 0.4055324 0.29774964
0.42981502 0.31599665 0.5096856 0.28972316 0.45571446 0.37820914 0.3686832 0.5686566
0.22874762 0.32808313 0.5242969 0.38744655 0.39896443 0.3254009 0.46216783 0.27342048
0.30314943 0.25707346 0.18696867 0.29360092 0.46987256 0.47908124 0.30813685 0.197679
00000000: 9923 663e 6fcd 223f 0e05 823f 4ea1 9d3e
00000010: d897 093f 4d0a 703e 7b27 c93e cb40 8c3e
00000020: df91 163f 5528 c13e c5c3 c43e 4ed1 a63e
00000030: b2ba 0b3f de89 be3e 8fe5 8b3e 2c29 b63e
00000040: e64b bd3e 0004 173f fffb 0a3f 883f d03e
00000050: 7f4b c93e eabc 573e 7895 bd3e d577 0d3f
00000060: b4c0 843e 6598 c53e bff9 c23e 36d8 973e
00000070: de1b f93e b928 c63e 26b5 f13e 2d15 133f
00000080: d9e0 9b3e ab5c a13e dc8e 0e3f 8a12 3a3f
00000090: ba15 613f 19eb 523e f1a1 cf3e a472 983e
000000a0: b710 dc3e 50ca a13e c17a 023f 9856 943e
000000b0: 6853 e93e a1a4 c13e 0bc4 bc3e 7b93 113f
000000c0: d13c 6a3e 83fa a73e 5238 063f 655f c63e
000000d0: 1145 cc3e f29a a63e 43a1 ec3e c5fd 8b3e
000000e0: 6736 9b3e 229f 833e b774 3f3e dc52 963e
000000f0: 2393 f03e 234a f53e 1dc4 9d3e 5d6c 4a3e

0.model_cnn.layer4.0.weight f4 [128, 64, 3]
0.057986353 0.097713925 -0.0013474749 0.00091975066 0.07577728 0.048868116 0.043281857 -0.013421637
0.0022353719 0.055736784 0.07207933 0.035989735 0.0917012 0.09756989 0.046510108 -0.03495844
0.012854861 0.05529576 -0.008999852 -0.024757827 0.06514307 -0.018838705 0.0038714493 0.06150763
0.052859306 -0.009179755 0.031948145 0.010403096 0.05208202 -0.05167801 0.004353321 0.021641837
0.050287914 -0.04326897 0.01832308 -0.023641555 0.07535711 -0.01869363 0.116750225 0.04901613
-0.085180834 -0.04737187 -0.063073106 0.03890633 -0.066852175 0.018423406 -0.032681827 0.06472691
0.014687851 0.020663148 -0.06311497 0.12398386 0.008468989 0.022573953 0.032555364 -0.031577203
-0.007157335 0.09192429 0.06905535 0.03255202 0.06446416 0.033626646 0.10548733 0.022198185
0.12496829 0.010429498 0.028292814 -0.052580316 0.013636372 0.06383803 0.06612846 -0.00018291254
0.079409346 0.03454986 0.12533341 -0.07143063 -0.056733284 -0.02273705 0.03705156 0.00441013
0.065154076 0.07968957 0.10811246 0.12052851 0.0038699685 0.022723991 0.1142377 -0.03862197
-0.052979495 -0.06300328 0.100248255 0.027559593 0.004945372 0.04824598 0.05936767 -0.045925166
0.027728723 0.016396688 -0.02166027 0.052479587 0.09076518 -0.014606021 0.06564996 -0.028439827
0.062418185 -0.024408909 -0.0062958277 -0.017369743 0.09407023 0.123888984 0.09355152 -0.022792289
-0.026616918 0.006520581 0.07306201 0.027075324 0.012767838 0.0024204277 0.04991993 0.060172867
-0.040101677 -0.0666425 0.046530273 -0.02204213 -0.010727019 0.003634146 -0.00018645394 0.13741675
-0.06951678 0.019347027 -0.11683321 -0.001273541 0.046848677 0.0681526 -0.051486865 -0.0042675966
0.118670195 0.128317 0.028927905 0.004203373 0.06346152 0.035045717 -0.06909233 0.026369339
-0.013314451 0.07319319 0.016598696 0.03879952 0.00606943 0.014693334 0.08272304 0.05821429
0.07863722 0.0016150099 -0.05309467 0.043256067 0.03661376 0.045215473 0.04484884 0.075248085
-0.032144748 0.064324565 0.029338527 0.00083621766 -0.04811631 -0.03897212 0.016830433 0.008005029
-0.089333154 -0.016914694 0.0041906205 -0.016345771 0.045481384 0.06671396 -0.097534455 -0.07813319
0.023349697 -0.031088041 0.004582485 0.059824184 0.07159588 0.04803048 0.011026193 0.050723035
-0.05204236 -0.0777828 0.036094036 0.03472214 -0.009147174 -0.053708784 -0.028030178 -0.0197593
0.06011949 0.0012853139 0.01741126 -0.046635266 -0.019438941 0.053211335 0.07735175 0.012507497
0.010829472 -0.061692446 0.016663335 -0.0064252466 -0.025333881 0.047262143 0.059345845 0.03100544
0.039359327 0.09642173 -0.04301439 0.010196331 0.015711965 -0.009205996 -0.03137946 0.0046701785
0.08493231 0.11648215 0.00025527706 -0.005161629 0.066405796 -0.04071517 -0.044101804 -0.035917804
-0.08663429 -0.026193842 -0.0014069 -0.044444397 0.015123909 0.081579514 0.13093047 -0.04758297
0.008680131 -0.0061408137 -0.02302282 -0.010639153 -0.010958595 0.07282851 -0.02542148 -0.032318696
0.01813006 0.007861046 -0.012176854 0.0016109031 0.060362104 0.085740745 0.008526457 0.050849035
0.09396527 -0.029572826 -0.05166763 -0.042670097 0.060468126 0.039036836 0.06049789 0.06923923
00000000: 1983 6d3d 3d1e c83d c19d b0ba 6c1b 713a
00000010: 1e31 9b3d ef29 483d 5148 313d 6de6 5bbc
00000020: 517f 123b 414c 643d 549e 933d f969 133d
00000030: d7cd bb3d b9d2 c73d 6281 3e3d 9530 0fbd
00000040: 329d 523c cf7d 623d 1e74 13bc edd0 cabc
00000050: bb69 853d a153 9abc 24b8 7d3b 6def 7b3d
00000060: 0083 583d af66 16bc 0fdc 023d bf71 2a3c
00000070: f553 553d 52ac 53bd 4ea6 8e3b 394a b13c
00000080: b3fa 4d3d ce3a 31bd 491a 963c efab c1bc
00000090: d454 9a3d 6223 99bc be1a ef3d 23c5 483d
000000a0: 4a73 aebd 0209 42bd 792c 81bd 3e5c 1f3d
000000b0: cbe9 88bd afec 963c 61dd 05bd 8b8f 843d
000000c0: 50a5 703c c345 a93c 6c42 81bd 40eb fd3d
000000d0: 84c1 0a3c 03ed b83c c658 053d 1957 01bd
000000e0: 1488 eabb cd42 bc3d e46c 8d3d 4455 053d
000000f0: c905 843d 18bc 093d be09 d83d f8d8 b53c
00000100: 60ef ff3d 7ce0 2a3c 55c6 e73c 755e 57bd
00000110: 176b 5f3c 83bd 823d 5c6e 873d 36cc 3fb9
00000120: 5ea1 a23d 2784 0d3d 6757 003e 394a 92bd
00000130: 2961 68bd 0d43 babc 60c3 173d da82 903b
00000140: 806f 853d 4934 a33d 116a dd3d a7d7 f63d
00000150: 4c9f 7d3b aa27 ba3c 75f5 e93d 1232 1ebd
00000160: 0701 59bd dd07 81bd f54e cd3d a8c4 e13c
00000170: ca0c a23b 949d 453d 842b 733d 071c 3cbd
00000180: 5927 e33c 5952 863c e170 b1bc d6f4 563d
00000190: 18e3 b93d 184e 6fbc 7c73 863d a4fa e8bc
000001a0: 36aa 7f3d 31f5 c7bc 3b4d cebb fe4a 8ebc
000001b0: e5a7 c03d 82b9 fd3d f097 bf3d e5b6 babc
000001c0: b90b dabc 99aa d53b 89a1 953d 12cd dd3c
000001d0: 3230 513c 0aa0 1e3b d778 4c3d d377 763d
000001e0: a841 24bd dd7b 88bd 8796 3e3d b291 b4bc
000001f0: 61c0 2fbc da2a 6e3b d982 43b9 fab6 0c3e
00000200: d05e 8ebd a87d 9e3c 4046 efbd f2ec a6ba
00000210: 66e4 3f3d 9793 8b3d e4e3 52bd 32d7 8bbb
00000220: 5c09 f33d 8865 033e 37fa ec3c 73bc 893b
00000230: 1df8 813d 198c 0f3d 4880 8dbd 8304 d83c
00000240: db24 5abc 50e6 953d fdf9 873c 3fec 1e3d
00000250: 12e2 c63b 4fbc 703c b26a a93d 1b72 6e3d
00000260: 8d0c a13d bdae d33a cc79 59bd 462d 313d
00000270: 4ff8 153d dc33 393d 6bb3 373d ab1b 9a3d
00000280: 36aa 03bd 99bc 833d 5a57 f03c 9e35 5b3a
00000290: 9c15 45bd 3ba1 1fbd fadf 893c 8627 033c
000002a0: 4df4 b6bd af90 8abc 7951 893b 91e7 85bc
000002b0: b04a 3a3d 54a1 883d 25c0 c7bd 4b04 a0bd
000002c0: dd47 bf3c 59ac febc ac28 963b 340a 753d
000002d0: dca0 923d 9cbb 443d 35a7 343c f5c2 4f3d
000002e0: 5f2a 55bd 974c 9fbd 57d7 133d cd38 0e3d
000002f0: 07de 15bc befd 5bbd 8b9f e5bc 41de a1bc
00000300: db3f 763d fa77 a83a 0fa2 8e3c 9f04 3fbd
00000310: 6a3e 9fbc 21f4 593d 986a 9e3d 3fec 4c3c
00000320: 196e 313c 38b1 7cbd 8c81 883c e08a d2bb
00000330: 0089 cfbc f395 413d a114 733d 1fff fd3c
00000340: 3f37 213d c278 c53d db2f 30bd 830e 273c
00000350: 61b6 803c bfd4 16bc c087 00bd 4c08 993b
00000360: fef0 ad3d 328e ee3d b5d6 8539 e222 a9bb
00000370: c3ff 873d f3c4 26bd 18a4 34bd 8c1e 13bd
00000380: 526d b1bd 7894 d6bc bb67 b8ba 540b 36bd
00000390: 46ca 773c 2913 a73d a312 063e 5ce6 42bd
000003a0: 1c37 0e3c e138 c9bb 5a9a bcbc d84f 2ebc
000003b0: ae8b 33bc 1d27 953d b540 d0bc 9c60 04bd
000003c0: 7e85 943c 9ecb 003c 6d81 47bc f024 d33a
000003d0: 413e 773d d898 af3d 8db2 0b3c 1447 503d
000003e0: dd70 c03d b642 f2bc 70a1 53bd d7c6 2ebd
000003f0: 6dad 773d 17e5 1f3d a3cc 773d 4ccd 8d3d

0.model_cnn.layer4.0.bias f4 [128]
-0.0002116263 3.1080144e-05 2.243431e-05 -0.00012533818 1.9777728e-05 8.637015e-06 6.6188455e-05 -2.2853445e-05
0.0001419639 9.269502e-06 -2.617845e-05 -0.00017133616 7.4557456e-06 -1.5849731e-05 7.59455e-05 -0.00024297583
-0.00016434002 -0.00015562732 0.00011926581 -5.097615e-05 0.000119163014 1.3848203e-05 -2.7275162e-05 1.4195995e-05
-1.4448211e-05 7.6067874e-05 0.00013070005 -6.4198175e-05 -0.00035273904 0.00010498295 0.00010406828 -3.474382e-05
-0.00026933226 2.7454189e-05 -3.5855635e-05 -4.520328e-05 -8.3781764e-05 -3.3975564e-05 -5.4576725e-05 1.8665849e-05
-1.034424e-05 -8.692116e-05 -7.459653e-06 0.00016005289 6.1181025e-05 -1.0182573e-06 -7.339942e-05 -3.8819995e-05
0.00013502191 -8.1571554e-05 8.375457e-05 -2.3683077e-05 6.654711e-05 5.3813408e-05 8.259648e-05 0.00013131107
-2.059591e-05 -3.8223525e-06 -6.425299e-06 -7.611074e-06 0.00014728756 0.000113264556 -9.241571e-05 6.121959e-05
-6.3804255e-05 -7.874278e-05 1.7638577e-05 2.1089432e-05 5.9944898e-05 -3.287256e-05 -1.6546703e-05 -0.00016925173
0.00027354012 4.3470595e-06 9.663101e-05 -6.131543e-05 9.064018e-05 -8.462348e-05 9.887028e-06 5.782622e-07
-3.5586203e-05 -0.00023796703 0.00018285683 1.1459582e-05 -6.25752e-05 -1.6362039e-05 2.8539354e-05 0.00012690667
6.207393e-05 -6.84661e-05 -0.0001923801 1.1471995e-05 -0.00027556528 -8.225377e-05 -6.391019e-05 -1.2780779e-05
-6.5978566e-07 -8.661564e-06 -5.09728e-05 9.8471304e-05 -6.032432e-05 -0.0001658822 1.80567e-05 -3.4403092e-06
-6.275185e-05 4.523479e-05 4.3555672e-05 -2.2916277e-06 -6.664946e-05 -1.2516304e-05 2.717295e-05 8.841171e-05
-0.00010226019 0.00026478473 -2.2193988e-05 3.5581506e-05 -2.248607e-05 6.9643174e-06 -9.7899705e-05 1.4671801e-05
-3.744275e-05 -2.7902195e-05 3.325795e-05 8.4387415e-05 5.6410645e-05 -1.5845308e-05 4.6552195e-05 -8.471067e-06
00000000: 01e8 5db9 0d5c 0238 5031 bc37 366d 03b9
00000010: 59e8 a537 b2e7 1037 a8ce 8a38 66b5 bfb7
00000020: 25dc 1439 3584 1b37 cb99 dbb7 b3a8 33b9
00000030: 5e2c fa36 0af5 84b7 ee44 9f38 54c7 7eb9
00000040: b052 2cb9 e42f 23b9 581e fa38 39cf 55b8
00000050: 28e7 f938 9455 6837 f7cc e4b7 562b 6e37
00000060: 9866 72b7 a186 9f38 870c 0939 22a2 86b8
00000070: d5ef b8b9 4b2a dc38 3b3f da38 e5b9 11b8
00000080: 2a35 8db9 6c4d e637 b263 16b8 a798 3db8
00000090: feb3 afb8 fc80 0eb8 50e9 64b8 9b94 9c37
000000a0: 2c8c 2db7 7149 b6b8 ee4d fab6 dfd3 2739
000000b0: 504e 8038 0eab 88b5 03ee 99b8 a7d2 22b8
000000c0: ab94 0d39 6511 abb8 64a5 af38 05ab c6b7
000000d0: 358f 8b38 b5b5 6138 a637 ad38 8cb0 0939
000000e0: 61c5 acb7 c241 80b6 e698 d7b6 a162 ffb6
000000f0: 3471 1a39 7288 ed38 4ecf c1b8 0463 8038
00000100: a6ce 85b8 b522 a5b8 8ef6 9337 36e9 b037
00000110: 586d 7b38 a4e0 09b8 c6cd 8ab7 2a79 31b9
00000120: ef69 8f39 f5dc 9136 61a6 ca38 7996 80b8
00000130: 1316 be38 e377 b1b8 76e0 2537 e039 1b35
00000140: 6542 15b8 ca86 79b9 42bd 3f39 8842 4037
00000150: ce3a 83b8 3641 89b7 cc67 ef37 4012 0539
00000160: b02d 8238 7595 8fb8 a4b9 49b9 d877 4037
00000170: bf79 90b9 a87f acb8 8607 86b8 076d 56b7
00000180: 201c 31b5 2251 11b7 a1cb 55b8 6182 ce38
00000190: bf04 7db8 aaf0 2db9 7878 9737 10e0 66b6
000001a0: a599 83b8 7cba 3d38 8caf 3638 ddc9 19b6
000001b0: 28c6 8bb8 1efd 51b7 77f1 e337 ad69 b938
000001c0: 8574 d6b8 ced2 8a39 3a2d bab7 5a3d 1538
000001d0: 78a0 bcb7 08af e936 814f cdb8 e826 7637
000001e0: d90b 1db8 820f eab7 747e 0b38 26f9 b038
000001f0: 789a 6c38 8aeb 84b7 0a41 4338 f51e 0eb7

0.model_cnn.layer4.1.weight f4 [128]
1.0673416 1.0014315 1.015119 1.0473597 0.9883305 0.96493953 1.0441483 0.9629384
1.0451567 0.957914 0.99869627 1.0406841 0.99065596 0.99405867 1.0426643 1.0533533
1.0860652 1.0391355 1.0418992 0.9994089 1.0132415 0.97124505 0.9541999 1.0125713
1.0066744 0.9997483 0.96998096 1.0573428 1.0435926 1.0296731 1.0129532 1.0001482
1.0060111 1.0239304 0.96489704 1.0652242 1.0022701 1.0500292 1.0320992 0.9799598
0.9278582 1.0293984 1.0086559 0.99619204 0.97174037 0.89680696 0.9461307 0.95644265
1.0700287 0.94093853 1.0645585 0.9789077 1.0001953 0.9915472 0.9838435 1.0100701
0.95199424 0.9745936 1.0092597 1.0090016 0.98311657 1.0256997 0.99356735 0.98364455
0.9539189 1.0194211 1.0237405 1.0517431 1.0254973 1.033169 0.8937648 1.0675904
0.9895048 1.042441 1.0558904 1.0404838 1.0125872 1.0260301 1.0236633 0.8995902
0.89055103 0.96141315 1.050585 0.9474037 1.0344232 0.90870714 0.99273115 0.9992794
1.0965872 0.98646307 1.0049033 0.9962832 1.0533688 1.0403802 1.0162443 0.9237049
1.0055044 1.0204754 1.0035739 1.0416874 0.9854274 1.0072243 1.0276425 0.87977386
1.0237862 1.0078571 1.0569975 0.839386 1.0266405 1.0298481 1.0538505 0.98103803
1.0220506 1.02002 1.0204391 1.051105 1.062399 0.98123646 1.0494708 1.0304526
0.8691145 1.0054177 0.9618642 1.0207013 0.9593997 1.0278187 0.97309184 1.0166049
00000000: a69e 883f e82e 803f 6bef 813f e20f 863f
00000010: 3a03 7d3f 4706 773f a7a6 853f 2283 763f
00000020: b2c7 853f da39 753f 8faa 7f3f 2335 853f
00000030: a19b 7d3f a17a 7e3f 0676 853f 48d4 863f
00000040: 2f04 8b3f 6402 853f f45c 853f 43d9 7f3f
00000050: e6b1 813f 84a3 783f 7246 743f f09b 813f
00000060: b5da 803f 81ef 7f3f ac50 783f 0257 873f
00000070: 7194 853f 54cc 833f 73a8 813f db04 803f
00000080: f9c4 803f 2710 833f 7e03 773f 4459 883f
00000090: 634a 803f 5b67 863f d41b 843f a5de 7a3f
000000a0: 1d88 6d3f 54c3 833f a31b 813f 7106 7f3f
000000b0: fac3 783f 2495 653f 9f35 723f 6dd9 743f
000000c0: b3f6 883f 59e1 703f 7443 883f b299 7a3f
000000d0: 6606 803f 0ad6 7d3f 2bdd 7b3f fa49 813f
000000e0: e5b5 733f f77e 793f 6c2f 813f f726 813f
000000f0: 87ad 7b3f 214a 833f 6e5a 7e3f 21d0 7b3f
00000100: 0734 743f 647c 823f ee09 833f 859f 863f
00000110: 7f43 833f e23e 843f c5cd 643f cda6 883f
00000120: 3050 7d3f b56e 853f 6b27 873f 932e 853f
00000130: 759c 813f f454 833f 6607 833f 8b4b 663f
00000140: 27fb 633f 2c1f 763f 9279 863f 0d89 723f
00000150: fb67 843f 08a1 683f a123 7e3f c6d0 7f3f
00000160: f85c 8c3f d888 7c3f aca0 803f 6a0c 7f3f
00000170: cad4 863f 2e2b 853f 4b14 823f ed77 6c3f
00000180: 5eb4 803f f09e 823f 1c75 803f 0356 853f
00000190: f844 7c3f baec 803f ca89 833f dc38 613f
000001a0: 6d0b 833f 7601 813f b24b 873f 00e2 563f
000001b0: f568 833f 10d2 833f 93e4 863f 4f25 7b3f
000001c0: 8ed2 823f 0490 823f c09d 823f 9c8a 863f
000001d0: b1fc 873f 5032 7b3f 0f55 863f dfe5 833f
000001e0: 4a7e 5e3f 87b1 803f bb3c 763f 57a6 823f
000001f0: 389b 753f 908f 833f 8c1c 793f 1c20 823f

0.model_cnn.layer4.1.bias f4 [128]
-0.07278925 -0.09910806 -0.06439747 -0.04443404 -0.108485326 -0.13612811 -0.11879057 -0.0812716
-0.06230543 -0.05659174 -0.0383513 -0.056687508 -0.094857655 -0.08949467 -0.091402724 -0.08059328
-0.09212206 -0.08358747 -0.086006716 -0.14302185 -0.04693564 -0.12715837 -0.1376688 -0.11208136
-0.12756944 -0.089686655 -0.107073896 -0.09960231 -0.1115839 -0.05089733 -0.086775914 -0.10962288
-0.047832977 -0.03851385 -0.089489944 -0.092376985 -0.08947856 -0.04236391 -0.118257344 -0.1328396
-0.08790897 -0.079074696 -0.1338887 -0.08472423 -0.10139282 -0.12917173 -0.110275164 -0.06925676
-0.06960089 -0.09700578 -0.10216027 -0.080819555 -0.044774015 -0.08165823 -0.11458309 -0.05369176
-0.10340006 -0.10488403 -0.06397031 -0.055808667 -0.108688876 -0.10235846 -0.04863188 -0.093586355
-0.072893515 -0.09783741 -0.07315228 -0.12230934 -0.058512144 -0.072672404 -0.12600425 -0.11964504
-0.09228147 -0.054192483 -0.083849855 -0.04805923 -0.071459174 -0.0791525 -0.08779305 -0.14596774
-0.13694009 -0.14105609 -0.12977476 -0.14672205 -0.12238208 -0.102713935 -0.11769067 -0.045287568
-0.13405108 -0.10698074 -0.08546029 -0.062380094 -0.06519084 -0.10665742 -0.09235684 -0.08584999
-0.13774614 -0.10651929 -0.050775107 -0.13590476 -0.11378554 -0.09514393 -0.055750683 -0.13791023
-0.10943252 -0.08097935 -0.07830605 -0.16639386 -0.078629225 -0.11647488 -0.12600166 -0.09199693
-0.09348968 -0.055354748 -0.0617682 -0.08186201 -0.067541964 -0.13742551 -0.09117013 -0.06439209
-0.16273864 -0.072221786 -0.061380263 -0.09780792 -0.123446666 -0.09444261 -0.11263184 -0.07001359
00000000: 8812 95bd 2bf9 cabd d2e2 83bd 7800 36bd
00000010: 8e2d debd 2b65 0bbe 7848 f3bd ba71 a6bd
00000020: fb33 7fbd becc 67bd 4116 1dbd 2931 68bd
00000030: bb44 c2bd fb48 b7bd 5a31 bbbd 170e a5bd
00000040: 7eaa bcbd e82f abbd 4a24 b0bd 5274 12be
00000050: 963f 40bd ce35 02be 0df9 0cbe e98a e5bd
00000060: 90a1 02be a3ad b7bd 8f49 dbbd 4cfc cbbd
00000070: 1a86 e4bd b879 50bd 92b7 b1bd f681 e0bd
00000080: 83ec 43bd b3c0 1dbd 8146 b7bd 2530 bdbd
00000090: 8940 b7bd c785 2dbd e830 f2bd 1b07 08be
000000a0: 9e09 b4bd eaf1 a1bd 1f1a 09be e683 adbd
000000b0: 0aa7 cfbd 9845 04be f2d7 e1bd 7dd6 8dbd
000000c0: e98a 8ebd f7aa c6bd 6739 d1bd b984 a5bd
000000d0: f564 37bd 6e3c a7bd 8aaa eabd e4eb 5bbd
000000e0: 69c3 d3bd 70cd d6bd de02 83bd a197 64bd
000000f0: 4698 debd 50a1 d1bd 3932 47bd 34aa bfbd
00000100: 3249 95bd fb5e c8bd ddd0 95bd 527d fabd
00000110: 6eaa 6fbd 45d5 94bd 4207 01be 7508 f5bd
00000120: 11fe bcbd f0f8 5dbd 79b9 abbd c1d9 44bd
00000130: 3059 92bd b51a a2bd d8cc b3bd 9178 15be
00000140: 063a 0cbe 0271 10be ade3 04be 4e3e 16be
00000150: 75a3 fabd af5b d2bd ce07 f1bd 757f 39bd
00000160: b044 09be b818 dbbd ce05 afbd 4582 7fbd
00000170: c682 85bd 356f dabd 9525 bdbd 1fd2 afbd
00000180: 530d 0dbe c926 dabd 8ff9 4fbd 9e2a 0bbe
00000190: 6508 e9bd d2da c2bd d45a 64bd 5738 0dbe
000001a0: 281e e0bd 80d8 a5bd ec5e a0bd 2763 2abe
000001b0: 5c08 a1bd 628a eebd 9406 01be e368 bcbd
000001c0: 8477 bfbd a9bb 62bd a700 7dbd 45a7 a7bd
000001d0: 7153 8abd 46b9 0cbe 68b7 babd 00e0 83bd
000001e0: f5a4 26be 04e9 93bd df69 7bbd 854f c8bd
000001f0: 9bd1 fcbd 216b c1bd 86ab e6bd 4963 8fbd
