checkpoint/DA/s_0_1_t3/cnn_features_1d_0925-195851/54-0.9838-best_model.pth (torch, 944127 bytes, 30 tensors)

0.model_cnn.layer1.0.weight f4 [16, 1, 15]
0	0xbdefcf4b	-0.1170946
1	0xbd7dc36f	-0.061953958
2	0xbd7ed413	-0.06221397
3	0xbdcc4e3b	-0.09975859
4	0xbe654da0	-0.22392893
5	0xbdde9ed3	-0.10870137
6	0xbe1abaed	-0.15110369
7	0x3e0fddca	0.1404945
8	0xbe77370a	-0.2414209
9	0x3c48fdea	0.012267569
10	0xbd823bc8	-0.063590586
11	0x3d7766d9	0.060400818
12	0x3d965794	0.07340923
13	0x3db7e136	0.089785025
14	0xbd122cc5	-0.035687227
15	0xbe208ff1	-0.1567991
16	0xbdb28a73	-0.08717813
17	0xbe0c3558	-0.13692224
18	0xbdffc789	-0.1248923
19	0x3e3818a6	0.17978153
20	0xbd937a72	-0.07201089
21	0xbca39143	-0.019966727
22	0xbe375b20	-0.17905855
23	0x3d6f70e8	0.058457285
24	0x3df8227c	0.121159524
25	0xbdaeba70	-0.08531654
26	0xbe4afc4c	-0.19822806
27	0x3e132bc3	0.14372163
28	0x3d8d1022	0.06887843
29	0x3d3be832	0.045875736
30	0xbd0befc8	-0.03416422
31	0xbdb412b0	-0.08792627
32	0x3ddbc20f	0.10730373
33	0xbe05cc86	-0.13066301
34	0xbc7d5c99	-0.0154639715
35	0x3d21be42	0.039488085
36	0xbdafb216	-0.08578889
37	0x3cb73a75	0.022366742
38	0x3df82cd6	0.12117927
39	0xbe621dcc	-0.22081679
40	0x3e2e94fb	0.17049019
41	0xbda73bd5	-0.08165709
42	0xbe147ced	-0.1450078
43	0xbb2db746	-0.0026506945
44	0xbe79c793	-0.24392538
45	0xbceb4a84	-0.028722055
46	0xbdcc4f26	-0.09976034
47	0xbdbf1e57	-0.09331959
48	0x3e54c183	0.20776944
49	0x3e2ea469	0.17054905
50	0x3e96835f	0.29397103
51	0xbdc70c26	-0.09719114
52	0xbc2f6de5	-0.010707353
53	0xba17fa32	-0.0005797475
54	0x3e44d6e7	0.19222604
55	0xbd0ddd19	-0.034634683
56	0xbaa7ad30	-0.0012792703
57	0xbe2e8610	-0.17043328
58	0x3e7fc21a	0.24976388
59	0x3c80b63c	0.015711896
60	0x3e940c00	0.28915405
61	0x3cb5fbb5	0.02221475
62	0x3dd5f501	0.104471214
63	0xbda5fe22	-0.081051126
64	0xb9fb9875	-0.0004798804
65	0x3d9951f1	0.07486332
66	0xbe676dd0	-0.22600484
67	0x3e487ae9	0.19578137
68	0xbdfcd1db	-0.12344714
69	0x3d6e6a9b	0.058207136
70	0x3e0290a0	0.12750483
71	0xbdfc59ec	-0.12321839
72	0x3e599614	0.21248657
73	0xbe8cc85b	-0.2749661
74	0xbd696155	-0.05697759
75	0xbcc0bd93	-0.023527896
76	0x3e8d75e6	0.27629012
77	0x3caab9e7	0.020840598
78	0x3cfa708f	0.03057125
79	0x3de04e03	0.109523796
80	0xbe6333aa	-0.22187677
81	0xbe2d4ec1	-0.16924573
82	0x3d1a659c	0.03769456
83	0x3df84b6c	0.121237606
84	0x3e036e95	0.12835152
85	0xbc246263	-0.010033223
86	0x3e6a8061	0.22900535
87	0xbe2da3cf	-0.1695702
88	0xbd9713d9	-0.073768325
89	0x3e2b7e4f	0.16747402
90	0x3e918064	0.28418267
91	0x3dc0ec03	0.09420016
92	0x3d7fff4e	0.062499337
93	0x3e4ed550	0.2019856
94	0xbda14580	-0.07874584
95	0xbe290f86	-0.16509828
96	0x3dc2c245	0.0950971
97	0xbd1cce2d	-0.038282562
98	0xbdb8dfeb	-0.09027084
99	0x3e355570	0.17708373
100	0x3b9f0182	0.0048524747
101	0xbe0628ee	-0.13101551
102	0x3e4370fe	0.19086072
103	0x3e482077	0.19543634
104	0xbdde2275	-0.10846416
105	0xbda9f412	-0.08298506
106	0xbe02ae13	-0.12761717
107	0xbdad870a	-0.08473022
108	0x3ccff05a	0.025383163
109	0x3e55aef9	0.20867528
110	0x3d771733	0.06032486
111	0x3e59b00b	0.21258561
112	0xbe396cc4	-0.18107897
113	0x3e1d1a90	0.15342164
114	0x3e6952a9	0.22785439
115	0x3de43a7a	0.11143966
116	0xbe4192cb	-0.18903653
117	0xbd5a18d6	-0.05324634
118	0xbdb313da	-0.08744021
119	0x3dc22065	0.09478835
120	0x3e4ae3f2	0.19813517
121	0xbe196183	-0.14978604
122	0xbdc619d5	-0.09672896
123	0xbd2e9704	-0.04262449
124	0x3e4bcf44	0.19903284
125	0xbe5b6228	-0.21424162
126	0xbe1cc679	-0.15310086
127	0xbe2a2421	-0.16615345
128	0xbe90e905	-0.2830278
129	0xbe55dfa0	-0.20886087
130	0x3e60b476	0.2194384
131	0xbe0c1956	-0.1368154
132	0x3e0c3dd1	0.13695456
133	0x3e429085	0.19000442
134	0xbe98b117	-0.2982261
135	0x3e41e1e6	0.1893383
136	0xbdecc2f0	-0.11560619
137	0x3e57320d	0.21015187
138	0xbd93f135	-0.07223741
139	0x3c7a409b	0.015274192
140	0x3e15fb15	0.14646561
141	0xbe32934f	-0.17439006
142	0x3d232d74	0.03983827
143	0xbe0f65e0	-0.14003706
144	0xbe0b1063	-0.1358047
145	0x3e245997	0.16049801
146	0xbe848fa6	-0.25890845
147	0x3e67a4a4	0.22621399
148	0xbe649d77	-0.22325693
149	0xbe1a498d	-0.1506712
150	0xbe2ad8ff	-0.1668434
151	0x3df1da27	0.118091874
152	0x3d20837e	0.0391879
153	0xbe26c547	-0.16286193
154	0xbe2864bd	-0.16444679
155	0xbdaa8a59	-0.08327169
156	0xbe45bdc5	-0.19310673
157	0x3e22aa80	0.15885353
158	0x3d7ccff5	0.06172176
159	0xbe8444df	-0.25833794
160	0x3d90864a	0.070568636
161	0xbe804dc3	-0.25059327
162	0x3d685f36	0.056731425
163	0x3e82ca8e	0.25545162
164	0x3cac2b59	0.021016764
165	0x3e47b13a	0.195012
166	0xbdd5c251	-0.104374535
167	0x3e66ae5c	0.2252745
168	0x3e28287b	0.16421692
169	0xbe4f3c07	-0.20237742
170	0xbc95dc7c	-0.018293612
171	0xbe4efec6	-0.20214376
172	0xbe7ace5d	-0.24492784
173	0xbdc969f1	-0.0983466
174	0xbd89811c	-0.06714079
175	0xbe04f895	-0.12985452
176	0xbe6d757d	-0.2318935
177	0xbe09f198	-0.13471067
178	0xbcd41ea0	-0.02589351
179	0xbc0c8d1e	-0.008578567
180	0xbcb346e2	-0.021884385
181	0x3e42db63	0.19029002
182	0x3e5b25f4	0.21401197
183	0x3e0e3287	0.13886462
184	0x3dba5691	0.090985425
185	0x3d26d42f	0.040729698
186	0xbda65cbb	-0.08123156
187	0xbca73055	-0.020408789
188	0xbd2e706a	-0.042587675
189	0xbe2e8052	-0.17041138
190	0xbdb62355	-0.08893458
191	0xbe6105ff	-0.21974944
192	0x3c922a1c	0.017842345
193	0x3e27a7ed	0.16372652
194	0xbe0caf09	-0.13738646
195	0x3dc3f5cc	0.095683664
196	0x3e370903	0.17874531
197	0xbe3c26af	-0.18374132
198	0xbe767c2d	-0.24070807
199	0xbdee4314	-0.11633888
200	0x3b723e1d	0.0036963292
201	0x3e5551cf	0.20831989
202	0x3e41e65c	0.18935531
203	0xbd941eb6	-0.0723242
204	0xbe1d1e3f	-0.15343569
205	0xbcdb0d1c	-0.02673965
206	0xbe8ea69b	-0.27861485
207	0xbbd03e23	-0.0063550635
208	0x3dd07b2f	0.101797454
209	0x3d90e069	0.07074053
210	0xbc865ab6	-0.016400676
211	0xbeab1137	-0.3341157
212	0x3c0213d6	0.0079393
213	0xbdfe1b7f	-0.12407588
214	0x3c7f69df	0.0155892065
215	0x3e0f3dec	0.13988465
216	0x3d7e2c13	0.06205375
217	0xbd6c9e09	-0.0577679
218	0x3c97bc1f	0.01852232
219	0xbe0a1234	-0.13483506
220	0xbe0564eb	-0.13026778
221	0xbe0ed41b	-0.139481
222	0xbc4aba18	-0.01237347
223	0xbe7767ff	-0.24160765
224	0x3e5645de	0.2092509
225	0xbe56b329	-0.20966782
226	0x3db1e10d	0.08685503
227	0x3e275740	0.16341877
228	0x3e601d66	0.21886215
229	0x3dddd7af	0.10832154
230	0x3e0a1d87	0.13487826
231	0x3d04fc5a	0.032467224
232	0x3dbcc5c9	0.09217412
233	0x3e660c06	0.22465524
234	0xbe3a6d5d	-0.18205781
235	0xbda87422	-0.082252756
236	0x3d1971e8	0.037462145
237	0x3bd80b69	0.006593157
238	0xbd90d2ea	-0.07071479
239	0xbd6d5b0f	-0.05794817

0.model_cnn.layer1.0.bias f4 [16]
0	0x3af471b7	0.0018649612
1	0xba6ef14e	-0.00091149367
2	0x3b8d6471	0.004314952
3	0x3ae45eed	0.001742331
4	0xbbcc55a8	-0.006235797
5	0x3b1e0319	0.0024110733
6	0xbc469a85	-0.012121801
7	0x395d3e39	0.00021099382
8	0xbb266cc5	-0.0025394422
9	0x3aec2c84	0.0018018638
10	0xbb2fd8c6	-0.0026832088
11	0xbb69b00b	-0.0035657908
12	0x3a898fb6	0.00104951
13	0xba98bc78	-0.0011652848
14	0xbc6cf188	-0.014461882
15	0x3cc52279	0.02406429

0.model_cnn.layer1.1.weight f4 [16]
0	0x3f8308fb	1.0237116
1	0x3f7306e8	0.94932413
2	0x3f89401c	1.072269
3	0x3f7846e6	0.9698318
4	0x3f812f16	1.0092494
5	0x3f70e0c8	0.9409299
6	0x3f6ac400	0.9170532
7	0x3f7091b2	0.93972313
8	0x3f7c6ca4	0.9860327
9	0x3f82df54	1.0224404
10	0x3f8d2baf	1.1028956
11	0x3f764866	0.9620422
12	0x3f82edd0	1.0228825
13	0x3f7a9eee	0.9789876
14	0x3f874a67	1.0569581
15	0x3f80ae7d	1.005325

0.model_cnn.layer1.1.bias f4 [16]
0	0x3be13db9	0.006873813
1	0xbcb75409	-0.022378938
2	0x3da77a64	0.08177641
3	0xbd065a28	-0.032800823
4	0xbcce7fd8	-0.025207445
5	0xbd06ad4b	-0.03288011
6	0x3d83a6ab	0.06428274
7	0xbdf1a213	-0.11798491
8	0x3d0c71bb	0.03428815
9	0x3e017d6a	0.12645498
10	0x3aaed792	0.0013339391
11	0xbdb0e0e6	-0.08636646
12	0xbd2a5db6	-0.041593276
13	0x3c080a38	0.008303218
14	0xbb6c47b2	-0.0036053476
15	0xbd9bbf59	-0.07604856

0.model_cnn.layer1.1.running_mean f4 [16]
0	0x3a988485	0.0011636174
1	0xbaaab8b1	-0.0013025013
2	0x3a3141a7	0.0006761797
3	0x39997ecb	0.00029276902
4	0xbbc45827	-0.005991954
5	0x3a210cd0	0.0006143572
6	0xbc0362e2	-0.008019181
7	0xb92e321b	-0.00016612599
8	0xbaecff28	-0.0018081414
9	0x3b3ff7c0	0.0029291958
10	0xbb1dbc9f	-0.0024068726
11	0x3a8c7a2c	0.0010717562
12	0x3abcffde	0.0014419516
13	0xbab3bd80	-0.0013713092
14	0xbc5f0eca	-0.013614366
15	0x3cc95dcd	0.02458086

0.model_cnn.layer1.1.running_var f4 [16]
0	0x3e36dee0	0.17858458
1	0x3e90ca72	0.28279454
2	0x3da93334	0.08261719
3	0x3e897724	0.2684871
4	0x3e1ad128	0.1511885
5	0x3eb405f9	0.35160807
6	0x3ecd1d62	0.4006148
7	0x3e89cedd	0.26915637
8	0x3edf1bc7	0.4357588
9	0x3ddc534f	0.10758077
10	0x3e30c1d6	0.17261443
11	0x3eb410bb	0.35169014
12	0x3e82e998	0.25568843
13	0x3e580dcc	0.21099013
14	0x3e5493a7	0.2075945
15	0x3e9cd8c4	0.3063413

0.model_cnn.layer2.0.weight f4 [32, 16, 3]
0	0xbd1546ca	-0.036444463
1	0xbe02688b	-0.12735192
2	0xbe2346d1	-0.15944983
3	0xbdcb84f5	-0.09937469
4	0xbda852ee	-0.082189426
5	0xbdd00b15	-0.10158364
6	0x3cb993c5	0.02265347
7	0x3ccb6052	0.024826203
8	0xbe0607cc	-0.13088912
9	0xbc7cc844	-0.015428606
10	0xbe4d286e	-0.20034954
11	0xbe0bdea4	-0.1365915
12	0x3d05d013	0.03266914
13	0x3dafc677	0.08582776
14	0x3db30c96	0.08742635
15	0xbd8366e9	-0.06416113
16	0xbbe692aa	-0.0070365267
17	0x3d9a66f8	0.07539171
18	0x3c30b7d2	0.010786014
19	0x3bfe0202	0.007751704
20	0x3dcdff90	0.1005851
21	0x3df36e9c	0.118863314
22	0xbe0d1d9c	-0.13780826
23	0xbd0572ac	-0.032580063
24	0xbd45d783	-0.04830123
25	0xbdf28a54	-0.1184279
26	0xbd4d7f42	-0.05017019
27	0x3db61e64	0.08892515
28	0xbd40af12	-0.04704196
29	0xbd13116b	-0.035905283
30	0x3cd98ba7	0.02655585
31	0x3dcd3260	0.10019374
32	0xbdc16e3c	-0.09444854
33	0x3dc5318c	0.09628591
34	0xbe288b77	-0.16459452
35	0x3d51b967	0.051202204
36	0xbdb00223	-0.085941575
37	0xbe1fb119	-0.15594901
38	0xbd52db3c	-0.05147861
39	0x3dc9b5d5	0.09849135
40	0x3d154b49	0.03644875
41	0xbd711041	-0.05885339
42	0xbe2de85c	-0.1698317
43	0x3e226990	0.15860581
44	0xbd56ad60	-0.052411437
45	0xbe124ebe	-0.1428785
46	0x3dc8da0c	0.09807214
47	0x3d693367	0.056933787
48	0xbd40270e	-0.046912245
49	0xbd95222f	-0.07281911
50	0x3cdf6868	0.027271464
51	0x3c9a5e6b	0.01884385
52	0x3db077f3	0.086166285
53	0xbdb3eba0	-0.08785176
54	0xbdf600b9	-0.120118566
55	0xbd2e6d08	-0.04258445
56	0x3e1a978b	0.15096872
57	0xbd88adb1	-0.06673754
58	0xbdb9f242	-0.0907941
59	0x3d64c943	0.055856
60	0x3abc24e7	0.001435426
61	0xbdcb1745	-0.09916548
62	0xbd22e285	-0.039766807
63	0xbdb47d62	-0.088129774
64	0x3cda8bdd	0.02667802
65	0xbb510446	-0.0031893416
66	0x3d8f3c03	0.06993868
67	0x3da1e65f	0.07905268
68	0xbdf6d9fd	-0.12053297
69	0x3c0cfb58	0.008604847
70	0x3dd00682	0.10157491
71	0xbdc4df00	-0.096128464
72	0xbd7c774c	-0.061637208
73	0xbd69c559	-0.05707297
74	0xbd1371b9	-0.035997126
75	0x3c94415d	0.018097574
76	0xbdd20717	-0.102552585
77	0x3e027ec1	0.12743665
78	0x3d9dbaea	0.07701667
79	0x3d4ff3bf	0.050769564
80	0x3e1906b4	0.14943963
81	0x3d94f0d0	0.07272494
82	0x3c388744	0.011262719
83	0xbbabd04b	-0.0052433363
84	0x3d1279c1	0.035760645
85	0xbe2ad515	-0.16682847
86	0x3d450937	0.04810449
87	0xbd1b5f62	-0.03793276
88	0xbe43ff59	-0.19140376
89	0xbe37050f	-0.17873023
90	0x3e036f6d	0.12835474
91	0xbcfb2e27	-0.030661656
92	0x3c3cd24e	0.01152475
93	0x3d2f2b55	0.042765934
94	0x3cacb07a	0.021080244
95	0x3cb89748	0.022533074
96	0xbe695e09	-0.22789778
97	0xbb53aab7	-0.00322978
98	0x3d7fe86c	0.062477514
99	0xbd7b8cb6	-0.06141349
100	0x3c8f2967	0.017475797
101	0xbe5a194c	-0.21298712
102	0x3ca7582f	0.020427791
103	0xbda0c4be	-0.078500256
104	0x3dc23200	0.09482193
105	0xbde5b1e2	-0.11215569
106	0xbd9b5975	-0.07585422
107	0xbca7061e	-0.02038866
108	0xbe2689a9	-0.1626345
109	0xbd6c8d34	-0.05775185
110	0x3e28cb4c	0.16483802
111	0xbe1c3b62	-0.15257028
112	0xbe12fc0b	-0.1435396
113	0xbdbf1533	-0.09330215
114	0xbe0ad5d8	-0.13558137
115	0xbdb5b910	-0.088731885
116	0x3da5412d	0.08069072
117	0x3e166ce6	0.14689979
118	0xbd5bacd7	-0.05363163
119	0x3bf33b26	0.0074228225
120	0xbd828095	-0.06372181
121	0xbd278bfa	-0.040904976
122	0xbd37fbe6	-0.044917963
123	0x3d1e029d	0.03857671
124	0x3e175069	0.14776768
125	0x3dd457ef	0.103683345
126	0xbe4ea1d8	-0.20178926
127	0xbe30b451	-0.17256285
128	0xbd22ed79	-0.039777253
129	0x3d635c28	0.05550781
130	0xbd4998ab	-0.04921786
131	0xbc2aeb45	-0.010432069
132	0x3da14ac3	0.07875588
133	0xbca143ea	-0.019685704
134	0x3c3b6ee3	0.011440012
135	0xbdc24ee0	-0.094877005
136	0xbd48108c	-0.048843905
137	0xbc83a03c	-0.016067617
138	0xbda3a6ef	-0.079908244
139	0xbe245040	-0.16046238
140	0xbdbf722d	-0.09347949
141	0xbd8599b1	-0.06523455
142	0xbd8b97b2	-0.06816043
143	0x3dc2c023	0.095093034
144	0x3e1d1dc0	0.1534338
145	0xbdf221db	-0.11822864
146	0xbddd445e	-0.10804056
147	0x3e28ad43	0.16472344
148	0x3dcbe3aa	0.09955533
149	0x3dd8f46f	0.10593497
150	0x3e1eb375	0.15498145
151	0xbde73bfb	-0.11290737
152	0xbe7108c7	-0.23538505
153	0xbde35fc8	-0.11102253
154	0x3ca10e72	0.019660208
155	0x3cfdf322	0.030999724
156	0x3d05e8c3	0.032692682
157	0xbdfc5961	-0.12321735
158	0x3c60ac48	0.01371295
159	0x3d4fac7d	0.050701607
160	0xbd9b7205	-0.07590107
161	0xbe096b3c	-0.13419813
162	0xbe07cd38	-0.13261878
163	0x3d28d773	0.041221093
164	0x3d59a1b9	0.053132746
165	0xbe10dc5e	-0.14146563
166	0x3cb44c62	0.022009078
167	0xbd8f3bd8	-0.06993836
168	0xbdb77aa7	-0.08958941
169	0xbdb92f28	-0.090421975
170	0xbdec1a1f	-0.1152842
171	0xbc69b973	-0.014265406
172	0xbd982eb6	-0.074307844
173	0xbdae7cfb	-0.08519932
174	0xbdf3710e	-0.11886798
175	0xbdf59436	-0.119911596
176	0x3daa0248	0.08301216
177	0xbdcb305b	-0.099213324
178	0xbd3a9b9b	-0.045558553
179	0xbdeb73de	-0.11496709
180	0x3d1c05f0	0.0380916
181	0xbd24e360	-0.040255904
182	0x3d828a28	0.063740075
183	0x3d02e91a	0.031960584
184	0xbdddcb36	-0.10829775
185	0x3e1142b9	0.14185609
186	0xbe178a15	-0.14798768
187	0x3db3e2a8	0.087834656
188	0xbd591cef	-0.05300611
189	0x3db77c14	0.08959213
190	0xbc9acff4	-0.018897988
191	0xbdfc0a35	-0.12306634
192	0x3d83e5e6	0.06440334
193	0xbdcad29e	-0.09903453
194	0x3d7ed251	0.062212292
195	0xbbf65f70	-0.0075187013
196	0xbe19ff7f	-0.1503887
197	0xbd6e5472	-0.058186002
198	0xbd873737	-0.06602328
199	0x3dcf8f26	0.10134725
200	0x3d6c3009	0.057662997
201	0x3db947be	0.09046887
202	0x3d31e737	0.043433394
203	0x3de8ae44	0.113613635
204	0xbe0f34a2	-0.13984922
205	0xbca4fb87	-0.020139469
206	0x3dbdc825	0.0926669
207	0xbe1de59b	-0.15419619
208	0xbdd1606d	-0.1022347
209	0x3d137eea	0.036009707
210	0xbd9d6b82	-0.07686521
211	0xbe38f6b1	-0.18062855
212	0x3dfe7375	0.124243654
213	0x3dbd633c	0.09247443
214	0x3da007bb	0.078139745
215	0x3dceb74a	0.10093553
216	0x3e2abba4	0.16673142
217	0xbd563195	-0.05229338
218	0x3c558df2	0.013034331
219	0xbd635bdc	-0.055507526
220	0xbe09252b	-0.13393085
221	0xbd6e64c2	-0.05820156
222	0xbd6209e5	-0.055185217
223	0x3e2894aa	0.16462961
224	0x3dce7c05	0.100822486
225	0x3e0bb26d	0.13642283
226	0xbd31f8a4	-0.043450013
227	0x3da0de43	0.07854893
228	0xbdd2509f	-0.102692835
229	0x3d7c6c5b	0.061626773
230	0xbbe19304	-0.0068839807
231	0x3c1e2940	0.009653389
232	0xbc1bb440	-0.009503424
233	0x3e165676	0.1468142
234	0x3dc6dd74	0.097102076
235	0xbb602f32	-0.0034207818
236	0xbdb9fb03	-0.0908108
237	0xbb09b81a	-0.0021014274
238	0x3d9da0c4	0.07696679
239	0x3bd0106f	0.0063496153
240	0x3de2885e	0.11061166
241	0x3e0df9f9	0.13864888
242	0x3cb14ac9	0.021642106
243	0x3d598a30	0.0531103
244	0x3e000a15	0.12503846
245	0xbe054cd4	-0.13017589
246	0x3e132f8c	0.14373606
247	0x3e14019a	0.14453736
248	0x3e46afd7	0.19403015
249	0xbdd3f517	-0.103494816
250	0xbba4feb7	-0.005035247
251	0x3bf2f477	0.0074143964
252	0x3dab09b9	0.08351464
253	0xbca22067	-0.019790841
254	0xbe04c740	-0.12966633
255	0x3de3808f	0.11108505

0.model_cnn.layer2.0.bias f4 [32]
0	0x3aeb91cd	0.0017972529
1	0xb868defc	-5.552078e-05
2	0xba9c2774	-0.0011913613
3	0xba910d4c	-0.0011066585
4	0x3c176840	0.009241164
5	0xba66ea51	-0.00088087196
6	0xbb2c1db2	-0.0026262817
7	0x3aaccc4e	0.0013183446
8	0x3c5af04e	0.013362957
9	0x3bb8c4a3	0.0056386753
10	0x3961130e	0.0002146477
11	0x3a7357b5	0.0009282784
12	0x3bd2e427	0.0064358893
13	0x39c3b38a	0.00037327065
14	0x3adea260	0.0016985647
15	0xba34c1c0	-0.0006895326
16	0x3b07dbf4	0.0020730468
17	0xbaed0d4d	-0.0018085629
18	0xb9efa36f	-0.000457074
19	0xba6427e0	-0.00087034516
20	0x3ab78078	0.0014000079
21	0x3a46ea09	0.00075879745
22	0xbae7b43d	-0.0017677617
23	0xba1ab8a6	-0.00059021486
24	0x39bae82a	0.0003564966
25	0xb9af1dc6	-0.00033400784
26	0x3c6044e3	0.013688299
27	0x3a876af7	0.0010331561
28	0xbbeb39ff	-0.0071785445
29	0x3b1a4fcc	0.0023546098
30	0xbca58273	-0.020203805
31	0xbc3382e8	-0.010956503

0.model_cnn.layer2.1.weight f4 [32]
0	0x3f82a24d	1.020578
1	0x3f804809	1.0021983
2	0x3f872715	1.0558802
3	0x3f7fe865	0.9996398
4	0x3f76fca6	0.9647926
5	0x3f79920b	0.9748847
6	0x3f89be5d	1.0761219
7	0x3f703cfc	0.93843055
8	0x3f7822ce	0.9692811
9	0x3f81621e	1.0108068
10	0x3f683279	0.90702015
11	0x3f7f7777	0.99791664
12	0x3f8c40e6	1.0957305
13	0x3f7448cb	0.95423573
14	0x3f7c4339	0.98540074
15	0x3f76505b	0.9621636
16	0x3f73a984	0.95180535
17	0x3f81e75c	1.014873
18	0x3f7a7e67	0.97849125
19	0x3f7b5679	0.9817882
20	0x3f814dd3	1.0101875
21	0x3f825033	1.0180725
22	0x3f81179a	1.0085328
23	0x3f86253a	1.0480111
24	0x3f853a7e	1.0408475
25	0x3f77e311	0.9683085
26	0x3f8166e4	1.0109525
27	0x3f81b82e	1.0134332
28	0x3f83a21a	1.0283844
29	0x3f7a6e17	0.97824234
30	0x3f85b900	1.0447083
31	0x3f7d2c66	0.9889587

0.model_cnn.layer2.1.bias f4 [32]
0	0x3cc95009	0.024574297
1	0xbd5ea811	-0.0543595
2	0x3c1efe8b	0.009704242
3	0xbd758ca2	-0.05994857
4	0xbd3f7a89	-0.046747718
5	0xbd920242	-0.07129337
6	0xbbd0d7ab	-0.006373366
7	0x3beee704	0.007290723
8	0xbdbad3a8	-0.091224015
9	0xbd16c67f	-0.036810394
10	0xbe1ef605	-0.15523537
11	0xbe3fe6e7	-0.18740426
12	0x3cd20be9	0.025640445
13	0xbd92b126	-0.07162695
14	0xbd049a6f	-0.03237384
15	0xbdf18ff6	-0.117950365
16	0xbcedc492	-0.029024396
17	0xbe18cebf	-0.14922617
18	0xbd2aa9c8	-0.041665822
19	0xbe1f07f4	-0.15530378
20	0xbd6ed8ef	-0.058312353
21	0xbb001340	-0.0019542724
22	0xbd81728a	-0.06320675
23	0xbe2faf25	-0.17156656
24	0xbad513c0	-0.0016256496
25	0xbe05cb3c	-0.13065809
26	0x3d8ff701	0.07029534
27	0x3d57bcb5	0.0526702
28	0xbd8a8603	-0.06763842
29	0xbdc473ca	-0.095923975
30	0xbcc60eb7	-0.024176938
31	0x3d0e26ba	0.0347049

0.model_cnn.layer2.1.running_mean f4 [32]
0	0xbedf943a	-0.43667775
1	0xbe05ca2b	-0.13065402
2	0xbf1f0522	-0.6211721
3	0xbeff70dd	-0.49890795
4	0x3e12cf13	0.14336805
5	0x3f206d3d	0.62666684
6	0xbebd3914	-0.3695761
7	0xbc37cb1a	-0.011217857
8	0xbe5fe7fa	-0.21865836
9	0xbd461655	-0.04836114
10	0x3de352f1	0.11099804
11	0x3e927380	0.28603745
12	0xbe8be97e	-0.27326578
13	0x3d2d5fcb	0.042327683
14	0xbe7903f9	-0.24317922
15	0x3ec00366	0.37502593
16	0x3c7719bc	0.015081819
17	0x3e093b82	0.13401607
18	0xbe898943	-0.26862535
19	0x3e2b6f59	0.16741695
20	0xbe128ab3	-0.14310722
21	0xbe110f33	-0.14165954
22	0x3ca75979	0.020428406
23	0x3e1804ce	0.14845583
24	0xbe25cf14	-0.16192275
25	0x3f222813	0.633424
26	0x3bf4a968	0.007466484
27	0xbe61dee1	-0.22057678
28	0x3dfcba37	0.12340205
29	0x3d67c7b0	0.05658692
30	0xbe905320	-0.2818842
31	0xb9c49c2a	-0.00037500384

0.model_cnn.layer2.1.running_var f4 [32]
0	0x3e6561b2	0.22400549
1	0x3dafb1c1	0.08578826
2	0x3e947de8	0.2900231
3	0x3e94b623	0.2904521
4	0x3e3cf615	0.18453248
5	0x3eac2a81	0.33626178
6	0x3e831ef5	0.25609556
7	0x3e308de5	0.17241628
8	0x3e1c3b42	0.1525698
9	0x3e4a9826	0.19784603
10	0x3e9dd9ad	0.30830136
11	0x3e12b9c7	0.14328681
12	0x3e0d2880	0.13784981
13	0x3e53b851	0.2067578
14	0x3e541d2b	0.20714252
15	0x3e49167c	0.19637483
16	0x3e004b6c	0.12528771
17	0x3e147516	0.1449779
18	0x3e34b857	0.17648445
19	0x3e087755	0.13326772
20	0x3e335942	0.17514518
21	0x3e596b1e	0.21232268
22	0x3e5e4ab6	0.21708187
23	0x3e45a00e	0.19299337
24	0x3df6fc29	0.120598145
25	0x3e844118	0.25830913
26	0x3e080c19	0.13285865
27	0x3e0b6860	0.13614035
28	0x3e8df046	0.27722377
29	0x3e6cd27d	0.2312717
30	0x3e560dc0	0.20903683
31	0x3da438c9	0.080186434

0.model_cnn.layer3.0.weight f4 [64, 32, 3]
0	0x3dafd16d	0.08584867
1	0xbda159e6	-0.07878475
2	0x3e0a4bc5	0.13505466
3	0x3d24a303	0.040194523
4	0x3d82a3ba	0.063788846
5	0xbc11ecfd	-0.0089066
6	0xbe5f24b2	-0.21791342
7	0xbe1157b2	-0.1419361
8	0xbc9fda39	-0.019513236
9	0x3d237c9d	0.039913762
10	0xba610daa	-0.0008585105
11	0xbc821e13	-0.015883481
12	0x3c3e4720	0.011613637
13	0xbd719ff0	-0.05899042
14	0xbcda785a	-0.026668716
15	0xbd8163de	-0.06317876
16	0x3d13a90c	0.036049888
17	0x3d44015a	0.04785285
18	0xbdbd908b	-0.09256085
19	0xbd48f608	-0.04906276
20	0xbd48adce	-0.048993878
21	0xbc558bbc	-0.013033804
22	0x3ca93c9a	0.02065878
23	0x3d800b83	0.06252196
24	0x3ccfa187	0.025345577
25	0x3d8459a7	0.06462412
26	0x3cb1ab01	0.021687986
27	0xbe014437	-0.12623678
28	0x3d3420f3	0.043976735
29	0xbcdd167a	-0.026988257
30	0x3c6d4d2e	0.014483733
31	0xbc4bd103	-0.012439969
32	0x3d84323f	0.06454896
33	0x3d22014c	0.039552018
34	0xbd85b97a	-0.065295175
35	0xbddff519	-0.109354205
36	0xbd0b1e9b	-0.033964735
37	0xbd252062	-0.040314086
38	0x3de2c89f	0.11073422
39	0xbd74c5ea	-0.059759058
40	0xbd06160f	-0.03273588
41	0x3cc03cb4	0.023466446
42	0x3ca2dee9	0.019881682
43	0xbd044b5f	-0.032298442
44	0xbc72f60a	-0.014829168
45	0xbd367564	-0.044545546
46	0xbdbc14da	-0.091836646
47	0xbdaa7edc	-0.08324978
48	0x3d830acf	0.06398546
49	0x3d7f4092	0.06231744
50	0x3d896b43	0.06709912
51	0x3dcfc8b2	0.101457015
52	0x3d493fc6	0.049133085
53	0x3cc84533	0.02444706
54	0xbb72035e	-0.0036928277
55	0x3d6b5e55	0.05746301
56	0x3d368f60	0.044570327
57	0xbe0526f2	-0.13003138
58	0x3d581fde	0.052764766
59	0xbd2e1c5a	-0.042507507
60	0xbdee2e1a	-0.11629887
61	0xbdac95f9	-0.084270425
62	0xbdde6aae	-0.10860191
63	0x3c9c17d6	0.019054335
64	0xba68d309	-0.00088815443
65	0xbd9c3ced	-0.07628808
66	0x3c27859b	0.010224725
67	0x3cabc6ec	0.020968877
68	0x3d2d6f7d	0.04234265
69	0x3d90227b	0.07037827
70	0x3dc4d14d	0.096102335
71	0xbdd4507e	-0.10366915
72	0xbcfb57ca	-0.03068151
73	0xbd5be8b7	-0.05368873
74	0x3d3a2d5e	0.04545342
75	0xbdc1a888	-0.09455973
76	0x3d85de48	0.065365374
77	0x3d54f70c	0.051993415
78	0x3dd99d6e	0.106257305
79	0xbd375016	-0.04475411
80	0x3dd9154a	0.10599764
81	0x3d84d633	0.06486168
82	0xbcd6843a	-0.026186097
83	0xbd3ce851	-0.04611999
84	0xbdcfd196	-0.10147397
85	0x3ca4aa7a	0.02010082
86	0xbd705419	-0.05867395
87	0xbd5d9300	-0.05409527
88	0x3d3f0b0e	0.046641402
89	0xbd80a60a	-0.062816694
90	0x3d05a846	0.03263118
91	0x3d101063	0.035171878
92	0xbd82e685	-0.06391624
93	0x3dcd7502	0.10032083
94	0xbce4d5d0	-0.027933985
95	0xbb2f1123	-0.0026713095
96	0x3d0e17e1	0.03469074
97	0xbd833059	-0.06405706
98	0xbdc70fe5	-0.097198285
99	0xbd8edc6e	-0.069756374
100	0x3d29e8dd	0.04148184
101	0xbcc2207f	-0.023697136
102	0x3d05a475	0.03262754
103	0x3d611bf8	0.054958314
104	0x3de79785	0.11308197
105	0xbb084aed	-0.0020796612
106	0x3d527c37	0.05138799
107	0x3d3bc958	0.045846313
108	0xbdf2d7ce	-0.11857568
109	0x3d4a2caa	0.049359
110	0x3d117756	0.0355142
111	0x3ced41a0	0.028961957
112	0x3d1eec52	0.03879959
113	0xbde393ff	-0.111122124
114	0xbdd348aa	-0.10316594
115	0x3c3fe3e7	0.011712051
116	0xbc85f64f	-0.0163528
117	0x3df61e33	0.12017479
118	0xbda3bac9	-0.07994611
119	0xbd0ac6bf	-0.033880945
120	0x3dd3c97e	0.10341166
121	0xbddb5952	-0.10710396
122	0xbd7e560d	-0.062093783
123	0xbda6c164	-0.08142355
124	0xbda28fea	-0.07937606
125	0xbceb70ad	-0.028740251
126	0x3c28cfc3	0.0103034405
127	0xbd8ba6d0	-0.06818926
128	0xbd026e1f	-0.0318433
129	0xbda9dfa4	-0.08294609
130	0xbc32d3f7	-0.010914794
131	0xbd4d337f	-0.05009794
132	0xbe3e27a0	-0.18569803
133	0xbdf14d0e	-0.11782275
134	0xbdbb44f5	-0.09144012
135	0x3c1210cd	0.008915138
136	0xbc548cab	-0.012972991
137	0x3df58f94	0.11990276
138	0x3d2b1229	0.041765366
139	0xbe1aff61	-0.15136482
140	0xbcf6a8d7	-0.030109806
141	0xbca3ed23	-0.020010537
142	0x3dbf85eb	0.09351715
143	0xbd88991b	-0.066698276
144	0xbb6d2a56	-0.0036188564
145	0xbe0734f8	-0.132038
146	0xbde5b6ce	-0.11216508
147	0xbcc2d5b3	-0.02378354
148	0x3d19d07a	0.037552334
149	0x3dba7b37	0.091055326
150	0x3dbfe4ca	0.0936981
151	0x3cdb5b03	0.026776796
152	0x3c14bb58	0.009077869
153	0x3ddb7bc3	0.10716965
154	0x3c3bb721	0.011457236
155	0x3beb4cdf	0.0071807946
156	0x3cb4a319	0.022050427
157	0xbdbc1a9a	-0.09184761
158	0x3e11eb8f	0.14250015
159	0xbe29b26f	-0.16571973
160	0xbdc739e9	-0.09727842
161	0xbd5cfd59	-0.05395255
162	0x3c45146a	0.012028793
163	0xbd338937	-0.04383203
164	0xbcfd9696	-0.030955594
165	0xbdb6590e	-0.089037046
166	0xbd1d7f2a	-0.03845135
167	0x3d3f5265	0.046709437
168	0x3d068059	0.032837246
169	0xbc94065d	-0.01806944
170	0xbceda39e	-0.029008683
171	0xbc20df13	-0.00981881
172	0x3ab6359c	0.0013901475
173	0xbd3246f5	-0.0435247
174	0xbe0dd84c	-0.13852042
175	0xbe060bfd	-0.1309051
176	0xbd9961f5	-0.07489387
177	0xbcbe0bc3	-0.023198968
178	0xbd3acae3	-0.045603644
179	0xbd1f1bea	-0.03884498
180	0xbd72d7c3	-0.059287798
181	0x3b9798fe	0.0046263924
182	0xbcdc3429	-0.02688034
183	0xbc22e9fe	-0.009943483
184	0xbda59d93	-0.080866955
185	0xbdc3b3e1	-0.095557936
186	0xbdcd3391	-0.10019601
187	0x3d4218d2	0.04738695
188	0xbce88594	-0.028384008
189	0xbdcfb7af	-0.10142457
190	0xbdf54e6e	-0.1197785
191	0xbcd53126	-0.026024412
192	0xbdbb8883	-0.09156897
193	0xbc002727	-0.007821835
194	0xbda36d0c	-0.079797834
195	0x3d617c4c	0.05505018
196	0xbd2a2a69	-0.04154435
197	0xbd82c455	-0.063851036
198	0x3dd2bc39	0.10289807
199	0x3d93069d	0.07178996
200	0x3d9d599d	0.07683108
201	0xbd06776b	-0.03282873
202	0x3d196a34	0.0374548
203	0x3b2c97de	0.0026335637
204	0xbc781233	-0.015141058
205	0xbd3b833f	-0.045779463
206	0xbe1e98d8	-0.15487993
207	0xbdca4dd5	-0.098781265
208	0xbbc8133b	-0.006105808
209	0x3d3ddcd6	0.046353184
210	0xbdbf68c6	-0.09346156
211	0xbdc97a8c	-0.09837827
212	0xbd1e5008	-0.038650542
213	0xbc0c0f6d	-0.0085486
214	0xbc9e17a5	-0.019298384
215	0xbcd5ee2e	-0.02611455
216	0xbd1431a7	-0.036180165
217	0x3d2c6409	0.04208759
218	0xbe1867b6	-0.14883313
219	0xbcec0877	-0.02881263
220	0xbe078c7a	-0.13237181
221	0xbe4368cf	-0.1908295
222	0x3d0caea1	0.034346227
223	0xbd44c1a3	-0.04803623
224	0x3d5cc2c3	0.053896677
225	0xbd86801b	-0.06567403
226	0xbda6957c	-0.08133981
227	0x3d98413d	0.07434318
228	0xbd811430	-0.063026786
229	0x3c2dbdb2	0.010604309
230	0x3ab895b2	0.0014082699
231	0x3dccd788	0.10002047
232	0xbd15d1e8	-0.036577135
233	0xbcaa3c34	-0.02078066
234	0xbd261e2e	-0.040556125
235	0xbd6f2409	-0.058383975
236	0xba95cd75	-0.0011429029
237	0x3d079f69	0.03311101
238	0xbe117036	-0.14202961
239	0xbd966985	-0.07344345
240	0xbe03f4a3	-0.1288629
241	0xbdb65938	-0.08903736
242	0x3d0169e8	0.03159514
243	0x3b55b0a9	0.0032606518
244	0xbd46197e	-0.048364155
245	0x3aa4c408	0.0012570629
246	0x3b8c85a1	0.0042883907
247	0xbd8dc38a	-0.06922062
248	0xbd811adf	-0.063039534
249	0x3d3e3018	0.046432585
250	0xbe0e8cd0	-0.13920903
251	0x3d3937e5	0.04521932
252	0xbaf3f387	-0.0018612006
253	0xbdace35d	-0.084418036
254	0xbd30ddaa	-0.043180145
255	0x3d327058	0.04356417

0.model_cnn.layer3.0.bias f4 [64]
0	0xb982a00f	-0.00024914785
1	0xb9adfa64	-0.00033183687
2	0x3a440147	0.0007476997
3	0xb8fbdbe5	-0.00012009571
4	0x3a01c196	0.0004949806
5	0x394281ec	0.00018549681
6	0x39c5a800	0.00037699938
7	0x3a8b0520	0.0010606386
8	0x3890c8e0	6.903871e-05
9	0x3a319a1c	0.0006774978
10	0x3812c028	3.4988072e-05
11	0xb9b97fa6	-0.00035381055
12	0xba8d3ec6	-0.0010776154
13	0x39c3c908	0.00037343078
14	0xba288881	-0.0006429032
15	0x39c11e36	0.00036834338
16	0x3a2aabed	0.0006510604
17	0xb99b5506	-0.0002962725
18	0xb8f0bae3	-0.00011478902
19	0x36a1e2f3	4.8245943e-06
20	0xb9313efa	-0.00016903496
21	0xba7154ac	-0.00092060375
22	0x3a7ab4cf	0.0009563686
23	0x391437f0	0.00014135218
24	0xba3cba0a	-0.0007199353
25	0x39cbb6ce	0.00038855377
26	0x38484fca	4.7758025e-05
27	0x3a315cce	0.0006765843
28	0x390cd3a8	0.00013430289
29	0xb8ae79bf	-8.3196435e-05
30	0xb9e594c8	-0.00043789134
31	0xb8c5eddb	-9.437996e-05
32	0x381e40d5	3.7730515e-05
33	0xb9c1eeb1	-0.00036989668
34	0x39a17b99	0.000308004
35	0xb811b641	-3.474043e-05
36	0xb9b23e16	-0.00033997063
37	0xba5453e2	-0.0008099658
38	0x38dcaa98	0.00010522193
39	0xb817b330	-3.6168087e-05
40	0xb9a438e9	-0.0003132292
41	0xb85500b0	-5.0783798e-05
42	0xb9b18402	-0.00033858424
43	0x38831208	6.249925e-05
44	0xb8bf497c	-9.121277e-05
45	0xbacf0012	-0.0015792868
46	0x3a07d43a	0.00051814655
47	0x38cf4770	9.8838354e-05
48	0x3a9b7e0c	0.0011863126
49	0xba8146e3	-0.0009863045
50	0x3936e3d6	0.00017441748
51	0x3a37f842	0.00070178893
52	0xbb15cab1	-0.002285641
53	0xb8679861	-5.5216606e-05
54	0xb98d47d6	-0.00026947138
55	0xb97013ae	-0.00022895515
56	0xb9904748	-0.0002751893
57	0xb7e68a1c	-2.7482449e-05
58	0x397f65ec	0.00024356664
59	0xb88f45ef	-6.8317975e-05
60	0xb8f3a3b4	-0.00011617635
61	0x383f5e59	4.5625817e-05
62	0x389c12ec	7.442184e-05
63	0xba7767a4	-0.0009437746

0.model_cnn.layer3.1.weight f4 [64]
0	0x3f7f0af1	0.9962607
1	0x3f85bbe0	1.044796
2	0x3f81ef96	1.0151241
3	0x3f82f9e1	1.0232507
4	0x3f7ad3f5	0.9797967
5	0x3f73f75f	0.95299333
6	0x3f687e9c	0.9081819
7	0x3f82618a	1.0186017
8	0x3f7c8c39	0.9865146
9	0x3f6d2464	0.9263365
10	0x3f839a2c	1.0281425
11	0x3f80ef07	1.0072945
12	0x3f82dfd9	1.0224563
13	0x3f7f8ef0	0.9982748
14	0x3f868595	1.0509516
15	0x3f66f956	0.90224206
16	0x3f797e24	0.974581
17	0x3f77eda8	0.9684701
18	0x3f8247bb	1.017814
19	0x3f76c0f0	0.9638815
20	0x3f716daf	0.9430799
21	0x3f7b324f	0.9812364
22	0x3f78a3b4	0.9712479
23	0x3f8407dd	1.03149
24	0x3f819286	1.012284
25	0x3f7d66ed	0.9898518
26	0x3f87ca84	1.0608678
27	0x3f7d1916	0.98866403
28	0x3f7bfec0	0.9843559
29	0x3f74f9f7	0.95693916
30	0x3f89b38d	1.075792
31	0x3f8043ae	1.0020654
32	0x3f72c51f	0.9483203
33	0x3f80afa2	1.0053599
34	0x3f80c6cf	1.0060672
35	0x3f707bd5	0.9393895
36	0x3f85de98	1.0458555
37	0x3f8092c1	1.0044786
38	0x3f75e98d	0.96059495
39	0x3f80aaf1	1.0052167
40	0x3f7916ce	0.9730042
41	0x3f740eac	0.9533489
42	0x3f7dfed3	0.99216956
43	0x3f8b3bcb	1.0877622
44	0x3f850091	1.0390798
45	0x3f7e6400	0.9937134
46	0x3f80f23c	1.0073924
47	0x3f789108	0.970963
48	0x3f83bdaf	1.0292262
49	0x3f8063fb	1.0030512
50	0x3f830429	1.0235645
51	0x3f8589f2	1.0432723
52	0x3f70372c	0.93834186
53	0x3f808fd4	1.0043893
54	0x3f79ed22	0.9762746
55	0x3f80a71b	1.0050997
56	0x3f7de91f	0.9918384
57	0x3f83e0a5	1.0302931
58	0x3f82b518	1.0211515
59	0x3f6fe677	0.93711036
60	0x3f7c09e9	0.9845262
61	0x3f6d3849	0.9266401
62	0x3f7f35b9	0.9969135
63	0x3f81c296	1.0137508

0.model_cnn.layer3.1.bias f4 [64]
0	0xb98185c2	-0.00024704455
1	0x3d84c1df	0.064822905
2	0x3d1733be	0.03691458
3	0xbe15db4f	-0.14634441
4	0xbe265cbc	-0.16246313
5	0xbd869d41	-0.065729626
6	0xbde8cdba	-0.11367364
7	0xbdf3f46c	-0.11911854
8	0xbd0b72f2	-0.034045167
9	0xbe0787d6	-0.13235411
10	0xbddfe9f2	-0.109332934
11	0xbd5b01d3	-0.053468537
12	0x3cb1e477	0.021715386
13	0xbe1aa45c	-0.1510176
14	0xbd84c8c2	-0.06483604
15	0xbe437c2a	-0.19090334
16	0xbda80569	-0.08204157
17	0xbe09a423	-0.1344152
18	0xbd73e27b	-0.05954216
19	0xbe522d66	-0.2052513
20	0xbdb5ae12	-0.08871092
21	0xbe02338a	-0.12714973
22	0xbe0b516f	-0.13605283
23	0x3d0321bf	0.032014605
24	0xbdcc5068	-0.09976274
25	0xbdd948cd	-0.10609589
26	0xbd093601	-0.033498768
27	0xbde0bcc3	-0.109735034
28	0xbc03209f	-0.008003383
29	0xbdee5135	-0.11636583
30	0x3ce7cb77	0.028295262
31	0x3b2d5303	0.0026447184
32	0xbda88e83	-0.08230307
33	0xbdc56b4f	-0.09639608
34	0x3cd2d5d2	0.025736723
35	0xbe220c9c	-0.15825123
36	0x3d81adc2	0.0633197
37	0x3c2832d9	0.010266029
38	0xbe5ce41c	-0.21571392
39	0xbd91010a	-0.07080276
40	0xbda5f569	-0.08103449
41	0xbe145a13	-0.14487486
42	0xbce6f796	-0.02819423
43	0xbe20eced	-0.1571538
44	0xbcad3a98	-0.021146104
45	0xbe0fd84d	-0.14047356
46	0xbde76a9e	-0.112996325
47	0xbd3c2a0d	-0.04593854
48	0xbd86f3f3	-0.06589498
49	0xbd6bde6c	-0.057585165
50	0x3d00e0f3	0.03146453
51	0xbd0b26a6	-0.033972405
52	0xbe318f6b	-0.17339866
53	0xbe0cd9e2	-0.1375499
54	0xbcb46d0d	-0.022024656
55	0xbe154703	-0.1457787
56	0xbdc85962	-0.097826734
57	0xbe4734a4	-0.19453675
58	0xbe3a4f94	-0.18194419
59	0xbde63e7c	-0.11242387
60	0xbe5c7444	-0.21528727
61	0xbe28e604	-0.16493994
62	0xbde7e166	-0.11322288
63	0xbe256eaa	-0.16155496

0.model_cnn.layer3.1.running_mean f4 [64]
0	0xbe6d30c4	-0.23163134
1	0xbfa083ba	-1.25402
2	0xbfce6390	-1.6124134
3	0xbe62c124	-0.2214399
4	0x3f84f584	1.0387425
5	0xbf8c23e6	-1.0948455
6	0x3c7cac4e	0.01542194
7	0x3e88ffb7	0.26757595
8	0xbcc27e3d	-0.023741836
9	0x3f0a59dd	0.5404337
10	0xbf058002	-0.5214845
11	0x3ce635f8	0.028101906
12	0xbfbdb544	-1.4820943
13	0x3ebf656f	0.37382075
14	0xbf3cc28b	-0.7373435
15	0x3e1c803a	0.1528329
16	0x3f09f6eb	0.5389239
17	0x3f6e2235	0.93020946
18	0x3dd9daf3	0.106374644
19	0x3f39d63b	0.72592515
20	0xbdce33e7	-0.10068493
21	0xbf137b59	-0.5761009
22	0xbe921efc	-0.28539264
23	0xbf7206c5	-0.9454158
24	0x3f24f5c9	0.6443754
25	0x3f0ee569	0.558188
26	0xbf3b7cc7	-0.7323727
27	0x3f031d79	0.51216847
28	0xbf590f92	-0.84789383
29	0x3e85d552	0.26139313
30	0xbfb589b7	-1.4182652
31	0xbf6542c9	-0.8955503
32	0xbe28e54f	-0.16493724
33	0xbef37551	-0.47550443
34	0xbe72e4ac	-0.23720044
35	0x3f63cc4c	0.8898361
36	0xbfdb9786	-1.7155616
37	0xbe0749a3	-0.13211684
38	0x3dcc2c98	0.09969443
39	0xbd46431a	-0.048403837
40	0xbded3c8c	-0.11583814
41	0x3d69cb24	0.057078496
42	0xbf19c6da	-0.6006905
43	0x3ed2263d	0.41044798
44	0x3e5eacba	0.21745577
45	0xbdfeb8c2	-0.124375835
46	0xbf20cad0	-0.6280947
47	0x3f6f28ec	0.93421817
48	0xbf5e6ede	-0.8688792
49	0xbf2b177f	-0.6683273
50	0xbf80a7fd	-1.0051266
51	0x3dec861a	0.11549015
52	0x3f336ef8	0.700912
53	0x3e00288b	0.12515466
54	0xbf4f2d06	-0.80928075
55	0x3dcc3492	0.099709645
56	0xbed2a191	-0.4113889
57	0xbf026d87	-0.50948375
58	0x3e862216	0.2619788
59	0x3efec073	0.49756202
60	0x3f3d11fe	0.7385558
61	0x3dd299dc	0.102832526
62	0x3dab4f24	0.08364704
63	0xbf190f8d	-0.59789354

0.model_cnn.layer3.1.running_var f4 [64]
0	0x3e6a15f6	0.2285994
1	0x3f0fa210	0.5610666
2	0x3f6d3b5c	0.926687
3	0x3eaafb03	0.33394632
4	0x3f0b44f2	0.5440208
5	0x3e6bea5d	0.23038621
6	0x3eb821ce	0.3596329
7	0x3e842f3f	0.25817296
8	0x3f1741f7	0.5908503
9	0x3eba4dfe	0.36387628
10	0x3ec4ca72	0.38435704
11	0x3eb9436a	0.36184245
12	0x3ef2e00d	0.47436562
13	0x3ed3d12b	0.4137052
14	0x3e7b81e4	0.24561268
15	0x3eb1ae67	0.3470337
16	0x3eba223c	0.36354244
17	0x3f13ac04	0.5768435
18	0x3f0d8c01	0.55291754
19	0x3ecc8716	0.39946812
20	0x3ec8e515	0.39237276
21	0x3e56b932	0.20969084
22	0x3eb95f75	0.3620564
23	0x3f1d2707	0.61387676
24	0x3e7b5673	0.24544697
25	0x3ec270a1	0.37976554
26	0x3ef2bdd3	0.4741045
27	0x3e953b3e	0.2914676
28	0x3f0134c8	0.5047116
29	0x3ec00e67	0.37510988
30	0x3ecd059d	0.40043345
31	0x3f4f70c1	0.81031424
32	0x3ea3379c	0.31878364
33	0x3e962122	0.29322153
34	0x3f195a67	0.5990357
35	0x3f307c6a	0.6893984
36	0x3f480278	0.78128767
37	0x3e4c03a2	0.19923261
38	0x3ed17a78	0.4091375
39	0x3ea167f6	0.31524628
40	0x3eda96a4	0.42693055
41	0x3ea88f1a	0.32921678
42	0x3f02e904	0.51136804
43	0x3ea6bb32	0.32564694
44	0x3edec2ac	0.43507898
45	0x3eb8c721	0.36089423
46	0x3ea4a022	0.32153422
47	0x3f1a987b	0.60388917
48	0x3e52303d	0.20526214
49	0x3ea0986c	0.3136629
50	0x3f051434	0.5198395
51	0x3edd696d	0.43244496
52	0x3ebf5930	0.37372732
53	0x3eb322dd	0.34987536
54	0x3ed72fff	0.42028806
55	0x3e837f9b	0.25683293
56	0x3ea00b51	0.31258634
57	0x3e836634	0.25663912
58	0x3e274d6a	0.16338125
59	0x3e970637	0.2949693
60	0x3ee795b9	0.45231417
61	0x3ef03b4f	0.4692025
62	0x3e8ff311	0.28115132
63	0x3e3d2ef4	0.18474942

0.model_cnn.layer4.0.weight f4 [128, 64, 3]
0	0x3d67cf41	0.056594137
1	0x3dd91694	0.106000096
2	0x3a626566	0.00086363254
3	0x3b6a53b5	0.003575546
4	0x3d99b862	0.07505871
5	0x3d500461	0.050785426
6	0x3d33ec60	0.043926597
7	0xbc352d93	-0.011058229
8	0x3bc239fe	0.0059273234
9	0x3d70c854	0.058784798
10	0x3da03468	0.07822496
11	0x3d11a57a	0.0355582
12	0x3db89bb6	0.090140745
13	0x3dc24c5f	0.09487223
14	0x3d355eb5	0.044279773
15	0xbd08dce8	-0.033413798
16	0x3c5f6c08	0.0136365965
17	0x3d5cd811	0.053916994
18	0xbc3c978c	-0.011510741
19	0xbccbe1ae	-0.024887886
20	0x3d8b60aa	0.068055466
21	0xbca837ab	-0.020534357
22	0x3a88e1fe	0.0010443327
23	0x3d7e2a9d	0.062052358
24	0x3d5d6af8	0.05405709
25	0xbc38f788	-0.011289485
26	0x3cfc61b2	0.030808304
27	0x3c0e2bc9	0.008677431
28	0x3d496fbb	0.04917882
29	0xbd62b502	-0.055348404
30	0xbaedc4bc	-0.0018140296
31	0x3c67e8f7	0.014154664
32	0x3d250a00	0.04029274
33	0xbd0f06f5	-0.034918744
34	0x3cc44ca4	0.023962326
35	0xbcc3e7a4	-0.023914166
36	0x3da00b49	0.078146525
37	0xbc7689a4	-0.0150474645
38	0x3df744a6	0.120736405
39	0x3d4275c0	0.047475576
40	0xbdb4e315	-0.08832375
41	0xbd4e42f2	-0.050356813
42	0xbd786f01	-0.060652737
43	0x3d0405c9	0.03223208
44	0xbd8e9ae7	-0.06963139
45	0x3c99ce11	0.018775018
46	0xbd0c92b3	-0.03431959
47	0x3d78c402	0.060733803
48	0x3c5edb45	0.013602083
49	0x3c95ac3d	0.018270606
50	0xbd877034	-0.06613198
51	0x3df634b5	0.12021772
52	0x3bbc7aef	0.0057519595
53	0x3caf7516	0.021418136
54	0x3d0e3081	0.034714226
55	0xbd089950	-0.033349335
56	0xbb8116a1	-0.003939465
57	0x3dbb83a7	0.0915597
58	0x3d92d123	0.07168796
59	0x3d0f6a3c	0.035013422
60	0x3d831189	0.06399829
61	0x3cf8a701	0.030353071
62	0x3dd0b165	0.10190085
63	0x3cc3edf7	0.023917181
64	0x3dfa1855	0.12211672
65	0x3ca996d7	0.020701809
66	0x3ca199c7	0.019726647
67	0xbd75bb2a	-0.059992947
68	0x3bea7fdc	0.0071563553
69	0x3d80deef	0.06292521
70	0x3d869ef7	0.06573289
71	0x3b0808dc	0.0020757234
72	0x3d996c9e	0.0749142
73	0x3cf3efa6	0.02977736
74	0x3e0290af	0.12750505
75	0xbd949d8f	-0.072566144
76	0xbd7322e1	-0.059359435
77	0xbcd73a93	-0.026273048
78	0x3d15664c	0.03647451
79	0x3b389958	0.0028167572
80	0x3d83b53e	0.064310536
81	0x3d946477	0.07245725
82	0x3ddbcdea	0.10732634
83	0x3df054d8	0.11734933
84	0x3b3fafab	0.0029248993
85	0x3cc02243	0.023453837
86	0x3de74879	0.1129312
87	0xbd21e7bf	-0.03952765
88	0xbd707dff	-0.05871391
89	0xbd8947a6	-0.06703119
90	0x3dd2d2a5	0.102940835
91	0x3cd20241	0.02563584
92	0x3b588a4e	0.003304142
93	0x3d45332f	0.048144516
94	0x3d78101b	0.060562234
95	0xbd35e532	-0.04440803
96	0x3cdfa354	0.02729956
97	0x3c8b1528	0.016977862
98	0xbc997b4e	-0.018735554
99	0x3d6feeeb	0.05857746
100	0x3dba5734	0.09098664
101	0xbc6a710a	-0.014309177
102	0x3d8eeea4	0.06979111
103	0xbca2a22b	-0.019852718
104	0x3d88a4f8	0.0667209
105	0xbcbcb11f	-0.023033677
106	0xbbf631f6	-0.00751328
107	0xbc898a5b	-0.016789606
108	0x3dc1ed2b	0.09469064
109	0x3e01756a	0.12642446
110	0x3dc58ca7	0.09645968
111	0xbccf6d7d	-0.025320763
112	0xbcd44aec	-0.025914632
113	0x3b9940e5	0.0046769255
114	0x3d8fcc0e	0.07021342
115	0x3cd80675	0.026370266
116	0x3b6e19a4	0.00363312
117	0x3bf7266c	0.007542422
118	0x3d4f0c0c	0.0505486
119	0x3d6f8acb	0.058481973
120	0xbd3ede06	-0.046598457
121	0xbd87795c	-0.06614944
122	0x3d293078	0.04130599
123	0xbcb45201	-0.022011759
124	0xbc44f864	-0.012022112
125	0x3b337390	0.0027382113
126	0x3b839eb6	0.0040167226
127	0x3e058f70	0.13042998
128	0xbd8a8b90	-0.06764901
129	0x3cc52581	0.024065735
130	0xbde95509	-0.11393172
131	0x3a8f86f8	0.0010950258
132	0x3d424e3a	0.047437884
133	0x3d87fce3	0.06640031
134	0xbd5a3edb	-0.0532826
135	0xbbbfd836	-0.005854632
136	0x3df49a30	0.119434714
137	0x3e06c049	0.13159288
138	0x3cefd467	0.029276086
139	0x3a6f5de9	0.000913112
140	0x3d7bd041	0.061477903
141	0x3d0a7c4a	0.033809938
142	0xbd9454dc	-0.07242748
143	0x3cca177d	0.024669403
144	0xbc911a11	-0.017712625
145	0x3d99b3a5	0.075049676
146	0x3bccedea	0.0062539475
147	0x3d1f79c7	0.038934495
148	0x3b024cf5	0.0019882296
149	0x3c4a9175	0.012363781
150	0x3dadb064	0.084809095
151	0x3d7d3574	0.061818555
152	0x3da65b84	0.08122924
153	0x3b11881e	0.0022206376
154	0xbd4f32ee	-0.05058568
155	0x3d48565f	0.048910495
156	0x3d0fc10e	0.03509622
157	0x3d3ac897	0.045601454
158	0x3d1f7890	0.038933337
159	0x3da71d29	0.08159859
160	0xbceb015a	-0.028687168
161	0x3d88f617	0.06687563
162	0x3d00de06	0.031461738
163	0x3b58f13c	0.0033102771
164	0xbd34fa1a	-0.044183828
165	0xbd2959be	-0.04134535
166	0x3ca63ba1	0.020292105
167	0xbb981798	-0.0046414845
168	0xbdb5415f	-0.08850359
169	0xbca596c3	-0.02021349
170	0x3b364779	0.0027813597
171	0xbc5a55da	-0.013326133
172	0x3d4e9645	0.050436277
173	0x3d8aafb6	0.067717955
174	0xbdcda350	-0.10040915
175	0xbd9f09ee	-0.07765566
176	0x3cda005e	0.026611503
177	0xbcf65725	-0.03007085
178	0x3b19156c	0.0023358716
179	0x3d80ba6b	0.062855564
180	0x3d95c7b6	0.073134825
181	0x3d3f87cc	0.046760365
182	0x3c348825	0.0110187875
183	0x3d46737d	0.048449982
184	0xbd5f12cd	-0.05446129
185	0xbd9f9407	-0.07791906
186	0x3d130348	0.0358918
187	0x3d220df8	0.039564103
188	0xbc709784	-0.014684562
189	0xbd611809	-0.054954562
190	0xbcfddcdc	-0.030989103
191	0xbcb50c90	-0.022100717
192	0x3d6dc5f2	0.058050103
193	0xbbff0156	-0.0077821417
194	0x3cf32534	0.029680826
195	0xbd46af6e	-0.048507147
196	0xbccb96b6	-0.024852138
197	0x3d3a94d4	0.04555209
198	0x3d95d4d0	0.073159814
199	0x3c265a8d	0.010153425
200	0x3bf64e7a	0.0075166794
201	0xbd7a2af9	-0.06107614
202	0x3c791755	0.015203317
203	0xbbc82d21	-0.0061088954
204	0xbcde09c2	-0.027104262
205	0x3d5bdcb5	0.05367728
206	0x3d7e73b3	0.062122058
207	0x3d27ad33	0.04093666
208	0x3d353585	0.044240493
209	0x3dd10052	0.10205139
210	0xbd306c6a	-0.04307214
211	0x3ae002d3	0.0017090685
212	0x3c99b94e	0.018765118
213	0xbc034f79	-0.008014553
214	0xbcdf2185	-0.027237663
215	0x3c57afe8	0.013164498
216	0x3db060a0	0.0861218
217	0x3df5f18b	0.12008961
218	0xba8615d6	-0.0010229896
219	0xbb49e68b	-0.003080758
220	0x3d8f13a0	0.06986165
221	0xbd1a4ade	-0.037669055
222	0xbd36e2bc	-0.044649825
223	0xbd05b04e	-0.03263884
224	0xbdab44e2	-0.08362748
225	0xbcb03606	-0.021510135
226	0x3b0f1001	0.0021829607
227	0xbd2408d8	-0.040047497
228	0x3c628698	0.013826035
229	0x3d9d3212	0.07675566
230	0x3e055651	0.13021208
231	0xbd5299b7	-0.051416125
232	0x3bfac46a	0.007652809
233	0xbb5f56fd	-0.0034078949
234	0xbce6526b	-0.028115472
235	0xbc8a60b3	-0.016891813
236	0xbc658863	-0.014009568
237	0x3d8a9ad1	0.0676781
238	0xbcae40a5	-0.02127106
239	0xbcec11ec	-0.02881714
240	0x3c23607f	0.009971737
241	0x3bbd9133	0.0057851314
242	0xbc2f0e10	-0.010684505
243	0x3aea1b2c	0.0017860881
244	0x3d7d7464	0.061878577
245	0x3dbf3323	0.093359254
246	0x3c43d05b	0.011951531
247	0x3d598a18	0.053110212
248	0x3dc86162	0.09784199
249	0xbcf73137	-0.030174835
250	0xbd4d8426	-0.050174855
251	0xbd35a541	-0.04434705
252	0x3d5936c9	0.053030763
253	0x3d0e1be3	0.034694564
254	0x3d680c41	0.05665231
255	0x3d9d9ca9	0.07695896

0.model_cnn.layer4.0.bias f4 [128]
0	0xb7a52a5c	-1.9689258e-05
1	0xb8a0291c	-7.637052e-05
2	0x38e6c8c4	0.0001100465
3	0x373b88b1	1.11778945e-05
4	0xb923e96a	-0.00015631845
5	0x38645876	5.444182e-05
6	0xb90f427e	-0.00013662313
7	0x381071f4	3.4438403e-05
8	0xb8f62a56	-0.0001173808
9	0xb82b8530	-4.0893618e-05
10	0x39805284	0.0002447554
11	0xba10de19	-0.0005526259
12	0x380cf8b2	3.3610217e-05
13	0xb929ae48	-0.00016182021
14	0xb58b1c60	-1.0364565e-06
15	0xb988518f	-0.00026000707
16	0xb894355f	-7.067131e-05
17	0xb8e24cae	-0.000107908025
18	0x388a4324	6.592859e-05
19	0x38f427c9	0.00011642237
20	0xb7a51499	-1.9679124e-05
21	0xb8471f4d	-4.747445e-05
22	0xb7fd8ddb	-3.0226007e-05
23	0x3924bbbd	0.00015710197
24	0x37954154	1.7792605e-05
25	0x391e816b	0.00015116266
26	0xb8d0fd3f	-9.965384e-05
27	0x392dd179	0.000165766
28	0xb7be6920	-2.2698718e-05
29	0x38187215	3.634587e-05
30	0x39ad10ae	0.0003300956
31	0xb81654a7	-3.5841626e-05
32	0x38b1b2a1	8.47329e-05
33	0xb92858fa	-0.00016054875
34	0x3888be7b	6.520465e-05
35	0x38b03ecc	8.404031e-05
36	0xb9022027	-0.00012409744
37	0x39677a7e	0.00022075509
38	0x37412d34	1.1514221e-05
39	0xb8fa30cf	-0.0001193002
40	0xb7b29fae	-2.129361e-05
41	0x399619d9	0.00028629487
42	0x39257fbf	0.00015783215
43	0x396b6c27	0.00022451636
44	0xb7ecedce	-2.8244129e-05
45	0x3883749b	6.268286e-05
46	0x38692f4a	5.559557e-05
47	0xb90bc431	-0.0001332916
48	0x37de21a3	2.6480126e-05
49	0x35f71d45	1.8411453e-06
50	0xb61ab1d6	-2.3051302e-06
51	0xb8e7d1bc	-0.000110540044
52	0x38cdc46c	9.811748e-05
53	0xb9eac19a	-0.00044776202
54	0x3914ea15	0.00014201582
55	0xb8f8f55a	-0.00011871262
56	0x386ac03e	5.5968987e-05
57	0x396c691e	0.00022545873
58	0x383b980a	4.472587e-05
59	0xb8a76fe4	-7.984022e-05
60	0x38bea034	9.089746e-05
61	0x38f8495a	0.00011839224
62	0x385a00ac	5.1975876e-05
63	0xb7bedf7c	-2.2753833e-05
64	0xb820f161	-3.8371774e-05
65	0x389da61c	7.517284e-05
66	0xb84ab3c3	-4.832797e-05
67	0xb95ba88e	-0.00020948259
68	0x39e7f9c2	0.00044245837
69	0xb897ed8d	-7.2444884e-05
70	0x3890f545	6.91214e-05
71	0x38ba9079	8.896081e-05
72	0x38d0e000	9.959936e-05
73	0xb99c1d40	-0.00029776432
74	0xb8b7ab50	-8.7580294e-05
75	0xb82fb51a	-4.1891915e-05
76	0x38c6eecc	9.485855e-05
77	0xb8c6450d	-9.4542374e-05
78	0xb80dc9c8	-3.3804943e-05
79	0xb7b76582	-2.1862568e-05
80	0x379ba6e3	1.8555153e-05
81	0xb7d752f8	-2.5668633e-05
82	0x38a4b590	7.853948e-05
83	0x38467b50	4.7321722e-05
84	0x38749479	5.831241e-05
85	0xb7387db9	-1.0996527e-05
86	0xb8c8f89e	-9.583052e-05
87	0xb7938160	-1.758401e-05
88	0xb90b5fca	-0.00013291757
89	0x393913a5	0.00017650293
90	0xb9427af2	-0.00018547082
91	0x385471ab	5.06506e-05
92	0x39911a86	0.00027676317
93	0x3904ce8b	0.00012665444
94	0x38fda862	0.00012095344
95	0x37a7e9f2	2.001689e-05
96	0x3611a298	2.1701326e-06
97	0xb90d0b9c	-0.00013451133
98	0xb814025f	-3.5288158e-05
99	0xb92508f6	-0.00015738964
100	0x39241266	0.00015647113
101	0x3809a6e8	3.281879e-05
102	0xb8f893aa	-0.00011853066
103	0x386797fc	5.521624e-05
104	0xb90253c9	-0.00012428979
105	0x3901eff6	0.00012391791
106	0x38059491	3.1848034e-05
107	0x380741fe	3.224797e-05
108	0xb8535cc9	-5.0392733e-05
109	0x38a008c4	7.631027e-05
110	0xb77c7724	-1.504811e-05
111	0x38d893b8	0.000103271974
112	0x37ade30e	2.0728938e-05
113	0x39142fb8	0.00014132157
114	0x364e4e30	3.0741903e-06
115	0xb9e27b7d	-0.00043198085
116	0xb9448465	-0.00018741337
117	0x390b67d0	0.00013294746
118	0x38032d94	3.127528e-05
119	0xb9564e78	-0.00020437862
120	0x384a8e67	4.8293175e-05
121	0x38e63dc2	0.00010978758
122	0x38ab638d	8.172458e-05
123	0xb9093c8a	-0.0001308789
124	0x37072e5c	8.057421e-06
125	0xb7eb5c6d	-2.8057222e-05
126	0xb8ebcf70	-0.000112443115
127	0xb84c3d24	-4.869433e-05

0.model_cnn.layer4.1.weight f4 [128]
0	0x3f8834b0	1.0641079
1	0x3f7fea16	0.9996656
2	0x3f81c7bf	1.0139083
3	0x3f85d1f8	1.0454702
4	0x3f7d1532	0.98860466
5	0x3f76918d	0.9631584
6	0x3f85b7f1	1.044676
7	0x3f7601ee	0.96096694
8	0x3f85caab	1.0452474
9	0x3f74f01b	0.9567887
10	0x3f8017db	1.000728
11	0x3f852cfa	1.0404351
12	0x3f7dba4d	0.991124
13	0x3f7e6478	0.99372053
14	0x3f854e4e	1.0414522
15	0x3f86c2e3	1.0528225
16	0x3f8b04c3	1.0860828
17	0x3f8562a6	1.042073
18	0x3f8591f4	1.0435166
19	0x3f803f14	1.001925
20	0x3f81ad32	1.013098
21	0x3f78acf9	0.97138935
22	0x3f74fe59	0.95700604
23	0x3f818841	1.0119706
24	0x3f80a2a2	1.0049632
25	0x3f800ef0	1.0004559
26	0x3f78de95	0.97214633
27	0x3f8694e8	1.0514193
28	0x3f851675	1.0397478
29	0x3f838d04	1.027741
30	0x3f80f110	1.0073566
31	0x3f8032f9	1.0015556
32	0x3f80a3f9	1.005004
33	0x3f82f523	1.023106
34	0x3f76e6cb	0.9644591
35	0x3f87f437	1.0621403
36	0x3f80c14a	1.0058987
37	0x3f8653b5	1.0494295
38	0x3f84492e	1.0334833
39	0x3f7acc51	0.9796801
40	0x3f6d7257	0.92752594
41	0x3f8381c8	1.0273981
42	0x3f803b87	1.0018166
43	0x3f7de4af	0.9917707
44	0x3f7841ed	0.96975595
45	0x3f64eff1	0.8942862
46	0x3f718291	0.94339854
47	0x3f74ae8e	0.9557885
48	0x3f889c79	1.0672752
49	0x3f6fc845	0.9366496
50	0x3f87ff35	1.0624758
51	0x3f7ae9ff	0.980133
52	0x3f80471d	1.0021702
53	0x3f7e28ea	0.9928118
54	0x3f7a91cc	0.9787872
55	0x3f8150e0	1.0102806
56	0x3f7575d9	0.95882946
57	0x3f78a810	0.97131443
58	0x3f80e47b	1.0069727
59	0x3f813573	1.0094436
60	0x3f7bfded	0.98434335
61	0x3f82932a	1.0201161
62	0x3f7e1157	0.9924521
63	0x3f7a1cfd	0.9770048
64	0x3f73c663	0.9522459
65	0x3f82dacd	1.0223023
66	0x3f829ccd	1.0204102
67	0x3f863688	1.0485392
68	0x3f82fb74	1.0232987
69	0x3f842827	1.0324754
70	0x3f63ae83	0.8893816
71	0x3f88f5fb	1.0700067
72	0x3f7bcaab	0.9835612
73	0x3f857d09	1.0428783
74	0x3f8719cd	1.0554749
75	0x3f85331e	1.0406225
76	0x3f81ac67	1.0130738
77	0x3f8351a1	1.0259286
78	0x3f82d52c	1.0221305
79	0x3f64f668	0.89438486
80	0x3f63b41e	0.8894671
81	0x3f76447e	0.9619826
82	0x3f869a7b	1.0515894
83	0x3f73a046	0.9516643
84	0x3f84ee33	1.0385193
85	0x3f68b841	0.9090615
86	0x3f7da462	0.99078953
87	0x3f7fa24d	0.99857026
88	0x3f8c6b7f	1.0970305
89	0x3f7d5db7	0.9897112
90	0x3f7f5085	0.9973224
91	0x3f7fd826	0.9993919
92	0x3f86a67c	1.0519557
93	0x3f85c6b0	1.045126
94	0x3f82880d	1.0197769
95	0x3f6c0985	0.92202026
96	0x3f80d94d	1.0066315
97	0x3f82bc73	1.021376
98	0x3f809524	1.0045514
99	0x3f85e562	1.0460627
100	0x3f7c115d	0.98463994
101	0x3f800a70	1.0003185
102	0x3f83c369	1.029401
103	0x3f601c70	0.8754339
104	0x3f8360c2	1.0263903
105	0x3f809e13	1.004824
106	0x3f86f86d	1.0544564
107	0x3f560b98	0.8361144
108	0x3f82da0c	1.0222793
109	0x3f83f802	1.0310061
110	0x3f86a1d0	1.0518131
111	0x3f797571	0.97444826
112	0x3f82a747	1.0207299
113	0x3f82b931	1.0212766
114	0x3f823c4f	1.0174655
115	0x3f8652cb	1.0494016
116	0x3f885e6d	1.0653816
117	0x3f7bd1b1	0.9836684
118	0x3f85f4d4	1.0465341
119	0x3f83a349	1.0284206
120	0x3f5d48f2	0.8643943
121	0x3f807b9d	1.0037724
122	0x3f753516	0.9578413
123	0x3f828f3c	1.0199962
124	0x3f759a43	0.9593851
125	0x3f82e764	1.0226865
126	0x3f78f470	0.9724798
127	0x3f824b0c	1.0179152
