checkpoint/DA/s_0_1_t3/cnn_features_1d_0925-223442/1-0.7670-best_model.pth (torch, 944127 bytes, 30 tensors)

0.model_cnn.layer1.0.weight f4 [16, 1, 15]
0.11398704 -0.034945715 0.16240111 -0.18465811 0.19650684 -0.26603845 -0.25996616 0.0140168
0.25775927 0.1919941 -0.13712497 -0.14064635 -0.05236275 0.22364955 -0.06973181 -0.23510662
-0.13613033 -0.15600309 -0.10039842 0.075787894 0.18493801 -0.22367008 -0.069899775 -0.24746497
-0.10904283 -0.20793533 -0.078330524 -0.07352655 -0.14586969 0.038399447 0.19803119 -0.085134655
0.22865242 -0.16573194 -0.18096934 -0.12882781 0.20781158 -0.23350741 -0.28324583 -0.22491615
0.16975835 0.03256914 0.19135387 0.056132995 0.22703882 0.21353245 -0.053269964 -0.08568334
-0.04378271 -0.243191 0.054341868 0.24479549 -0.11904568 0.11372925 -0.21772262 -0.16789442
-0.046529442 -0.21823254 0.12499009 0.12634367 0.001977719 0.062015183 0.071365 0.02143954
0.012277471 0.06989677 -0.24228771 0.20347162 0.09113375 -0.08537432 -0.069707185 0.1384086
0.11539989 -0.17852563 0.17307074 0.17639677 -0.034982633 -0.2277661 -0.19532096 0.17559147
-0.008242658 0.031236652 -0.14057289 0.1937479 -0.047451768 -0.23462021 0.044971965 0.19426881
0.052096605 -0.077658944 0.06302812 0.08556976 -0.18321873 0.037585057 0.01796821 0.2350844
-0.25656533 -0.11440096 -0.17715205 -0.26017535 0.001319517 0.19787171 -0.21554755 0.044848464
-0.23763652 -0.07267944 0.13245755 0.09379004 -0.16408123 -0.16058274 0.038409125 0.22479348
-0.1627834 0.02328133 0.09602489 0.10844168 -0.2412325 -0.050126944 0.037044488 0.20531845
0.1677232 0.1839341 -0.08374893 0.17845456 0.019560982 0.034482196 -0.037533715 0.20325895
0.112199984 0.05135326 -0.0029687316 0.056180567 -0.037225254 -0.073956996 0.10527129 -0.2141191
0.06672883 -0.19673257 -0.24700814 0.042150397 -0.1838731 0.20453042 -0.031444225 0.059249997
0.062351935 0.21907686 -0.2148259 0.14273989 -0.0412575 -0.0010976893 -0.2221865 -0.13131174
0.23509568 -0.248416 -0.20800592 -0.13541688 0.2315389 -0.24560449 0.190838 -0.15010813
-0.0104499 -0.14575844 0.21952315 0.027947344 0.14415416 -0.20067681 -0.062779516 -0.15451862
0.13307574 0.22634849 0.12465993 0.24040222 -0.14790702 -0.14645079 0.14891037 0.13982315
0.029167712 0.009048339 -0.14797673 0.02451585 0.25650695 -0.22980852 0.1536073 0.10630276
-0.24019954 -0.012860817 0.16621329 -0.16805965 0.03843439 0.16340572 -0.19491458 0.21172811
0.09743939 0.048405774 -0.08900245 0.08882371 0.17698969 0.06278804 -0.13560313 -0.09352147
-0.024924353 0.06009237 0.21168683 -0.12606461 0.2160802 -0.14012276 0.18394013 -0.07609903
0.029029181 -0.08080953 -0.103794426 0.15290399 -0.00219998 -0.10718749 0.05062457 0.19899346
0.19063029 0.089709744 -0.18065025 0.07789809 -0.16693671 0.21649246 -0.013478535 -0.16525917
-0.14732161 0.062071644 -0.1016133 0.042709086 -0.14490315 -0.23351905 -0.17386968 -0.09615227
-0.21556708 -0.15163006 0.07379454 -0.02661122 0.18341409 -0.037322726 0.12739564 -0.118320614
00000000: 0a72 e93d 3d23 0fbd 7a4c 263e 0417 3dbe
00000010: 1739 493e 3136 88be 491a 85be b8a6 653c
00000020: 06f9 833e 1a9a 443e 7d6a 0cbe 9905 10be
00000030: 537a 56bd 6304 653e 8dcf 8ebd cabf 70be
00000040: c065 0bbe 46bf 1fbe b09d cdbd af36 9b3d
00000050: 6460 3d3e c509 65be 9d27 8fbd 7567 7dbe
00000060: d951 dfbd 00ed 54be c16b a0bd 1695 96bd
00000070: dd5e 15be bd48 1d3d b0c8 4a3e 145b aebd
00000080: dc23 6a3e a2b5 29be 0750 39be 70eb 03be
00000090: 8fcc 543e 911c 6fbe 9905 91be 6b50 66be
000000a0: 22d5 2d3e 3867 053d 45f2 433e b6eb 653d
000000b0: dd7c 683e 40a8 5a3e 9b31 5abd bf7a afbd
000000c0: 8055 33bd 1007 79be 9495 5e3d abab 7a3e
000000d0: 39ce f3bd e2ea e83d aef2 5ebe 84ec 2bbe
000000e0: a895 3ebd 5a78 5fbe cefa ff3d 3c60 013e
000000f0: 9e9c 013b a203 7e3d d027 923d f9a1 af3c
00000100: 7227 493c 0a26 8f3d 451a 78be dd5a 503e
00000110: 55a4 ba3d bbd8 aebd a4c2 8ebd fcba 0d3e
00000120: c756 ec3d 6ccf 36be 7539 313e 5ba1 343e
00000130: f349 0fbd 843b 69be 3802 48be 40ce 333e
00000140: 370c 07bc 02e4 ff3c 57f2 0fbe d965 463e
00000150: c95c 42bd 4840 70be 8634 383d 67ee 463e
00000160: 4063 553d a70b 9fbd e314 813d 333f af3d
00000170: b19d 3bbe caf2 193d 1132 933c f7b9 703e
00000180: 885c 83be 0d4b eabd 5967 35be b435 85be
00000190: a5f3 ac3a e29e 4a3e 7fb8 5cbe 06b3 373d
000001a0: fd56 73be f5d8 94bd f4a2 073e fe14 c03d
000001b0: e904 28be cd6f 24be e352 1d3d 4330 663e
000001c0: b1b0 26be 7db8 be3c b3a8 c43d ac16 de3d
000001d0: a705 77be e951 4dbd f6bb 173d 003f 523e
000001e0: a1bf 2b3e 3959 3c3e 8f84 abbd cbbc 363e
000001f0: 5a3e a03c 343d 0d3d f4bc 19bd 1d23 503e
00000200: 1bc9 e53d cc57 523d 0d8f 42bb 981d 663d
00000210: 8279 18bd c476 97bd 7998 d73d 0a42 5bbe
00000220: 20a9 883d 4374 49be b4ef 7cbe e5a5 2c3d
00000230: 3b49 3cbe 6c70 513e a9cb 00bd 20b0 723d
00000240: be64 7f3d af55 603e 52fb 5bbe 682a 123e
00000250: a0fd 28bd 57e0 8fba dc84 63be 9676 06be
00000260: ecbc 703e c460 7ebe 81ff 54be b9aa 0abe
00000270: 8918 6d3e be7f 7bbe 096b 433e f2b5 19be
00000280: 0f36 2bbc b341 15be adca 603e d4f1 e43c
00000290: 269d 133e 397e 4dbe 8c92 80bd 213a 1ebe
000002a0: 0245 083e e6c7 673e b54d ff3d 002c 763e
000002b0: f074 17be 32f7 15be f67b 183e cd2d 0f3e
000002c0: 20f1 ee3c 7c3f 143c 3687 17be 77d5 c83c
000002d0: e154 833e ed52 6bbe 3b4b 1d3e 43b5 d93d
000002e0: def6 75be 2db6 52bc d133 2a3e d417 2cbe
000002f0: 616d 1d3d d453 273e b097 47be 41cf 583e
00000300: 4e8e c73d 2245 463d eb46 b6bd 35e9 b53d
00000310: c93c 353e 0497 803d 8cdb 0abe 2f88 bfbd
00000320: 282e ccbc 6b23 763d 6fc4 583e 1517 01be
00000330: 2144 5d3e 577c 0fbe cd5a 3c3e cfd9 9bbd
00000340: 9bce ed3c 787f a5bd 2c92 d4bd dd92 1c3e
00000350: 8a2d 10bb 1d85 dbbd b65b 4f3d f1c4 4b3e
00000360: 9634 433e beb9 b73d 61fc 38be 0989 9f3d
00000370: 75f1 2abe 33b0 5d3e 13d5 5cbc b339 29be
00000380: 7adb 16be d63e 7e3d a21a d0bd b9ef 2e3d
00000390: 7e61 14be 9e1f 6fbe e50a 32be 7beb c4bd
000003a0: 9ebd 5cbe e944 1bbe 9721 973d c6ff d9bc
000003b0: e7d0 3b3e b7df 18bd 0174 023e 1452 f2bd

0.model_cnn.layer1.0.bias f4 [16]
-0.14864041 -0.1074316 0.09783404 -0.1634825 0.0038690965 -0.004435461 -0.031501923 -0.0012041307
-0.03782501 -0.09266872 -0.17568466 -0.0032945443 0.01027358 0.05484557 -0.0014711288 0.15616961
00000000: 3135 18be 1905 dcbd 375d c83d f567 27be
00000010: ab90 7d3b 5857 91bb 2908 01bd ecd3 9dba
00000020: 66ee 1abd 19c9 bdbd aee6 33be 48e9 57bb
00000030: 8552 283c c0a5 603d e4d2 c0ba edea 1f3e

0.model_cnn.layer1.1.weight f4 [16]
1.0088116 1.0075258 0.9880742 0.9935772 0.98167294 1.0015063 1.0004375 0.97744143
0.986612 0.9908857 0.99862844 0.9958004 1.018478 1.0197265 0.9902137 1.0136796
00000000: bd20 813f 9bf6 803f 6ef2 7c3f 135b 7e3f
00000010: eb4e 7b3f 5c31 803f 560e 803f 9a39 7a3f
00000020: 9b92 7c3f afaa 7d3f 1da6 7f3f c6ec 7e3f
00000030: 7d5d 823f 6686 823f a57e 7d3f 41c0 813f

0.model_cnn.layer1.1.bias f4 [16]
-0.036043443 0.005756686 -0.00078696874 -0.022078305 -0.011803098 0.010690554 -0.005454547 -0.0027304825
-0.01761018 -0.010092794 -0.01436026 -0.019130232 -0.0068186163 -0.009707352 -8.911663e-05 4.2771964e-05
00000000: 4aa2 13bd 95a2 bc3b 944c 4eba 90dd b4bc
00000010: c861 41bc 6f27 2f3c 0ebc b2bb e5f1 32bb
00000020: 3943 90bc 3f5c 25bc 4c47 6bbc 01b7 9cbc
00000030: b36e dfbb 960b 1fbc 20e4 bab8 0c66 3338

0.model_cnn.layer1.1.running_mean f4 [16]
-0.15733014 -0.11571294 0.1061866 -0.17225002 0.0037521569 -0.0038457802 -0.038126897 -0.002251977
-0.044698376 -0.1008269 -0.18458529 -0.0027298215 0.01538213 0.062571034 0.00087214663 0.16473697
00000000: 271b 21be e8fa ecbd 5c78 d93d 4f62 30be
00000010: bfe6 753b 7c09 7cbb f32a 1cbd e895 13bb
00000020: a515 37bd 557e cebd ed03 3dbe cee6 32bb
00000030: 5405 7c3c 3e25 803d c5a0 643a cfb0 283e

0.model_cnn.layer1.1.running_var f4 [16]
0.3969989 0.3910788 0.61138135 0.16395217 0.35592976 0.56374294 0.29130873 0.53400624
0.27793393 0.19213645 0.51670766 0.20814168 0.27188233 0.09826919 0.25693914 0.28781536
00000000: 7143 cb3e 7b3b c83e 7d83 1c3f 14e3 273e
00000010: 6d3c b63e 7551 103f 6b26 953e a2b4 083f
00000020: 5b4d 8e3e 6bbf 443e f446 043f 1823 553e
00000030: 2934 8b3e 5b41 c93d 878d 833e 895c 933e

0.model_cnn.layer2.0.weight f4 [32, 16, 3]
0.10828047 0.06011503 -0.091217145 0.058164615 -0.03706373 -0.08036328 0.08564166 0.1278433
-0.1039658 0.037310638 -0.07234139 -0.080305666 0.14469017 -0.08207646 -0.026793024 -0.08441728
0.030580822 -0.13433781 -0.05464607 0.06502501 -0.01610861 -0.01694216 -0.12707663 -0.043042082
-0.084037475 -0.03243493 0.108475514 -0.08697864 -0.082856365 0.009381332 0.12813614 0.017268
0.10682595 -0.12113801 -0.039139774 0.10768658 0.06592536 -0.05545426 -0.113823384 0.081285834
0.010892496 0.07148634 0.058538377 0.055313956 0.10861947 0.015000958 -0.10613621 -0.019436516
0.13849042 -0.081605524 0.053992063 0.115794234 -0.07238137 0.11490362 0.063443616 -0.068802245
0.11649736 0.13498078 0.09755885 -0.011211921 0.050484236 0.079788215 -0.00248078 -0.11571755
-0.13046 -0.07358672 0.061602455 0.07807431 -0.09170971 0.016736705 -0.1194353 0.13184147
0.0129415225 -0.06586774 -0.09412901 0.11621122 -0.0420403 -0.010864234 0.10293088 0.030548824
-0.021871753 0.007656986 -0.101193495 0.08758609 0.101152435 -0.096482664 0.113036975 0.103837326
0.06443698 0.025440436 0.11746359 0.032076105 -0.010246173 0.007492087 0.06259569 0.035445552
0.008004434 0.12883703 -0.08737483 -0.09452842 0.07926611 -0.012331259 -0.10840375 0.03712029
-0.094576925 0.10952206 0.13739248 -0.0170177 -0.06488145 -0.0020409373 -0.09386324 0.12372606
0.07953179 -0.020591268 -0.08458935 -0.01461679 0.08408663 -0.14657079 0.12782067 0.0072522345
-0.03558414 0.06814121 -0.040735018 0.10489813 -0.029994937 -0.090641856 -0.0045544696 0.026787182
0.12049291 0.12880936 0.13490699 0.007086671 0.16458376 0.14307605 -0.081104 -0.097429134
0.016491285 0.019804608 0.10821065 -0.10424564 -0.089498214 0.12721305 0.067444324 -0.08923257
-0.07955532 0.044247944 0.0029751873 0.058854748 0.05792609 -0.05781369 0.09681548 -0.067519225
0.020509155 -0.11063627 0.0039903587 -0.13958734 0.08228003 0.10638297 -0.009922788 -0.10227264
0.03558801 -0.101858184 0.061147254 -0.11766107 0.08290144 -0.0735861 0.08799499 0.047852553
-0.033209678 0.032436628 -0.14539488 -0.0894298 0.12181395 0.04002742 0.099102646 0.01146297
-0.08052565 0.0025829575 -0.13703528 0.13785098 0.13634348 0.07257572 -0.038726386 -0.026461534
0.039580487 0.046614755 0.06418818 -0.102529325 -0.112125956 -0.09773696 0.0031743133 -0.022705568
0.12674461 -0.049439274 0.13077638 -0.06496416 0.03495546 0.13566147 0.11505757 -0.0870535
-0.10002155 0.10183897 0.055278033 0.016631762 -0.100124575 -0.030636631 -0.11799816 0.109665066
0.070424914 0.14656371 -0.021940067 0.09940533 -0.058490366 -0.0728949 -0.11622254 0.09013935
0.080743894 -0.037856463 0.028413128 0.14144333 0.03509428 -0.035402875 0.15277138 0.00116749
0.03545648 0.05474565 -0.09966597 -0.0016537932 0.05979301 -0.031227618 -0.017932802 0.082244545
-0.017302271 0.012654782 -0.07675567 0.12783891 0.10451724 -0.1651913 0.06733329 -0.020926885
-0.059760798 0.022648266 0.13639972 -0.009868243 -0.017556302 -0.15469722 -0.019839913 0.11805801
0.03952517 -0.09665444 0.025885336 -0.011886798 -0.0170538 0.01595596 -0.031283684 0.031171488
00000000: 27c2 dd3d 2d3b 763d 0ed0 babd 053e 6e3d
00000010: 23d0 17bd 8195 a4bd e564 af3d 5be9 023e
00000020: 05ec d4bd 0ad3 183d b927 94bd 4c77 a4bd
00000030: a929 143e b417 a8bd 0b7d dbbc f8e2 acbd
00000040: a284 fa3c da8f 09be 8fd4 5fbd d52b 853d
00000050: 34f6 83bc 49ca 8abc 6020 02be e54c 30bd
00000060: d71b acbd 7dda 04bd 6928 de3d db21 b2bd
00000070: 99b0 a9bd 29b4 193c 1f36 033e 9f75 8d3c
00000080: 90c7 da3d 3417 f8bd 0751 20bd c88a dc3d
00000090: e003 873d 0224 63bd 3c1c e9bd 3079 a63d
000000a0: 7176 323c 6e67 923d f0c5 6f3d e390 623d
000000b0: e273 de3d 94c6 753c f15d d9bd 5439 9fbc
000000c0: 6fd0 0d3e cc20 a7bd c826 5d3d 8725 ed3d
000000d0: af3c 94bd 9752 eb3d baee 813d 31e8 8cbd
000000e0: 2b96 ee3d 6738 0a3e efcc c73d 35b2 37bc
000000f0: 8fc8 4e3d 0168 a33d 9594 22bb 53fd ecbd
00000100: 4e97 05be a2b4 96bd db52 7c3d 6de5 9f3d
00000110: 4dd2 bbbd 6a1b 893c 7f9a f4bd 7301 073e
00000120: ae08 543c aae5 86bd b6c6 c0bd 2600 ee3d
00000130: 7332 2cbd e6ff 31bc 6dcd d23d 8741 fa3c
00000140: 642c b3bc 74e7 fa3b 893e cfbd 5660 b33d
00000150: 0229 cf3d b498 c5bd ee7f e73d aaa8 d43d
00000160: 89f7 833d 7668 d03c c090 f03d 3c62 033d
00000170: 90df 27bc 2e80 f53b 2b32 803d 5b2f 113d
00000180: 0825 033c dbed 033e 93f1 b2bd 1e98 c1bd
00000190: 4556 a23d 0d09 4abc c902 debd 720b 183d
000001a0: 8cb1 c1bd 1a4d e03d 9db0 0c3e b468 8bbc
000001b0: 91e0 84bd 3fc1 05bb 5f3b c0bd 1764 fd3d
000001c0: 90e1 a23d 05af a8bc 2e3d adbd 437b 6fbc
000001d0: 9c35 ac3d a716 16be 6ce3 023e 27a4 ed3b
000001e0: adc0 11bd 9e8d 8b3d c3d9 26bd d5d4 d63d
000001f0: f1b7 f5bc 70a2 b9bd a93d 95bb cb70 db3c
00000200: fdc4 f63d 9ae6 033e 0f25 0a3e 4e37 e83b
00000210: a588 283e 8782 123e db19 a6bd ed88 c7bd
00000220: bb18 873c 463d a23c 8c9d dd3d bd7e d5bd
00000230: d74a b7bd 2344 023e 4020 8a3d 91bf b6bd
00000240: e6ed a2bd 553d 353d 5cfb 423b ad11 713d
00000250: e843 6d3d 0cce 6cbd 3247 c63d 8547 8abd
00000260: d102 a83c 4595 e2bd 8ec1 823b fcef 0ebe
00000270: 6f82 a83d 51df d93d 3093 22bc 5174 d1bd
00000280: bcc4 113d 069b d0bd 8b75 7a3d 49f8 f0bd
00000290: 3bc8 a93d 4fb4 96bd b836 b43d 0a01 443d
000002a0: df06 08bd 45dc 043d 65e2 14be f926 b7bd
000002b0: 9879 f93d cbf3 233d 54f6 ca3d 2ecf 3b3c
000002c0: a2ea a4bd d646 293b fa52 0cbe cf28 0d3e
000002d0: a09d 0b3e 94a2 943d 8f9f 1ebd dcc5 d8bc
000002e0: 261f 223d 1def 3e3d 1875 833d e5fa d1bd
000002f0: 4ba2 e5bd 512a c8bd 2408 503b 0701 babc
00000300: 57c9 013e d680 4abd 3eea 053e ee0b 85bd
00000310: 752d 0f3d d7ea 0a3e 4ea3 eb3d 1b49 b2bd
00000320: 19d8 ccbd f390 d03d 386b 623d 553f 883c
00000330: 1d0e cdbd acf9 fabc 05a9 f1bd 1498 e03d
00000340: f03a 903d cc14 163e a8bb b3bc 0695 cb3d
00000350: 9893 6fbd ec49 95bd 1506 eebd fb9a b83d
00000360: 0e5d a53d 610f 1bbd a6c2 e83c 85d6 103e
00000370: 05bf 0f3d 9b02 11bd 1a70 1c3e 7706 993a
00000380: d03a 113d fa3c 603d ac1d ccbd 17c4 d8ba
00000390: 84e9 743d 10d1 ffbc d0e7 92bc d46f a83d
000003a0: 7ebd 8dbc 0156 4f3c 1432 9dbd 34e8 023e
000003b0: 220d d63d e827 29be 09e6 893d dc6e abbc
000003c0: bdc7 74bd db88 b93c 5eac 0b3e 69ae 21bc
000003d0: 3cd2 8fbc f368 1ebe 5087 a2bc 66c8 f13d
000003e0: 25e5 213d c3f2 c5bd 7c0d d43c d8c0 42bc
000003f0: 69b4 8bbc 13b6 823c 5223 00bd 595b ff3c

0.model_cnn.layer2.0.bias f4 [32]
-0.0008592289 0.00011616621 0.03493201 0.0065813693 0.011972459 0.0031706968 -0.04797411 -0.00020453823
0.0037454884 0.001540006 -0.0061433157 -0.010483978 0.0005387748 0.0016692798 -0.0026233576 -0.028644914
-0.0014599981 0.0761723 -0.0016574397 0.00063779147 0.000789878 0.011135022 0.07027855 0.0018405654
0.055853717 0.00016103606 0.07109207 -0.0009805064 -0.0012239236 0.0010536398 0.002755913 -0.0608874
00000000: e03d 61ba 429e f338 de14 0f3d 87a8 d73b
00000010: 2228 443c 77cb 4f3b 8080 44bd 5079 56b9
00000020: de76 753b 07da c93a de4d c9bb fec4 2bbc
00000030: 913c 0d3a bccb da3a a3ec 2bbb bda8 eabc
00000040: 685d bfba 3900 9c3d 733e d9ba 7631 273a
00000050: d10f 4f3a ab6f 363c 33ee 8f3d 203f f13a
00000060: dec6 643d cadb 2839 b898 913d 5684 80ba
00000070: 106c a0ba 491a 8a3a 8c9c 343b 1165 79bd

0.model_cnn.layer2.1.weight f4 [32]
1.012426 0.9917486 0.9935231 0.9960295 1.0116266 1.005615 1.0101069 0.9851641
0.98114777 0.99038196 1.0123279 1.0076897 0.9774025 0.9913965 0.98958087 1.0193988
0.96635914 0.98569393 0.99488765 1.0181047 0.9963315 0.9964002 1.0108843 0.98925203
1.0121989 0.99079233 0.98875606 1.0021895 1.0246818 0.9979425 1.0225384 0.99257785
00000000: 2d97 813f 3ce3 7d3f 8857 7e3f cafb 7e3f
00000010: fb7c 813f feb7 803f 2f4b 813f b733 7c3f
00000020: 802c 7b3f ac89 7d3f f693 813f fafb 803f
00000030: 0d37 7a3f 29cc 7d3f 2c55 7d3f a97b 823f
00000040: 5063 773f 7056 7c3f f5b0 7e3f 4151 823f
00000050: 950f 7f3f 1514 7f3f a864 813f 9f3f 7d3f
00000060: bc8f 813f 91a4 7d3f 1e1f 7d3f bf47 803f
00000070: c628 833f 2979 7f3f 8ae2 823f 9519 7e3f

0.model_cnn.layer2.1.bias f4 [32]
-0.018392328 -0.013899449 -0.036458414 -0.0186759 -0.017838657 -0.02224319 -0.004725339 -0.007740374
0.010794251 -0.009311828 0.012087344 0.013099964 -0.015413666 -0.018504733 -0.013617574 -0.0024362598
-0.014990259 -0.03011005 -0.006416871 0.008043448 -0.0031388975 -0.008491102 -0.0061482005 -0.0072786123
-0.0050567063 -0.009198218 -0.00575791 0.007172133 -0.02252683 0.01111879 -0.04140005 -0.009686948
00000000: 82ab 96bc 84ba 63bc 6b55 15bd 33fe 98bc
00000010: 6022 92bc 5a37 b6bc 04d7 9abb f7a2 fdbb
00000020: 5fda 303c a390 18bc ff09 463c 3ba1 563c
00000030: 9a89 7cbc 3d97 97bc 3f1c 5fbc a8a9 1fbb
00000040: b499 75bc 5aa9 f6bc 9e44 d2bb abc8 033c
00000050: f6b5 4dbb 431e 0bbc d876 c9bb 6d81 eebb
00000060: bab2 a5bb 1fb4 16bc daac bcbb 3604 eb3b
00000070: 308a b8bc 962b 363c 1993 29bd 01b6 1ebc

0.model_cnn.layer2.1.running_mean f4 [32]
-0.04397718 0.37206858 0.2740321 -0.05244921 0.32223758 0.22556198 -0.24035995 0.0063273823
-0.27876112 0.022693371 -0.22915938 -0.23259768 0.01497794 0.40832624 -0.033412207 -0.14445166
-0.20295419 0.37632185 -0.36249262 0.0005598338 0.17274348 -0.23760413 0.07598644 -0.12797432
0.20648342 0.35131183 0.06964537 -0.42083144 0.023421222 -0.1222249 0.29523778 -0.009218685
00000000: 6a21 34bd c67f be3e ef4d 8c3e fcd4 56bd
00000010: 53fc a43e b8f9 663e eb20 76be ee55 cf3b
00000020: c7b9 8ebe 73e7 b93c c2a8 6abe 162e 6ebe
00000030: 0966 753c 2310 d13e 3ddb 08bd 23eb 13be
00000040: 39d3 4fbe 42ad c03e a298 b9be cfc1 123a
00000050: abe3 303e 7f4e 73be c79e 9b3d b30b 03be
00000060: 6470 533e 25df b33e 3ba2 8e3d 3877 d7be
00000070: dddd bf3c 0c51 fabd 6829 973e f809 17bc

0.model_cnn.layer2.1.running_var f4 [32]
0.100184694 0.15565541 0.080652684 0.040919155 0.099820755 0.114074476 0.079488136 0.2319639
0.13699462 0.12662676 0.109278195 0.13362771 0.1346589 0.11749817 0.124917634 0.10656964
0.12571797 0.1501423 0.16804388 0.13227633 0.06765749 0.22067514 0.067914166 0.18908206
0.10655534 0.18080057 0.12321019 0.17154688 0.083470255 0.107856885 0.11106963 0.09374033
00000000: a22d cd3d 2264 1f3e 3c2d a53d d89a 273d
00000010: d36e cc3d e19f e93d adca a23d f287 6d3e
00000020: 5148 0c3e 72aa 013e 3fcd df3d b4d5 083e
00000030: 06e4 093e e1a2 f03d d1d4 ff3d 2f41 da3d
00000040: 36bc 003e e7be 193e b213 2c3e 7273 073e
00000050: 0390 8a3d aaf8 613e 9516 8b3d ba9e 413e
00000060: b039 da3d c923 393e a055 fc3d fca9 2f3e
00000070: 74f2 aa3d 12e4 dc3d 7978 e33d eefa bf3d

0.model_cnn.layer3.0.weight f4 [64, 32, 3]
0.019724565 0.067318045 0.0055510164 0.026848776 -0.03227343 -0.01534281 -0.041891802 0.026572388
-0.014283064 -0.019661136 -0.025009083 0.0010959543 0.04782026 0.028190956 -0.10181888 -0.00935154
0.088549465 -0.10965625 0.06807013 0.025861328 -0.096589096 0.06292132 0.00953187 0.026318206
-0.02896972 0.022450555 0.07374647 -0.08995282 -0.0023929318 0.011400504 0.05046885 0.0689805
0.09313762 -0.064089864 0.00437183 0.021543063 -0.056075096 -0.03341967 -0.04618018 0.071341135
-0.01576151 -0.006767268 0.019038 0.07112019 0.038531568 -0.09467148 0.013268092 0.053083245
-0.07547343 -0.053574268 -0.052947186 0.046196807 0.06032341 0.04869165 0.06871623 -0.04154959
-0.028258525 -0.04401222 -0.09025851 -0.04566359 0.013793962 0.04117895 0.06594762 0.088392496
0.017010381 -0.08653458 -0.10821469 0.041537076 -0.058726966 0.013557745 -0.06387198 -0.0012745067
-0.09733281 0.022059198 -0.09365825 -0.0018889674 -0.07517046 0.09856405 -0.007521596 -0.024854705
0.10813301 0.019763812 -0.11370555 0.03910338 -0.0070338356 0.025562232 -0.067001596 -0.030385574
0.08824477 -0.10318808 -0.03446921 0.060506415 -0.033085093 -0.09505445 0.057606153 0.036045514
-0.10257154 -0.088528246 -0.057338595 -0.06516548 -0.09913636 -0.06741782 -0.108658694 0.020870404
-0.056756362 0.046444334 -0.005568235 0.018212564 -0.025946263 -0.031351995 -0.11647176 0.05391449
-0.03590533 -0.036621653 -0.056541186 -0.048264798 0.060541883 0.012046128 -0.058950007 0.05532486
0.017567359 0.10252651 -0.013556111 0.04434983 0.06925999 0.05414961 -0.056340605 0.099898905
0.09535537 0.04299989 -0.08014662 0.02233961 -0.006429424 0.023357745 0.02199662 0.07441889
-0.07421684 -0.0012463949 0.001460411 0.035312787 -0.04863757 0.006255869 0.054181952 -0.0599989
-0.12256426 -0.05715462 -0.097559445 -0.020056497 -0.09048004 -0.0228081 0.08266458 0.000116088675
0.0830122 0.07995799 -0.040822316 -0.03516768 0.05946031 0.07997332 -0.010431596 0.06713839
0.045432705 0.083207116 -0.10431364 -0.0765195 -0.03258926 -0.002548665 -0.055123646 0.0654077
-0.05283786 0.018429285 -0.013401566 -0.002779425 -0.060128935 0.08009766 0.05509068 -0.08736762
-0.019477844 -0.08457494 0.066323414 0.04707521 -0.08344156 0.05504474 0.022041569 -0.090307556
-0.09135114 -0.0575874 -0.06913745 -0.11407452 -0.078102395 0.0009158179 -0.08364407 -0.015808742
-0.056310344 0.010688888 0.023338867 0.07184309 0.060182657 0.013955182 -0.03802188 0.019822692
-0.041244756 0.008506346 0.0389488 0.08695602 0.04127233 0.038334597 0.0108699845 -0.049917888
0.055958327 -0.0058146995 0.04552114 0.09274769 0.09512561 -0.04924719 -0.07370867 -0.0872723
0.057276115 -0.02736933 -0.04769127 0.069032505 -0.06468114 0.03105454 0.038611747 0.105836205
0.014252803 -0.017797751 -0.06495729 -0.05506774 -0.03891876 0.0743443 0.060490143 -0.04871106
-0.061967216 0.07649019 -0.048879694 -0.02775937 0.009737856 0.08373043 -0.04716782 -0.01768118
0.088986106 -0.08664924 -0.07653159 0.03894115 0.0898911 0.007853291 0.08729425 0.053193323
0.09991627 0.020889282 -0.058583107 0.0126517415 -0.05831744 -0.08611295 0.058475897 0.03527807
00000000: 6995 a13c 0bde 893d 4de5 b53b f7f1 db3c
00000010: 2531 04bd 6960 7bbc bd96 2bbd 56ae d93c
00000020: 8303 6abc 6410 a1bc d9df ccbc 20a6 8f3a
00000030: 2ddf 433d b8f0 e63c 6b86 d0bd 3437 19bc
00000040: 6c59 b53d 7593 e0bd 5a68 8b3d 23db d33c
00000050: 81d0 c5bd e5dc 803d 8f2b 1c3c 4799 d73c
00000060: e851 edbc 3aea b73c 6408 973d 2f39 b8bd
00000070: bcd2 1cbb 2ec9 3a3c 6db8 4e3d a645 8d3d
00000080: f0be be3d 8c41 83bd 9141 8f3b 147b b03c
00000090: 00af 65bd 10e3 08bd 6e27 3dbd 4d1b 923d
000000a0: 481e 81bc f5bf ddbb 94f5 9b3c 76a7 913d
000000b0: 47d3 1d3d 1fe3 c1bd 6962 593c d16d 593d
000000c0: d091 9abd b170 5bbd 26df 58bd dd38 3d3d
000000d0: ae15 773d e570 473d 18bb 8c3d e72f 2abd
000000e0: 6c7e e7bc 2846 34bd 74d9 b8bd bf09 3bbd
000000f0: 1200 623c 42ab 283d 8c0f 873d 2007 b53d
00000100: 5b59 8b3c 0b39 b1bd aa9f ddbd c822 2a3d
00000110: b08b 70bd 4e21 5e3c 50cf 82bd 590d a7ba
00000120: 6d56 c7bd 7eb5 b43c e6cf bfbd 3a97 f7ba
00000130: f8f2 99bd f3db c93d b877 f6bb 189c cbbc
00000140: d774 dd3d b8e7 a13c 75de e8bd de2a 203d
00000150: 177c e6bb e367 d13c 2238 89bd 2beb f8bc
00000160: adb9 b43d 4654 d3bd 962f 0dbd 93d5 773d
00000170: 3c84 07bd e8ab c2bd 6ef4 6b3d 76a4 133d
00000180: 0711 d2bd 4c4e b5bd e0db 6abd 7b75 85bd
00000190: 0108 cbbd 5b12 8abd 7388 debd 69f8 aa3c
000001a0: 5c79 68bd 6a3c 3e3d be75 b6bb 8432 953c
000001b0: 428d d4bc f36a 00bd bf88 eebd 71d5 5c3d
000001c0: 7811 13bd 9600 16bd bb97 67bd 4fb1 45bd
000001d0: c4fa 773d 1f5d 453c 9075 71bd 529c 623d
000001e0: 6ce9 8f3c 6bf9 d13d 731a 5ebc 2ba8 353d
000001f0: 2ed8 8d3d fbcb 5d3d 68c5 66bd cc97 cc3d
00000200: ad49 c33d a720 303d e923 a4bd 8f01 b73c
00000210: ebad d2bb be58 bf3c 4132 b43c ee68 983d
00000220: 00ff 97bd 135e a3ba 436b bf3a 24a4 103d
00000230: 3038 47bd 08fe cc3b e5ed 5d3d 68c1 75bd
00000240: f902 fbbd f61a 6abd 3fcd c7bd 864d a4bc
00000250: 994d b9bd 0dd8 babc 0c4c a93d a274 f338
00000260: 4d02 aa3d 04c1 a33d 4d35 27bd fc0b 10bd
00000270: a78c 733d 0dc9 a33d 49e9 2abc da7f 893d
00000280: a517 3a3d 7e68 aa3d 64a2 d5bd 41b6 9cbd
00000290: 517c 05bd 8107 27bb 55c9 61bd 79f4 853d
000002a0: 836c 58bd 03f9 963c 3e92 5bbc 0327 36bb
000002b0: c249 76bd 3e0a a43d c4a6 613d cbed b2bd
000002c0: 0090 9fbc a035 adbd 92d4 873d efd1 403d
000002d0: 69e3 aabd 9876 613d 8590 b43c 2bf3 b8bd
000002e0: 4e16 bbbd c4e0 6bbd ef97 8dbd e79f e9bd
000002f0: 26f4 9fbd 8013 703a 954d abbd 5681 81bc
00000300: ada5 66bd 7220 2f3c 2731 bf3c 7822 933d
00000310: 1782 763d 47a4 643c d5bc 1bbd 3363 a23c
00000320: 43f0 28bd 335e 0b3c c788 1f3d ff15 b23d
00000330: 2d0d 293d bd04 1d3d 0518 323c b376 4cbd
00000340: 8f34 653d 3c89 bebb 6074 3a3d 80f2 bd3d
00000350: 37d1 c23d 6cb7 49bd 92f4 96bd d2bb b2bd
00000360: 5c9a 6a3d a535 e0bc ec57 43bd ea60 8d3d
00000370: 8c77 84bd 1766 fe3c 5a27 1e3d a7c0 d83d
00000380: 9784 693c 97cc 91bc 5408 85bd b68e 61bd
00000390: 4769 1fbd d341 983d 83c4 773d 4085 47bd
000003a0: 56d1 7dbd e4a6 9c3d 1336 48bd 9e67 e3bc
000003b0: 878b 1f3c dc7a ab3d 0b33 41bd 1fd8 90bc
000003c0: 593e b63d 2875 b1bd 98bc 9cbd c180 1f3d
000003d0: d318 b83d 17ab 003c 54c7 b23d 3ee1 593d
000003e0: e7a0 cc3d 0020 ab3c d7f4 6fbd 4049 4f3c
000003f0: 45de 6ebd fd5b b0bd 6c84 6f3d bd7f 103d

0.model_cnn.layer3.0.bias f4 [64]
0.00012645673 -0.03147257 -0.0013905935 -0.0002241476 0.00090891134 0.00019014963 -0.0056469515 -0.00023684671
-0.00085598615 0.026496718 0.017743317 -0.0007307553 -0.00018133006 0.000607701 -0.008199531 0.00089526194
-0.013382575 0.00033100796 -0.015880682 0.032094922 0.022972962 0.02786276 0.0019228213 -0.0042130067
0.007153614 0.0060065305 -0.0006453471 -0.017045725 0.0052879513 -0.00016423297 0.00024334903 -0.018562993
-0.00054598704 -0.0017673336 0.003083139 0.0003211683 0.014196867 0.010787585 0.0012379874 0.01147886
-0.00031500251 -0.0009875067 -0.0306035 -0.011171413 -0.00033557104 -0.023799488 0.026428996 -0.03278852
-0.0019081471 -0.0002171988 0.0011680136 -7.050977e-05 -0.015668666 0.00023599884 -0.0006383905 -0.0011278482
-0.038790315 -0.009752055 -0.007488281 0.001707244 -0.025356293 0.013009358 0.0021848085 -0.018962532
00000000: 7899 0439 62e9 00bd 9344 b6ba 2a09 6bb9
00000010: 0244 6e3a e762 4739 100a b9bb 0e5a 78b9
00000020: 4264 60ba a50f d93c 6f5a 913c 2890 3fba
00000030: 6b23 3eb9 204e 1f3a 5357 06bc 03b0 6a3a
00000040: 9642 5bbc 238b ad39 3418 82bc f775 033d
00000050: cb31 bc3c 7140 e43c 2d07 fc3a 430d 8abb
00000060: dd68 ea3b 6ed2 c43b 832c 29ba 7aa3 8bbc
00000070: 8d46 ad3b f435 2cb9 822b 7f39 6b11 98bc
00000080: 9220 0fba e0a5 e7ba 7d0e 4a3b 7b62 a839
00000090: fa99 683c 69be 303c f743 a23a d411 3c3c
000000a0: ec26 a5b9 3a6f 81ba 31b4 fabc 4d08 37bc
000000b0: 95ef afb9 25f7 c2bc 9f81 d83c 414d 06bd
000000c0: cb1a faba dcbf 63b9 0818 993a a5de 93b8
000000d0: 935b 80bc 7576 7739 a959 27ba 4ed4 93ba
000000e0: 98e2 1ebd 15c7 1fbc 4160 f5bb 9ac5 df3a
000000f0: 00b8 cfbc 3425 553c 012f 0f3b 5057 9bbc

0.model_cnn.layer3.1.weight f4 [64]
0.96963364 0.9992795 1.0105948 1.0127217 1.0123725 0.9913325 1.0007218 1.0169723
0.9898706 0.99646086 0.9938388 1.000751 0.9871544 0.9878886 0.99566567 1.0036529
0.9845089 1.0142878 0.97810465 0.9973439 1.0055507 1.006178 1.0103093 0.98084646
0.9919242 0.9947313 1.020574 1.0177819 0.9883684 0.97873807 1.0012453 0.99440336
1.0177748 0.99300236 1.0071601 1.0209196 1.0202374 1.0062999 1.0102704 0.99436843
1.0166912 0.99636877 1.0181222 0.98672295 1.0061426 0.9833573 0.99995005 0.9829836
0.9754932 0.9890872 0.988552 0.9839621 0.9986338 1.0097772 1.0085983 0.9879348
1.0197836 1.0011483 0.9907333 0.99899065 0.9696894 0.9883382 1.000571 0.99648964
00000000: e939 783f c8d0 7f3f 2c5b 813f dda0 813f
00000010: 6c95 813f f7c7 7d3f a717 803f 262c 823f
00000020: 2968 7d3f 0f18 7f3f 386c 7e3f 9c18 803f
00000030: 27b6 7c3f 44e6 7c3f f2e3 7e3f b377 803f
00000040: c608 7c3f 2fd4 813f 1165 7a3f ee51 7f3f
00000050: e3b5 803f 71ca 803f d151 813f c118 7b3f
00000060: bfee 7d3f b6a6 7e3f 2ba2 823f ad46 823f
00000070: b605 7d3f 948e 7a3f ce28 803f 3891 7e3f
00000080: 7246 823f 6735 7e3f 9fea 803f 7ead 823f
00000090: 2497 823f 6fce 803f 8a50 813f ee8e 7e3f
000000a0: f022 823f 0612 7f3f d451 823f e099 7c3f
000000b0: 48c9 803f 4ebd 7b3f bafc 7f3f d0a4 7b3f
000000c0: ecb9 793f d234 7d3f be11 7d3f f1e4 7b3f
000000d0: 77a6 7f3f 6140 813f c019 813f 4ce9 7c3f
000000e0: 4588 823f a125 803f b3a0 7d3f dabd 7f3f
000000f0: 913d 783f bb03 7d3f b612 803f f219 7f3f

0.model_cnn.layer3.1.bias f4 [64]
-0.016180703 0.011570882 -0.0026724646 0.0007096292 0.0259751 -0.011251411 0.016551565 0.005368363
-0.020999283 -0.012562998 -0.03063157 0.0045295916 0.0029614344 -0.01305145 -0.037006818 0.018685373
-0.010420216 -0.010917004 -0.026791815 -0.004529819 0.002113691 0.006088655 0.020102091 -0.016114196
0.00530084 -0.016357182 0.0209299 0.025397 0.0122763775 -0.007430239 -0.0008898465 -0.00758153
-0.011310429 -0.021913713 -0.027689794 0.00636267 -0.011647024 -0.0022912307 -0.029981231 -0.028825063
0.030579232 -0.017615262 -0.0099657625 -0.011089987 -0.017759094 0.006462648 -0.016478103 -0.015572551
-0.034762967 -0.05816693 -0.0154388305 -0.023182401 -5.328114e-05 -0.031306464 -0.008759958 -0.0039191158
-0.007192318 0.00894067 -0.02998427 -0.020338869 -0.02622519 0.005883029 0.019901237 -0.011759163
00000000: 658d 84bc cc93 3d3c 8424 2fbb 6906 3a3a
00000010: bcc9 d43c d757 38bc 2697 873c 18e9 af3b
00000020: b006 acbc 08d5 4dbc 0fef fabc f86c 943b
00000030: a014 423b c0d5 55bc 7694 17bd 1112 993c
00000040: 8eb9 2abc 3cdd 32bc 827a dbbc e06e 94bb
00000050: da85 0a3b 5783 c73b 24ad a43c eb01 84bc
00000060: abb2 ad3b 7fff 85bc 2f75 ab3c 5f0d d03c
00000070: dc22 493c 5d79 f3bb 9644 69ba 7c6e f8bb
00000080: 614f 39bc 6384 b3bc b5d5 e2bc f27d d03b
00000090: 29d3 3ebc 7928 16bb 339b f5bc 8a22 ecbc
000000a0: 4c81 fa3c e24d 90bc 7047 23bc c7b2 35bc
000000b0: 857b 91bc 9fc4 d33b 16fd 86bc 0324 7fbc
000000c0: 9d63 0ebd 7240 6ebd 26f3 7cbc 05e9 bdbc
000000d0: 307a 5fb8 353b 00bd ed85 0fbc ed6b 80bb
000000e0: 89ad ebbb e37b 123c 92a1 f5bc b39d a6bc
000000f0: 36d6 d6bc 6dc6 c03b eb07 a33c 81a9 40bc

0.model_cnn.layer3.1.running_mean f4 [64]
-0.16317795 -0.62800753 0.4621247 0.08661294 -0.022993544 0.50231844 -0.5715802 0.11011939
0.31889632 0.26019314 0.42453665 -0.16292892 -0.19013432 0.3713865 0.5827604 -0.38654053
0.08822201 0.28247446 0.4281314 -0.0519184 -0.118357494 -0.0198715 -0.072880715 0.07858939
-0.08734049 0.47095934 0.4371909 0.03714305 -0.13235526 -0.403305 -0.11246125 0.13418314
0.016972262 0.57425666 0.6262214 0.22225884 0.27532965 -0.46178257 0.6050264 0.26920426
-0.3318611 0.20766367 0.3457895 0.1723713 0.59444714 0.04630912 0.6417865 0.13983865
0.2842728 0.919394 0.08078385 -0.4859121 0.054567583 0.4777282 0.29487562 -0.26614305
0.18889605 -0.16836366 -0.0062139295 -0.0458327 -0.88817585 -0.62144494 -0.31459504 -0.3070111
00000000: 1f18 27be 1ac5 20bf 9c9b ec3e 2062 b13d
00000010: f55c bcbc f197 003f 1453 12bf 4686 e13d
00000020: 6146 a33e 0938 853e de5c d93e d7d6 26be
00000030: 92b2 42be 5f26 be3e c92f 153f a4e8 c5be
00000040: bead b43d 7ea0 903e 0a34 db3e 63a8 54bd
00000050: 6a65 f2bd 8ec9 a2bc 7c42 95bd 79f3 a03d
00000060: 92df b2bd 9521 f13e 7cd7 df3e 5023 183d
00000070: 2388 07be fe7d cebe 1552 e6bd 4e67 093e
00000080: 6a09 8b3c 7c02 133f 0c50 203f d297 633e
00000090: 02f8 8c3e c46e ecbe 03e3 1a3f 24d5 893e
000000a0: b3e9 a9be c9a5 543e 520b b13e 1a82 303e
000000b0: b02d 183f a2ae 3d3d 1f4c 243f dd31 0f3e
000000c0: 348c 913e 685d 6b3f 0172 a53d 79c9 f8be
000000d0: 4282 5f3d ca98 f43e f0f9 963e e743 88be
000000e0: f76d 413e 8667 2cbe 389e cbbb 12bb 3bbd
000000f0: 7e5f 63bf 0417 1fbf 9a12 a1be 8f30 9dbe

0.model_cnn.layer3.1.running_var f4 [64]
0.13217276 0.61169904 0.1230227 0.21332288 0.2032552 0.1829188 0.59620017 0.16576236
0.17857431 0.19400316 0.25880834 0.20160344 0.24533807 0.31315413 0.26047835 0.30536443
0.083667144 0.16509162 0.18211265 0.1267236 0.2218441 0.11111183 0.15893091 0.118394196
0.17767997 0.36233157 0.3330316 0.22245945 0.2862121 0.32001504 0.1262278 0.1629354
0.25551227 0.18649584 0.2634624 0.14068995 0.12277927 0.3218292 0.2903461 0.36197427
0.17858076 0.24763529 0.28378797 0.26436725 0.35690245 0.1751852 0.25895295 0.25040329
0.12200218 0.44430083 0.19809254 0.1919096 0.12765297 0.21818042 0.27410963 0.19970047
0.19963564 0.1245658 0.13550879 0.16206312 0.5978362 0.3515654 0.20626318 0.16388549
00000000: 4c58 073e 4f98 1c3f 53f3 fb3d 5071 5a3e
00000010: 2222 503e 114f 3b3e 93a0 183f 9cbd 293e
00000020: 2fdc 363e c4a8 463e 8782 843e 2271 4e3e
00000030: e739 7b3e bd55 a03e 6b5d 853e ba58 9c3e
00000040: ae59 ab3d c70d 293e bd7b 3a3e d5c3 013e
00000050: 1a2b 633e 998e e33d c9be 223e a878 f23d
00000060: bdf1 353e 8683 b93e 1e83 aa3e 69cc 633e
00000070: 648a 923e 03d9 a33e dc41 013e 8ad8 263e
00000080: 81d2 823e c4f8 3e3e 8be4 863e 0711 103e
00000090: b373 fb3d ccc6 a43e 3ea8 943e b154 b93e
000000a0: e0dd 363e 1b94 7d3e a84c 913e 255b 873e
000000b0: ebbb b63e c063 333e 7b95 843e dc34 803e
000000c0: 47dc f93d 667b e33e c5d8 4a3e f383 443e
000000d0: 76b7 023e b06a 5f3e 1958 8c3e 487e 4c3e
000000e0: 496d 4c3e 5b1c ff3d d1c2 0a3e e0f3 253e
000000f0: cb0b 193f 6100 b43e a836 533e 99d1 273e

0.model_cnn.layer4.0.weight f4 [128, 64, 3]
0.046098337 -0.02065382 -0.051158812 -0.049651522 -0.009609663 0.025347799 0.016109008 0.0409724
0.005584885 -0.0075431787 -0.055631958 -0.04200978 -0.045988247 -0.060811877 0.06492293 0.06105886
0.038162936 -0.04748638 0.028977409 -0.05049699 0.047366656 -0.030939633 -0.06634369 0.0050635613
-0.024665548 0.037875284 0.017780518 -0.0170342 -0.038446795 0.040781673 -0.0012055885 -0.048655335
0.01887199 -0.0524539 0.06689159 0.0659255 -0.018207613 -0.060011487 0.00922252 -0.0070409235
0.039771605 -0.013116454 0.008626535 -0.029309008 -0.022815846 0.058061227 0.021746602 0.033465024
-0.034113318 -0.0069657112 -0.03159291 -0.04743408 -0.03846651 0.016933221 0.06327427 0.06600835
0.065895095 0.054738976 0.054548845 -0.025609946 0.014664099 -0.034582235 0.0028120612 -0.009581368
0.036224164 -0.014944527 -0.022394447 -0.029702764 0.089300044 -0.026747871 0.065399535 0.05489923
-0.00872404 -0.0250303 -0.009944016 0.037596226 -0.037857685 -0.07278037 -0.0006435393 0.009523452
-0.019050136 0.087178774 0.054059386 0.040642593 0.06375912 0.019456355 0.04748732 -0.054043822
0.012990128 0.010501456 0.08756384 -0.053251915 0.041749824 0.058763232 -0.077675454 -0.042369254
0.010310028 0.051588435 0.0835388 -0.054130845 0.03294361 0.028582325 -0.012949653 0.056715567
-0.027022101 -0.038792234 0.091035 -0.0015217214 -0.015469451 -0.012787503 0.00038013214 0.062134024
-0.0074696424 0.017583752 0.040272277 -0.072898366 -0.025116706 -0.07313761 0.022760626 -0.018903568
0.027088165 -0.0043761907 -0.006405301 0.004647912 0.008006524 -0.059377946 0.00041012152 0.042702667
0.004804592 0.043352123 -0.01922256 -0.04496471 0.011309559 0.040816538 0.04020031 0.042940583
0.022393113 0.00930404 -0.07183121 -0.0018523044 -0.022203524 -0.0034079528 -0.034597512 -0.021732274
-0.0035270448 0.013766843 -0.035818417 -0.058082867 0.05588606 0.012214715 -0.03340345 0.029790485
0.061171822 -0.05683699 0.033725783 -0.03812654 -0.053999066 -0.0530231 0.011031884 -0.009899779
0.017826729 0.017987497 0.015545762 0.074498095 0.032452688 0.028744714 -0.0277855 -0.015877636
0.052398685 -0.01614222 0.022228278 -0.024781382 -0.04194968 -0.053945635 -0.077387184 -0.054818995
-0.01095907 -0.024940724 0.023126392 0.00086842105 0.057620138 -0.023768293 -0.042456962 -0.03241912
-0.058630355 -0.03984937 0.01543197 -0.036570393 0.033708725 0.06225999 -0.057033908 -0.017643921
0.053646702 0.05617306 0.067500114 0.021829745 -0.063578494 -0.051652964 -0.01294784 0.06518983
-0.049579836 0.047726247 0.026839534 -0.02825153 -0.08403127 0.00973938 -0.02024179 -0.023457592
-0.026850011 0.046017595 -0.023108372 -0.008314786 0.018258886 0.05895728 0.068300396 0.023320433
-0.050124813 0.03263864 0.019857619 0.017860608 0.08045331 0.02066964 -0.039813455 -0.050084636
0.04095463 0.029991673 0.021636263 0.015359519 0.01661521 0.054203846 0.066579334 0.015835129
-0.06501564 -0.011735547 -0.043949027 0.009043367 -0.031517558 -0.04387806 -0.008215478 0.027339708
0.040919453 0.007124647 -0.04215652 0.051416762 0.05693007 -0.009038184 0.027234191 -0.020544304
0.0023993547 0.085740134 0.0847707 -0.074231155 0.019345429 0.03602958 0.04154649 -0.026898583
00000000: 9cd1 3c3d 3332 a9bc e78b 51bd 655f 4bbd
00000010: d971 1dbc 30a6 cf3c 0af7 833c add2 273d
00000020: 6901 b73b c52c f7bb 56de 63bd 7212 2cbd
00000030: 2c5e 3cbd e015 79bd 50f6 843d db18 7a3d
00000040: bd50 1c3d 1481 42bd 0862 ed3c efd5 4ebd
00000050: 8a03 423d 1d75 fdbc 33df 87bd 3bec a53b
00000060: 670f cabc 1d23 1b3d 73a8 913c 4e8b 8bbc
00000070: 637a 1dbd af0a 273d d604 9eba d14a 47bd
00000080: 6e99 9a3c e7d9 56bd 75fe 883d f303 873d
00000090: 2228 95bc 9bce 75bd 0d1a 173c 8cb7 e6bb
000000a0: 8de7 223d 65e6 56bc 4f56 0d3c 7219 f0bc
000000b0: 4ce8 babc 9cd1 6d3d ee25 b23c 9f12 093d
000000c0: 68ba 0bbd 9f40 e4bb 9167 01bd 3d4a 42bd
000000d0: 0f8f 1dbd 8ab7 8a3c f195 813d 632f 873d
000000e0: 02f4 863d fa35 603d 9c6e 5f3d f3cb d1bc
000000f0: b041 703c 1aa6 0dbd 8f4a 383b 2cfb 1cbc
00000100: ca5f 143d e4d9 74bc 8f74 b7bc 3653 f3bc
00000110: f1e2 b63d 5a1e dbbc 31f0 853d 04de 603d
00000120: 47ef 0ebc 580c cdbc 3aec 22bc 80fe 193d
00000130: a910 1bbd e00d 95bd 31b3 28ba 4108 1c3c
00000140: 080f 9cbc c98a b23d 606d 5d3d d978 263d
00000150: 2494 823d ef62 9f3c 1082 423d 0e5d 5dbd
00000160: 8cd4 543c 4d0e 2c3c ac54 b33d ae1e 5abd
00000170: dd01 2b3d b7b1 703d 4f14 9fbd 628b 2dbd
00000180: 64eb 283c 654e 533d 6416 ab3d 4eb8 5dbd
00000190: e1ef 063d 7b25 ea3c c82a 54bc 954e 683d
000001a0: 745d ddbc 9be4 1ebd 8f70 ba3d 7f74 c7ba
000001b0: 9573 7dbc ad82 51bc 794c c739 3f80 7e3d
000001c0: e7c3 f4bb cd0b 903c 8bf4 243d bd4b 95bd
000001d0: 8dc1 cdbc 2cc9 95bd 7e74 ba3c a8db 9abc
000001e0: 00e8 dd3c 2666 8fbb 8fe3 d1bb 834d 983b
000001f0: cc2d 033c 4a36 73bd 9405 d739 fee8 2e3d
00000200: d76f 9d3b ff91 313d a178 9dbc ea2c 38bd
00000210: bb4b 393c 3e2f 273d 15a9 243d 77e2 2f3d
00000220: c371 b73c f96f 183c 3e1c 93bd 06c9 f2ba
00000230: 2ae4 b5bc f657 5fbb 1fb6 0dbd e207 b2bc
00000240: fe25 67bb 538e 613c 55b6 12bd 4de8 6dbd
00000250: c8e8 643d 3a20 483c 0ed2 08bd 2d0b f43c
00000260: 4e8f 7a3d e7cd 68bd 0c24 0a3d 932a 1cbd
00000270: 202e 5dbd c02e 59bd 13bf 343c af32 22bc
00000280: 5c09 923c 845a 933c a7b3 7e3c 7592 983d
00000290: 1ced 043d 097a eb3c 6b9e e3bc d111 82bc
000002a0: 01a0 563d b03c 84bc 1418 b63c 5302 cbbc
000002b0: 6dd3 2bbd 19f6 5cbd 2c7d 9ebd e289 60bd
000002c0: ac8d 33bc 7d50 ccbc 8f73 bd3c c0a6 633a
000002d0: 1803 6c3d b9b5 c2bc 5ae7 2dbd e9c9 04bd
000002e0: 6226 70bd 1839 23bd 60d6 7c3c d6ca 15bd
000002f0: 2912 0a3d 5504 7f3d 639c 69bd fc89 90bc
00000300: a5bc 5b3d b915 663d 803d 8a3d 4bd4 b23c
00000310: 7135 82bd 0f92 53bd 2d23 54bc 3f82 853d
00000320: 3a14 4bbd 997c 433d 95de db3c c16f e7bc
00000330: 9618 acbd ec91 1f3c 1cd2 a5bc 232a c0bc
00000340: 8ef4 dbbc f27c 3c3d c54d bdbc bd3a 08bc
00000350: a993 953c 307d 713d 14e1 8b3d 7e0a bf3c
00000360: ad4f 4dbd 18b0 053d 72ac a23c 6950 923c
00000370: b4c4 a43d 6053 a93c 6f13 23bd 8c25 4dbd
00000380: 0bc0 273d 19b1 f53c 883e b13c 7ea6 7b3c
00000390: 9f1c 883c da04 5e3d bf5a 883d acb8 813c
000003a0: eb26 85bd 7446 40bc e503 34bd a12a 143c
000003b0: 8e18 01bd 7bb9 33bd 369a 06bc 86f7 df3c
000003c0: 289b 273d df75 e93b 51ac 2cbd 629a 523d
000003d0: 812f 693d e414 14bc 3d1a df3c 874c a8bc
000003e0: 7e3e 1d3b 8698 af3d 439c ad3d 8106 98bd
000003f0: 4e7a 9e3c c193 133d a72c 2a3d 6b5a dcbc

0.model_cnn.layer4.0.bias f4 [128]
-0.0053470074 -0.00028671164 -0.0004739191 -0.0016202029 -0.0016697302 0.00026665285 0.0008364602 -0.001003858
-0.0005713261 -0.00090550917 0.012244737 -0.0011270856 -0.00019713254 -0.00075540674 0.009403196 -0.00083518954
0.00044200826 0.00063603744 0.0001777598 -0.0046366737 0.00021534559 0.00039516832 0.00066940795 0.01207286
0.00073540275 0.00039801578 0.0015619228 0.0026290468 -0.0005076497 0.00065347383 0.0065943277 -0.00046582601
8.9918125e-05 0.00066965097 -0.004925264 0.00027315324 0.0002907115 0.0001327258 9.2013244e-05 0.0010257021
0.014854302 -0.009367788 0.0007643879 0.0010745674 0.007106106 0.00034732244 -0.00016127933 0.00060929044
0.014534119 -0.0034290014 -0.00025788828 0.010219559 0.00019220554 -0.0001966866 -0.00045979267 0.0007412341
-0.00090629037 0.0122714015 -0.00071267266 0.0001683028 -0.00018441907 -0.0007563502 -0.00019535708 -0.00014728674
-0.00011190974 0.0007698417 0.00031343798 -0.0010268119 -0.0005643857 -0.0007559764 -0.0060128365 -0.00021579501
-0.0007476256 0.004557135 0.008868887 -0.00023208618 0.0021982468 0.00046521932 -0.0004754267 0.008570809
0.013186871 2.6264555e-05 0.0011923328 -0.0044162055 -0.00054461166 -0.00047729316 0.0002840864 0.009446731
0.0010412723 -0.0011522168 0.0044793 0.0046048337 0.00026677974 -0.005715939 -0.0020684542 0.013670323
-0.00013926267 -0.00080786285 -0.00246657 0.00029862172 0.007860966 0.00018949834 0.0013156255 -0.00033106303
0.00042790917 -0.0006999169 0.0046015396 0.0046963166 -0.00124577 0.00040813885 -0.0053135282 -0.011639037
0.00015108185 -0.007179398 -6.313724e-05 0.0011517832 0.0009168437 -0.0037970897 -7.395514e-05 0.0005524666
-0.00059897825 -0.010536164 -0.0006397479 -0.0010964876 -0.0009846413 -0.003532088 -0.009586948 -0.00063680747
00000000: f335 afbb c951 96b9 5878 f8b9 fd5c d4ba
00000010: d9da daba 8acd 8b39 e545 5b3a e393 83ba
00000020: 0cc5 15ba b15f 6dba 269e 483c b8ba 93ba
00000030: 5db5 4eb9 7d06 46ba dd0f 1a3c 9ff0 5aba
00000040: 58bd e739 c0bb 263a 0865 3a39 3def 97bb
00000050: 64ce 6139 982e cf39 357b 2f3a 3fcd 453c
00000060: 0bc8 403a c6ac d039 6fb9 cc3a 164c 2c3b
00000070: cb13 05ba e34d 2b3a 3b15 d83b 1c3a f4b9
00000080: 6d92 bc38 848b 2f3a 1c64 a1bb 0236 8f39
00000090: a36a 9839 502c 0b39 3cf7 c038 da70 863a
000000a0: 755f 733c 5a7b 19bc 3461 483a 80d8 8c3a
000000b0: 56da e83b d418 b639 171d 29b9 cab8 1f3a
000000c0: 8320 6e3c 19b9 60bb 2e35 87b9 f06f 273c
000000d0: c88a 4939 a83d 4eb9 5410 f1b9 614f 423a
000000e0: 1e94 6dba fd0d 493c a7d2 3aba 707a 3039
000000f0: 9e60 41b9 cd45 46ba c4d8 4cb9 fc70 1ab9
00000100: 16b1 eab8 34cf 493a ef54 a439 1796 86ba
00000110: 48f3 13ba b82c 46ba 5407 c5bb 0847 62b9
00000120: 4efc 43ba 0554 953b cf4e 113c 295c 73b9
00000130: 7610 103b aee8 f339 b142 f9b9 946c 0c3c
00000140: bf0d 583c b452 dc37 0d48 9c3a d1b5 90bb
00000150: 45c4 0eba 343d fab9 6ef1 9439 76c6 1a3c
00000160: 4d7b 883a fb05 97ba 18c7 923b 25e4 963b
00000170: 92de 8b39 c64c bbbb e78e 07bb 7ef9 5f3c
00000180: 0a07 12b9 c2c6 53ba 2da6 21bb 5490 9c39
00000190: 48cb 003c 13b4 4639 1171 ac3a 8792 adb9
000001a0: ff58 e039 a17a 37ba 83c8 963b 8fe3 993b
000001b0: 1b49 a3ba 78fb d539 1b1d aebb a9b1 3ebc
000001c0: ba6b 1e39 2841 ebbb 8c68 84b8 6ef7 963a
000001d0: 5758 703a 98d8 78bb 5d18 9bb8 68d3 103a
000001e0: c004 1dba e09f 2cbc c1b4 27ba 05b8 8fba
000001f0: 140f 81ba 9a7a 67bb 9312 1dbc 6def 26ba

0.model_cnn.layer4.1.weight f4 [128]
0.9992608 1.034239 0.98245245 1.004361 1.0213822 1.0090591 1.0051028 0.99549466
1.0039109 1.0294986 1.0159947 0.99413586 1.001676 0.99503326 1.0151848 0.9989895
1.0211344 0.98819107 0.99925125 0.9879424 1.0035913 0.9949161 1.0008827 1.0047908
1.00776 1.0110316 1.0340858 0.99754757 0.9975416 1.0190221 1.010881 0.9966243
0.9957122 1.0007625 1.0099688 0.99409324 0.9937462 1.0313416 0.99663115 1.00972
1.0004072 1.0118577 0.9976161 1.0102664 1.011167 0.9989522 0.9943965 1.0046954
1.0179268 1.0189571 0.9949476 1.0032564 1.0109478 1.0067571 1.0176907 1.0003197
0.9985517 1.0053017 1.0059175 1.0275877 1.0004337 1.0037057 1.0194365 1.031083
1.0098447 1.0089471 1.0137755 1.0049217 0.9948848 0.9992669 1.0092378 0.9944056
0.99863863 1.0283611 1.0046384 1.001623 1.0218812 1.0139579 0.99164695 1.0133176
1.0187925 0.9906044 1.0112754 1.0088993 0.9966908 0.9904459 0.9768175 1.0002054
1.0005713 1.0202264 0.9914133 0.9917298 1.0202682 1.0070233 0.9922822 0.99723095
1.0046622 1.008323 1.0004044 0.99217653 0.9932976 0.9977603 0.9846444 1.0108001
0.99995965 1.0139158 0.9962796 1.002887 1.0353414 1.0128297 1.0087162 1.0214854
0.99581575 1.0384289 1.019581 1.0244689 0.99951255 0.9912082 1.0148282 1.0013288
1.0211954 1.0045264 1.0261649 1.0113248 0.9942107 0.9936629 1.0094327 0.9901454
00000000: 8ecf 7f3f f261 843f 0182 7b3f e78e 803f
00000010: a7bc 823f d928 813f 35a7 803f bdd8 7e3f
00000020: 2780 803f 9cc6 833f 1d0c 823f b07f 7e3f
00000030: eb36 803f 80ba 7e3f 93f1 813f c7bd 7f3f
00000040: 88b4 823f 17fa 7c3f eece 7f3f cbe9 7c3f
00000050: ae75 803f d2b2 7e3f ed1c 803f fc9c 803f
00000060: 48fe 803f 7c69 813f ec5c 843f 475f 7f3f
00000070: e35e 7f3f 516f 823f 8c64 813f c522 7f3f
00000080: ffe6 7e3f fc18 803f a846 813f e57c 7e3f
00000090: 2766 7e3f 0003 843f 3823 7f3f 813e 813f
000000a0: 580d 803f 8e84 813f c563 7f3f 6950 813f
000000b0: ec6d 813f 55bb 7f3f c590 7e3f dc99 803f
000000c0: 6d4b 823f 306d 823f e3b4 7e3f b56a 803f
000000d0: bd66 813f 6bdd 803f b043 823f 7a0a 803f
000000e0: 16a1 7f3f baad 803f e8c1 803f fe87 833f
000000f0: 360e 803f 6e79 803f e57c 823f 87fa 833f
00000100: 9742 813f 2e25 813f 65c3 813f 46a1 803f
00000110: c5b0 7e3f f5cf 7f3f b42e 813f 5e91 7e3f
00000120: c8a6 7f3f 56a1 833f fe97 803f 2f35 803f
00000130: 01cd 823f 5fc9 813f 93dc 7d3f 64b4 813f
00000140: cb67 823f 4098 7d3f 7971 813f 9d23 813f
00000150: 2127 7f3f dd8d 7d3f b610 7a3f bb06 803f
00000160: b812 803f c796 823f 43cd 7d3f 01e2 7d3f
00000170: 2698 823f 24e6 803f 3506 7e3f 874a 7f3f
00000180: c598 803f ba10 813f 400d 803f 48ff 7d3f
00000190: c048 7e3f 386d 7f3f a811 7c3f e661 813f
000001a0: 5bfd 7f3f fec7 813f 2e0c 7f3f 9a5e 803f
000001b0: 1186 843f 67a4 813f 9d1d 813f 09c0 823f
000001c0: c8ed 7e3f 3deb 843f a181 823f cc21 833f
000001d0: 0ee0 7f3f d2bf 7d3f e4e5 813f 8b2b 803f
000001e0: 88b6 823f 5294 803f 5f59 833f 1773 813f
000001f0: 9884 7e3f b160 7e3f 1735 813f 2b7a 7d3f

0.model_cnn.layer4.1.bias f4 [128]
-0.016201288 0.0030228016 -0.020256447 -0.008086025 -0.0026041311 -0.009380152 -0.0011006198 -0.024409685
-0.0064028758 -0.0060313055 -0.013999511 -0.010969108 -0.013863127 -0.013685593 0.012730316 -0.0044576176
-0.009845149 -0.0103806835 0.0014254093 -0.01454938 -0.020654008 -0.017156914 -0.021889439 -0.0137180695
-0.0057877237 -0.007081252 -0.029996943 -0.02345945 -0.0076410905 -0.0011662234 -0.021273708 -0.016317917
-0.0066916053 -0.008454981 -0.0094548445 -0.0179908 -0.009309735 -0.0063768234 -0.019840876 -0.021744566
-0.012780593 -0.005796316 0.0035626527 -0.013342807 -0.0031000378 -0.010877178 -0.02277585 0.0011435202
-0.00607489 -0.02112018 -0.010687514 -0.01685458 -0.022014009 -0.015639992 0.0045670597 -0.023801025
0.0020166952 -0.010488007 -0.018572925 0.000113122296 -0.019180628 -0.0037275215 -0.014038744 0.0089552775
-0.025704514 -0.026783274 -0.03171883 0.00020835313 -0.01386868 -0.014429231 -0.012478245 -0.01095147
-0.008429509 0.00050783966 -0.018870486 -0.0019625796 -0.0089028785 -0.021173215 -0.020532757 -0.034817
0.0063993554 -0.0150553305 -0.0266812 -0.01063262 -0.00900235 -0.020154625 -0.027305793 -0.011479164
-0.0012381187 -0.0014604484 -0.008500079 -0.020381043 -0.03413516 -0.009957846 -0.007160794 -0.012071742
-0.030731633 -0.026585039 -0.00078609004 -0.022130206 -0.009506932 -0.011410244 -0.012672545 -0.010914939
-0.010153232 0.0012080017 -0.01881607 -0.033386573 -0.017213805 -0.022127023 -0.00089747674 -0.02971734
-0.009441482 -0.004240117 -0.01067855 0.0060177324 -0.016372127 -0.012557653 0.0026128208 -0.014154917
-0.0020763855 -0.0016839379 0.009402927 -0.016425008 -0.023267014 -0.0026827669 -0.0029702154 -0.007699843
00000000: 90b8 84bc 321a 463b d9f0 a5bc 3f7b 04bc
00000010: 12aa 2abb 36af 19bc ac42 90ba d2f6 c7bc
00000020: 37cf d1bb 42a2 c5bb 345e 65bc c6b7 33bc
00000030: 2b22 63bc 8a39 60bc d192 503c 3511 92bb
00000040: 8c4d 21bc be13 2abc cdd4 ba3a 8660 6ebc
00000050: 9832 a9bc a88c 8cbc 7b51 b3bc c1c1 60bc
00000060: f2a6 bdbb d909 e8bb 26bc f5bc 082e c0bc
00000070: 1d62 fabb f7db 98ba 3346 aebc 27ad 85bc
00000080: 4145 dbbb c386 0abc 7ee8 1abc 7161 93bc
00000090: dc87 18bc acf4 d0bb 5589 a2bc a921 b2bc
000000a0: b165 51bc 06ef bdbb 657b 693b ca9b 5abc
000000b0: 012a 4bbb 3136 32bc 6b94 babc 2ce2 953a
000000c0: df0f c7bb 3a04 adbc af1a 2fbc 9e12 8abc
000000d0: b956 b4bc 711f 80bc 46a7 953b 5efa c2bc
000000e0: 882a 043b e4d5 2bbc 3f26 98bc 123c ed38
000000f0: b120 9dbc 6f49 74bb c302 66bc 28b9 123c
00000100: 4692 d2bc 9968 dbbc 9beb 01bd 5e79 5a39
00000110: 7639 63bc 9568 6cbc 8e71 4cbc cb6d 33bc
00000120: ec1b 0abc 8b20 053a 4796 9abc 9f9e 00bb
00000130: 61dd 11bc 7373 adbc 5034 a8bc 459c 0ebd
00000140: afb1 d13b a2aa 76bc 8892 dabc 7134 2ebc
00000150: 987e 13bc 501b a5bc 66b0 dfbc 1a13 3cbc
00000160: 5f48 a2ba 846c bfba ea43 0bbc 25f6 a6bc
00000170: 4fd1 0bbd 3c26 23bc 18a5 eabb 8ec8 45bc
00000180: e8c0 fbbc dec8 d9bc 9c11 4eba 684a b5bc
00000190: f7c2 1bbc 08f2 3abc 82a0 4fbc 93d4 32bc
000001a0: be59 26bc d055 9e3a 2924 9abc 5cc0 08bd
000001b0: f703 8dbc bb43 b5bc a544 6bba c771 f3bc
000001c0: 72b0 1abc aef0 8abb 16f5 2ebc 6630 c53b
000001d0: d71e 86bc 9dbe 4dbc dc3b 2b3b 06ea 67bc
000001e0: f813 08bb 94b7 dcba bc0e 1a3c bd8d 86bc
000001f0: 779a bebc 5cd1 2fbb f2a7 42bb f74e fcbb
